NF_RSS/trained_model/v41NVP_4Aff_4hiddlayer_64hid_size8x8_100x100samples_200001_drop0_decay1e-5_8train2val_OptLR.pth (torch, 339950 bytes, 76 tensors)

weight f4 [4, 2]
00000000: 98dc 24bf 5ea6 003e 382c 59bd 6e0f e8be
00000010: 8088 8e3e 41f7 853f b8a6 293f 5c6a bebe
-0.643991 0.12563464 -0.053020686 -0.45324272 0.27838516 1.0466081 0.6627002 -0.3719052

bias f4 [4]
00000000: 9296 d03f f65b 0d3f 7946 c83e d310 a6bd
1.629595 0.55218446 0.39116266 -0.08108678

mask f4 [4]
00000000: 0000 803f 0000 0000 0000 803f 0000 0000
1.0 0.0 1.0 0.0

scale f4 [4]
00000000: 0000 0000 f652 ed3e 0000 0000 cb24 cf3f
0.0 0.46352357 0.0 1.6183103

weight f4 [64, 4]
00000000: 919a bdbd b3fa 0580 70b6 d63d e15f 0580
00000010: a85c 6cbe b95a 0500 39dd ebbe c459 0500
00000020: 9034 e0bd 086b 0500 5b65 b2be 2a5f 0500
00000030: 40fd dcbe 3b65 0580 eaf5 9b3d a77f 0500
00000040: 0c48 76be b657 0580 0412 893f 3a66 0500
00000050: e22f 663e 285d 0580 854c 883b 9377 0580
00000060: e990 bdbe 2b64 0500 7ebd 8a3d 51ca 0580
00000070: 36e1 1f3e 8063 0580 fe1e c93e 8b6e 0580
00000080: ec89 8abd 015b 0500 efe1 cb3d 056c 0580
00000090: 6531 59be d766 0580 31ce e2be 8858 0500
000000a0: 54a5 323e a765 0580 af41 66bf b55e 0500
000000b0: 74c7 bebc 9e57 0580 5721 bc3d 7167 0580
000000c0: 779b 503e 5469 0500 18a2 dc3e 8660 0500
000000d0: 6432 dbbd aa59 0580 75b0 d83d 8b65 0580
000000e0: 302c 10be 3769 0500 fba7 4cbd 848f 0500
000000f0: 65e1 94be fe5a 0500 53b2 1a3d dc5e 0500
00000100: 35e0 733d 5a65 0500 3814 c7bd 475f 0580
00000110: 2251 a9be 2c5e 0580 5e4d 4b3d fa63 0580
00000120: 7634 dbbd 0f5f 0500 c0bb d83d 1b63 0580
00000130: 35bc 10be 2422 0600 0ebc f83d c35a 0500
00000140: ba86 6fbe a3cb 0580 7633 ab3b 1c65 0580
00000150: 3f0e a73e a368 0580 8ee3 3cbd 2667 0580
00000160: b0cd 793d eb5f 0500 bc95 9b3d fdee 0500
00000170: 8f04 89bd 9564 0500 2717 c93d 0465 0580
00000180: 8a60 973d 2c68 0580 7532 cbbd 1a5a 0580
00000190: 63f5 80bd bd5d 0580 491b a9bd f991 0580
000001a0: 3518 38bd a15f 0580 df14 c23d 5a62 0500
000001b0: 67ef dbbe 1369 0500 3e49 ab3d 7c5b 0500
000001c0: 225e bbbe 7967 0580 ce23 953d c557 0500
000001d0: 92fd 89bb 5564 0580 4de3 bfbd 3d57 0580
000001e0: e87f 613d 281a 0680 dc47 c8bd a763 0500
000001f0: fc2f 91be 0d67 0500 bde0 e03c ab58 0500
00000200: 8dfd 543e 3f5f 0500 9986 d13e 3e5f 0580
00000210: be40 e63d 105a 0580 181d e1bd bf58 0500
00000220: 8be6 dabd e763 0580 1471 de3d b762 0500
00000230: eba8 a63d 3266 0580 33ea a53e ad5c 0500
00000240: 0d6c 11bd 095b 0500 d865 de3d 70b2 0680
00000250: 9f8b 64be 4c65 0580 f336 54bc 9f5f 0500
00000260: b008 db3c 587c 0680 1fff bebd 785f 0580
00000270: 14c6 83be 925b 0500 b082 953f 9ba2 0500
00000280: 5917 12bb 2168 0580 acf2 b0bd 0560 0500
00000290: 6304 5f3d 6f65 0500 6c49 9e3d dfa3 0580
000002a0: a690 b5be 04d0 0680 53e2 c03d ea65 0580
000002b0: c3e4 69be c06d 0580 f191 eabe aa65 0580
000002c0: 3ce3 b33e d363 0580 2136 e3bd 9a6a 0580
000002d0: f5a7 00be 6661 0500 bda8 4fbd c564 0500
000002e0: 2858 bbbe 345a 0500 8a20 843d 4475 0500
000002f0: 8094 a83e c05d 0580 2df7 71bd a75a 0580
00000300: 6c2d 003e 8a61 0500 4c3e 5ebf edf8 0500
00000310: 8d1a fd3d 4d5d 0580 417e eabd 1d63 0580
00000320: 4dd8 8f3d 015d 0500 71ac c5bd e475 0600
00000330: ac4b bebb 2367 0500 c995 b03d 0072 0580
00000340: de96 e9be f362 0580 f465 b23d 6a63 0580
00000350: 72ca 5fbc 6258 0580 b022 bb3d c560 0580
00000360: 874e f53c f25a 0580 ff93 d2bd b965 0500
00000370: 5111 9abe 365b 0500 5f15 6e3d 7a65 0580
00000380: e906 983e 555e 0500 2d00 4fbd 2e6a 0500
00000390: d0c9 493d bb59 0500 b6b4 a93d dc5f 0500
000003a0: 9ff8 3c3e 7e91 0500 e775 d83e fb57 0500
000003b0: 40bd b1be 74fa 0580 d40e d53d e362 0580
000003c0: 6c0c 4dbe 4560 0580 0615 0f3e 4f61 0580
000003d0: d33f 843e 7065 0500 353b cabd 8a64 0500
000003e0: 80b1 433e b161 0580 2a7a 7abf c669 0500
000003f0: 41fc 903e dc57 0580 e32d 23bd 4f47 0600
-0.09257997 -5.49111e-40 0.10484016 -4.93572e-40 -0.2308222 4.91723e-40 -0.46067217 4.9138e-40
-0.109475255 4.97573e-40 -0.34842953 4.93316e-40 -0.43161964 -4.95492e-40 0.07615264 5.0497e-40
-0.24050921 -4.90642e-40 1.0708623 4.9585e-40 0.22479203 -4.92596e-40 0.0041595125 -5.02073e-40
-0.3702462 4.95111e-40 0.06774424 -5.31755e-40 0.15613255 -4.94871e-40 0.39281458 -4.98833e-40
-0.06764588 4.91824e-40 0.09955203 -4.97928e-40 -0.21210249 -4.9607e-40 -0.44297937 4.90937e-40
0.1744588 -4.95643e-40 -0.89943975 4.93152e-40 -0.023288466 -4.90609e-40 0.091860466 -4.96285e-40
0.20371805 4.96962e-40 0.43092418 4.93804e-40 -0.107029706 -4.91343e-40 0.105805315 -4.95604e-40
-0.14079356 4.96921e-40 -0.049964886 5.10661e-40 -0.29078212 4.9182e-40 0.03776772 4.93207e-40
0.059539992 4.95536e-40 -0.09720653 -4.93357e-40 -0.33069712 -4.9296e-40 0.04963433 -4.95042e-40
-0.107033655 4.93278e-40 0.105826855 -4.9473e-40 -0.14134295 5.6326e-40 0.121452436 4.91737e-40
-0.23391238 -5.32229e-40 0.0052246405 -4.95449e-40 0.32628056 -4.96714e-40 -0.04611545 -4.9618e-40
0.060987175 4.93586e-40 0.07596919 5.4491e-40 -0.066903226 4.9526e-40 0.09818869 -4.95415e-40
0.0739146 -4.96547e-40 -0.09921733 -4.915e-40 -0.06296804 -4.92804e-40 -0.08257157 -5.11543e-40
-0.04494496 -4.93483e-40 0.09476637 4.9446e-40 -0.42956087 4.96871e-40 0.08363579 4.91996e-40
-0.36595255 -4.96296e-40 0.0728222 4.90663e-40 -0.004211136 -4.9517e-40 -0.09369526 -4.90473e-40
0.05505362 -5.60396e-40 -0.09779331 4.94926e-40 -0.28356922 4.96145e-40 0.027450914 4.90986e-40
0.20799847 4.93345e-40 0.40923002 -4.93344e-40 0.11242817 -4.91486e-40 -0.10991877 4.91014e-40
-0.10688504 -4.95016e-40 0.10861412 4.9459e-40 0.08137687 -4.95838e-40 0.32405242 4.92423e-40
-0.035503436 4.91835e-40 0.10859269 -6.15024e-40 -0.22318886 -4.95516e-40 -0.012952554 4.9348e-40
0.026737541 -5.95619e-40 -0.09326004 -4.93425e-40 -0.2573706 4.92027e-40 1.1680508 5.1751e-40
-0.0022291748 -4.96532e-40 -0.08640036 4.93623e-40 0.054447543 4.95565e-40 0.07728848 -5.17963e-40
-0.3546192 -6.25635e-40 0.09418168 -4.95737e-40 -0.22841172 -4.98548e-40 -0.4581447 -4.95648e-40
0.35134304 -4.94988e-40 -0.11094309 -4.97419e-40 -0.1256407 4.94117e-40 -0.05069803 4.95327e-40
-0.36590695 4.91536e-40 0.06451519 5.01244e-40 0.32925797 -4.92809e-40 -0.059073616 -4.91697e-40
0.12517327 4.94168e-40 -0.8681381 5.48475e-40 0.1235858 -4.92647e-40 -0.11449862 -4.94733e-40
0.07023678 4.92541e-40 -0.09652031 5.93304e-40 -0.0058073606 4.96176e-40 0.08622319 -5.00073e-40
-0.45622915 -4.94674e-40 0.08710852 -4.9484e-40 -0.013659107 -4.90883e-40 0.091374755 -4.93892e-40
0.029944671 -4.91803e-40 -0.10282134 4.95669e-40 -0.30091336 4.91898e-40 0.05812585 -4.9558e-40
0.29692772 4.93017e-40 -0.050537277 4.97268e-40 0.04926473 4.91367e-40 0.08286421 4.93565e-40
0.18454216 5.1137e-40 0.42277452 4.90739e-40 -0.347147 -5.49023e-40 0.10403219 -4.94651e-40
-0.2002427 -4.93712e-40 0.13972864 -4.94085e-40 0.25829944 4.95566e-40 -0.09874574 4.95244e-40
0.1911068 -4.94223e-40 -0.9784266 4.97122e-40 0.28317454 -4.90695e-40 -0.039838683 5.76594e-40

bias f4 [64]
00000000: 6939 cebd fcaf c23e cb72 ea3d abd5 003e
00000010: 74b5 50bd dc7f e1bd a8e8 e13d d926 5bbe
00000020: 027b f5bd b28f ad3e 2392 9b3d f906 34be
00000030: fe6c 9bbe db03 6cbd ea5d 5c3e f501 013e
00000040: 07e1 ee3d 396d 043e 277c 6bbd 651a 0dbe
00000050: 77a7 923d fca8 0abe f198 80be 2563 ccbd
00000060: 1e35 b73d f1b2 b83e ba3f 0abe c1b4 983d
00000070: f7e6 a93d 8858 9d3e c93a 143e d5d5 113e
00000080: 6819 81be 0197 c23d c606 c7bd 1458 7cbd
00000090: b109 bdbe 3d91 493e 6af3 3d3e 2f4b 8bbd
000000a0: 8019 3f3e 1a60 7bbe 7d68 af3c 06ec c13e
000000b0: e736 9fbc 7533 103e bc6f ef3d 6adc 94bd
000000c0: 0bf3 f53d 5f91 eb3d 271c 663d 1744 18be
000000d0: f1fd c83d 3178 53be df0a a03e f75b c9ba
000000e0: baca a4bd a93b a0be f21f 90be 18c1 c93c
000000f0: bf62 0ebe be8b a1bd b46d af3d 9c95 ebbc
-0.10069544 0.3802489 0.11447676 0.12581508 -0.050954297 -0.11010715 0.11030704 -0.21401538
-0.119863525 0.33898693 0.07596233 -0.17580785 -0.30356592 -0.057620864 0.215202 0.12598403
0.11664014 0.1293229 -0.057491448 -0.137796 0.07160848 -0.13541025 -0.25116685 -0.09979848
0.08945678 0.3607402 -0.13500872 0.07456351 0.08296006 0.30731606 0.1447555 0.14241727
-0.25214696 0.09501458 -0.09718089 -0.061607435 -0.36921456 0.1968431 0.18549886 -0.068014495
0.18662071 -0.24548379 0.021412129 0.37875384 -0.01943536 0.1408213 0.116912335 -0.07268603
0.120092474 0.11502337 0.056179192 -0.14869724 0.098140605 -0.20651318 0.31258294 -0.0015362491
-0.080464795 -0.31295517 -0.28149372 0.024628207 -0.13904856 -0.07887982 0.08565846 -0.028757863

weight f4 [64, 64]
00000000: 2c2e 1c3d 7382 ecbd 5918 95bd 2556 1dbc
00000010: c92d be3d dd06 c73c b761 23bc dad2 b63d
00000020: dbbe 253d ce8e dfbd d1b2 c0bd 9cef 3e3d
00000030: 77b1 d13d 2088 023d bf55 7dbd 086e 8fbc
00000040: e975 23bd d84c 82bc 9f7d 023d 2ffe 353d
00000050: 825a 85bc 8691 8e3c 9775 633d 9d66 1b3d
00000060: cc62 15bd 6590 7fbd 07d2 2c3d b721 86ba
00000070: e774 b2bb 72d9 74bd eba4 31bd c056 b3bc
00000080: 8986 b73d 9dd3 19bd c14c 1b3d a6fe 813d
00000090: b55b 8f3d 302f 25bd 3c57 43bd 6838 c63d
000000a0: 3a0f 44bd 910f 603d bf15 ab3b edc3 edbd
000000b0: 0a8a f2bb 35fc 27bd 203d 3cbc 3f0c ce3b
000000c0: 2269 cbbd b67d 26bd 2cb1 03bd 2ffb 343d
000000d0: 9424 56bb 8ac5 4b3d bc59 80bd b08f 7f3b
000000e0: d646 123c 50d2 703d 2ace cd3d 87aa bc3b
000000f0: 3ccb 3a3d 2599 343b 77f6 c7bd e42c 533b
00000100: d7af d93c b15b 8abd 7b53 7dbd 9e1b 2d3c
00000110: b78d e83d cb28 83ba 0dd4 283c db15 863d
00000120: 1a4e cd3c 7147 8abd 9fb4 dbbd aef7 b03c
00000130: 60d5 863d 8e61 db3c 8af9 61bc 86d5 063c
00000140: 9a3d c8bc 3ca4 153c c259 db3c 4809 fa3c
00000150: c682 1e3b ccee 10bc f491 703c e2c1 cc3c
00000160: a04f cfbc abb6 28bc ad8c c03c 1b94 313c
00000170: 0653 2c3c af9b 8fbc 3ec9 c5bc 1128 e53b
00000180: 7ff7 783d aea7 e3bc dea4 e13c 5577 723d
00000190: 5f8c b93c 7e26 37b9 4651 b2bc 5513 eb3d
000001a0: 9e50 a1bc 4a35 783c f296 3f3c 603a 8bbd
000001b0: 9fb5 5abc 1aca 3cbc 3d8d 253c e7f8 1abc
000001c0: 9789 d0bd 2f58 ecbc 5ebb cdbc ad68 ac3c
000001d0: d954 353c 27c5 a73c 7e5f b2bc 94b6 0e3c
000001e0: f50d 14bc 4465 523c c087 893d 5577 513c
000001f0: 1ac4 0a3d 111c 7ebc 797c ddbd 178d e6bb
00000200: 9572 353d eb95 22be 28e2 c9bd 1872 1b3d
00000210: 0129 883e 7797 2d3c 568b e63c 8699 fb3d
00000220: 5720 383d 760b 19be a99e 80be f5f7 443d
00000230: aa22 103e 4231 1f3d c429 c5bd 4a28 c73b
00000240: 48c3 34bd 84d8 783c d5d6 1e3d 61bb 553d
00000250: d5b6 80bb f6d3 52bc 2553 763d e193 2f3d
00000260: da80 2abd 2f1c 37bd 3c9c 3b3d ca62 213d
00000270: 24ba f13c 8c4f 38bd 14d8 3dbd be8f 1039
00000280: 46e7 013e 0cb3 39bd df88 393d e36b ac3d
00000290: 44f1 2a3d 2c65 02bd ebd2 44bd 425d 993e
000002a0: 62b7 4ebd 0766 703d d0f8 003d ab73 22be
000002b0: d65b 18bd e94f 39bd 0e3b d43c 44d3 9fbc
000002c0: 4a8e 90be 92f7 46bd e8fc 13bd 6cb9 483d
000002d0: a557 363d 811c 473d 705e 37bd 36c1 543c
000002e0: 9a5d 5abc e49a 473d 2055 0d3e e6b4 0c3d
000002f0: a141 683d 5321 80bc 2017 8bbe e735 03bc
00000300: c437 a43c ebf3 19bc c5a2 f6bc 734c b2bc
00000310: cefe e43b a867 253c cdd8 8fbc c0eb b93c
00000320: b6ee 943c 5fc4 53bc 0a43 7bbc 13a2 4e3c
00000330: 2d21 783c 4cb6 b93c c941 e63a be8f 2ebc
00000340: 9ff0 93bc 030b 61bc 76ae b93c 76ef 9f3c
00000350: 4db5 64bc 8d68 563c 3e84 843a 8a9c 9f3c
00000360: c0c9 a5bc 7b91 cb3b 0380 863c 6f6a cabc
00000370: 9906 9abc 3cc1 24bb 37a8 83bc 00c6 19bc
00000380: 44b0 903c 0732 abbc 71bc a93c a666 0a3d
00000390: 4cf7 403b 2166 403a f349 46bc d053 54ba
000003a0: 0b91 2bbc 1672 083b 4b2b 9fbc 1464 20bc
000003b0: ed22 783c 5b6f 06bc f5e5 8abc 2e36 913c
000003c0: da64 45bc b8b1 a4bc 02f0 b5bc 0a64 613c
000003d0: b2e0 ccbc f31a 233c 84c1 a2bb 2671 afbc
000003e0: b268 6b3c fc57 09bb 8ce8 8e3c b9f8 81bc
000003f0: 5212 ae3c 0323 4cbb 7894 20bc 2cfc 9d3c
0.03812997 -0.11548319 -0.072800346 -0.009603058 0.092860766 0.024295265 -0.0099720275 0.089269355
0.040465217 -0.1091591 -0.094091065 0.046615228 0.10238927 0.0318681 -0.061849352 -0.017508522
-0.03990737 -0.015905783 0.031858083 0.04443186 -0.016278509 0.017403375 0.055532064 0.037939657
-0.036471173 -0.062393565 0.042192485 -0.0010233436 -0.0054460648 -0.059777685 -0.04337017 -0.021891952
0.089612074 -0.037555326 0.037914995 0.063473985 0.069999136 -0.040328205 -0.047690615 0.096787274
-0.047866084 0.054702345 0.005221098 -0.116096355 -0.0074017094 -0.041012008 -0.011489183 0.006288081
-0.09932162 -0.04064723 -0.032151386 0.04418486 -0.003267561 0.049748935 -0.062671155 0.0038995557
0.008928021 0.05879432 0.10049088 0.005757633 0.045603976 0.0027557102 -0.09763806 0.0032222802
0.026573105 -0.0675577 -0.06184719 0.0105656665 0.11355155 -0.0010006664 0.010304463 0.06547137
0.025061656 -0.067519076 -0.1072781 0.021602478 0.06583667 0.026779916 -0.013792405 0.008229619
-0.024443436 0.009133395 0.026776198 0.030522004 0.0024186834 -0.008845996 0.014683235 0.024994794
-0.025306523 -0.010297458 0.02350458 0.010838534 0.010517841 -0.01753029 -0.024143811 0.0069933017
0.060782906 -0.027789917 0.027544435 0.059195835 0.022649942 -0.0001746658 -0.02176727 0.11478297
-0.019691762 0.015149424 0.011693703 -0.067982435 -0.013348966 -0.011522794 0.010104475 -0.009458757
-0.10182493 -0.028850643 -0.025113758 0.021046007 0.011067593 0.020479752 -0.02177405 0.008710522
-0.009036531 0.012841526 0.067153454 0.012784799 0.033878423 -0.015509621 -0.10814757 -0.007035862
0.044298727 -0.15877502 -0.09857589 0.037950605 0.26593783 0.010595194 0.028142612 0.12285142
0.044952717 -0.14945778 -0.25121048 0.048088033 0.14075723 0.038865335 -0.09627107 0.006077801
-0.044131547 0.01518834 0.0387791 0.05218065 -0.0039280453 -0.012867918 0.060137887 0.042865638
-0.04162679 -0.044704612 0.045803294 0.039400853 0.029507704 -0.044997737 -0.046348646 0.00013786458
0.1268588 -0.045336768 0.045296546 0.08419015 0.041733995 -0.031834766 -0.04805271 0.29953963
-0.050467856 0.05869105 0.031487286 -0.15864436 -0.037196957 -0.045242224 0.025907066 -0.019509919
-0.28233558 -0.048575945 -0.036129862 0.049004957 0.044517178 0.048611168 -0.044767797 0.012985518
-0.01332798 0.0487317 0.13802004 0.034352206 0.056703214 -0.01564089 -0.2716608 -0.008008457
0.020046122 -0.0093965335 -0.030106911 -0.02176497 0.006988383 0.010095514 -0.017559433 0.022695422
0.018180232 -0.0129252365 -0.015335808 0.012611884 0.0151446285 0.022669934 0.0017567213 -0.010654388
-0.018059073 -0.013735536 0.022666197 0.019523364 -0.013959241 0.01308645 0.0010110212 0.019483823
-0.020237803 0.006212411 0.016418463 -0.024708955 -0.018801974 -0.002513959 -0.016071422 -0.009385586
0.017662175 -0.020897878 0.020719739 0.0337893 0.0029444275 0.0007339437 -0.012102592 -0.0008099647
-0.010471593 0.0020819954 -0.019429823 -0.0097894855 0.015145046 -0.00820526 -0.016955355 0.01772603
-0.012047971 -0.020104274 -0.022209171 0.013756761 -0.025009487 0.009955156 -0.0049669165 -0.021416258
0.014368223 -0.0020956984 0.017444871 -0.01586567 0.02124897 -0.0031148798 -0.009801023 0.019285284

bias f4 [64]
00000000: 4a04 d2bd 8f1b b23a 6876 0a3d befd 693d
00000010: 96b5 873d fa22 27bd baa9 2abd b70b febd
00000020: 2273 b53d a106 86bd 965c 0b3d 9c14 8d3d
00000030: cd1a 0cbd e7b0 ee3d 0692 88bd b352 80bd
00000040: d9f3 05bd 748e e8bc dc28 a73d bb6f d83c
00000050: 96b0 fabd 96ff 57bd 6bbb 343d 66f4 59bd
00000060: 0dc2 323d 5b39 383d ffc2 c43d 8488 923d
00000070: 7bfd 21bd 65b0 03bd 3048 acbb 9c13 00bd
00000080: 7315 6e3d de62 b6bd b1a3 cdbc 0431 273d
00000090: 0aa2 45bd 573e 28bd 3fb6 81bd 5860 24bd
000000a0: b819 98bb 7063 32bd cfd3 7ebd 07be 8bbc
000000b0: fe30 38bd e204 44bd 107d 32bd ba7b b3bc
000000c0: 005f c93d 8e12 2e3d 1935 f5bc 7253 d53c
000000d0: 1f24 6d3d 5dab 933c 45f7 f43c 06e2 1f3d
000000e0: cd00 013d 8057 bdbc 93dc fdbd 1cb7 893d
000000f0: af64 89bb b490 5b3d ce9c a63c c9f4 ce3b
-0.10254724 0.0013588535 0.033804327 0.057126753 0.06626432 -0.04080484 -0.04166577 -0.12404578
0.088598505 -0.06544233 0.034023844 0.068886966 -0.034205247 0.11654835 -0.06668477 -0.062657736
-0.032703254 -0.02838824 0.0816209 0.026420465 -0.12240712 -0.05273398 0.04412405 -0.053211592
0.043642092 0.044976573 0.09607505 0.071549445 -0.03954838 -0.032150645 -0.005257629 -0.0312687
0.058125924 -0.08905576 -0.025102468 0.04081823 -0.048250236 -0.041075077 -0.06333589 -0.040130943
-0.004641738 -0.043551862 -0.062213715 -0.017058386 -0.044968598 -0.04785622 -0.0435763 -0.021909583
0.09832573 0.042498164 -0.029932545 0.026040766 0.057895776 0.018026048 0.029903064 0.039033912
0.031494904 -0.023113012 -0.12395587 0.067243785 -0.0041929106 0.053604797 0.020338442 0.0063158018

weight f4 [64, 64]
00000000: 391a 123e 200d 1c3e 8fc9 ab3e 3df8 c73c
00000010: ef3e 8fbd b73b 5a3d ab9b 4cbe cc37 333e
00000020: 9aa9 c33d 3d13 613d 9689 c03e a0e1 68bd
00000030: ae74 4bbe 2d98 1cbe d9cb 773d 690c 9a3c
00000040: 0d7f 623b 919c 64be 97ba 0b3e 8c21 513e
00000050: c408 153e 91c5 4c3d 0e45 afbb 849f a63c
00000060: de71 c53e fc04 47bd de2c 303b e731 c9ba
00000070: 35f4 c9bd e111 8a3c 69f4 2cbe e381 60bd
00000080: 50a8 7bbd e1b2 c5bd 710f 3fbe ac63 503e
00000090: 2084 113c 29c9 4bbe 00bf 823d 645f dabe
000000a0: 26a7 053d 311c 2abc 24d0 4ebe a661 49be
000000b0: 90e8 44bc c560 e2bd 7d59 9f3b 455f 44be
000000c0: 036b 58bc fc71 40bd d923 b9be 815a 4d3e
000000d0: b0e6 3f3d 1a6d fdbc 2a5f 68bd a261 503e
000000e0: fb50 003e 0ea9 59be f90a 303e 15ea 91bc
000000f0: 56ef b23d a00e 78bc 365d ba3c be32 13bd
00000100: 145b af3c 8d2b f13b fcf2 9e3d aec1 cdbb
00000110: c5a9 d2bc 7747 ac3c 5a09 c43b d6a4 cf3c
00000120: 2182 afbb 57c4 a73c aed0 413b 4265 b4bc
00000130: a754 8e3b 3ca3 c8bc be57 973c d4cb 613c
00000140: b09a bf3a af8a 6bbd 64a3 62bb 7eea 63bb
00000150: 6afb ca3c 2ac8 873c 0741 333c fa3d 353c
00000160: d154 d53a d2d7 94bc 1231 193d 5141 043d
00000170: a6be d2ba dc58 8dba 74d1 b1bb f114 923b
00000180: fdf7 8dbc 698d ae3b 3ac3 22bd 267d c5bb
00000190: 146f 13bc 5072 b93b ce9c ba3c 89c3 b7bd
000001a0: 2a48 233c febd 503c b17f 803a 03bc 40bd
000001b0: ca5e ff3b 1e4e fa3a 7fd0 cabc 0ca0 a03a
000001c0: ceba 1abc becc 24bc bdf8 a3bd 9e77 67bb
000001d0: ce8f 843c b6c2 1fbc 2817 bcbc 04bc 9fbb
000001e0: 7066 313b c657 59bd 46dd cb3c c23a 62bc
000001f0: 87ad 283c 7015 0dbb 1cd1 213d 211e 2dbc
00000200: e38c 6d3c 7dfb a13c a16d 9f3c e35e 8f3c
00000210: c4ec 26bb 778e 413c aeb4 87bb e046 523c
00000220: f583 ae3c 9781 433b a4f0 9c3c 4da9 4fbb
00000230: 4b65 83bb 4d22 5abc 4d4b a03b 1b03 6f3c
00000240: 2c0c ab3c 6b9b 07bd 1ae7 b93c 9b89 603b
00000250: e25a 5a3c 5cad 7c3b 5a9c a4bb 3737 803c
00000260: 2198 9c3c bacf a1bb bdb2 0d3d b1c7 e93c
00000270: b910 95bc e656 9b3c 1c4a f1bb 4711 c6b9
00000280: 1339 ccbb 5e3e b1bc bb7c 08bd 8054 853b
00000290: 2e9f c33b d8db 96bb e47b 3e3b d66e 24bc
000002a0: d8d6 0d3b be23 673c 43b5 b2bc c5d9 06bd
000002b0: 1878 a13c ea53 a7bc ae01 83bc ecb2 a0bb
000002c0: 1f64 3ebc 459b e4bb 9039 79bc 7dde 703b
000002d0: 3f8a 003d 61c3 77bc 8b10 7cbc 5dc3 a93b
000002e0: d98d bf3c af27 07bd 0812 4d3c 99f1 5ebc
000002f0: 151e af3b cdb2 1dbc 7c79 0f3d 8dee 2cbb
00000300: 16f7 ae3d 7030 373d 227e 623d c6e9 3d3c
00000310: c7d1 24bd 6853 173d 23fa 57bb c8c7 cc3d
00000320: 905c e33c 9cd9 2e3d 6ab9 103d 4b34 3abd
00000330: 2fb6 8abb bcc1 d5bd a5fc 0a3d d11b 393c
00000340: ddb3 343d 7b8a 1dbd 9742 b23c 2e2f cd3a
00000350: 5704 c83d 3ef5 103d 4189 99bd 0360 413c
00000360: 794e 273d cc15 13bd 6c6c d5bd 3bc5 d7bd
00000370: 0c01 acbc 4fbe 6b3d e880 88bc 2f96 b63b
00000380: dad3 fdbc 5fe4 39bc 988e 16bd e51a 1b3b
00000390: 072f 9a3d 1c0b 4abb 9fcc 1e3d fa3f 49bd
000003a0: 98db 233c de8c 9a3c 2a9d babc bfcb 10bd
000003b0: 8f2b 0d3d 6859 c9bc 461b c53d 7859 1abc
000003c0: b120 81bb 4175 acbc 9443 6abd 1f49 0f3c
000003d0: ffa0 0b3d 3359 29bd 48c9 06bd b007 ed39
000003e0: c627 ed3c fc16 24bd b870 cf3d b240 2dbc
000003f0: a7c0 3c3c 1dae 90bb 57c1 84bd 2d53 2dbc
0.14267816 0.15239382 0.33552215 0.024410361 -0.069944255 0.053279605 -0.19981258 0.17501754
0.09553833 0.054949988 0.3760497 -0.056855798 -0.19868729 -0.15292425 0.06049714 0.018804746
0.0034560591 -0.2232535 0.13645397 0.20422953 0.14554125 0.0499931 -0.005348808 0.020339735
0.38563436 -0.048588738 0.0026882212 -0.0015349955 -0.09861032 0.016854228 -0.1689011 -0.05481137
-0.061439812 -0.09653259 -0.18658234 0.20350522 0.008881599 -0.19900955 0.063840866 -0.42650902
0.03263011 -0.010382698 -0.20196587 -0.19666156 -0.012018338 -0.110536136 0.0048629628 -0.19176967
-0.013209107 -0.046983704 -0.36160162 0.20054056 0.04685086 -0.030935813 -0.05673138 0.20349744
0.12530892 -0.21255895 0.17191686 -0.017811814 0.08737056 -0.015140206 0.022749525 -0.035937063
0.021405734 0.007359928 0.07761189 -0.006279192 -0.025715718 0.02103017 0.00598256 0.025347155
-0.0053560887 0.020479364 0.0029573846 -0.02202094 0.0043435874 -0.024491899 0.018474456 0.013781507
0.0014618244 -0.057505306 -0.0034582252 -0.003477722 0.024778087 0.016574938 0.010940797 0.01106214
0.0016275888 -0.018169317 0.037400313 0.032288853 -0.0016078546 -0.0010783928 -0.00542658 0.004458063
-0.017330164 0.005326916 -0.039736964 -0.0060268817 -0.008998651 0.005659379 0.022779848 -0.08972842
0.009965936 0.01274061 0.000980368 -0.047054302 0.007793282 0.0019096767 -0.024757622 0.0012254729
-0.009443952 -0.01005858 -0.080064274 -0.00353191 0.016181853 -0.009751013 -0.02296026 -0.004874708
0.0027069114 -0.053062223 0.024885785 -0.013807954 0.010295278 -0.002152767 0.039506063 -0.010566265
0.014498922 0.01977324 0.019461455 0.0175013 -0.0025470713 0.011813751 -0.0041414117 0.012834281
0.021303156 0.002983188 0.019157715 -0.0031686604 -0.004009878 -0.013313842 0.004891789 0.014588143
0.020879827 -0.033107203 0.022693206 0.0034261707 0.013327332 0.0038555479 -0.0050235214 0.015651328
0.01911551 -0.004938093 0.034594286 0.028537603 -0.01819645 0.018962335 -0.007363571 -0.00037778376
-0.0062323897 -0.021636184 -0.033322077 0.004068911 0.0059699034 -0.004603844 0.0029065544 -0.010036191
0.002164295 0.014107643 -0.021814948 -0.032922525 0.019710585 -0.020425756 -0.015992012 -0.0049041416
-0.01162055 -0.0069765174 -0.015211478 0.0036753707 0.03138184 -0.015122266 -0.0153848035 0.00518076
0.023383068 -0.03299683 0.012516506 -0.013607406 0.005344162 -0.009625149 0.035027966 -0.0026387305
0.08543222 0.044723928 0.05529607 0.01159138 -0.04023912 0.036944777 -0.003295549 0.09999043
0.027754098 0.042687997 0.035333075 -0.045460027 -0.0042331438 -0.104373425 0.033932347 0.011298136
0.044116843 -0.038462143 0.021760268 0.001565432 0.09766453 0.03539013 -0.07496882 0.011802676
0.04084632 -0.03590946 -0.104210705 -0.105356656 -0.020996593 0.05755454 -0.01666303 0.0055721025
-0.030984808 -0.011345952 -0.03675708 0.0023667153 0.07528501 -0.0030829376 0.03876936 -0.04913328
0.010001086 0.018865999 -0.02278002 -0.035350557 0.03446537 -0.024578765 0.096243426 -0.009420745
-0.0039406647 -0.021052005 -0.057193354 0.008745461 0.034089085 -0.041344833 -0.0329068 0.0004520989
0.02894963 -0.040060982 0.10128921 -0.010574507 0.011520541 -0.004415287 -0.06482189 -0.010578913

bias f4 [64]
00000000: c4fd 50bc b67f 6ebd a470 363d 6e58 79bd
00000010: 01b9 7dbd feed 02bc 1775 c3bd 1c1d 24be
00000020: d092 82bc e32f 85bd b390 873d 389a 2cbe
00000030: 3712 703d c263 2bbe b389 433d 723a 1ebd
00000040: cede c53c 0b4a e43b f451 41bc 5195 16bd
00000050: 832e 493c 0de1 c73b ed2c 623d c49d 063d
00000060: 93af 97bc 5f43 293e d062 fd3b 4d80 56bd
00000070: 6813 c7bc da50 f33d c016 4abd e3cd eebd
00000080: 6e3b e7bc ad1f 8c3d 28a2 30bd b402 6c3d
00000090: 5ec6 0d3d a468 093e 27c2 383d b987 373d
000000a0: 6cfc efbc 7508 5c3d 4e2a 25bd 884a a83b
000000b0: 60f0 323e 2206 a5bd 1422 8cbd 6519 283d
000000c0: 854c 37be 5810 513d 4325 0d3d 6222 93bd
000000d0: eedc 8bbc 9210 4f3d 6543 ad3c 5f13 15be
000000e0: 5ccd 743b db22 d13d 9708 933d d404 95bd
000000f0: c0c8 3a3d 34c5 f43d 391a 81bb f6f3 afbc
-0.012755815 -0.058227263 0.044541016 -0.06087535 -0.06194401 -0.007991312 -0.095438175 -0.1602673
-0.015939146 -0.06503274 0.06619396 -0.16855705 0.05861112 -0.16737273 0.047738742 -0.038629957
0.024154093 0.0069668344 -0.011799324 -0.036763493 0.012279156 0.006099826 0.055218626 0.0328653
-0.018516337 0.16529606 0.0077327266 -0.05236845 -0.024301246 0.118806556 -0.049338102 -0.116603635
-0.02822658 0.06841979 -0.043123394 0.057619765 0.034613006 0.13418823 0.045107033 0.04480717
-0.029295169 0.053719003 -0.040323548 0.005135838 0.17474508 -0.0805781 -0.068424374 0.041039843
-0.17900284 0.051040977 0.034459364 -0.071842924 -0.01707312 0.050552912 0.0211503 -0.1455817
0.003735385 0.10211726 0.07179373 -0.072763115 0.045601606 0.11951676 -0.0039398936 -0.021478634

weight f4 [4, 64]
00000000: d185 0580 c15e 0500 5162 0500 3974 0500
00000010: 1c5a 0680 fe58 0500 4a65 0580 5dc7 0600
00000020: 6724 0600 8777 0580 807a 0500 9e88 0600
00000030: 6d84 0500 d9e0 0580 377f 0500 0a6c 0500
00000040: 495a 0500 3d59 0500 55d4 0500 adbc 0680
00000050: ca68 0500 4668 0500 9a76 0500 e0a3 0580
00000060: 9565 0500 efc0 0500 3f6e 0580 9c71 0500
00000070: 4c3a 0600 d6b0 0500 c213 0680 7110 0680
00000080: ac73 0500 8274 0580 428d 0580 6d73 0580
00000090: 9caf 0500 ee77 0580 5b9f 0500 4289 0500
000000a0: b001 0600 5970 0580 32ee 0580 ea66 0580
000000b0: 0b72 0580 43a9 0500 f9bc 0500 737a 0580
000000c0: d563 0580 0974 0500 14a3 0500 4a73 0500
000000d0: f4a2 0500 f979 0500 08c6 0580 9077 0500
000000e0: 225b 0580 8f79 0500 a057 0500 0368 0580
000000f0: 138e 0580 c077 0500 248c 0600 f570 0500
00000100: 1f7c 6fbc f887 90bd 964e f3bd 2816 783e
00000110: ffc4 f6bc 3a47 893d 8efb d33c 6011 983e
00000120: 1ef8 3e3e c82a 473e b8a1 6c3d 1d64 0d3d
00000130: 6885 44be afef 8d3e d2c3 d3bd 3785 0a3e
00000140: 035d 0b3e 4b58 3bbe 5c21 393e 7090 813e
00000150: 2b9f 0f3c a5b8 6abe cf02 82be 8b60 12be
00000160: 6f48 11be cbff fdbc 1683 1a3e 89ff 873e
00000170: c924 73bd 570b c7bc a6ea 153e e9f5 c53c
00000180: e50c 2d3f 3d40 01bd 3a55 4b3e fcf6 8c3d
00000190: 7a96 2ebf 7e35 d2bc 87c5 3abe 176c 7ebe
000001a0: 33c7 9cbd a372 8ebe f6ab 7e3e 50b3 9e3c
000001b0: 1142 abbe cbaa 8d3e 6487 ccbc 0835 26be
000001c0: a0fb 2e3e 7e9a 29be 8726 173d ff78 a13e
000001d0: 9932 1e3e 546b 59be af05 40be 6967 da3c
000001e0: afc8 2f3e 2cec b5bc b1f2 2a3d 9b8e 473e
000001f0: 5ca0 01bd 710a c1be 725e b23e 8aca 783e
00000200: 976f 0680 d965 0580 1c75 0500 b090 0580
00000210: 8169 0500 6d64 0580 5565 0580 ba81 0580
00000220: a55e 0580 05bd 0600 4773 0580 c15a 0580
00000230: e89b 0500 be8c 0580 807e 0500 35d0 0580
00000240: dedc 0580 d08a 0680 fd69 0500 ff5c 0500
00000250: 1f5a 0500 99a1 0580 f48c 0580 9914 0680
00000260: 45be 0500 f75a 0500 f47d 0580 a06a 0500
00000270: 6f76 0580 ae6f 0580 d358 0600 76b7 0500
00000280: a258 0500 bba4 0500 4065 0500 9164 0580
00000290: 6962 0500 8f5d 0500 80a1 0580 f357 0580
000002a0: d666 0580 6e89 0680 9b5a 0500 1058 0580
000002b0: 4759 0500 0367 0500 4863 0500 56de 0580
000002c0: 9763 0500 ad65 0580 f7a7 0580 0a67 0580
000002d0: 0b01 0680 21dc 0500 b7cc 0580 4491 0580
000002e0: 205b 0500 7410 0680 6a5d 0580 bc87 0600
000002f0: a18f 0580 1fc9 0500 ce5e 0580 4856 0600
00000300: 4ef4 3fbf 9073 52be 0f3b cabc 5184 a43d
00000310: 45f6 d2be cc16 0d3d e8e2 23be 217d d4be
00000320: 2496 1d3e d803 25bd 4916 5d3e 4855 9abe
00000330: 9751 70bd 1cc2 bdbe 5a9a 76bc 7f3b 333d
00000340: 7e9b 743e a397 0bbe ec61 f13d 4067 283e
00000350: 5b25 6e3f 02f9 3dbe 766b 29be 833e 70bd
00000360: 637f 67be 2667 9a3e 077b 033e a087 223e
00000370: eb51 98bd e1e8 473e 647d 133d 1c1f 44be
00000380: b841 b03e 9ff2 dd3d 1207 7d3d d1fa c13e
00000390: d159 a7be 0ae9 653e 49d8 9abd 4b6d 2fbe
000003a0: c09c cfbd fb14 0bbe bbeb 243e 8c34 d73c
000003b0: 28b1 0b3f 5c4d 643d 2bac c2be c42a 7ebd
000003c0: 3b62 92be 2570 47bd 971f 0d3f 5220 123e
000003d0: 6be0 b63d decf b2bd cf05 aebd ed8a 7dbe
000003e0: c75a 173e 3a26 3f3e a35f 3e3e 8135 343d
000003f0: ffa9 9e3d 4db4 1ebe 37d3 513e 8257 383e
-5.07182e-40 4.93169e-40 4.94447e-40 5.0087e-40 -5.83338e-40 4.91102e-40 -4.95513e-40 6.22531e-40
5.64072e-40 -5.02056e-40 5.03122e-40 6.00022e-40 5.06683e-40 -5.39838e-40 5.04814e-40 4.97935e-40
4.91566e-40 4.9119e-40 5.35348e-40 -6.18697e-40 4.96769e-40 4.96584e-40 5.01724e-40 -5.17965e-40
4.95618e-40 5.28389e-40 -4.98726e-40 4.99933e-40 5.71926e-40 5.22614e-40 -5.58101e-40 -5.56911e-40
5.00673e-40 -5.00973e-40 -5.09851e-40 -5.00584e-40 5.22174e-40 -5.022e-40 5.16343e-40 5.08416e-40
5.51618e-40 -4.9948e-40 -5.44626e-40 -4.96096e-40 -5.00088e-40 5.19897e-40 5.26968e-40 -5.03104e-40
-4.9499e-40 5.00803e-40 5.17679e-40 5.00535e-40 5.17634e-40 5.02933e-40 -5.30218e-40 5.02068e-40
-4.9187e-40 5.02784e-40 4.90611e-40 -4.9649e-40 -5.10144e-40 5.02136e-40 6.01286e-40 4.99699e-40
-0.014616995 -0.07057184 -0.118802235 0.24227202 -0.030123232 0.067030385 0.025876787 0.29700756
0.18649337 0.19449914 0.057771415 0.034519304 -0.19191515 0.27721927 -0.10340084 0.1352738
0.136097 -0.182954 0.18079132 0.2530551 0.008765976 -0.22921999 -0.25392768 -0.1429464
-0.14187787 -0.03100576 0.15089068 0.26562145 -0.059361253 -0.0242974 0.14640293 0.02416511
0.675978 -0.031555403 0.1985673 0.06883046 -0.6819836 -0.025660273 -0.18239413 -0.2484592
-0.07655182 -0.27821836 0.24870285 0.019372612 -0.33448842 0.27669367 -0.024966903 -0.16231167
0.17088175 -0.1656284 0.036901977 0.31537625 0.15448989 -0.21232349 -0.18752168 0.026660638
0.17166398 -0.022207342 0.041735355 0.19487993 -0.03164707 -0.3770328 0.3483768 0.24296013
-5.91044e-40 -4.95714e-40 5.01188e-40 -5.11082e-40 4.97025e-40 -4.95203e-40 -4.95529e-40 -5.05715e-40
-4.9313e-40 6.1882e-40 -5.00531e-40 -4.91734e-40 5.15106e-40 -5.09666e-40 5.04557e-40 -5.33868e-40
-5.3841e-40 -6.0081e-40 4.97199e-40 4.92538e-40 4.91507e-40 -5.17148e-40 -5.09742e-40 -5.58402e-40
5.27433e-40 4.9181e-40 -5.04361e-40 4.97427e-40 -5.01663e-40 -4.9924e-40 5.82877e-40 5.24991e-40
4.90973e-40 5.18272e-40 4.95499e-40 -4.95254e-40 4.9448e-40 4.9274e-40 -5.17113e-40 -4.90728e-40
-4.96068e-40 -6.00313e-40 4.9168e-40 -4.90768e-40 4.91204e-40 4.96131e-40 4.94793e-40 -5.38937e-40
4.94904e-40 -4.95652e-40 -5.19432e-40 -4.96141e-40 -5.51387e-40 5.38145e-40 -5.32615e-40 -5.11289e-40
4.91867e-40 -5.56915e-40 -4.92688e-40 5.99705e-40 -5.10702e-40 5.31326e-40 -4.93187e-40 5.81965e-40
-0.74982154 -0.20551896 -0.024686364 0.0803305 -0.41203514 0.03444557 -0.16004527 -0.41501716
0.15389305 -0.04028687 0.21590532 -0.3014319 -0.05867156 -0.37062156 -0.015051449 0.04375791
0.2388744 -0.13632064 0.11786255 0.16445637 0.9302575 -0.1855202 -0.165449 -0.058653366
-0.22607188 0.3015682 0.128399 0.1587205 -0.074374996 0.1952243 0.036008254 -0.19152492
0.3442514 0.10837292 0.06177432 0.3788667 -0.32685712 0.22452179 -0.07560784 -0.17131536
-0.101373196 -0.13582222 0.16105549 0.026270173 0.54567194 0.05573784 -0.3802198 -0.062052503
-0.2859057 -0.048690934 0.5512633 0.14270142 0.08929523 -0.08731054 -0.08497202 -0.24760027
0.14780723 0.18666926 0.1859117 0.043996338 0.07747268 -0.15498467 0.20490728 0.18002132

bias f4 [4]
00000000: 747f 0580 5399 0abe c366 0500 9cfe 483e
-5.04899e-40 -0.13535051 4.96041e-40 0.19628376

weight f4 [64, 4]
00000000: 26ae aa3e 9d5f 0500 342c a6be 8d63 0500
00000010: d64d 633e 2076 0580 b931 41bd b89b 0580
00000020: 7d23 b93d 6c65 0580 2786 03be cc62 0500
00000030: 9fed 933e e159 0580 e0d1 59bd 507a 0580
00000040: 641d 343f 3455 0600 015d 0e3f d75e 0500
00000050: aff2 12bf 0969 0580 2c7b cabe dc62 0500
00000060: b0bc dabe d470 0500 8847 7bbe b771 0580
00000070: d0de 7fbe b27c 0580 3de6 133d 6661 0500
00000080: 4d0a 8abe 0b7e 0680 35a4 1cbe 9f6d 0580
00000090: 2744 96be 095c 0580 a856 553d c467 0500
000000a0: c4e0 75be 1e60 0580 b53a 54be fe5f 0500
000000b0: 86df 063f 6f74 0500 8571 b3bd 2e5b 0500
000000c0: 1a1a a43e 8d64 0580 1d0d d9be 1b60 0580
000000d0: 6b1f 933e df63 0500 fb97 d0be f55d 0580
000000e0: 3428 38bf 2262 0500 c42f 9bbe 975b 0580
000000f0: 7ef9 1d3f 715e 0500 1843 d53e b283 0500
00000100: 7c2b ce3e 636f 0580 d768 733e ec5e 0500
00000110: 9978 1dbf af5c 0500 1603 e1be 2d5a 0580
00000120: 0bf1 aa3e b364 0580 1aa9 81bd cb61 0580
00000130: d522 6e3d ea61 0500 1262 37be 646d 0500
00000140: d7de 02bf 628c 0500 9463 b8be 7066 0500
00000150: de32 0abf 548c 0580 b520 cabe 5158 0580
00000160: 7a77 433f 2765 0580 7177 1e3f 4a69 0500
00000170: 320a f3be 0f14 0600 f7bd b43d ae58 0580
00000180: e71c d4be 015c 0500 6169 963e f257 0580
00000190: 14d7 f0be 255d 0500 4e43 9ebe 1a60 0580
000001a0: b1f0 343f fa5b 0500 fa30 0e3f 6b92 0600
000001b0: 8a95 053f a057 0580 c138 cabd 8b65 0500
000001c0: 0ec5 543f e667 0580 5f9b 9d3e 3e69 0580
000001d0: 8ac0 093e d35a 0580 4fe3 80bd 665f 0580
000001e0: e145 a53e 35ce 0500 35ec 223e c99a 0580
000001f0: f81c b1be 2865 0500 d2c8 2fbe 9d64 0500
00000200: 8870 dd3e e659 0500 bed4 673e df75 0580
00000210: da77 8a3e 7199 0580 0b00 43bd eb5e 0500
00000220: 12b6 a5be 5195 0500 2eca cf3e dd5c 0580
00000230: 1dbb 983e 915c 0580 9524 dbbe f458 0580
00000240: ef1a 993e 405a 0580 b8a7 a5be aed6 0500
00000250: 5bdf 403f 0858 0500 084e 273f 995a 0500
00000260: f857 8c3e 3e6b 0580 17eb 2fbd 9b66 0500
00000270: 7511 e53e 805d 0500 85fb 713e 6357 0500
00000280: 5488 a3be 785a 0580 97f1 823d de5f 0500
00000290: a840 a43e 4e5c 0500 2edf 273e fa5b 0500
000002a0: 172a 8e3e ab99 0580 f91f 4c3e d764 0580
000002b0: 4b50 aabe 3268 0580 929f a53e d761 0500
000002c0: 0f92 80be 0965 0500 300f 403d 815b 0580
000002d0: 2866 973e db58 0580 60a3 bfbe 0b5c 0500
000002e0: 1345 83bd c85e 0500 c491 4b3e 6867 0580
000002f0: 6c5e 9cbe d165 0500 3020 ad3e 8974 0500
00000300: 3a71 8c3e 2474 0580 7b57 dbbc 8a62 0500
00000310: ddf7 a4be b259 0500 820e ab3e 0f8e 0500
00000320: 94ea a93e 1c98 0500 8669 a7be cb66 0500
00000330: df98 523e 6260 0500 8ca1 18bd 7257 0500
00000340: b2a3 413e 596e 0500 f8cb 7abd 6b5b 0580
00000350: 587d 78be d961 0500 1f7b 633d 6496 0500
00000360: 2f12 b53e 3e63 0580 2787 95be 815f 0500
00000370: 0aa9 64bf 42bb 0580 0c29 a9be d157 0500
00000380: 6325 8a3e ee5f 0500 72d5 5e3e 0759 0580
00000390: 638c 91bd bf5d 0580 36fb 743e 8262 0500
000003a0: f6b9 c53e ee62 0500 c7a7 8dbe 6e6e 0580
000003b0: 9c32 81be 16dc 0600 089b 0abe 3970 0580
000003c0: d7e7 9dbe ea61 0580 3ad6 7abe 165d 0580
000003d0: d126 2b3f 275a 0500 92b5 033f 508c 0500
000003e0: 057b a0be 7265 0580 0d67 ca3e b218 0680
000003f0: 19d4 943e 4e61 0580 e230 42bd 2f5d 0580
0.3333599 4.93477e-40 -0.324556 4.9489e-40 0.22197661 -5.01553e-40 -0.04716656 -5.15039e-40
0.09039972 -4.95561e-40 -0.12844144 4.94619e-40 0.28892228 -4.9142e-40 -0.053178668 -5.03055e-40
0.70357347 5.81578e-40 0.5561066 4.932e-40 -0.57401556 -4.96857e-40 -0.39547098 4.94642e-40
-0.42722082 4.99653e-40 -0.24539006 -4.9997e-40 -0.2498734 -5.0391e-40 0.036108244 4.94117e-40
-0.26960984 -5.96229e-40 -0.15297015 -4.98502e-40 -0.2934887 -4.92193e-40 0.052084595 4.96402e-40
-0.24011523 -4.93658e-40 -0.2072552 4.93613e-40 0.5268482 5.00946e-40 -0.087618865 4.91887e-40
0.32051164 -4.95248e-40 -0.42392817 -4.93654e-40 0.28734908 4.95004e-40 -0.40740952 -4.92883e-40
-0.71936345 4.94381e-40 -0.3030988 -4.92034e-40 0.6170882 4.93057e-40 0.4165275 5.06421e-40
0.4026755 -4.99136e-40 0.23770462 4.93229e-40 -0.6151214 4.92426e-40 -0.43947667 -4.91526e-40
0.33387026 -4.95302e-40 -0.06331082 -4.94259e-40 0.058138687 4.94302e-40 -0.17908505 4.9842e-40
-0.51121277 5.09537e-40 -0.36013472 4.95925e-40 -0.5398387 -5.09518e-40 -0.39478078 -4.9086e-40
0.7635418 -4.95464e-40 0.61901003 4.96948e-40 -0.47468716 5.58209e-40 0.088252954 -4.9099e-40
-0.414283 4.92182e-40 0.29377273 -4.90726e-40 -0.47039092 4.92591e-40 -0.30910724 -4.93652e-40
0.70679766 4.92172e-40 0.5554348 6.03538e-40 0.52181304 -4.90611e-40 -0.09874106 4.95604e-40
0.8311318 -4.96449e-40 0.307826 -4.96931e-40 0.13452354 -4.91759e-40 -0.06293356 -4.934e-40
0.32279876 5.3315e-40 0.15910418 -5.14704e-40 -0.34592414 4.95466e-40 -0.1716645 4.95271e-40
0.43249917 4.91427e-40 0.22639748 -5.01462e-40 0.27044564 -5.14222e-40 -0.047607463 4.93228e-40
-0.3236547 5.12742e-40 0.40583938 -4.9249e-40 0.29830256 -4.92384e-40 -0.42801347 -4.91088e-40
0.2990336 -4.91553e-40 -0.32354522 5.3619e-40 0.75340813 4.90757e-40 0.6535344 4.91678e-40
0.27410865 -4.97649e-40 -0.04294881 4.95985e-40 0.4473988 4.92719e-40 0.23631103 4.90526e-40
-0.31939948 -4.91632e-40 0.06393736 4.93568e-40 0.3208058 4.9229e-40 0.1639373 4.92172e-40
0.27766487 -5.14303e-40 0.19934072 -4.95352e-40 -0.33264384 -4.96556e-40 0.32348305 4.94276e-40
-0.25111434 4.95422e-40 0.046889484 -4.92003e-40 0.29570127 -4.91053e-40 -0.37429333 4.92196e-40
-0.06409659 4.93179e-40 0.19879824 -4.96273e-40 -0.30540788 4.95702e-40 0.3381362 5.00982e-40
0.27430135 -5.00841e-40 -0.026775112 4.94527e-40 -0.32220355 4.91354e-40 0.33409506 5.10139e-40
0.3318678 5.13744e-40 -0.32697695 4.96053e-40 0.20566128 4.93753e-40 -0.037263438 4.90547e-40
0.18910101 4.98763e-40 -0.061229676 -4.91972e-40 -0.24266565 4.94279e-40 0.05553734 5.13127e-40
0.35365435 -4.94779e-40 -0.29204676 4.93438e-40 -0.89320433 -5.26353e-40 -0.3303913 4.9068e-40
0.2698165 4.9359e-40 0.2176111 -4.91114e-40 -0.07106855 -4.92807e-40 0.23923954 4.94515e-40
0.3861844 4.94667e-40 -0.27667066 -4.98792e-40 -0.25233924 6.29965e-40 -0.13535702 -4.99435e-40
-0.30840942 -4.94302e-40 -0.24495783 -4.9257e-40 0.66856104 4.91518e-40 0.5144893 5.09512e-40
-0.31343856 -4.95569e-40 0.39531747 -5.59872e-40 0.29068068 -4.94084e-40 -0.0474099 -4.92605e-40

bias f4 [64]
00000000: 060a 5fbd 028c 0e3f 487b d03e 0d50 673f
00000010: fec8 603f 417d 4dbf 3464 25bf e42d 1abf
00000020: 5bf6 303f 6e9d 6bbf 339f 32be 6302 68be
00000030: ed2c dbbc 6a3e 383d 8b0f 3a3f a250 663f
00000040: 4e39 0c3f 9fe0 5abf e27c 943f 31b3 a53e
00000050: 82cc 28bf 7a66 2abf 281b 6d3f 8fd4 1a3e
00000060: bb75 9a3c b368 22bf 55ae 613f 41ee 77be
00000070: 2998 32bf 88cb 663e 63bd 8a3e 8dc7 e4be
00000080: 8096 383f 861d 483f bbd7 383e eeed c8bd
00000090: d5fd 1abe c582 523f 3348 433f 6904 403f
000000a0: 2b9f 8dbf d888 07bf 400f 10bd c40e f93d
000000b0: 3614 30bf ba8a 67bd 467d d3be 8192 ae3d
000000c0: 4a5e 273f 3e89 6e3d 94f0 1dbe 4645 cf3e
000000d0: 0aa2 fc3e a38d 34bf e5a2 debd 3b75 623f
000000e0: f64a 523e d949 05bf b903 6dbe 46d5 fb3e
000000f0: 5928 50be 837e 5a3f 9e87 a23d f9a9 5e3f
-0.05445292 0.55682385 0.40719056 0.9035652 0.8780669 -0.8026925 -0.6460602 -0.60226274
0.6912591 -0.92037094 -0.17443542 -0.2265716 -0.02675482 0.044981398 0.72679967 0.89966786
0.5477494 -0.85498995 1.1600611 0.32363275 -0.65937054 -0.66562617 0.9261956 0.15120147
0.018854966 -0.6344101 0.88156635 -0.2421198 -0.6976343 0.22538579 0.27097616 -0.44683495
0.72104645 0.7817005 0.18051045 -0.098110065 -0.15135892 0.8223079 0.7628204 0.7500673
-1.1064199 -0.5294318 -0.035170794 0.121610194 -0.6878084 -0.056528784 -0.41306514 0.08524037
0.6537825 0.058236353 -0.15423805 0.4048254 0.49342376 -0.7052862 -0.108709134 0.8846013
0.20536408 -0.5206581 -0.23145951 0.49186152 -0.20327891 0.8534929 0.07936023 0.8697811

weight f4 [64, 64]
00000000: abca 713c 5d82 88bc d18b 983d 3fe9 4bbd
00000010: 5728 923d c8a0 16bd a8ba 2bbd 501c 4a3d
00000020: adae 993e 3811 1d3c f71d 74bc 6ea6 afbe
00000030: d738 403c f14d 873d da67 ba3e fe6a 263d
00000040: c2ae 933c 2712 48bd c98a aebd 552b 893d
00000050: 6a68 ac3a 7de8 86bc e38f 723d 4aa2 923e
00000060: c6ef 073c ae22 89bc 8af8 e03c d794 65be
00000070: 910c a2be fdd0 9cbc dca5 10bd f014 12bd
00000080: 776b e33c 5ebe 1abd 25f0 ad3d d455 b2bc
00000090: fba9 88bd d09f e43d 8bcb 9dbd 2e15 963d
000000a0: 85c6 ad3d 5dfa 72be 7a94 bebd e170 2b3d
000000b0: fa17 aa3c 3717 36ba ab2b d9bd b036 253c
000000c0: 5464 853d 44d5 97bc 75b2 8fbd 9d42 afbc
000000d0: 1702 aab9 05f4 583d 83cd 89bd 63af cb3e
000000e0: 38f8 183d 4157 d8bd eff0 05be 1dfa 453e
000000f0: 1fa0 793d 7f10 f73d 9d11 ae3c 2188 0dbd
00000100: b0e3 83bd adc9 713d f674 2c3d 1b2d 963d
00000110: c40d 15bd ebf3 283d d1ea 0e3d 1548 68bd
00000120: 7a3e 3a3c 54a2 97bd d893 143d dda9 5ebd
00000130: ff23 62bd 8938 6cbd 1f3b cbbc 0612 09bd
00000140: 1778 27bd f10a 193d 9b78 b83d 88fe 173d
00000150: ea75 583d 9c32 5c3d 9315 0abd e617 473d
00000160: 137c 8d3d d1aa 443d 5b53 15bd a260 4dbd
00000170: 673e 46bc c5a7 da3c 5ff9 13bd 95a7 f53c
00000180: 99cf cfbc 2852 873d 5032 613d 2f40 5fbd
00000190: a221 67bd b5f8 2cbd 2d6b 823d cbc0 d5bc
000001a0: 153d b3bd fdb9 71bc 206a 60bd 1798 813d
000001b0: b907 80bd ca4e 6cbd 86c1 35bd 5926 703d
000001c0: def5 5f3d 9ff6 803d 5f2c 7dbd 73c0 563d
000001d0: 68fb 6b3d 8634 86bd 1ae0 7fbd 2a48 02bd
000001e0: b210 23bd 85aa 50bd ac7e 66bd 99be 7d3c
000001f0: 82b1 4a3d b932 1cbd 4360 653d 1cad 8e3d
00000200: 9460 583e d4d8 bcbe d340 8ebe 9d91 19bf
00000210: b1d5 41bf 777a 303f 1113 0f3f bdc4 c93e
00000220: 07f1 50bd 895f 1c3f a79d 383e ad76 583e
00000230: 35b9 4d3e 5585 333e 97fd 29be 3849 41bf
00000240: efe8 ffbe effb 393f 810c 49bf a45e 54be
00000250: 3bf1 173f fb39 1a3f bc23 4cbf 5b70 19be
00000260: 6853 65be bbab 103f 698b 42bf d76e 643e
00000270: bd28 283e 06f4 24be c071 a9be aad2 d83e
00000280: 5a28 1bbf 3aa4 03bf 8646 62be c678 4e3e
00000290: bdef 353e 34fd 3bbf 01d5 fdbe 04a8 20bf
000002a0: 5257 403f e80a 343c e04b 2ebe 5a9b 57be
000002b0: b886 e83e 1f81 553e 9ffa 833e a672 37be
000002c0: 5f58 d4be 767f 47be 13de 613e 66e4 87be
000002d0: 6747 a9be 9240 f13e a859 583e 53c4 44be
000002e0: 8037 68be f9a8 a03e 7cf4 643e da82 413c
000002f0: 9a85 863e 636f 3cbf 0c4f 5bbe 1992 11bf
00000300: 93c5 153e e16b 86be 22b6 46be 55d6 d5be
00000310: 4424 10bf 0643 ff3e 1eb2 ca3e b229 8f3e
00000320: ada9 48bd 589b d93e c759 193e b409 173e
00000330: 625b 103e 7536 023e b615 02be eaf3 0bbf
00000340: 4cae b4be 84a5 073f 05ee 09bf f9da 18be
00000350: 55c8 da3e 7ad2 df3e ac08 19bf 634e e5bd
00000360: 97b0 1cbe 4b3e cf3e 3585 10bf 86af 1d3e
00000370: b151 043e 9d29 fcbd f112 68be bb5a 973e
00000380: 1347 dabe 48a0 b8be e6a6 1bbe d2fd 0f3e
00000390: 6162 023e 17ce 0ebf a610 b3be 3e2e e2be
000003a0: 41f4 033f c085 b33c 9e86 efbd 4a11 15be
000003b0: dbaa a33e e90c 163e ea7a 3b3e f897 07be
000003c0: 19be 96be 27fc 0ebe 3c57 1b3e cc8d 46be
000003d0: 690a 72be 1935 a93e d1cf 133e b7bd 15be
000003e0: 4c58 34be b788 623e 656f 1f3e edf5 bfbb
000003f0: 8e70 473e 0632 0bbf 3b42 18be 68ec cbbe
0.014757792 -0.016663725 0.07448543 -0.049782988 0.071366005 -0.036774427 -0.041926056 0.049343407
0.3001608 0.009586625 -0.014899722 -0.34306663 0.011732302 0.06606663 0.36407357 0.04062938
0.018027667 -0.048845436 -0.08522565 0.06697718 0.0013153676 -0.01646828 0.059219252 0.28639442
0.008296913 -0.01674017 0.027462263 -0.22420059 -0.31650212 -0.019142622 -0.035314426 -0.0356645
0.027761204 -0.037779205 0.084930696 -0.021769442 -0.06673046 0.11163294 -0.07704838 0.073282585
0.0848513 -0.23728319 -0.093056634 0.041855697 0.020763386 -0.00069462083 -0.10604032 0.010083839
0.06513277 -0.01853431 -0.0701646 -0.021394068 -0.00032426484 0.05296709 -0.067286514 0.39782247
0.037346095 -0.10563517 -0.1308019 0.19333692 0.06094372 0.12063693 0.021248633 -0.03455365
-0.06439912 0.059030224 0.04210373 0.07332822 -0.03639008 0.041248243 0.034891907 -0.056709368
0.011367435 -0.074040085 0.036273807 -0.054361213 -0.05521011 -0.057671104 -0.024808465 -0.033464454
-0.04088601 0.03736395 0.09007379 0.037107974 0.052846827 0.053759202 -0.03371198 0.048606776
0.06908431 0.048014466 -0.036456447 -0.050140984 -0.012099839 0.026691327 -0.03612649 0.029987136
-0.025367545 0.06607467 0.054979622 -0.05450457 -0.05642856 -0.042229373 0.063680984 -0.026092907
-0.08751885 -0.014753816 -0.05478871 0.06327837 -0.06251473 -0.057692327 -0.04437401 0.05863032
0.054677837 0.06297039 -0.061809894 0.052429628 0.057612807 -0.06552987 -0.06246958 -0.031807102
-0.039810844 -0.05094387 -0.056273147 0.015487337 0.04948569 -0.03813431 0.056000005 0.06966612
0.21130592 -0.36884177 -0.27783832 -0.59987813 -0.7571669 0.68936867 0.5588847 0.39407912
-0.05101111 0.61083275 0.1802889 0.21139021 0.20090182 0.17531331 -0.16600643 -0.7550235
-0.49982402 0.72650045 -0.78534704 -0.20739228 0.59352463 0.6024472 -0.79742026 -0.14984266
-0.22395098 0.5651204 -0.75993973 0.22307907 0.1642179 -0.16108713 -0.33094597 0.42348224
-0.60608447 -0.51422465 -0.22097215 0.20163259 0.17767234 -0.7343323 -0.49576572 -0.6275637
0.7513324 0.010988928 -0.17021132 -0.21055356 0.45415282 0.20850037 0.25777146 -0.17914829
-0.41473672 -0.19482216 0.22057371 -0.26541442 -0.33062288 0.47119576 0.21127951 -0.19215517
-0.22677422 0.31378916 0.22358888 0.011810983 0.26273805 -0.7360746 -0.21416873 -0.5686355
0.1462615 -0.2625418 -0.19405416 -0.41765085 -0.56305337 0.49855822 0.39589018 0.27961498
-0.04898994 0.4250133 0.14975654 0.14749795 0.1409736 0.12716086 -0.12703595 -0.5466906
-0.35289228 0.5298693 -0.53878814 -0.14927281 0.42730966 0.43715268 -0.5977886 -0.11196592
-0.15301739 0.40477213 -0.5645326 0.15398988 0.12921788 -0.123126246 -0.22663476 0.2956141
-0.4263235 -0.36059785 -0.15200385 0.14061669 0.12732841 -0.5578322 -0.3497364 -0.44175905
0.51544577 0.021914363 -0.11695598 -0.14557377 0.3196629 0.14653362 0.18308607 -0.13241565
-0.29441908 -0.13963376 0.15169996 -0.19390029 -0.23636784 0.33048323 0.14434744 -0.14623152
-0.17611808 0.22122465 0.15569837 -0.005858174 0.1947653 -0.54373205 -0.14869015 -0.398288

bias f4 [64]
00000000: 0a62 e83d 6ceb f53c 5abd 89be a6ef 3fbe
00000010: ca61 143d 43c2 8bbc 4fd0 77be 10e6 8b3d
00000020: b504 0b3d 44fe 943d 764d 523d 568a 883d
00000030: a549 f4bd 1a56 143d 0476 393d dc4a 1fbd
00000040: 6ae1 083e 6d10 383e 60d0 8ebd 60f1 a63d
00000050: 439d a1bd 1367 243d cec9 54bc 3d80 12be
00000060: 206e 213d 1894 fcbd 0d3d 01be df30 44be
00000070: c892 793d 68c2 973d a7d8 f8bd 529f 8cbc
00000080: 0c40 02bd 2cd5 51bc 7bf1 193d 1dee bcbc
00000090: 854f 6bbd 6ad3 33bd 1b8f 64bd fa62 bebd
000000a0: dc0e cf3d b5c4 9fbd 5c05 e53c 97c8 383d
000000b0: ea24 343d e720 fb3c d32f 48bd c901 b2bd
000000c0: 5718 b9bc 0aea 63bd aeb1 6a3b 78ff 82be
000000d0: 0e50 833d ec36 87bd 3adf aa3d 5180 b93c
000000e0: 4bfe f4bd 251e 9d3d 3656 8bbd 96ec 633d
000000f0: d30d 873d b203 963c 557f 29bd 99f6 b63c
0.113468245 0.030019484 -0.26902276 -0.18743762 0.03622607 -0.017060405 -0.24200557 0.0683099
0.033940036 0.0727506 0.051343404 0.066670105 -0.11928109 0.036214925 0.045278564 -0.03888975
0.13367239 0.17975016 -0.06973338 0.081515074 -0.078913234 0.04013736 -0.012987567 -0.14306732
0.039411664 -0.12332934 -0.12620945 -0.19159268 0.060930997 0.07410127 -0.12150698 -0.017165814
-0.03179936 -0.012807172 0.03758381 -0.02306276 -0.057448883 -0.043902792 -0.05580054 -0.09296222
0.10110256 -0.07801191 0.027956657 0.045113172 0.043980516 0.030655337 -0.048873734 -0.08691747
-0.022594614 -0.05564312 0.0035811472 -0.25585532 0.064117536 -0.066022724 0.08343358 0.022644194
-0.11962565 0.07671765 -0.06803553 0.055645548 0.06594434 0.018312309 -0.0413812 0.022334384
