KalmanNetPHAv2/KalmanNet_TSP-main/KNet/2days/2daysmodelteston2201x.pt (torch, 130248 bytes, 43 tensors)

weight_ih_l0 f4 [12, 10]
00000000: 4831 ee3e d4fa e03e dc8e 46be 5c3f 89be
00000010: c431 713e 9408 1abe f42f a3be 381b b93d
00000020: 1c36 6ebe 38bb 3e3e e0d0 cdbd 64c9 e23e
00000030: a00b 51bd 622b bb3e fa32 f0be 624d c8be
00000040: 00f8 66bd 7042 423d e859 d4bd 70b3 083e
00000050: 7802 20be c0fb 7cbc ba78 debe 80ed eabb
00000060: fe4f 98be 7ecd fcbe f0e2 08be 0e15 ed3e
00000070: 406d 6ebd 6a9c 903e e074 a4bc 0083 d5be
00000080: f471 1dbe 6a3a 82be e00e b7bc 02aa a73e
00000090: 98b1 df3d 20a1 5d3d 8ec5 d2be f07f 0e3e
000000a0: 4e0d a03e 80c1 f9bd b053 e53d 9edc 9ebe
000000b0: 624e be3e 683c cdbd 7087 71be 7a27 883e
000000c0: 74df 1dbe d8a5 2e3e 509b 42bd c08f c8bd
000000d0: 601a 913c b0ce cdbe 1031 2a3e 3c76 463e
000000e0: 68b7 e2be 90dd bc3e 98f5 97bd f04a 88bd
000000f0: 10f8 0f3d 2e10 ba3e d6f5 8e3e 1076 b3bd
00000100: 0021 983c e0a0 253d 68a6 1dbe 3e72 b23e
00000110: bc16 a8be 86b8 d43e 36d5 ec3e 20ee a93c
00000120: ca2e bcbe 400c 10bd 7c4f b0be beb3 ce3e
00000130: 1689 b23e 6c4d 983e 1a2c a2be 602c 173e
00000140: d2bb ad3e d258 80be 9c60 ecbe d8bf b8bd
00000150: 38de e93e 94e9 083e cc80 ce3e 7cae b7be
00000160: 4675 de3e 9ee9 8dbe dc7f 8fbe 5069 4a3e
00000170: b010 dc3e 7c77 6c3e e073 76be c842 073e
00000180: 0a02 83be 3a92 a33e 829d 8b3e 047f f2be
00000190: fef5 e03e d40a 213e 301f 573d 740c 593e
000001a0: 960e ebbe 4886 42be 482b c33e e8a6 93bd
000001b0: 882f 60be f689 e1be b074 14bd f860 d93d
000001c0: 8084 e7bd 48f5 c63e 0087 9bbe 14a8 b03e
000001d0: f85c 033e 9a0b fb3e 4455 ef3e bc9e 5d3e
0.46521974 0.43941367 -0.19390434 -0.26806152 0.2355414 -0.15042335 -0.31872523 0.09038395
-0.23262829 0.18626106 -0.10049605 0.44294274 -0.051036477 0.36556536 -0.46913892 -0.39121538
-0.056388855 0.04742664 -0.10368711 0.133497 -0.15625942 -0.015440881 -0.43451482 -0.0071694255
-0.2974853 -0.49375528 -0.1336782 0.46305126 -0.058209658 0.28244334 -0.020075262 -0.41701508
-0.15375501 -0.2543519 -0.02234596 0.32746893 0.10922545 0.05410874 -0.41166347 0.13915992
0.3126015 -0.1219511 0.11197603 -0.31027693 0.37169176 -0.10021287 -0.23586822 0.26592618
-0.15417272 0.17055452 -0.0475114 -0.09793043 0.017712772 -0.40196753 0.16620278 0.1938104
-0.44280553 0.3688779 -0.0741989 -0.06654918 0.03514868 0.3634047 0.27921933 -0.08762753
0.018570423 0.040436625 -0.1539551 0.34852785 -0.32829845 0.4154703 0.46256417 0.02074343
-0.36754447 -0.035167933 -0.34435642 0.40371507 0.34870213 0.29746568 -0.31674272 0.14763021
0.33932358 -0.25067765 -0.46167457 -0.09020966 0.45677352 0.13370353 0.4033264 -0.3587531
0.43448848 -0.27717298 -0.28027236 0.19766736 0.42981482 0.23092455 -0.2406764 0.13209069
-0.25587493 0.319475 0.27268606 -0.4736253 0.43937677 0.15726787 0.052519977 0.21196157
-0.45909566 -0.18996537 0.38118958 -0.07209569 -0.21893132 -0.44050568 -0.036244094 0.106141984
-0.11304569 0.3885901 -0.30376434 0.34503233 0.12828434 0.4903229 0.4674474 0.21642584

weight_hh_l0 f4 [12, 4]
00000000: 5c9f c13e 40c1 313e 24a9 fa3e b489 f1be
00000010: 700d 84bd 028b f9be 7029 a1bd 90fc 183e
00000020: e0de 863d f058 7e3e 9c92 12be 24f7 ddbe
00000030: 564a babe 9e1a bd3e ac60 a93e d4c9 843e
00000040: 00fd 033d 70ed 513e 5612 86be ce30 9abe
00000050: 92d1 bcbe 7c56 7a3e c831 41be 6617 ebbe
00000060: 78ff c8bd 2000 443e fc11 c43e 5075 fbbe
00000070: 50a1 703d 2ef7 a8be 48ba e6bd 4c5a 9cbe
00000080: 083f 8abe 5025 a83d 7012 e23e 92df eb3e
00000090: 4c08 ae3e 646f 803e 0004 bbba bab9 8e3e
000000a0: 64d6 793e 0685 bbbe fa3f a03e e2ea 88be
000000b0: da90 d6be 1c19 f23e e0f7 70bd c8ed a33d
0.37816894 0.17358875 0.4895717 -0.47175372 -0.064478755 -0.48738867 -0.07869232 0.14940095
0.06585479 0.24838614 -0.1431374 -0.43352616 -0.3638484 0.3693437 0.33081567 0.25935233
0.0322237 0.20500731 -0.26185864 -0.3011536 -0.3687864 0.24447054 -0.18866646 -0.4591629
-0.09814352 0.19140673 0.3829497 -0.4911294 0.05874759 -0.33001083 -0.11265999 -0.3053764
-0.27001214 0.08210242 0.44154692 0.46069008 0.33990705 0.25084984 -0.001426816 0.27876073
0.2439819 -0.36624926 0.3129881 -0.267417 -0.41907388 0.47284782 -0.058830142 0.080043375

bias_ih_l0 f4 [12]
00000000: ec2c 3dbe 6080 63be 5aa5 c7be 12f9 8dbe
00000010: c667 b5be 00b6 d53b a20e 883e 10da f03d
00000020: 6ea3 a73e f4bb cb3e 88ff 8dbd b024 17be
-0.18474168 -0.2221694 -0.3899334 -0.27729088 -0.35430735 0.00652194 0.26573664 0.11760342
0.32741874 0.39791834 -0.06933504 -0.14760089

bias_hh_l0 f4 [12]
00000000: 3cc5 ae3e 8865 763e dcd6 bb3e 6a3f dd3e
00000010: ee46 87be a43b 9a3e ac6f 783e 5425 0fbe
00000020: f0ed c9bd 702e 4b3e f4f7 4ebe 34aa 743e
0.34134853 0.24062169 0.36687362 0.43212444 -0.26421303 0.30123627 0.2426135 -0.13979083
-0.09859836 0.19841933 -0.20211774 0.23893052

weight_ih_l0 f4 [12, 14]
00000000: 00ba 9abb e218 9e3e bc8e 2fbe 708f 7e3e
00000010: eaec 80be 1063 51bd 060f 8b3e 9e7c dd3e
00000020: de15 cd3e e475 863e b283 debe 80fb 043d
00000030: d404 603e 64fe 7dbe 3878 dd3e 8815 b6bd
00000040: 101e f13d 18e4 8a3d d2c7 a23e 2073 d93d
00000050: aac1 b23e ae18 b4be e4a0 343e 8013 afbb
00000060: 5c3a d63e c858 643e 08a8 883e 6053 b23e
00000070: 7ede e83e 1446 463e 3202 cebe 3882 963d
00000080: 5093 c6be 4091 67bc fead 86be 40b1 85be
00000090: 9870 9cbe 7014 34be c8bd 36be 22f5 b5be
000000a0: dcb4 d5be 18e4 9d3e 9409 e83e e064 243e
000000b0: d4ea 533e f859 3b3e c02e aa3c ccf6 c63e
000000c0: a067 7c3e 025e c23e 226b e2be 48f8 873d
000000d0: 2028 eabc 28f1 d13d 90ec 87be 047f ba3e
000000e0: 103b 763d 5870 84be 60b5 d2bc 086d 7b3e
000000f0: eccd abbe d064 4bbe 6066 babe 103c f43d
00000100: 9450 053e 489b 40be dab8 f7be f0a0 723d
00000110: 9aaf b0be 5072 e4be d823 d9be e807 853d
00000120: 4052 21be b0d4 77bd 4087 ddbd 069c cd3e
00000130: 986b 34be 3802 b0bd 90d9 7e3e d451 293e
00000140: b849 473e e6a1 cb3e 14e3 40be 9a70 e8be
00000150: 86bd b03e 68bd d33e 4075 33be 20da 14be
00000160: ace3 c13e 78b5 9f3e 00a9 7bbd ca98 f3be
00000170: accb c83e 346e 31be 387b e43d 229f 9e3e
00000180: 60e5 d6be 7416 1ebe 2485 15be 363e b2be
00000190: 188d aabe dc15 debe dc94 54be 60d9 85bc
000001a0: 38fb 5f3e c0ec f6bc 4c5d 8e3e 9087 183e
000001b0: a0d1 033d 0062 debe c097 363d 785b c9be
000001c0: 4e90 8dbe 10b0 92be c84c b4be ec83 01be
000001d0: 6829 eb3e c64c d2be d035 c03d 081a 6bbe
000001e0: cee9 f73e c6fc e63e 4c45 87be 4acd b5be
000001f0: aca5 733e 5843 81bd 4c11 e63e b617 87be
00000200: 6c4c 2cbe 40bb 043c 5a4b 8fbe 9684 eebe
00000210: acec 243e 1c59 15be c880 b5bd 2c53 3bbe
00000220: 140d 3a3e 1e7a f83e f29c b3be 8029 d4bb
00000230: 2af0 f5be 2859 9dbd 7ebb b0be 7ea9 bfbe
00000240: c01d 473d 00a8 7e3e 2478 96be cc22 16be
00000250: 7075 ce3d 42e8 953e 166f f03e be59 a33e
00000260: 1810 b43d 3c47 c3be 2024 9dbe 82a8 80be
00000270: 0c07 12be f626 9f3e 1a21 9a3e 2c0a 1c3e
00000280: 22bb c1be 4430 223e 0030 2dba 6cc7 9cbe
00000290: 6412 42be b062 f53d 24af 2b3e cedc a93e
-0.00472188 0.3087836 -0.17144293 0.24859405 -0.2518075 -0.051119864 0.271599 0.43259138
0.40055746 0.26261818 -0.4345985 0.03246641 0.21876842 -0.24804074 0.43255782 -0.088908255
0.11773312 0.06781787 0.31793076 0.106176615 0.3491338 -0.3517508 0.176395 -0.0053429008
0.418414 0.22299492 0.26690698 0.34829235 0.45482248 0.1936267 -0.4023605 0.07349056
-0.38784266 -0.014133751 -0.2630462 -0.26111794 -0.30554652 -0.17585921 -0.17845833 -0.35538584
-0.41739547 0.30838084 0.45319808 0.16054106 0.20695049 0.18296039 0.020774245 0.38860166
0.24648905 0.37962347 -0.4422236 0.06639153 -0.028583586 0.10251075 -0.2654767 0.3642503
0.06011492 -0.2586696 -0.025721252 0.24553311 -0.33555543 -0.19862676 -0.3640623 0.119255185
0.1301902 -0.18809235 -0.48383218 0.059235513 -0.34508973 -0.44618464 -0.4241016 0.064956486
-0.15754032 -0.06050557 -0.108168125 0.401581 -0.17619169 -0.08594173 0.24887681 0.16535121
0.19461715 0.39771956 -0.18836623 -0.45398408 0.34519595 0.41355443 -0.17525196 -0.14536333
0.37869012 0.31193137 -0.061440468 -0.47577506 0.3921789 -0.17327195 0.111563146 0.30980784
-0.41971874 -0.15438253 -0.1460157 -0.34813088 -0.3331077 -0.43376052 -0.2075991 -0.016339004
0.21873176 -0.030142188 0.27805555 0.14895463 0.032182336 -0.43434143 0.044578314 -0.39327598
-0.27649158 -0.2864995 -0.3521483 -0.1264798 0.45930028 -0.41074198 0.09385264 -0.22959149
0.48420566 0.45114726 -0.26420057 -0.35508186 0.23793668 -0.06311673 0.4493507 -0.26385278
-0.16826028 0.0081012845 -0.27987176 -0.4658553 0.16105908 -0.14584774 -0.08862454 -0.18293446
0.18169051 0.48530668 -0.35080677 -0.0064746737 -0.48034793 -0.07683021 -0.34518045 -0.37434
0.048612356 0.24868774 -0.29388535 -0.14661711 0.10080993 0.2927876 0.46959752 0.31904405
0.08792132 -0.38140285 -0.30691624 -0.2512856 -0.142605 0.31084412 0.3010338 0.15238255
-0.37838084 0.15838724 -0.0006606579 -0.30620897 -0.18952328 0.11981714 0.1676603 0.33176273

weight_hh_l0 f4 [12, 4]
00000000: e66b c53e 9443 66be b0be 57be a0af 933c
00000010: de37 e4be 90f8 be3e 4454 b2be b218 e0be
00000020: 40d5 db3d e03f fe3e a455 33be 7895 a3be
00000030: f0db a4bd b48a d2be 3422 35be 643f b6be
00000040: 3cb0 af3e 1858 c43d 6cdc 643e 5846 97be
00000050: 4abb a83e c05d 7bbc 54e3 4dbe c6e7 92be
00000060: c8f0 9c3d 10f6 dd3e 2421 c43e dc33 853e
00000070: ceab efbe f4b8 833e 8041 fbbd 8685 bfbe
00000080: 280d 97bd e2ea febe 24ae 41be fae9 e2be
00000090: e0f9 9e3c 4008 42be e437 5ebe ae1d 963e
000000a0: 5ecf a83e c051 793e e4d3 78be ac41 13be
000000b0: d043 d6be 7884 a8be a877 a83d 5e2a 873e
0.38558882 -0.22486717 -0.21068835 0.01802808 -0.44573873 0.37299013 -0.34829915 -0.4376884
0.107340336 0.49658108 -0.17513138 -0.31949973 -0.08049762 -0.41121447 -0.17688829 -0.35595238
0.34314144 0.09587115 0.2234971 -0.29545856 0.3295539 -0.015342176 -0.2010625 -0.28692454
0.07663113 0.43351793 0.38306534 0.26016128 -0.46810764 0.25727046 -0.122683525 -0.37406558
-0.07375556 -0.49788576 -0.18914086 -0.44319135 0.019406259 -0.1894846 -0.21701008 0.2931952
0.3297071 0.24347591 -0.2429958 -0.1438052 -0.41848612 -0.32913566 0.082259476 0.2639951

bias_ih_l0 f4 [12]
00000000: 2625 913e d862 083e 5cb8 953e 7c1a 8f3e
00000010: f605 a3be 5059 593e 4853 453e a45c eabe
00000020: 6043 45be a015 033e aed6 ddbe f843 bc3e
0.28348655 0.13318956 0.29242218 0.27949893 -0.31840485 0.21225476 0.1927005 -0.45773804
-0.19263983 0.12801218 -0.4332785 0.36770606

bias_hh_l0 f4 [12]
00000000: b4d1 613e d0da 303d b845 a7bd 341e b13e
00000010: fc39 473e 4821 e3be 1c92 acbe 8847 b43e
00000020: 4089 bb3d 90d5 3e3d 1a8a d2be 0cb9 7abe
0.22052652 0.043177426 -0.08167595 0.34593356 0.19455713 -0.4436133 -0.33705223 0.35210824
0.09157038 0.046590388 -0.41120988 -0.24484652

weight_ih_l0 f4 [3, 11]
00000000: fc23 e7be b858 b2be 606a 13bf a008 14bf
00000010: 0053 fd3d 6a21 3a3f 7e46 73bf 00c3 f43e
00000020: ae22 42bf 52d1 1dbf a22c 13bf a87e efbe
00000030: f019 c8be 24ca 7bbf 2898 9bbe 6882 563e
00000040: f4a4 84be 0a61 433f 7a27 413f 8615 0ebf
00000050: ec46 d4be f80a cabe 70c9 ebbd 4003 c2bc
00000060: 3cc5 c33e 5ccd 29bf e08f 3c3d 7260 7c3f
00000070: fc05 7f3f 5a95 573f 10b3 09bf 2449 383f
00000080: 68af 2e3f
-0.4514464 -0.34833312 -0.5758419 -0.5782566 0.123693466 0.72707236 -0.9502944 0.47805023
-0.75834167 -0.6164752 -0.5748998 -0.4677632 -0.3908229 -0.9835532 -0.30389524 0.20948184
-0.259071 0.76319945 0.7545086 -0.5550159 -0.4146036 -0.39461493 -0.115130305 -0.02368319
0.38236415 -0.6632898 0.046035647 0.98584664 0.99618506 0.8421227 -0.5378885 0.71986604
0.682364

weight_hh_l0 f4 [3, 1]
00000000: c03e 873d 4082 c6be 389d 49bf
0.066037655 -0.38771248 -0.7875552

bias_ih_l0 f4 [3]
00000000: 2cb0 afbe ee8f 36bf 8609 313f
-0.34314096 -0.7131337 0.69155157

bias_hh_l0 f4 [3]
00000000: 7ab2 5ebf 46a1 1d3f e4fe c73e
-0.86991084 0.6157421 0.39061654

weight f4 [1, 4]
00000000: 4014 743c a22f 8b3e c04f 393e b082 2e3d
0.014897406 0.27184778 0.18096828 0.042605102

weight f4 [200, 5]
00000000: 10ae ae3e aa76 a63e 08ef 87bd 00e0 5d3e
00000010: d00e 603d 6a55 c5be 5070 193e d1ef 9fbe
00000020: 588b b9be 6c65 e3bd b27a 9ebe 30a0 ad3e
00000030: 904e 4d3d 3a3c c7be a07c f83d 0bab 73be
00000040: 8072 bbbe 802d e23e 5077 6b3e 9add 16be
00000050: 54ce ba3e f695 c33e 8433 9abd 00fb a9bc
00000060: c0fa c03d ac64 35be a0f5 f2bd 605c 06bd
00000070: 2e20 85be c427 683e c0cf 3ebc 1823 703e
00000080: a40e 1e3e 3b48 58be 40ee 7a3d 8060 b7bb
00000090: 7d93 cebe 905b 163e 4043 9c3b b801 86be
000000a0: 0839 923e f4b8 3f3e 60d7 a03c 0cf3 a3bd
000000b0: caa6 9b3e 1083 653d b368 83be 700d 04be
000000c0: 6c45 81bd e89f 003e dc57 18be ea26 91be
000000d0: 6a54 12be e087 e33e e0d5 e03e fc42 673e
000000e0: 5473 7a3e 531b adbe c0f4 673d 48f7 d93e
000000f0: 606f 82bd a0be b03c b476 3cbe 7081 8a3c
00000100: 4c25 24be b8ea 0cbd 5c2f 43be b1d0 e0be
00000110: 98ed 90be b0c2 af3d e0c5 903d 98f1 94bd
00000120: ee67 843e 57ab c4be 77d6 5dbe e415 9cbd
00000130: 8e2e 893e 00fb 8abd 2892 763e 7040 503e
00000140: 8884 57be 632e a2be 002e 5fbc 1836 a53d
00000150: 465b b93e 84af d23e a039 a73d a03d 4dbd
00000160: 803b 993d 0c37 9abe 561a 23be b7ca 99be
00000170: 30aa f73d aca4 073e f0d2 8f3d 28c1 8f3d
00000180: dc16 d43e 0a87 be3e fa60 c8be 5c40 92be
00000190: 2c49 2c3e 3071 eb3c 08ac efbd 406f 663c
000001a0: 8c7d 953e d0f4 743d e0e7 a8be 9800 75bd
000001b0: e4ed 5b3e 6065 4c3c ea3d a03e e008 90bc
000001c0: 5089 28bd 0091 bfba 10c4 643e 0474 c6bd
000001d0: e80a c93e 7426 d5bd a00f 753c 5365 cbbe
000001e0: 60c4 bebc 966f 04be 80cb 51bd 5c0d cd3e
000001f0: 60f7 7d3d 70ea 8e3d 4ef8 a43e 8e4f 983e
00000200: 24e8 dcbd 027b 83be 1065 9a3e 1ef6 93be
00000210: bcba 873e a4f7 433e da92 8fbe 9220 d73e
00000220: c4b4 563e cac1 d5be fcb8 303e a8a1 9abe
00000230: 5846 d0bd 0ef0 a63e a7f8 87be e00f a33d
00000240: 0819 ccbd 808f e9bb d8c1 213d ba66 15be
00000250: ac03 3ebe 8920 dabe 94cc b93e 8248 b03e
00000260: 60c7 d0be 6ab7 8d3e b054 793d 5cf3 d23e
00000270: 8c54 103e 4466 503e d86b 033e 32a4 ba3e
00000280: ae98 bdbe 3c1a b43e 3030 65bd 0673 13be
00000290: 7f64 d6be b8ee b93e f0c7 9fbc 20e1 f93c
000002a0: b6ca dfbe c16c 7bbe 1e7f 72be 6087 ecbc
000002b0: cadc 9bbe c81d 393d 1e9f 06be 4498 14be
000002c0: f0c3 b73c c0a8 2c3e cc1e b6bd 08e6 633e
000002d0: a148 8dbe 0cc4 253e f70a a8be 02f1 1abe
000002e0: c268 a0be dcbc 853e 26ca a03e 80ac c4be
000002f0: bce7 8abe 54c4 8a3e d081 e03d 7c97 7ebe
00000300: 2615 60be 06eb a63e 88c1 633e 1096 9f3c
00000310: 1400 d83e f853 023e a05d b73e 98d2 803d
00000320: 60c7 743d 5c2b 45be 0085 f73a b0ab 64be
00000330: e00d 8dbe 7e10 d33e 6722 a1be 3840 7b3e
00000340: d639 93be e486 173e fd81 d0be 18fa 5a3e
00000350: 31da 62be 4253 ca3e b06b 2cbd 1834 7a3e
00000360: 7009 a7be 10fd 433d 3cfa 123e 04bd 2b3e
00000370: eada e3be dcc8 dabd 2038 5c3d 503b a33d
00000380: 74f9 a73e 7093 d8be 56a2 ae3e 70d5 a63d
00000390: 0889 123e 7c80 523e cb68 d5be a4b5 48be
000003a0: 4690 933e 208f bc3e f051 e53c 8c84 c93e
000003b0: 78ce 933e e26e c23e 3c22 873e b4a3 dbbe
000003c0: e7a1 aabe b884 af3e 4e6e a63e b0c9 683e
000003d0: 3ce7 4dbe f89e 7e3e dc12 3f3e f026 d13d
000003e0: 1cd1 343e 1f99 62be dcbe 92be d849 243e
000003f0: c872 833d 3075 b13d bc2b 993e 5c98 b9bd
0.34117174 0.32512408 -0.066373885 0.2166748 0.054701626 -0.38541728 0.1498425 -0.31237653
-0.36239123 -0.11103329 -0.30952984 0.33911276 0.05012375 -0.38913137 0.12133145 -0.23795716
-0.36610794 0.4417534 0.22994733 -0.14732972 0.3648554 0.3820035 -0.07529357 -0.020749569
0.09422827 -0.17714185 -0.118632555 -0.03280294 -0.26001114 0.2267142 -0.011646211 0.23450887
0.15435272 -0.21121304 0.06126237 -0.0055962205 -0.403469 0.14683366 0.004768759 -0.26173186
0.28559136 0.18722898 0.019633949 -0.08005342 0.30400687 0.056033194 -0.25665817 -0.12895751
-0.06312069 0.12561 -0.14877266 -0.28350002 -0.14290014 0.44439602 0.43913174 0.22584146
0.24458057 -0.3380991 0.056629896 0.42571473 -0.06368899 0.021575272 -0.18404657 0.016907424
-0.16029853 -0.034403533 -0.19061035 -0.4390922 -0.2830627 0.085820556 0.07068992 -0.07272643
0.25860542 -0.38411972 -0.21663843 -0.07621363 0.2679333 -0.06786156 0.24079192 0.20337081
-0.2104665 -0.31676015 -0.013621807 0.08066958 0.3620245 0.41149533 0.08165288 -0.0501076
0.07482052 -0.30120122 -0.15928015 -0.30037472 0.120930076 0.13246411 0.07022655 0.070192635
0.4142369 0.37212402 -0.39136487 -0.28564727 0.16824788 0.028740495 -0.11702734 0.01406461
0.29197347 0.059803784 -0.32989407 -0.05981502 0.21477467 0.012475342 0.31297237 -0.017582357
-0.041146576 -0.0014615357 0.22340417 -0.09690097 0.39266133 -0.10407725 0.014957339 -0.39725742
-0.023286998 -0.12933192 -0.051219463 0.40049255 0.062003493 0.06978309 0.3222069 0.29748195
-0.10786465 -0.25679785 0.3015523 -0.2889871 0.26509655 0.19137436 -0.28041726 0.42017037
0.20967394 -0.41749412 0.17258066 -0.3020146 -0.10169667 0.32605022 -0.26556894 0.07962012
-0.09965712 -0.0071277022 0.039491504 -0.14589968 -0.18556088 -0.42602947 0.36288893 0.3443032
-0.4077711 0.27678996 0.06087178 0.41201293 0.14094752 0.20351511 0.12834108 0.36453396
-0.37030548 0.35176265 -0.05595416 -0.14399347 -0.41873547 0.3631494 -0.019504517 0.030502856
-0.43709344 -0.24553205 -0.23681304 -0.028873146 -0.30441886 0.045194417 -0.13146636 -0.1451121
0.022432297 0.16861248 -0.08892593 0.22255719 -0.27594474 0.16188067 -0.32820866 -0.15131
-0.31329924 0.2612065 0.31404227 -0.38412857 -0.27129924 0.2710291 0.1096226 -0.24862474
-0.21883067 0.32601184 0.22241795 0.019480735 0.4218756 0.12727344 0.35813618 0.062901676
0.05976045 -0.19254822 0.0018884242 -0.22331119 -0.27549648 0.4122352 -0.3147156 0.24536216
-0.28755063 0.1479755 -0.40724173 0.21384466 -0.22153546 0.39516646 -0.042094886 0.24433935
-0.32624388 0.04784876 0.1435327 0.16771322 -0.44502956 -0.10682842 0.053764462 0.07970297
0.32807505 -0.42299986 0.34108227 0.08146179 0.14310086 0.20556825 -0.41681513 -0.1960054
0.2882101 0.36827946 0.027993172 0.39358938 0.2886846 0.37975222 0.26393306 -0.42898333
-0.33326647 0.34280944 0.3250603 0.22733188 -0.2010774 0.2486533 0.18659538 0.10212505
0.17657894 -0.22128724 -0.2866124 0.16043794 0.06418377 0.0866493 0.2991618 -0.09062263

bias f4 [200]
00000000: 80e6 f23d 805e 88bd 2e9a 95be e929 c2be
00000010: f8ec 88bd 0ccc c7be fdcd cabe 0872 34bd
00000020: 448a 98be d40e 1d3e e378 cabe 346a de3e
00000030: 18a9 80be 886d babe caf1 a5be 142a 053e
00000040: 5e36 14be 58fe 31be 78c4 1b3e 40dd 363e
00000050: ce12 c43e 76ad b13e 540c bcbe fc4c b0bd
00000060: cd51 a6be 8a1c a33e 86ba d33e 6037 043e
00000070: 5086 313e c050 a8be 784a dcbd 2136 bdbe
00000080: 2081 6e3c 38e4 7c3e 35cc 6bbe 083c c2be
00000090: c49e 8abd 944f 133e e4ff 883e 880c c9bd
000000a0: 26b7 da3e c858 a63d b0ed fe3d b2b4 c13e
000000b0: e815 363e d4fe b43e b696 d03e 8088 a13c
000000c0: c495 b7be 0004 c6bd 809e 3abc 02ab b9be
000000d0: fe23 8dbe 5c0d acbe 90ea 45bd aecc c83e
000000e0: 2016 7dbc 3006 653d 4029 f83b bc25 993e
000000f0: df66 94be 16e2 aa3e 6893 673e 1ea1 d2be
00000100: 40ee fa3d 3a26 b83e 4896 6a3e 6cf4 c83e
00000110: 3439 863e 4235 d9be 7841 8c3e 1a40 a6be
00000120: c800 df3e 4a57 20be 0858 b3be 6013 58bc
00000130: fe1e 87be 3005 243e 0896 f83d e8f2 95be
00000140: 771e 74be 644b 82bd ec73 513e 6c56 543e
00000150: 486c cabd 46d7 a13e 4486 cd3e d21c cc3e
00000160: 9009 0f3e 3614 d93e 066b 9dbe 6c53 6e3e
00000170: b8b7 803d 0054 a93b d4b0 f9bd 6dbf 51be
00000180: 3fe2 cebe 5841 873d b084 8dbc 6893 d6be
00000190: 8c79 673e ccd5 983e 4482 ffbd 662d 8abe
000001a0: 2821 8a3d cfcd c2be d000 6e3d 7854 30be
000001b0: ac00 f7bd 3053 fc3c c033 393d 0064 a4bd
000001c0: 7caa 26be fcc9 df3e 2a37 9d3e debd 9cbe
000001d0: c252 8abe 881b 5c3e 20e3 c0be f1a0 dabe
000001e0: 0aac b93e 3c7c 303e ceef ddbe f873 713e
000001f0: 74f8 b9bd 5918 9abe 4224 39be 4423 c2be
00000200: 4d4e dbbe 0672 25be f563 94be 019f d2be
00000210: 2cdd 673e 2005 103e 0452 eabd 26f4 d1be
00000220: 749d 0c3e 6abd 923e 40b5 083d 7c75 753e
00000230: be53 57be c301 6ebe 6800 c13e 6001 b1bc
00000240: 1ec9 e33e ae93 5fbe 145b 093e 5edd aebe
00000250: 64e0 203e accd bb3e 6ae6 a1be 7cd4 9abe
00000260: 00ac 7f3e 08d3 5e3e 07aa 8fbe 7057 47bd
00000270: 12f9 89be 802f d23c 1c98 29be f0b4 693e
00000280: ec13 e4bd 9689 19be b8f7 163e 80d0 923e
00000290: 4262 c43e 4013 60bc 0039 b13a a870 0e3e
000002a0: 78de fdbd f631 95be 3cea 39be 2093 9e3d
000002b0: e075 b53d 8094 83bb 8239 a73e 2021 dd3e
000002c0: 08b7 81bd 00e0 2b3e 9c37 4f3e 0ce8 bb3e
000002d0: ca50 c73e 6ce8 053e 907c 873d 98d1 dd3d
000002e0: 6a3a d83e 306b a03d 5843 43bd 5c36 dd3e
000002f0: d44c 42be d8c6 473e 0b17 b2be d880 92be
00000300: d081 ff3d f438 1cbe 12c8 c03e a503 72be
00000310: 60bb 09bc fca8 cbbe 50ac 873e 4146 acbe
0.11860371 -0.066586494 -0.29219192 -0.379226 -0.06685823 -0.39022863 -0.39610282 -0.04405406
-0.29792988 0.15337688 -0.39545354 0.43440402 -0.25129008 -0.3641169 -0.32411033 0.13004333
-0.14473864 -0.1738218 0.15211666 0.17857838 0.38295597 0.34702653 -0.36728156 -0.086084336
-0.32484284 0.3185771 0.41353244 0.12911749 0.17336392 -0.32874107 -0.10756391 -0.3695536
0.014557153 0.24696434 -0.23027118 -0.37936425 -0.067685634 0.14385825 0.2675773 -0.09816843
0.42717856 0.081224024 0.12447679 0.37833172 0.17781794 0.35350668 0.40739983 0.019718409
-0.3585645 -0.09668732 -0.011390328 -0.3626328 -0.27566522 -0.33603942 -0.0483194 0.39218658
-0.01544717 0.055914104 0.0075732768 0.29911602 -0.28984734 0.33375615 0.22614825 -0.41138548
0.12252474 0.35966665 0.2290889 0.3924898 0.26215518 -0.42423445 0.273937 -0.3247078
0.43555284 -0.15658298 -0.350281 -0.013188213 -0.26390833 0.16017604 0.12137991 -0.29286885
-0.23839746 -0.06362036 0.20454377 0.20736092 -0.09883934 0.31609553 0.401415 0.39865738
0.13968492 0.42398232 -0.30745715 0.2327401 0.062850416 0.0051674843 -0.121919304 -0.2048318
-0.40406987 0.0660426 -0.017275184 -0.41909337 0.2260496 0.29850614 -0.12476018 -0.2698776
0.06744605 -0.38047644 0.058106244 -0.17219722 -0.12060675 0.030801386 0.04521537 -0.08026886
-0.16275972 0.4370879 0.3070615 -0.30613607 -0.27016264 0.21494877 -0.37673283 -0.42700914
0.36264068 0.17234892 -0.4334702 0.23579395 -0.09080592 -0.300967 -0.18080238 -0.3791753
-0.42833176 -0.16156778 -0.2898251 -0.41136935 0.22642964 0.14064455 -0.114414245 -0.41006583
0.13731939 0.28660136 0.03337598 0.23970598 -0.21028039 -0.2324286 0.37695622 -0.021607101
0.44489378 -0.21833679 0.1341365 -0.34153265 0.15710598 0.36680353 -0.31621104 -0.30240238
0.24967957 0.2176019 -0.28059408 -0.04866737 -0.26947838 0.025657415 -0.16561931 0.22822928
-0.11136612 -0.14993891 0.14742935 0.28674698 0.38356215 -0.013676465 0.0013521016 0.13910162
-0.12395948 -0.2913968 -0.1815576 0.077429056 0.088603735 -0.0040155053 0.32661062 0.43189335
-0.063337386 0.16784668 0.20236057 0.36700475 0.38928825 0.13076943 0.06615555 0.108309925
0.42232066 0.078329444 -0.047671646 0.43205535 -0.1897462 0.19509447 -0.34783205 -0.28613925
0.12475932 -0.15256101 0.37652642 -0.23634203 -0.00840649 -0.39777362 0.26498652 -0.3364735

weight f4 [2, 200]
00000000: 40f4 d5ba 0a8a bbbc a81c 5b3d 861e 82bd
00000010: 2cb2 8f3c 184f 1f3c cc90 2bbd 5833 62bc
00000020: 2c0e d13c 2c45 b03c 3ec3 6e3d 5092 18bc
00000030: 61c6 0dbd cfd2 8e3d a245 c0bc 8014 c4bb
00000040: f051 54bd c00a c3ba 1243 eebc 7575 1cbd
00000050: 222c 99bc 4428 083d 20e2 01bd a821 6d3c
00000060: 641d f13c 37f1 803d 00e3 10ba 8cfd 3fbd
00000070: 80e6 243b 9c7e 3d3d aa26 8ebd 78a6 d43c
00000080: 0043 253b 960b 7b3d 1025 073c e8f3 2dbd
00000090: 8063 59bd 42a0 7c3d 0cda 8a3c c08a 1e3b
000000a0: 9a2d 143d b9a1 883d 8027 d2ba 805f 3d3b
000000b0: c4a8 14bc 720f 583d cc62 4abd c2cd 90bd
000000c0: 56a7 8fbd 40b4 1b3c 9470 fcbc de37 763d
000000d0: 7045 ff3c ca6d 8abd 40cd 4fbb fa72 c4bc
000000e0: 27bb 7bbd 9a0a 673d 00c9 f4ba 3ce4 fb3c
000000f0: fff7 85bd 641b e2bc 74ea 66bc 98fb 11bd
00000100: 1611 613d b41d 063d 9e7e b6bc 70a9 9d3b
00000110: 7e2a 9ebc 20b9 013b aa34 173d 2ef6 18bd
00000120: f468 923c f28b 4dbd fdde 813d 508c 0e3d
00000130: a09c ebbb 1cb7 89bc 4098 f4ba 13a1 07bd
00000140: b4a8 3ebd 10a0 fdbb 9c80 343d c175 16bd
00000150: edf2 63bd 0bfa 8e3d b46f a03c 17a3 27bd
00000160: 9385 843d 129f 4a3d 4aed 74bd 11a7 1cbd
00000170: f08c 99bb e096 e23b 0f52 823d f0d6 67bc
00000180: 8b99 1fbd a521 803d 00c1 80bb acf0 ac3c
00000190: 48b3 53bc e83b df3c 3ff3 00bd d00a 27bd
000001a0: b0cd adbc fc4d 43bd 0e9c 5f3d c44f 77bc
000001b0: 843b 5cbd d220 36bd 121b 4e3d 55b3 813d
000001c0: c02d af3c 9f49 60bd 1036 9f3b 9ac2 54bd
000001d0: c805 8b3c 28cc c2bc 0a3e 63bd 544a 01bd
000001e0: de96 92bc 1447 b43c 895a 3abd 108a dfbc
000001f0: 08c8 0d3d 62f4 1d3d 761a 343d 3e03 eabc
00000200: 823b 1f3d 98d4 a53c 6053 6cbb 089d 543d
00000210: 838d 01bd 4c09 ee3c ea0c f1bc 74ce 3c3d
00000220: 2c10 d93c d214 553d d0d9 e3bb 9e97 143d
00000230: 7aad 33bd 8fd7 8c3d 3c44 ae3c 51bf 6ebd
00000240: c09b e9ba 4339 823d 9caa 4ebd e16a 823d
00000250: 1360 80bd 30ca edbc 5eb7 5a3d 7c66 423d
00000260: c06c 683b a095 59bd a0cc 58bb 6ca1 06bd
00000270: b090 ffbb a394 82bd 4f2c 64bd e277 0c3d
00000280: fad8 723d e891 bb3c a8ec 63bc 4201 82bc
00000290: da1d 683d 54d1 68bd a801 9c3c 132c 8abd
000002a0: 0640 113d 802f 36ba 88da 873c 98f0 0a3d
000002b0: 9a98 7c3d 417d 18bd 2220 203d 1a37 3fbd
000002c0: 141a 923c 043b c7bc 0091 99ba e159 8f3d
000002d0: e031 ef3c 82f3 5d3d 2c61 2dbd 0854 8cbd
000002e0: e0b9 0bbd efb5 14bd b455 84bc 38b5 46bd
000002f0: 141e f63c 68d9 d23c 94f4 18bd f8cf 66bd
00000300: 74cd 093d c64a 0c3d e0a2 38bc d8a4 343c
00000310: 20d5 6cbd c47f 85bc 628d 9abc e474 8f3c
00000320: 50ae 393c 601e dcbb 4875 fa3c c4da c43c
00000330: a085 4b3d 80d3 a43c 8599 19bd c804 173c
00000340: 4de8 803d e5bb 64bd 78bc eb3c e5ce 873d
00000350: bea1 0abd 6e9a 013d 0846 26bc ccfa 983c
00000360: 44f5 283d 2c9d 3cbc d0ee b33c fc4e 30bc
00000370: c348 89bd 15da 2bbd 286e 83bc e80b 27bc
00000380: 5fa4 1fbd db24 823d 906e 0ebc 60f6 b53b
00000390: e927 8fbd 70c3 a8bb ac54 76bc b0b1 ea3b
000003a0: a97b 8a3d 96a3 dcbc 82fa 22bd 6cc2 52bd
000003b0: 78fa e03c ace7 7abc 9811 a93c a412 1c3d
000003c0: ac3c aa3c f4bf 41bd bd05 77bd b889 4f3c
000003d0: 442d ed3c ef76 02bd e086 c33c e259 6c3d
000003e0: be2b 4c3d 6fda 22bd 7e0b 49bd 68a1 6a3c
000003f0: 4087 0f3c 7637 71bd 48f6 513d 14f6 6ebc
-0.0016323403 -0.02289297 0.053494126 -0.06353478 0.017541014 0.009723447 -0.041886136 -0.013806187
0.025519453 0.021517359 0.058291666 -0.009312227 -0.034613017 0.06973802 -0.023470704 -0.005983889
-0.051835954 -0.0014880523 -0.029084716 -0.038197953 -0.018697802 0.033241525 -0.03170979 0.014473356
0.02943296 0.06296008 -0.00055269897 -0.04687266 0.0025161803 0.046263322 -0.06940968 0.025958285
0.0025216937 0.061290346 0.0082485825 -0.042468935 -0.053073406 0.06167627 0.016949676 0.0024191588
0.0361763 0.06671471 -0.00160335 0.0028896034 -0.00907344 0.052749105 -0.049410626 -0.07070495
-0.07014339 0.009503424 -0.0308154 0.060111873 0.03116104 -0.06759222 -0.0031708032 -0.023980606
-0.06145778 0.056406595 -0.0018675625 0.030748479 -0.06541442 -0.027600951 -0.014093984 -0.03564033
0.054947935 0.03274317 -0.022277173 0.0048114583 -0.019307371 0.001979418 0.03691546 -0.03734415
0.017872311 -0.05018229 0.0634136 0.03480178 -0.007190302 -0.016810946 -0.0018661097 -0.033112597
-0.046547607 -0.007740028 0.044067964 -0.036733393 -0.055651594 0.06981286 0.019584514 -0.04092702
0.0647079 0.049468108 -0.05979661 -0.038245264 -0.0046859905 0.0069149584 0.06363308 -0.014150366
-0.03896479 0.06256417 -0.0039292574 0.021110855 -0.012921162 0.027250245 -0.031481978 -0.040781796
-0.021216244 -0.047681794 0.054592185 -0.015094701 -0.053767696 -0.044464894 0.050318785 0.06333033
0.02138412 -0.05475771 0.0048587397 -0.0519434 0.01697053 -0.02377899 -0.055479087 -0.031565025
-0.017894205 0.022006549 -0.045496497 -0.027287513 0.034614593 0.03856314 0.043970548 -0.028566
0.03887511 0.020242974 -0.0036060438 0.05190757 -0.031629097 0.029057167 -0.029425103 0.046095327
0.02649697 0.05202181 -0.0069534555 0.036277406 -0.043866612 0.06877052 0.021272771 -0.058287922
-0.0017822906 0.06358578 -0.050455675 0.06368042 -0.06268325 -0.029027075 0.05339753 0.047461018
0.003546521 -0.05312121 -0.003308095 -0.032868788 -0.0077992305 -0.063760065 -0.05570632 0.034294017
0.059288956 0.022896722 -0.013911404 -0.01586974 0.056669094 -0.056840256 0.019043759 -0.06746688
0.035461448 -0.0006949827 0.016583696 0.033920854 0.06166897 -0.037228826 0.039093144 -0.04668341
0.0178347 -0.024320133 -0.0011716187 0.06999565 0.029198587 0.054187305 -0.042329 -0.06851965
-0.03411281 -0.036306318 -0.016154148 -0.048512667 0.03004364 0.025738433 -0.037342623 -0.05635068
0.0336432 0.034250997 -0.011269301 0.01102563 -0.05782044 -0.016296275 -0.018866245 0.017511792
0.011333063 -0.006717488 0.030573502 0.024030097 0.04968798 0.020120382 -0.037499923 0.0092174485
0.06294308 -0.055843253 0.028776392 0.06631259 -0.033845656 0.031641416 -0.010148533 0.018674277
0.04124953 -0.011512082 0.02196446 -0.010761019 -0.06703331 -0.041956026 -0.016043738 -0.01019571
-0.038975116 0.06354686 -0.008693352 0.005553052 -0.06990034 -0.005150251 -0.015034836 0.0071622953
0.067618676 -0.026933473 -0.039789684 -0.051454946 0.027463183 -0.015314024 0.020638272 0.038103715
0.020780884 -0.0473022 -0.060308207 0.012667112 0.028952248 -0.031851705 0.023868024 0.057702906
0.049846403 -0.039759096 -0.049083225 0.014320709 0.008760273 -0.058890782 0.051260263 -0.014585037

bias f4 [2]
00000000: de0c 83bd de60 743d
-0.063989386 0.059662692

weight f4 [4, 3]
00000000: 7e95 023f 3cbc fcbe 98ad ba3d 1040 ce3d
00000010: 101c 04bf 2891 9e3e b735 92be 3b3a cabe
00000020: 16a5 0f3f a80b 203e 528f 0cbe 942e b6bd
0.51009357 -0.4936236 0.09115142 0.10070813 -0.5160532 0.3097012 -0.28556606 -0.3949755
0.56111276 0.15629447 -0.13726547 -0.08895603

bias f4 [4]
00000000: 939e e6be 040a 9c3e 326a d5be f4cc 6d3e
-0.45042858 0.3047639 -0.41682583 0.23222715

weight f4 [4, 8]
00000000: 175e a7be 7a14 e1bd e044 8bbd 0b87 9d3e
00000010: 0848 9cbe 54e0 98bd 809e e43d 9369 813e
00000020: 2a1f 57be b41f 9dbe 3c86 b73d e23d 173e
00000030: 0016 953b 0297 40be b04b 32be 3287 eabd
00000040: c893 c33d ff1d 843e 8057 03bb 693c 64be
00000050: e23b 733e 8060 fcbd 744d 74be 423d 513e
00000060: 4148 8a3e 9212 363e fa3c 013e 505d 9dbe
00000070: 68c5 dcbd 0e89 9dbe 7045 fbbd a09f 61bc
-0.32688972 -0.10990234 -0.06800246 0.30767092 -0.30523705 -0.07464662 0.11163044 0.2527586
-0.21007982 -0.3068825 0.0896115 0.147697 0.0045497417 -0.18807605 -0.17411685 -0.11451568
0.095496714 0.25804135 -0.0020041168 -0.2228867 0.23753312 -0.123230934 -0.23857671 0.20433524
0.2700825 0.17780522 0.12620917 -0.30735254 -0.1077984 -0.30768627 -0.122691035 -0.013770968

bias f4 [4]
00000000: 289d 78be 5ead 693e efea af3e b076 153e
-0.242787 0.2282004 0.34358928 0.14596057

weight f4 [10, 2]
00000000: fbc0 2c3f 1045 54bd 9a60 1ebf be36 b8be
00000010: f847 5f3e 6e30 ee3e 5fde 173f 938a 21bf
00000020: 6459 1dbe b61b 0dbf 1cec 6fbe 0a80 bd3e
00000030: 43f4 0f3f d4db 45be 95a1 243f bf81 133f
00000040: 81c4 2d3f dc32 f3be 8adb 9fbe f16e d2be
0.67481965 -0.051823676 -0.6186615 -0.35979265 0.21804798 0.46521324 0.59323686 -0.6310207
-0.15366131 -0.5512041 -0.23429912 0.3701175 0.5623209 -0.19322139 0.64309055 0.5761985
0.67877966 -0.4749974 -0.31222183 -0.41100267

bias f4 [10]
00000000: bff8 1ebf ec8f 1bbf 224c ff3e f71f f6be
00000010: f60e aa3e ae95 a63e 98e7 8cbe b6cc 34bf
00000020: d506 c3be a8a5 7a3e
-0.62098306 -0.6076648 0.49862772 -0.48071262 0.3321454 0.32536072 -0.27520442 -0.70624864
-0.3809115 0.24477255

weight f4 [10, 2]
00000000: 9e6c af3e 264c f33e f56c 093f 900a 56be
00000010: eb11 163f a3cd 023f 9270 ed3e aceb 233e
00000020: 51b6 293f 6966 193f a026 803d eca6 7cbe
00000030: 822c 833e fd4d abbe f85c dcbd 7607 df3e
00000040: a2d5 b1be c690 b13e 12d8 bf3e 5920 83be
0.34262556 0.47519034 0.5368188 -0.20902467 0.5862109 0.51095027 0.46374947 0.1600787
0.6629382 0.5992189 0.06257367 -0.2467305 0.25619894 -0.33457938 -0.1075992 0.4356038
-0.347333 0.34680766 0.37469536 -0.25610617

bias f4 [10]
00000000: 7365 02bf 43f8 27bf 937c 293f b698 b33e
00000010: 3a0b 06bf 42e4 0fbf 23fc 173f ae3e f23e
00000020: cc3f 513e 27be 223f
-0.5093605 -0.6561319 0.6620571 0.35077447 -0.5236088 -0.5620767 0.59369105 0.47313446
0.20434493 0.635714

weight f4 [10, 2]
00000000: f67b 8d3e 0016 c83a 9b4a a9be b8bb f5bd
00000010: cbf8 213f e36f a0be d451 aebe c7af 0a3f
00000020: 2481 11bf c0a6 393d 80f1 36bc 76cc e93e
00000030: 3809 26be f4aa 303e 30f8 07bf 33bc b1be
00000040: e08c 77be 50e4 a9bd 4b36 1f3f c650 28bf
0.27633637 0.0015265346 -0.33064732 -0.11998695 0.6327025 -0.31335363 -0.34046805 0.54174465
-0.5683768 0.04532504 -0.0111659765 0.45663804 -0.16214454 0.17252713 -0.5311308 -0.34713897
-0.24174833 -0.082955 0.6219222 -0.6574825

bias f4 [10]
00000000: 1abb 873e 80c9 5bbc 80f4 563e 78f9 bfbe
00000010: 429b d03e 9e0a 7abe e2d5 943e 457a f5be
00000020: ff56 2c3f 287f 1a3e
0.26509935 -0.013414741 0.20991707 -0.37495017 0.40743452 -0.24418113 0.2906943 -0.47944847
0.67320246 0.15087569

F f4 [2, 2]
00000000: 0000 803f 0ad7 233c 0000 0000 0000 803f
1.0 0.01 0.0 1.0

Q f4 [2, 2]
00000000: fcf4 b234 17b7 5138 17b7 5138 0ad7 233c
3.3333333e-07 5e-05 5e-05 0.01

H f4 [1, 2]
00000000: 0000 803f 0000 0000
1.0 0.0

prior_Q f4 [2, 2]
00000000: 0000 803f 0000 0000 0000 0000 0000 803f
1.0 0.0 0.0 1.0

prior_Sigma f4 [2, 2]
00000000: 0000 0000 0000 0000 0000 0000 0000 0000
0.0 0.0 0.0 0.0

m1x_0 f4 [2]
00000000: 486b eb41 1646 40bf
29.427383 -0.7510694

m2x_0 f4 [2, 2]
00000000: 0000 0000 0000 0000 0000 0000 0000 0000
0.0 0.0 0.0 0.0

h_S f4 [1, 562, 1]
00000000: 0000 c07f 56b8 763f 6e88 7d3f 6e88 7d3f
00000010: 6e88 7d3f 6e88 7d3f 6e88 7d3f 6e88 7d3f
00000020: 6e88 7d3f 6e88 7d3f 6e88 7d3f 6e88 7d3f
00000030: 6e88 7d3f 6e88 7d3f 6e88 7d3f 6e88 7d3f
00000040: 6e88 7d3f 6e88 7d3f 6e88 7d3f 6e88 7d3f
00000050: 6e88 7d3f 6e88 7d3f 6e88 7d3f 6e88 7d3f
00000060: 6e88 7d3f f40b 5e3f 37e9 5b3f 37e9 5b3f
00000070: 37e9 5b3f 37e9 5b3f 37e9 5b3f 37e9 5b3f
00000080: 37e9 5b3f 37e9 5b3f 37e9 5b3f 37e9 5b3f
00000090: 37e9 5b3f 37e9 5b3f 37e9 5b3f 37e9 5b3f
000000a0: 37e9 5b3f 37e9 5b3f 37e9 5b3f 37e9 5b3f
000000b0: 37e9 5b3f 37e9 5b3f 37e9 5b3f 37e9 5b3f
000000c0: 37e9 5b3f 37e9 5b3f 37e9 5b3f 37e9 5b3f
000000d0: 37e9 5b3f 37e9 5b3f 37e9 5b3f 37e9 5b3f
000000e0: 37e9 5b3f 37e9 5b3f 37e9 5b3f 37e9 5b3f
000000f0: 37e9 5b3f 37e9 5b3f 37e9 5b3f 37e9 5b3f
00000100: 37e9 5b3f 37e9 5b3f 37e9 5b3f 37e9 5b3f
00000110: 37e9 5b3f 37e9 5b3f 37e9 5b3f 37e9 5b3f
00000120: 37e9 5b3f 37e9 5b3f 37e9 5b3f 37e9 5b3f
00000130: 37e9 5b3f 37e9 5b3f 37e9 5b3f 37e9 5b3f
00000140: 37e9 5b3f 37e9 5b3f 37e9 5b3f 37e9 5b3f
00000150: 37e9 5b3f 37e9 5b3f 37e9 5b3f 37e9 5b3f
00000160: 37e9 5b3f 37e9 5b3f 37e9 5b3f 37e9 5b3f
00000170: 37e9 5b3f 37e9 5b3f 37e9 5b3f 37e9 5b3f
00000180: 37e9 5b3f 37e9 5b3f 37e9 5b3f 37e9 5b3f
00000190: 37e9 5b3f 37e9 5b3f 37e9 5b3f 37e9 5b3f
000001a0: 37e9 5b3f 37e9 5b3f 37e9 5b3f 37e9 5b3f
000001b0: 37e9 5b3f 37e9 5b3f 37e9 5b3f 37e9 5b3f
000001c0: 37e9 5b3f 37e9 5b3f 37e9 5b3f 37e9 5b3f
000001d0: 37e9 5b3f 37e9 5b3f 37e9 5b3f 37e9 5b3f
000001e0: 37e9 5b3f 37e9 5b3f 37e9 5b3f 37e9 5b3f
000001f0: 37e9 5b3f 37e9 5b3f 37e9 5b3f 37e9 5b3f
00000200: 37e9 5b3f 37e9 5b3f 37e9 5b3f 37e9 5b3f
00000210: 37e9 5b3f 37e9 5b3f 37e9 5b3f 37e9 5b3f
00000220: 37e9 5b3f 37e9 5b3f 37e9 5b3f 37e9 5b3f
00000230: 37e9 5b3f 37e9 5b3f 37e9 5b3f 37e9 5b3f
00000240: 37e9 5b3f 37e9 5b3f 37e9 5b3f 37e9 5b3f
00000250: 37e9 5b3f 37e9 5b3f 37e9 5b3f 37e9 5b3f
00000260: 37e9 5b3f 37e9 5b3f 37e9 5b3f 37e9 5b3f
00000270: 37e9 5b3f 37e9 5b3f 37e9 5b3f 37e9 5b3f
00000280: 37e9 5b3f 37e9 5b3f 37e9 5b3f 37e9 5b3f
00000290: 37e9 5b3f 37e9 5b3f 37e9 5b3f 37e9 5b3f
000002a0: 37e9 5b3f 37e9 5b3f 37e9 5b3f 37e9 5b3f
000002b0: 37e9 5b3f 37e9 5b3f 37e9 5b3f 37e9 5b3f
000002c0: 37e9 5b3f 37e9 5b3f 37e9 5b3f 37e9 5b3f
000002d0: 37e9 5b3f 37e9 5b3f 37e9 5b3f 37e9 5b3f
000002e0: 37e9 5b3f 37e9 5b3f 37e9 5b3f 37e9 5b3f
000002f0: 37e9 5b3f 37e9 5b3f 37e9 5b3f 37e9 5b3f
00000300: 37e9 5b3f 37e9 5b3f 37e9 5b3f 37e9 5b3f
00000310: 37e9 5b3f 37e9 5b3f 37e9 5b3f 37e9 5b3f
00000320: 37e9 5b3f 37e9 5b3f 37e9 5b3f 37e9 5b3f
00000330: 37e9 5b3f 37e9 5b3f 37e9 5b3f 37e9 5b3f
00000340: 37e9 5b3f 37e9 5b3f 37e9 5b3f 37e9 5b3f
00000350: 37e9 5b3f 37e9 5b3f 37e9 5b3f 37e9 5b3f
00000360: 37e9 5b3f 37e9 5b3f 37e9 5b3f 37e9 5b3f
00000370: 37e9 5b3f 37e9 5b3f 37e9 5b3f 37e9 5b3f
00000380: 37e9 5b3f 37e9 5b3f 37e9 5b3f 37e9 5b3f
00000390: 37e9 5b3f 37e9 5b3f 37e9 5b3f 37e9 5b3f
000003a0: 37e9 5b3f 37e9 5b3f 37e9 5b3f 37e9 5b3f
000003b0: 37e9 5b3f 37e9 5b3f 37e9 5b3f 37e9 5b3f
000003c0: 37e9 5b3f 37e9 5b3f 37e9 5b3f 37e9 5b3f
000003d0: 37e9 5b3f 37e9 5b3f 37e9 5b3f 37e9 5b3f
000003e0: 37e9 5b3f 37e9 5b3f 37e9 5b3f 37e9 5b3f
000003f0: 37e9 5b3f 37e9 5b3f 37e9 5b3f 37e9 5b3f
nan 0.96375024 0.990363 0.990363 0.990363 0.990363 0.990363 0.990363
0.990363 0.990363 0.990363 0.990363 0.990363 0.990363 0.990363 0.990363
0.990363 0.990363 0.990363 0.990363 0.990363 0.990363 0.990363 0.990363
0.990363 0.8673699 0.8590273 0.8590273 0.8590273 0.8590273 0.8590273 0.8590273
0.8590273 0.8590273 0.8590273 0.8590273 0.8590273 0.8590273 0.8590273 0.8590273
0.8590273 0.8590273 0.8590273 0.8590273 0.8590273 0.8590273 0.8590273 0.8590273
0.8590273 0.8590273 0.8590273 0.8590273 0.8590273 0.8590273 0.8590273 0.8590273
0.8590273 0.8590273 0.8590273 0.8590273 0.8590273 0.8590273 0.8590273 0.8590273
0.8590273 0.8590273 0.8590273 0.8590273 0.8590273 0.8590273 0.8590273 0.8590273
0.8590273 0.8590273 0.8590273 0.8590273 0.8590273 0.8590273 0.8590273 0.8590273
0.8590273 0.8590273 0.8590273 0.8590273 0.8590273 0.8590273 0.8590273 0.8590273
0.8590273 0.8590273 0.8590273 0.8590273 0.8590273 0.8590273 0.8590273 0.8590273
0.8590273 0.8590273 0.8590273 0.8590273 0.8590273 0.8590273 0.8590273 0.8590273
0.8590273 0.8590273 0.8590273 0.8590273 0.8590273 0.8590273 0.8590273 0.8590273
0.8590273 0.8590273 0.8590273 0.8590273 0.8590273 0.8590273 0.8590273 0.8590273
0.8590273 0.8590273 0.8590273 0.8590273 0.8590273 0.8590273 0.8590273 0.8590273
0.8590273 0.8590273 0.8590273 0.8590273 0.8590273 0.8590273 0.8590273 0.8590273
0.8590273 0.8590273 0.8590273 0.8590273 0.8590273 0.8590273 0.8590273 0.8590273
0.8590273 0.8590273 0.8590273 0.8590273 0.8590273 0.8590273 0.8590273 0.8590273
0.8590273 0.8590273 0.8590273 0.8590273 0.8590273 0.8590273 0.8590273 0.8590273
0.8590273 0.8590273 0.8590273 0.8590273 0.8590273 0.8590273 0.8590273 0.8590273
0.8590273 0.8590273 0.8590273 0.8590273 0.8590273 0.8590273 0.8590273 0.8590273
0.8590273 0.8590273 0.8590273 0.8590273 0.8590273 0.8590273 0.8590273 0.8590273
0.8590273 0.8590273 0.8590273 0.8590273 0.8590273 0.8590273 0.8590273 0.8590273
0.8590273 0.8590273 0.8590273 0.8590273 0.8590273 0.8590273 0.8590273 0.8590273
0.8590273 0.8590273 0.8590273 0.8590273 0.8590273 0.8590273 0.8590273 0.8590273
0.8590273 0.8590273 0.8590273 0.8590273 0.8590273 0.8590273 0.8590273 0.8590273
0.8590273 0.8590273 0.8590273 0.8590273 0.8590273 0.8590273 0.8590273 0.8590273
0.8590273 0.8590273 0.8590273 0.8590273 0.8590273 0.8590273 0.8590273 0.8590273
0.8590273 0.8590273 0.8590273 0.8590273 0.8590273 0.8590273 0.8590273 0.8590273
0.8590273 0.8590273 0.8590273 0.8590273 0.8590273 0.8590273 0.8590273 0.8590273
0.8590273 0.8590273 0.8590273 0.8590273 0.8590273 0.8590273 0.8590273 0.8590273

h_Sigma f4 [1, 562, 4]
00000000: 0000 c07f 0000 c07f 0000 c07f 0000 c07f
00000010: 0000 0000 a83b 243d b99b de3e 0000 0000
00000020: 0000 0000 905b 203d 2d92 e03e 0000 0000
00000030: 0000 0000 905b 203d 2d92 e03e 0000 0000
00000040: 0000 0000 905b 203d 2d92 e03e 0000 0000
00000050: 0000 0000 905b 203d 2d92 e03e 0000 0000
00000060: 0000 0000 905b 203d 2d92 e03e 0000 0000
00000070: 0000 0000 905b 203d 2d92 e03e 0000 0000
00000080: 0000 0000 905b 203d 2d92 e03e 0000 0000
00000090: 0000 0000 905b 203d 2d92 e03e 0000 0000
000000a0: 0000 0000 905b 203d 2d92 e03e 0000 0000
000000b0: 0000 0000 905b 203d 2d92 e03e 0000 0000
000000c0: 0000 0000 905b 203d 2d92 e03e 0000 0000
000000d0: 0000 0000 905b 203d 2d92 e03e 0000 0000
000000e0: 0000 0000 905b 203d 2d92 e03e 0000 0000
000000f0: 0000 0000 905b 203d 2d92 e03e 0000 0000
00000100: 0000 0000 905b 203d 2d92 e03e 0000 0000
00000110: 0000 0000 905b 203d 2d92 e03e 0000 0000
00000120: 0000 0000 905b 203d 2d92 e03e 0000 0000
00000130: 0000 0000 905b 203d 2d92 e03e 0000 0000
00000140: 0000 0000 905b 203d 2d92 e03e 0000 0000
00000150: 0000 0000 905b 203d 2d92 e03e 0000 0000
00000160: 0000 0000 905b 203d 2d92 e03e 0000 0000
00000170: 0000 0000 905b 203d 2d92 e03e 0000 0000
00000180: 0000 0000 905b 203d 2d92 e03e 0000 0000
00000190: 0000 0000 800c 323d 5d92 d73e 0000 0000
000001a0: 0000 0000 4835 333d 06f9 d63e 0000 0000
000001b0: 0000 0000 4835 333d 06f9 d63e 0000 0000
000001c0: 0000 0000 4835 333d 06f9 d63e 0000 0000
000001d0: 0000 0000 4835 333d 06f9 d63e 0000 0000
000001e0: 0000 0000 4835 333d 06f9 d63e 0000 0000
000001f0: 0000 0000 4835 333d 06f9 d63e 0000 0000
00000200: 0000 0000 4835 333d 06f9 d63e 0000 0000
00000210: 0000 0000 4835 333d 06f9 d63e 0000 0000
00000220: 0000 0000 4835 333d 06f9 d63e 0000 0000
00000230: 0000 0000 4835 333d 06f9 d63e 0000 0000
00000240: 0000 0000 4835 333d 06f9 d63e 0000 0000
00000250: 0000 0000 4835 333d 06f9 d63e 0000 0000
00000260: 0000 0000 4835 333d 06f9 d63e 0000 0000
00000270: 0000 0000 4835 333d 06f9 d63e 0000 0000
00000280: 0000 0000 4835 333d 06f9 d63e 0000 0000
00000290: 0000 0000 4835 333d 06f9 d63e 0000 0000
000002a0: 0000 0000 4835 333d 06f9 d63e 0000 0000
000002b0: 0000 0000 4835 333d 06f9 d63e 0000 0000
000002c0: 0000 0000 4835 333d 06f9 d63e 0000 0000
000002d0: 0000 0000 4835 333d 06f9 d63e 0000 0000
000002e0: 0000 0000 4835 333d 06f9 d63e 0000 0000
000002f0: 0000 0000 4835 333d 06f9 d63e 0000 0000
00000300: 0000 0000 4835 333d 06f9 d63e 0000 0000
00000310: 0000 0000 4835 333d 06f9 d63e 0000 0000
00000320: 0000 0000 4835 333d 06f9 d63e 0000 0000
00000330: 0000 0000 4835 333d 06f9 d63e 0000 0000
00000340: 0000 0000 4835 333d 06f9 d63e 0000 0000
00000350: 0000 0000 4835 333d 06f9 d63e 0000 0000
00000360: 0000 0000 4835 333d 06f9 d63e 0000 0000
00000370: 0000 0000 4835 333d 06f9 d63e 0000 0000
00000380: 0000 0000 4835 333d 06f9 d63e 0000 0000
00000390: 0000 0000 4835 333d 06f9 d63e 0000 0000
000003a0: 0000 0000 4835 333d 06f9 d63e 0000 0000
000003b0: 0000 0000 4835 333d 06f9 d63e 0000 0000
000003c0: 0000 0000 4835 333d 06f9 d63e 0000 0000
000003d0: 0000 0000 4835 333d 06f9 d63e 0000 0000
000003e0: 0000 0000 4835 333d 06f9 d63e 0000 0000
000003f0: 0000 0000 4835 333d 06f9 d63e 0000 0000
nan nan nan nan 0.0 0.040095955 0.43478182 0.0
0.0 0.03914982 0.43861523 0.0 0.0 0.03914982 0.43861523 0.0
0.0 0.03914982 0.43861523 0.0 0.0 0.03914982 0.43861523 0.0
0.0 0.03914982 0.43861523 0.0 0.0 0.03914982 0.43861523 0.0
0.0 0.03914982 0.43861523 0.0 0.0 0.03914982 0.43861523 0.0
0.0 0.03914982 0.43861523 0.0 0.0 0.03914982 0.43861523 0.0
0.0 0.03914982 0.43861523 0.0 0.0 0.03914982 0.43861523 0.0
0.0 0.03914982 0.43861523 0.0 0.0 0.03914982 0.43861523 0.0
0.0 0.03914982 0.43861523 0.0 0.0 0.03914982 0.43861523 0.0
0.0 0.03914982 0.43861523 0.0 0.0 0.03914982 0.43861523 0.0
0.0 0.03914982 0.43861523 0.0 0.0 0.03914982 0.43861523 0.0
0.0 0.03914982 0.43861523 0.0 0.0 0.03914982 0.43861523 0.0
0.0 0.03914982 0.43861523 0.0 0.0 0.043468952 0.42103854 0.0
0.0 0.043751985 0.41986865 0.0 0.0 0.043751985 0.41986865 0.0
0.0 0.043751985 0.41986865 0.0 0.0 0.043751985 0.41986865 0.0
0.0 0.043751985 0.41986865 0.0 0.0 0.043751985 0.41986865 0.0
0.0 0.043751985 0.41986865 0.0 0.0 0.043751985 0.41986865 0.0
0.0 0.043751985 0.41986865 0.0 0.0 0.043751985 0.41986865 0.0
0.0 0.043751985 0.41986865 0.0 0.0 0.043751985 0.41986865 0.0
0.0 0.043751985 0.41986865 0.0 0.0 0.043751985 0.41986865 0.0
0.0 0.043751985 0.41986865 0.0 0.0 0.043751985 0.41986865 0.0
0.0 0.043751985 0.41986865 0.0 0.0 0.043751985 0.41986865 0.0
0.0 0.043751985 0.41986865 0.0 0.0 0.043751985 0.41986865 0.0
0.0 0.043751985 0.41986865 0.0 0.0 0.043751985 0.41986865 0.0
0.0 0.043751985 0.41986865 0.0 0.0 0.043751985 0.41986865 0.0
0.0 0.043751985 0.41986865 0.0 0.0 0.043751985 0.41986865 0.0
0.0 0.043751985 0.41986865 0.0 0.0 0.043751985 0.41986865 0.0
0.0 0.043751985 0.41986865 0.0 0.0 0.043751985 0.41986865 0.0
0.0 0.043751985 0.41986865 0.0 0.0 0.043751985 0.41986865 0.0
0.0 0.043751985 0.41986865 0.0 0.0 0.043751985 0.41986865 0.0
0.0 0.043751985 0.41986865 0.0 0.0 0.043751985 0.41986865 0.0
0.0 0.043751985 0.41986865 0.0 0.0 0.043751985 0.41986865 0.0

h_Q f4 [1, 562, 4]
00000000: 0000 c07f 0000 c07f 0000 c07f 0000 c07f
00000010: 8e54 023f 34d2 d13e 4c07 3fbe ee60 933e
00000020: 8e54 023f 34d2 d13e 4c07 3fbe ee60 933e
00000030: 8e54 023f 34d2 d13e 4c07 3fbe ee60 933e
00000040: 8e54 023f 34d2 d13e 4c07 3fbe ee60 933e
00000050: 8e54 023f 34d2 d13e 4c07 3fbe ee60 933e
00000060: 8e54 023f 34d2 d13e 4c07 3fbe ee60 933e
00000070: 8e54 023f 34d2 d13e 4c07 3fbe ee60 933e
00000080: 8e54 023f 34d2 d13e 4c07 3fbe ee60 933e
00000090: 8e54 023f 34d2 d13e 4c07 3fbe ee60 933e
000000a0: 8e54 023f 34d2 d13e 4c07 3fbe ee60 933e
000000b0: 8e54 023f 34d2 d13e 4c07 3fbe ee60 933e
000000c0: 8e54 023f 34d2 d13e 4c07 3fbe ee60 933e
000000d0: 8e54 023f 34d2 d13e 4c07 3fbe ee60 933e
000000e0: 8e54 023f 34d2 d13e 4c07 3fbe ee60 933e
000000f0: 8e54 023f 34d2 d13e 4c07 3fbe ee60 933e
00000100: 8e54 023f 34d2 d13e 4c07 3fbe ee60 933e
00000110: 8e54 023f 34d2 d13e 4c07 3fbe ee60 933e
00000120: 8e54 023f 34d2 d13e 4c07 3fbe ee60 933e
00000130: 8e54 023f 34d2 d13e 4c07 3fbe ee60 933e
00000140: 8e54 023f 34d2 d13e 4c07 3fbe ee60 933e
00000150: 8e54 023f 34d2 d13e 4c07 3fbe ee60 933e
00000160: 8e54 023f 34d2 d13e 4c07 3fbe ee60 933e
00000170: 8e54 023f 34d2 d13e 4c07 3fbe ee60 933e
00000180: 8e54 023f 34d2 d13e 4c07 3fbe ee60 933e
00000190: 8e54 023f 34d2 d13e 4c07 3fbe ee60 933e
000001a0: 8e54 023f 34d2 d13e 4c07 3fbe ee60 933e
000001b0: 8e54 023f 34d2 d13e 4c07 3fbe ee60 933e
000001c0: 8e54 023f 34d2 d13e 4c07 3fbe ee60 933e
000001d0: 8e54 023f 34d2 d13e 4c07 3fbe ee60 933e
000001e0: 8e54 023f 34d2 d13e 4c07 3fbe ee60 933e
000001f0: 8e54 023f 34d2 d13e 4c07 3fbe ee60 933e
00000200: 8e54 023f 34d2 d13e 4c07 3fbe ee60 933e
00000210: 8e54 023f 34d2 d13e 4c07 3fbe ee60 933e
00000220: 8e54 023f 34d2 d13e 4c07 3fbe ee60 933e
00000230: 8e54 023f 34d2 d13e 4c07 3fbe ee60 933e
00000240: 8e54 023f 34d2 d13e 4c07 3fbe ee60 933e
00000250: 8e54 023f 34d2 d13e 4c07 3fbe ee60 933e
00000260: 8e54 023f 34d2 d13e 4c07 3fbe ee60 933e
00000270: 8e54 023f 34d2 d13e 4c07 3fbe ee60 933e
00000280: 8e54 023f 34d2 d13e 4c07 3fbe ee60 933e
00000290: 8e54 023f 34d2 d13e 4c07 3fbe ee60 933e
000002a0: 8e54 023f 34d2 d13e 4c07 3fbe ee60 933e
000002b0: 8e54 023f 34d2 d13e 4c07 3fbe ee60 933e
000002c0: 8e54 023f 34d2 d13e 4c07 3fbe ee60 933e
000002d0: 8e54 023f 34d2 d13e 4c07 3fbe ee60 933e
000002e0: 8e54 023f 34d2 d13e 4c07 3fbe ee60 933e
000002f0: 8e54 023f 34d2 d13e 4c07 3fbe ee60 933e
00000300: 8e54 023f 34d2 d13e 4c07 3fbe ee60 933e
00000310: 8e54 023f 34d2 d13e 4c07 3fbe ee60 933e
00000320: 8e54 023f 34d2 d13e 4c07 3fbe ee60 933e
00000330: 8e54 023f 34d2 d13e 4c07 3fbe ee60 933e
00000340: 8e54 023f 34d2 d13e 4c07 3fbe ee60 933e
00000350: 8e54 023f 34d2 d13e 4c07 3fbe ee60 933e
00000360: 8e54 023f 34d2 d13e 4c07 3fbe ee60 933e
00000370: 8e54 023f 34d2 d13e 4c07 3fbe ee60 933e
00000380: 8e54 023f 34d2 d13e 4c07 3fbe ee60 933e
00000390: 8e54 023f 34d2 d13e 4c07 3fbe ee60 933e
000003a0: 8e54 023f 34d2 d13e 4c07 3fbe ee60 933e
000003b0: 8e54 023f 34d2 d13e 4c07 3fbe ee60 933e
000003c0: 8e54 023f 34d2 d13e 4c07 3fbe ee60 933e
000003d0: 8e54 023f 34d2 d13e 4c07 3fbe ee60 933e
000003e0: 8e54 023f 34d2 d13e 4c07 3fbe ee60 933e
000003f0: 8e54 023f 34d2 d13e 4c07 3fbe ee60 933e
nan nan nan nan 0.5091027 0.40980685 -0.18655127 0.2878489
0.5091027 0.40980685 -0.18655127 0.2878489 0.5091027 0.40980685 -0.18655127 0.2878489
0.5091027 0.40980685 -0.18655127 0.2878489 0.5091027 0.40980685 -0.18655127 0.2878489
0.5091027 0.40980685 -0.18655127 0.2878489 0.5091027 0.40980685 -0.18655127 0.2878489
0.5091027 0.40980685 -0.18655127 0.2878489 0.5091027 0.40980685 -0.18655127 0.2878489
0.5091027 0.40980685 -0.18655127 0.2878489 0.5091027 0.40980685 -0.18655127 0.2878489
0.5091027 0.40980685 -0.18655127 0.2878489 0.5091027 0.40980685 -0.18655127 0.2878489
0.5091027 0.40980685 -0.18655127 0.2878489 0.5091027 0.40980685 -0.18655127 0.2878489
0.5091027 0.40980685 -0.18655127 0.2878489 0.5091027 0.40980685 -0.18655127 0.2878489
0.5091027 0.40980685 -0.18655127 0.2878489 0.5091027 0.40980685 -0.18655127 0.2878489
0.5091027 0.40980685 -0.18655127 0.2878489 0.5091027 0.40980685 -0.18655127 0.2878489
0.5091027 0.40980685 -0.18655127 0.2878489 0.5091027 0.40980685 -0.18655127 0.2878489
0.5091027 0.40980685 -0.18655127 0.2878489 0.5091027 0.40980685 -0.18655127 0.2878489
0.5091027 0.40980685 -0.18655127 0.2878489 0.5091027 0.40980685 -0.18655127 0.2878489
0.5091027 0.40980685 -0.18655127 0.2878489 0.5091027 0.40980685 -0.18655127 0.2878489
0.5091027 0.40980685 -0.18655127 0.2878489 0.5091027 0.40980685 -0.18655127 0.2878489
0.5091027 0.40980685 -0.18655127 0.2878489 0.5091027 0.40980685 -0.18655127 0.2878489
0.5091027 0.40980685 -0.18655127 0.2878489 0.5091027 0.40980685 -0.18655127 0.2878489
0.5091027 0.40980685 -0.18655127 0.2878489 0.5091027 0.40980685 -0.18655127 0.2878489
0.5091027 0.40980685 -0.18655127 0.2878489 0.5091027 0.40980685 -0.18655127 0.2878489
0.5091027 0.40980685 -0.18655127 0.2878489 0.5091027 0.40980685 -0.18655127 0.2878489
0.5091027 0.40980685 -0.18655127 0.2878489 0.5091027 0.40980685 -0.18655127 0.2878489
0.5091027 0.40980685 -0.18655127 0.2878489 0.5091027 0.40980685 -0.18655127 0.2878489
0.5091027 0.40980685 -0.18655127 0.2878489 0.5091027 0.40980685 -0.18655127 0.2878489
0.5091027 0.40980685 -0.18655127 0.2878489 0.5091027 0.40980685 -0.18655127 0.2878489
0.5091027 0.40980685 -0.18655127 0.2878489 0.5091027 0.40980685 -0.18655127 0.2878489
0.5091027 0.40980685 -0.18655127 0.2878489 0.5091027 0.40980685 -0.18655127 0.2878489
0.5091027 0.40980685 -0.18655127 0.2878489 0.5091027 0.40980685 -0.18655127 0.2878489
0.5091027 0.40980685 -0.18655127 0.2878489 0.5091027 0.40980685 -0.18655127 0.2878489
0.5091027 0.40980685 -0.18655127 0.2878489 0.5091027 0.40980685 -0.18655127 0.2878489
0.5091027 0.40980685 -0.18655127 0.2878489 0.5091027 0.40980685 -0.18655127 0.2878489
0.5091027 0.40980685 -0.18655127 0.2878489 0.5091027 0.40980685 -0.18655127 0.2878489
