KalmanNetPHAv2/KalmanNet_TSP-main/KNet/2days/2daysmodelteston2201y.pt (torch, 130248 bytes, 43 tensors)

weight_ih_l0 f4 [12, 10]
0.46242815 0.32459068 -0.34575653 0.4569627 -0.09967506 -0.103330255 0.43290132 -0.087581575
0.25086755 -0.13402605 0.35394108 0.03280151 0.27267706 0.02295667 0.3143559 -0.11575055
0.27449524 0.14746392 0.13373566 0.42838347 -0.35123116 0.3571111 -0.22618383 -0.29325557
-0.2748081 0.11619371 0.349626 -0.48848462 0.06524497 -0.41637892 -0.042422473 -0.16383123
0.41531843 0.25182766 -0.29335326 -0.3400905 0.13449419 -0.30256206 0.1377328 0.36718082
0.23056984 0.38618433 0.24568093 -0.17722577 -0.3454684 -0.17126441 0.2795843 -0.032836616
0.05286342 -0.37723726 0.07384527 0.47777635 -0.14060521 0.2332269 -0.4438107 -0.041890025
0.072931886 0.33245254 -0.19084817 0.031713188 0.34121782 0.013751149 -0.37840074 0.16560602
0.16789997 0.0048971176 -0.12300712 -0.273476 0.26936442 0.42545712 0.020138383 -0.21649146
-0.3137645 0.011162877 0.43220627 -0.37703377 0.033099473 -0.408566 -0.11342257 -0.113702476
-0.30019224 0.11622834 0.22204107 -0.44366622 0.087551415 0.24863636 -0.49777615 0.37490374
-0.10854709 -0.2728865 -0.36622822 0.40608 -0.09242672 0.03939581 0.26767987 0.3854099
-0.18489093 0.09467566 -0.110245645 -0.028356373 0.040637255 -0.11587453 -0.093937695 0.050013006
-0.16797394 -0.3629461 -0.37706602 0.37815642 0.20673704 0.40827763 -0.35091627 -0.44150102
0.093619466 0.26696515 -0.44153833 0.17659277 -0.4071806 0.2360946 0.025011778 -0.33120316
00000000: 62c3 ec3e c030 a63e 0007 b1be 04f7 e93e
00000010: 7022 ccbd d09e d3bd 3ea5 dd3e f85d b3bd
00000020: b671 803e 203e 09be c437 b53e e05a 063d
00000030: 549c 8b3e a00f bc3c 42f3 a03e a00e edbd
00000040: a48a 8c3e c800 173e 00f2 083e 1455 db3e
00000050: 92d4 b3be 44d7 b63e bc9c 67be 9825 96be
00000060: a6b3 8cbe f8f6 ed3d 2e02 b33e a81a fabe
00000070: 289f 853d 9e2f d5be 30c3 2dbd 60c3 27be
00000080: 9ea4 d43e 8eef 803e 6632 96be 5820 aebe
00000090: d8b8 093e 6ae9 9abe d409 0d3e 20ff bb3e
000000a0: 801a 6c3e f4b9 c53e c893 7b3e ac7a 35be
000000b0: 3ce1 b0be f05f 2fbe ac25 8f3e b07f 06bd
000000c0: 5087 583d 3e25 c1be 303c 973d 1a9f f43e
000000d0: d0fa 0fbe 08d3 6e3e 283b e3be e094 2bbd
000000e0: 505d 953d 3837 aa3e b46d 43be b0e5 013d
000000f0: 1ab4 ae3e 804c 613c bebd c1be a094 293e
00000100: f8ed 2b3e 0078 a03b 28eb fbbd 0c05 8cbe
00000110: 22ea 893e 84d5 d93e 40f9 a43c f0af 5dbe
00000120: bea5 a0be 80e4 363c 244a dd3e 920a c1be
00000130: 5093 073d 902f d1be 184a e8bd d8dc e8bd
00000140: ccb2 99be 2009 ee3d bc5e 633e 3828 e3be
00000150: 284e b33d 889a 7e3e 84dc febe 62f3 bf3e
00000160: f04d debd c8b7 8bbe 4482 bbbe b8e9 cf3e
00000170: 384a bdbd 805d 213d 560d 893e 7254 c53e
00000180: 0c54 3dbe 50e5 c13d 78c8 e1bd a04b e8bc
00000190: 4073 263d a04f edbd 6862 c0bd 70da 4c3d
000001a0: 5c01 2cbe 12d4 b9be cc0e c1be b89d c13e
000001b0: e0b2 533e c409 d13e 4cab b3be 6c0c e2be
000001c0: 90bb bf3d a8af 883e 5011 e2be bcd4 343e
000001d0: fa79 d0be c8c2 713e 80e5 cc3c 7693 a9be

weight_hh_l0 f4 [12, 4]
0.30293846 -0.14416158 -0.3171693 -0.23313206 -0.4868846 0.47486067 0.26190418 0.0969525
-0.09549677 0.23651177 0.04419899 0.37823254 -0.45584345 0.3297928 -0.0224818 0.0042415857
-0.26687747 0.28187108 0.19753629 0.35783422 -0.28347743 -0.47192848 0.28428012 -0.3007828
-0.4193269 0.21094626 -0.43447453 0.40772927 0.41214347 -0.4541605 -0.24297154 0.35424632
-0.10821241 0.17555356 -0.15300918 -0.2475807 0.10852122 -0.44558144 -0.22396481 -0.26446396
-0.08364636 -0.009446919 0.36526543 0.24036765 0.11869246 -0.27044106 0.44732082 0.31554806
00000000: c01a 9b3e 189f 13be 0464 a2be 2cba 6ebe
00000010: f048 f9be f020 f33e 4e18 863e 088f c63d
00000020: d093 c3bd 2430 723e 000a 353d b2a7 c13e
00000030: 5064 e9be 9ada a83e c02b b8bc 00fd 8a3b
00000040: 2aa4 88be 6851 903e f446 4a3e 0c36 b73e
00000050: f423 91be 9ca0 f1be 2a8d 913e 3400 9abe
00000060: 04b2 d6be 4c02 583e 7273 debe e4c1 d03e
00000070: 7804 d33e ba87 e8be 88cd 78be c65f b53e
00000080: 789e ddbd 50c4 333e 70ae 1cbe cc85 7dbe
00000090: 6040 de3d 4023 e4be 0857 65be d267 87be
000000a0: c84e abbd 40c7 1abc 1204 bb3e f022 763e
000000b0: 0815 f33d 4077 8abe 3c07 e53e 848f a13e

bias_ih_l0 f4 [12]
0.31430954 0.06471211 -0.20949924 -0.00938952 -0.44412524 -0.47406423 0.26092446 0.36779344
-0.4770592 0.30505174 -0.19434214 0.23419106
00000000: 2eed a03e c887 843d f886 56be 80d6 19bc
00000010: 6264 e3be 8cb8 f2be e497 853e 6c4f bc3e
00000020: 1a41 f4be be2f 9c3e a001 47be c8cf 6f3e

bias_hh_l0 f4 [12]
-0.11418539 -0.49830234 -0.39732486 -0.41159326 -0.21816105 -0.48214728 -0.3099112 0.46060055
0.04008317 -0.45672166 -0.37443358 0.25856876
00000000: 08da e9bd 7c21 ffbe 2a6e cbbe 5abc d2be
00000010: 9c65 5fbe 02dc f6be aeac 9ebe d6d3 eb3e
00000020: 402e 243d 6cd7 e9be c2b5 bfbe 2063 843e

weight_ih_l0 f4 [12, 14]
-0.42715687 -0.121177375 0.18134248 0.37953335 0.381889 0.2789874 0.39835155 -0.39816046
0.30864805 0.4390064 -0.14592308 -0.37364 0.17511505 0.22987568 -0.1011821 0.42047268
-0.41394824 -0.20592105 0.15465665 -0.1365478 -0.4226098 -0.28009486 -0.07020211 -0.33903295
-0.4965806 -0.29537427 0.1775862 0.37267023 -0.4120884 -0.070679486 0.18441057 0.42874736
-0.19838864 -0.07896459 -0.15070045 -0.03959912 -0.37682897 -0.37536937 0.32029492 0.44190753
0.18137842 0.0025315285 -0.009841025 -0.1583395 -0.007969737 0.25233603 -0.33347368 0.3069247
0.47469312 0.38956243 0.08669555 -0.46439886 -0.18718588 0.4878983 -0.044205666 0.0986228
0.28073347 -0.09332353 0.36684686 0.43718523 -0.32714093 -0.42232132 -0.05605626 0.18321162
-0.025072694 0.03844142 -0.16222548 -0.09283316 0.37419802 -0.2414344 0.347494 -0.2765432
-0.37160522 0.38404608 0.068712294 -0.21693349 0.3160678 -0.06087804 -0.33120656 -0.031081498
-0.15577042 0.1106236 -0.47521836 0.28172624 -0.07786363 0.28011024 0.49476624 -0.010911167
-0.40689927 0.38565332 -0.0905236 -0.2777989 0.18735802 -0.38478947 -0.2153163 -0.10795134
-0.39086688 0.36779463 0.39916927 -0.27753997 -0.3115946 0.061059117 -0.30070764 -0.036240935
0.13984662 0.2060551 0.28671944 -0.18208951 -0.3191625 -0.4888689 0.024184108 -0.05610442
-0.36027467 0.32338136 -0.38827622 0.36487454 -0.10909045 -0.16150242 -0.28958148 -0.41956902
0.41291726 -0.26828408 -0.22381824 -0.39405727 0.14798087 0.30694228 0.2333129 0.45551616
-0.116268635 0.27003074 -0.45050323 0.06581044 -0.08173114 -0.33505243 -0.16472709 -0.15576625
-0.45724565 0.13067019 0.11905038 -0.21029973 0.4857151 -0.25163543 0.29661244 0.30276608
0.09104204 -0.15992403 -0.4207011 0.27055234 -0.48639613 -0.37554282 -0.48706508 -0.27863485
0.10867214 0.1430105 0.38592696 0.29359198 0.19139105 -0.18076074 0.25643826 0.379883
-0.417256 -0.42869097 0.338876 0.39832324 -0.37265354 -0.12151253 0.39867252 0.3031934
00000000: 4eb4 dabe d82b f8bd d8b1 393e 3252 c23e
00000010: f486 c33e 70d7 8e3e bcf4 cb3e b0db cbbe
00000020: 1e07 9e3e 72c5 e03e dc6c 15be be4d bfbe
00000030: 5c51 333e 8864 6b3e 9038 cfbd 3248 d73e
00000040: 06f1 d3be f8dc 52be 505e 1e3e 30d3 0bbe
00000050: 5060 d8be 9868 8fbe 20c6 8fbd ba95 adbe
00000060: d03f febe 4c3b 97be 28d9 353e a2ce be3e
00000070: 40fd d2be 68c0 90bd 20d6 3c3e c684 db3e
00000080: 6426 4bbe 30b8 a1bd 3851 1abe b032 22bd
00000090: baef c0be 6a30 c0be b2fd a33e b441 e23e
000000a0: 44bb 393e 00e8 253b 403c 21bc c023 22be
000000b0: 8093 02bc 3032 813e 10bd aabe 3c25 9d3e
000000c0: fa0a f33e ba74 c73e 708d b13d b0c5 edbe
000000d0: a8ad 3fbe cecd f93e 0011 35bd c0fa c93d
000000e0: 4cbc 8f3e 6820 bfbd 5ad3 bb3e bed6 df3e
000000f0: 047f a7be 803a d8be 409b 65bd d49b 3b3e
00000100: 4065 cdbc c074 1d3d 701e 26be 501f bebd
00000110: e296 bf3e 943a 77be bcea b13e 1297 8dbe
00000120: 0a43 bebe b0a1 c43e 08b9 8c3d d023 5ebe
00000130: a4d3 a13e 405b 79bd e893 a9be a09e febc
00000140: 4882 1fbe a08e e23d d24f f3be 6c3e 903e
00000150: f876 9fbd 9c6a 8f3e 0052 fd3e c0c4 32bc
00000160: 1a55 d0be 5a74 c53e 7064 b9bd a83b 8ebe
00000170: c8da 3f3e 2003 c5be e07b 5cbe 9815 ddbd
00000180: b41f c8be 944f bc3e ea5f cc3e b819 8ebe
00000190: 5489 9fbe 2019 7a3d 5af6 99be 6071 14bd
000001a0: f433 0f3e 1c00 533e e4cc 923e ac75 3abe
000001b0: 4469 a3be 064d fabe c01d c63c c0cd 65bd
000001c0: ec75 b8be 3e92 a53e 24cc c6be d6d0 ba3e
000001d0: d06a dfbd e460 25be 0644 94be c0d1 d6be
000001e0: e469 d33e 885c 89be 9c30 65be e0c1 c9be
000001f0: 4c88 173e 8a27 9d3e 94e9 6e3e 6a39 e93e
00000200: 401e eebd 7841 8a3e 5ca8 e6be a0c7 863d
00000210: a862 a7bd fe8b abbe 38ae 28be 3081 1fbe
00000220: 1a1c eabe 68ce 053e b0d0 f33d d058 57be
00000230: a6af f83e 5cd6 80be 96dd 973e 2804 9b3e
00000240: 4074 ba3d 20c3 23be 2266 d7be d685 8a3e
00000250: ea08 f9be 2647 c0be 9860 f9be 3aa9 8ebe
00000260: 808f de3d 5871 123e 3898 c53e b051 963e
00000270: 04fc 433e 5819 39be e04b 833e 0680 c23e
00000280: 94a2 d5be 627d dbbe 2881 ad3e 06f1 cb3e
00000290: 72cc bebe 90db f8bd ce1e cc3e 2a3c 9b3e

weight_hh_l0 f4 [12, 4]
0.37411934 -0.4154821 -0.32016426 -0.34212208 -0.49095887 0.2906298 -0.48083383 0.27062917
0.37939304 0.4402902 0.040936172 0.38814598 -0.2034077 0.42102653 -0.014811814 0.22366685
0.4216798 0.36051488 0.3205619 -0.442672 -0.34313017 -0.100631595 -0.31524962 0.46400905
-0.1451692 -0.07739222 -0.21721792 -0.36152333 0.025597394 -0.4774452 -0.10366428 -0.39079928
0.025706172 0.08566767 -0.3119412 -0.49622357 -0.2754892 0.39151663 -0.3762473 -0.38286448
-0.41068852 -0.054700375 0.060649693 0.08490944 -0.46406448 -0.31491315 0.45220405 -0.2738179
00000000: 928c bf3e 12ba d4be 92ec a3be a02a afbe
00000010: f65e fbbe 6ecd 943e da2f f6be e88f 8a3e
00000020: ce3f c23e b86d e13e b0ac 273d 12bb c63e
00000030: 1c4a 50be ca90 d73e 40ad 72bc ec08 653e
00000040: 6ae6 d73e 6895 b83e b020 a43e e8a5 e2be
00000050: c2ae afbe f017 cebd 6668 a1be 9892 ed3e
00000060: 3ca7 14be d07f 9ebd 606e 5ebe 9619 b9be
00000070: a0b1 d13c b273 f4be f04d d4bd d816 c8be
00000080: c095 d23c 8872 af3d c2b6 9fbe 0411 febe
00000090: ec0c 8dbe de74 c83e 7ca3 c0be d006 c4be
000000a0: c445 d2be 800d 60bd d06b 783d 00e5 ad3d
000000b0: dc99 edbe 4c3c a1be 4a87 e73e dc31 8cbe

bias_ih_l0 f4 [12]
-0.48059088 0.49422544 0.02838111 0.40564942 -0.35967922 0.06100416 0.2946229 0.041994095
0.006857574 -0.019881785 0.35494173 -0.20352608
00000000: 0210 f6be 1e0b fd3e 807f e83c 48b1 cf3e
00000010: e027 b8be 80df 793d d0d8 963e 0002 2c3d
00000020: 80b5 e03b 20df a2bc ecba b53e 2469 50be

bias_hh_l0 f4 [12]
-0.27122957 0.11212635 -0.38368636 0.38266242 0.47620702 -0.07596624 -0.16435462 0.11451453
-0.46005422 0.35444003 -0.06275785 0.49929494
00000000: 9ade 8abe 80a2 e53d 8a72 c4be 54ec c33e
00000010: 68d1 f33e 3094 9bbd 944c 28be 9886 ea3d
00000020: 3a8c ebbe 2a79 b53e 3087 80bd 96a3 ff3e

weight_ih_l0 f4 [3, 11]
0.39327466 -0.46881807 -0.5538908 0.5288085 -0.9397094 -0.023569703 -0.51851714 -0.15977502
-0.6845019 0.46109474 0.8741776 -0.28417492 0.8715501 -0.34120488 0.21429753 -0.40846264
-0.5919298 -0.4834864 0.87596536 -0.2228682 0.991773 0.531724 -0.25679278 -0.57302785
-0.3123213 -0.8331535 0.9934292 -0.7407763 0.1353873 -0.8174037 0.31035042 -0.68052435
0.405259
00000000: 4c5b c93e ec08 f0be cacb 0dbf fe5f 073f
00000010: cc90 70bf 4015 c1bc 8abd 04bf 109c 23be
00000020: 843b 2fbf 9c14 ec3e 1aca 5f3f 607f 91be
00000030: e81d 5f3f 68b2 aebe d070 5b3e 0422 d1be
00000040: b688 17bf 888b f7be 443f 603f 9037 64be
00000050: d6e4 7d3f 101f 083f 587a 83be f4b1 12bf
00000060: 94e8 9fbe 8c49 55bf 6051 7e3f 84a3 3dbf
00000070: f8a2 0a3e 5e41 51bf 40e6 9e3e d836 2ebf
00000080: 1c7e cf3e

weight_hh_l0 f4 [3, 1]
-0.30544782 -0.30847144 -0.6838933
00000000: a863 9cbe f8ef 9dbe a213 2fbf

bias_ih_l0 f4 [3]
-0.38650954 0.7458224 0.59197116
00000000: 94e4 c5be 38ee 3e3f 6c8b 173f

bias_hh_l0 f4 [3]
-0.9660387 -0.5327277 -0.3813274
00000000: 504e 77bf d860 08bf 583d c3be

weight f4 [1, 4]
-0.31456828 0.49932486 0.4763114 0.3593427
00000000: 180f a1be 82a7 ff3e 16df f33e c4fb b73e

weight f4 [200, 5]
0.11228794 -0.14345309 -0.29269785 -0.001444608 -0.19127738 0.3580261 -0.1098741 0.2563992
-0.006842494 0.25652438 0.34813482 0.091738045 -0.38920176 0.23586386 0.3162676 -0.08676782
0.12310219 -0.25661188 -0.30659878 0.32969987 0.06630856 -0.4039236 0.35550177 -0.06589046
0.20160902 -0.288902 0.13875914 0.3673845 0.051394373 0.3658293 0.21939248 0.33104676
0.15448505 0.15950102 -0.16244698 -0.39918122 0.052310288 0.026552409 -0.17630789 -0.1529248
-0.075663835 0.4052841 0.3674417 -0.11369151 0.35232365 0.030003905 0.3735599 -0.43425435
-0.27463493 -0.08070138 -0.11858964 -0.35891017 0.10435736 -0.06717458 -0.34416926 0.25488377
-0.09468949 -0.11149323 -0.0038250387 0.20482868 0.12205535 0.19006884 0.40244675 -0.39658904
0.045854628 0.115255594 -0.33087334 -0.20657083 -0.34847933 -0.4406825 0.13007283 -0.040384978
-0.23330148 -0.15912703 -0.13560519 -0.39215714 -0.088956386 -0.25252348 0.40633577 -0.30460364
-0.071863204 -0.13500968 0.40552855 -0.2922805 -0.12696335 0.077620804 0.2320804 0.1788696
0.33252215 0.37947452 -0.00899151 -0.29661077 -0.016933829 -0.4111568 0.09038788 0.054398954
-0.006744623 0.294263 -0.36866394 0.2087791 -0.3075525 0.018064618 -0.06878403 -0.15479144
-0.39383888 0.30515105 -0.31747523 -0.15567988 -0.24232017 -0.36016572 -0.19028914 -0.25948727
-0.20578939 0.39834207 -0.06382567 -0.16818753 0.004143685 -0.4082418 0.34511888 -0.1436482
-0.080382586 -0.26716644 -0.20705107 -0.23169279 -0.24209476 0.24112856 -0.123571545 -0.28960508
0.12821019 -0.29254654 -0.24529913 0.1410377 -0.32041115 0.25180125 0.31443268 0.3470847
-0.2564593 -0.017778128 0.30694383 -0.30458248 -0.4456524 0.1906026 0.2501247 -0.2852164
-0.0047040284 0.19806403 -0.4254913 -0.24827117 0.25926638 0.015274227 0.26398224 0.32511455
0.10664511 -0.18644428 -0.3694293 -0.0670315 0.0838269 -0.3469964 0.27961272 -0.12453723
0.16578645 -0.44272056 -0.42054704 -0.11991343 -0.18803793 -0.24305518 0.43167877 0.24376345
0.38605696 -0.18080065 0.29559678 -0.16246346 0.17304176 0.38674033 -0.039455056 -0.38617444
0.4264503 -0.0006120801 -0.1673556 0.17190343 -0.3224097 -0.30141526 0.39066023 0.28499502
0.06714374 -0.07678944 -0.07625702 -0.046174616 0.3576947 -0.3251504 -0.08042747 -0.01374954
-0.18161789 -0.27606347 -0.42790157 -0.04596904 -0.2020455 -0.2280889 -0.23734136 0.19334799
-0.067147136 0.19136369 0.325589 -0.11558896 0.13154119 0.081695855 0.15422088 -0.36992812
-0.21216983 0.30053306 0.42677838 -0.34640986 0.4416272 -0.43787524 0.3911082 0.26863903
-0.40747446 0.44549078 0.15087998 0.036634833 0.17023832 -0.1455651 -0.32611704 -0.071407706
-0.3657872 -0.0027068555 0.0020104349 0.42560458 0.047617286 0.22539997 -0.30432817 -0.1476193
0.13817185 0.01360929 0.17772925 -0.24685861 -0.42104816 0.44395733 0.04183629 0.41299224
0.2741691 -0.43989342 0.442856 0.047636032 0.0040519238 0.09611863 0.13215166 0.38295394
-0.43147966 0.08768612 -0.14106807 -0.05938536 0.343256 0.41150296 -0.40633875 -0.43201578
00000000: 38f7 e53d 5ee5 12be 7edc 95be 0059 bdba
00000010: 38de 43be 324f b73e ac05 e1bd c246 833e
00000020: 0037 e0bb 2a57 833e ba3e b23e 28e1 bb3d
00000030: 7445 c7be 4c86 713e d4ed a13e 54b3 b1bd
00000040: 001d fc3d a262 83be 84fa 9cbe 6cce a83e
00000050: c8cc 873d 13cf cebe 5404 b63e 94f1 86bd
00000060: 9872 4e3e f7ea 93be e016 0e3e d219 bc3e
00000070: e882 523d fa4d bb3e 6ca8 603e f67e a93e
00000080: 5431 1e3e 3c54 233e 8058 26be 7b61 ccbe
00000090: 5043 563d 7084 d93c 0e8a 34be 5298 1cbe
000000a0: a4f5 9abd 6681 cf3e 5221 bc3e 18d7 e8bd
000000b0: c463 b43e c0ca f53c 3e43 bf3e 9656 debe
000000c0: f39c 8cbe c446 a5bd 20df f2bd 13c3 b7be
000000d0: 50b9 d53d d492 89bd f436 b0be 2080 823e
000000e0: 90ec c1bd 9056 e4bd 80ad 7abb 9cbe 513e
000000f0: 28f8 f93d 68a1 423e 800d ce3e b80d cbbe
00000100: 10d2 3b3d 200b ec3d 3b68 a9be 4e87 53be
00000110: e26b b2be 23a1 e1be d031 053e b86a 25bd
00000120: 95e6 6ebe 32f2 22be 16dc 0abe d2c8 c8be
00000130: c42e b6bd c24a 81be 3e0b d03e 02f5 9bbe
00000140: 042d 93bd fa3f 0abe 70a1 cf3e caa5 95be
00000150: ae02 02be a8f7 9e3d 7ca6 6d3e 9829 373e
00000160: 5840 aa3e 7c4a c23e 2051 13bc 5edd 97be
00000170: d0b8 8abc 2583 d2be 481d b93d 70d1 5e3d
00000180: 0002 ddbb a4a9 963e 85c1 bcbe 30ca 553e
00000190: 8577 9dbe 40fc 933c a4de 8cbd a681 1ebe
000001a0: 40a5 c9be c23c 9c3e 1d8c a2be 8c6a 1fbe
000001b0: c722 78be a467 b8be 28db 42be 84db 84be
000001c0: 74ba 52be 7ef3 cb3e 08b7 82bd 5a39 2cbe
000001d0: c0c7 873b 1205 d1be 6cb3 b03e 8418 13be
000001e0: a09f a4bd 0aca 88be 3205 54be e040 6dbe
000001f0: b0e7 77be 68ea 763e 1413 fdbd 1e47 94be
00000200: 8849 033e a9c8 95be b22f 7bbe 306c 103e
00000210: ee0c a4be 18ec 803e 52fd a03e 16b5 b13e
00000220: a24e 83be 70a3 91bc be27 9d3e 3cf2 9bbe
00000230: 8d2c e4be 542d 433e 5810 803e e207 92be
00000240: 4024 9abb 4cd1 4a3e ffd9 d9be cc3a 7ebe
00000250: 90be 843e c040 7a3c ae28 873e 6a75 a63e
00000260: c068 da3d 40eb 3ebe d625 bdbe d047 89bd
00000270: 70ad ab3d 83a9 b1be 6629 8f3e 600d ffbd
00000280: ecc3 293e 45ac e2be f151 d7be 2c95 f5bd
00000290: 048d 40be 75e3 78be 0005 dd3e 209d 793e
000002a0: 42a9 c53e ce23 39be 7658 973e d25c 26be
000002b0: dc31 313e d402 c63e a09b 21bd a8b8 c5be
000002c0: b257 da3e 0074 20ba 445f 2bbe 7407 303e
000002d0: e212 a5be 1a53 9abe 9e04 c83e deea 913e
000002e0: a882 893d c843 9dbd a42c 9cbd 9821 3dbd
000002f0: c223 b73e 1d7a a6be 28b7 a4bd c045 61bc
00000300: 0afa 39be 3158 8dbe ea15 dbbe 084a 3cbd
00000310: 04e5 4ebe 2390 69be 9d09 73be 04fd 453e
00000320: 7084 89bd d8f4 433e 9ab3 a63e e8b9 ecbd
00000330: bcb2 063e 2850 a73d 14ec 1d3e 3867 bdbe
00000340: 0c43 59be 78df 993e b282 da3e a25c b1be
00000350: f61c e23e 2f31 e0be 563f c83e 0e8b 893e
00000360: 7ea0 d0be 5e17 e43e 4880 1a3e 680e 163d
00000370: f452 2e3e 040f 15be d0f8 a6be 343e 92bd
00000380: 7648 bbbe 8065 31bb 80c1 033b d8e8 d93e
00000390: 580a 433d 40cf 663e e7d0 9bbe 8429 17be
000003a0: ec7c 0d3e 80f9 5e3c a8fe 353e 81c8 7cbe
000003b0: a093 d7be 604e e33e 885c 2b3d b873 d33e
000003c0: e45f 8c3e b639 e1be 06be e23e 001e 433d
000003d0: 00c6 843b d8d9 c43d c452 073e 8a12 c43e
000003e0: e7ea dcbe c894 b33d 2674 10be 103e 73bd
000003f0: 40bf af3e 84b0 d23e a20b d0be 2c31 ddbe

bias f4 [200]
0.20614564 -0.04723683 0.106755435 -0.3909135 -0.056802034 -0.28747645 0.10306555 0.40799624
0.30203247 0.38810724 -0.06008753 -0.091410965 -0.3046884 0.07510418 0.38402492 0.3999883
-0.26148278 -0.41692942 -0.37368593 0.2869227 -0.014101088 0.4026243 0.24956352 0.4145463
-0.03346342 0.23928857 -0.25847936 0.21843225 0.14329088 0.3772937 0.05077207 0.12915438
0.24830604 0.33470905 -0.20666179 0.20361352 0.19784743 0.38061738 -0.118833065 0.15982169
-0.29994553 -0.40715834 0.3632459 -0.3042071 -0.0850741 0.4254111 -0.38255066 -0.32447046
0.27961951 -0.02506128 0.10377395 0.112703145 0.2788105 -0.06415531 0.22960591 -0.21451603
-0.36625817 0.0016340017 0.12813133 0.3559904 -0.07736313 0.10623431 -0.3209036 0.1993742
0.4288718 -0.41231415 -0.3434371 0.21484143 0.02606681 -0.27352235 0.3270017 0.31646174
-0.17367518 0.02058211 -0.19379753 -0.30551952 0.06832129 -0.33092424 -0.37743986 0.11418724
0.07012725 0.06509459 0.0119641125 -0.3341995 -0.29919603 -0.22129726 0.1799891 0.313402
0.18943107 -0.087365866 0.41081822 -0.40165928 0.41888458 -0.14675316 -0.1338098 0.118299544
-0.012664914 -0.16946188 0.27783036 0.4344442 -0.44511017 -0.32221305 0.1671688 0.32806742
0.418369 0.12087697 0.15535963 -0.27445143 -0.061804354 -0.006190479 -0.25262666 0.05866593
0.09913516 0.24034536 0.35210538 -0.015344471 -0.0046794116 0.4012211 -0.2896284 0.12843871
0.37322372 0.24503505 0.16393477 -0.39700353 -0.1549407 -0.19980954 0.16805357 -0.3556977
0.31576657 0.04599616 -0.24476026 0.3652836 -0.22482337 -0.3507211 -0.43533877 0.35708302
0.29174078 -0.35893023 -0.19895127 -0.21444327 -0.22990283 0.06483698 0.016393125 -0.21029499
0.08789343 -0.0891034 0.14788091 0.3419879 -0.08175376 -0.07318157 0.12194401 0.41868174
-0.3083271 0.0979836 -0.10235977 -0.017947495 -0.34359428 0.0019312799 0.4409188 -0.079876065
0.18645751 -0.3586021 -0.010895163 0.10672784 -0.22005728 0.10270053 -0.14047518 0.31734246
-0.2297992 -0.163005 0.073412895 0.020383477 -0.2095071 0.40954727 -0.25752524 -0.055618495
-0.37600338 -0.03817296 0.14366257 0.19281924 -0.31076598 -0.27952433 -0.16567704 -0.41299427
0.13737786 0.3499294 0.38521957 -0.22386482 -0.44330725 0.17975074 -0.168004 0.37448156
0.3037172 0.076482534 0.3661855 0.02062419 0.38195515 0.040936112 0.43411195 -0.34902805
00000000: d817 533e 687b 41bd 98a2 da3d d025 c8be
00000010: 40a9 68bd 1d30 93be 0814 d33d e2e4 d03e
00000020: 00a4 9a3e feb5 c63e 581e 76bd ac35 bbbd
00000030: 1e00 9cbe 38d0 993d ea9e c43e 44cb cc3e
00000040: 12e1 85be c677 d5be c353 bfbe 88e7 923e
00000050: 4008 67bc c624 ce3e 948d 7f3e 6a3f d43e
00000060: f010 09bd 1008 753e 6857 84be b4ac 5f3e
00000070: d8ba 123e a42c c13e 60f6 4f3d 0c41 043e
00000080: f043 7e3e fc5e ab3e 269f 53be 1080 503e
00000090: 8498 4a3e 48e0 c23e c05e f3bd 4ca8 233e
000000a0: 7692 99be 0f77 d0be 5efb b93e 08c1 9bbe
000000b0: 543b aebd 7ccf d93e aedd c3be fe20 a6be
000000c0: 4a2a 8f3e 504d cdbc 7087 d43d e8d0 e63d
000000d0: 40c0 8e3e dc63 83bd d01d 6b3e 17aa 5bbe
000000e0: 3186 bbbe 002c d63a dc34 033e 6044 b63e
000000f0: 9070 9ebd 6091 d93d 7a4d a4be c028 4c3e
00000100: 1695 db3e d71a d3be fdd6 afbe 64ff 5b3e
00000110: 108a d53c 1f0b 8cbe c46c a73e 4607 a23e
00000120: e8d7 31be d09b a83c dc72 46be 0e6d 9cbe
00000130: 08ec 8b3d e76e a9be cc3f c1be 00db e93d
00000140: e09e 8f3d 5050 853d 2005 443c 321c abbe
00000150: 3930 99be c09b 62be 104f 383e 3a76 a03e
00000160: 38fa 413e e0ec b2bd c456 d23e 49a6 cdbe
00000170: 0a78 d63e 7646 16be 7005 09be 0847 f23d
00000180: 8080 4fbc 6a87 2dbe c83f 8e3e 786f de3e
00000190: 7be5 e3be 1cf9 a4be 4c2e 2b3e 74f8 a73e
000001a0: 7634 d63e 588e f73d 9816 1f3e e684 8cbe
000001b0: 9026 7dbd 80d9 cabb 4858 81be b04b 703d
000001c0: 6007 cb3d 181d 763e 2847 b43e 6067 7bbc
000001d0: c055 99bb da6c cd3e 2c4a 94be 7085 033e
000001e0: 2e17 bf3e 78ea 7a3e 84de 273e 0c44 cbbe
000001f0: c6a8 1ebe df9a 4cbe 3c16 2c3e 021e b6be
00000200: 28ac a13e 7866 3c3d 6fa2 7abe 7406 bb3e
00000210: 1938 66be b791 b3be b9e4 debe 96d3 b63e
00000220: 0c5f 953e b4c5 b7be e2b9 4bbe 0497 5bbe
00000230: a66b 6bbe 40c9 843d e04a 863c 9257 57be
00000240: 7801 b43d d87b b6bd 186e 173e 0a19 af3e
00000250: 846e a7bd 38e0 95bd c8bd f93d 745d d63e
00000260: 0ddd 9dbe a0ab c83d 00a2 d1bd a006 93bc
00000270: 97eb afbe 0023 fd3a 1cc0 e13e 1096 a3bd
00000280: b8ee 3e3e b29a b7be a081 32bc 2094 da3d
00000290: b256 61be a854 d23d bad8 0fbe b67a a23e
000002a0: 7b50 6bbe c8ea 26be 8059 963d 40fb a63c
000002b0: 0789 56be 2eb0 d13e 59da 83be 38d0 63bd
000002c0: 8483 c0be 405b 1cbd 481c 133e 6872 453e
000002d0: b81c 9fbe d01d 8fbe 3ea7 29be fc73 d3be
000002e0: c8ac 0c3e f229 b33e 803b c53e d23c 65be
000002f0: 2bf9 e2be 9410 383e 3e09 2cbe 0cbc bf3e
00000300: d280 9b3e e0a2 9c3d aa7c bb3e 10f4 a83c
00000310: a08f c33e a0ac 273d ec43 de3e ceb3 b2be

weight f4 [2, 200]
-0.027546506 -0.021683004 0.04280305 0.014758185 0.053725123 -0.06643552 0.029111616 0.018399023
0.060547538 0.011734515 -0.017459888 -0.0034164637 0.043007463 0.029399984 0.04894436 -0.032837253
0.040385827 -0.0390718 0.0287712 0.011393249 -0.013511613 0.036731005 0.014194675 0.05341357
-0.055447698 -0.0009668544 -0.05117646 0.046227783 -0.023064014 0.028175563 0.05694925 -0.043450758
-0.06518219 -0.012279343 0.017159432 0.057405777 -0.025021944 -0.05996717 0.058547772 -0.06846826
0.00096046925 0.04281059 -0.0024386868 0.063629635 0.047899686 0.016861148 0.060401805 0.049504727
-0.054391757 -0.06380382 0.054341204 -0.050319977 -0.03794872 -0.015595406 -0.05334357 -0.047625884
-0.030376136 -0.048013218 -0.00019604713 -0.024714887 0.029320627 0.02479484 0.035429746 0.03606516
-0.025482036 -0.042367756 0.021117412 -0.006647378 -0.00086310506 -0.025371544 -0.022911407 -0.0021918416
-0.051971443 0.05622775 0.022047602 0.06278997 -0.010592651 0.05999758 0.013340846 -8.40351e-05
-0.054083623 0.028932191 0.06790588 0.0001737997 0.06446058 -0.06916964 -0.0456386 0.063372515
0.05305004 -0.013729893 -0.050350323 0.03241948 -0.040839672 0.02146557 0.003154017 -0.046560384
0.018483236 0.04973448 0.006020479 -0.06367744 0.0012062937 -0.03781744 -0.00303936 0.050984003
-0.0010867342 0.03359715 -0.028865762 -0.021387115 -0.0044914186 -0.056552272 -0.06146557 0.021174908
-0.041048914 0.022787675 -0.051836934 -0.0063538924 -0.04701473 0.0054046363 -0.034676433 -0.035447095
-0.057548422 -0.030688472 0.023827106 0.05003187 0.05098892 0.010155901 0.016297579 -0.011001021
-0.01858259 0.0038513616 -0.070395656 -0.0059523433 0.062612854 -0.005618222 0.06080752 -0.05222766
0.027536094 -0.057733558 0.018953614 -0.022813737 0.011419967 0.053617626 0.03839173 0.016110033
0.06448644 0.009749964 0.043709047 -0.004662968 -0.021046214 -0.042159602 -0.0035985038 -0.021912139
-0.047060817 -0.050936237 -0.058049835 0.017094232 -0.041745327 0.033084348 0.0061763525 -0.024942506
0.06696948 0.008704528 -0.039329402 0.06518247 -0.016313333 -0.060843404 0.0029792264 -0.038218122
-0.027838424 -0.007893421 -0.0021705776 0.045450643 -0.06063761 0.00089300424 0.025577962 0.03168258
0.017935745 0.01104968 -0.061868854 -0.05317025 -0.026930597 -0.034318563 0.058656983 0.05191388
0.059648357 -0.06113816 -0.022050593 0.009206608 -0.058280867 0.06013549 -0.027728226 -0.035286818
0.0394091 0.013951376 0.042269565 -0.019237045 0.01512415 -0.06607048 0.028241605 0.011643536
-0.028656654 0.015446089 0.010116048 -0.01599387 -0.010273583 -0.06286129 0.0521689 0.06992578
0.05623316 -0.05753061 -0.00503096 -0.059827488 0.019864649 -0.068226695 0.041991584 -0.052253295
0.050336987 0.06683969 0.0029477403 0.06564904 -0.0036118329 0.007198751 0.04722351 -0.049434133
0.036147192 0.06051714 -0.01046158 -0.039202202 0.03835758 0.053695902 0.008703589 -0.053327948
0.0023366585 -0.02829758 0.03624799 0.050039925 -0.055130508 0.06522711 -0.054344602 0.02157408
-0.05939463 -0.049571678 0.037826046 0.039155357 -0.015559673 0.055388235 0.014270738 -0.06678134
0.028507344 0.019858249 -0.027458902 0.0013358817 0.009671904 0.057191752 -0.059481833 0.011436321
00000000: 36a9 e1bc 8ea0 b1bc 4052 2f3d 50cc 713c
00000010: e00e 5c3d 590f 88bd 7c7b ee3c 8cb9 963c
00000020: b200 783d 2042 403c 0a08 8fbc c0e6 5fbb
00000030: 9828 303d 3cd8 f03c e279 483d 5b80 06bd
00000040: 9c6b 253d c009 20bd 94b1 eb3c c0aa 3a3c
00000050: d05f 5dbc 4073 163d c890 683c 30c8 5a3d
00000060: 201d 63bd 8074 7dba 689e 51bd 5859 3d3d
00000070: bef0 bcbc 70d0 e63c 9e43 693d 6cf9 31bd
00000080: 3d7e 85bd 4c2f 49bc f091 8c3c 5222 6b3d
00000090: d2fa ccbc 23a0 75bd cacf 6f3d 1639 8cbd
000000a0: 00c8 7b3a 285a 2f3d 60d2 1fbb 4150 823d
000000b0: 7632 443d 6420 8a3c e267 773d 78c5 4a3d
000000c0: e4c9 5ebd 94ab 82bd e294 5e3d 521c 4ebd
000000d0: 1e70 1bbd e083 7fbc ca7e 5abd 5c13 43bd
000000e0: 60d7 f8bc 82a9 44bd 0092 4db9 e076 cabc
000000f0: d031 f03c 8c1e cb3c c81e 113d 10b9 133d
00000100: b4bf d0bc d089 2dbd 6cfe ac3c 40d2 d9bb
00000110: 0042 62ba fcd7 cfbc b4b0 bbbc 00a5 0fbb
00000120: 02e0 54bd 124f 663d 2c9d b43c 0798 803d
00000130: cc8c 2dbc 06c0 753d 9093 5a3c 003c b0b8
00000140: ca86 5dbd 3403 ed3c 3d12 8b3d 003e 3639
00000150: e903 843d d0a8 8dbd 8aef 3abd 73c9 813d
00000160: 004b 593d 58f3 60bc 243c 4ebd 4aca 043d
00000170: 8047 27bd 90d8 af3c a0b3 4e3b 1ab6 3ebd
00000180: 286a 973c 62b6 4b3d 7047 c53b 5169 82bd
00000190: 801c 9e3a 76e6 1abd 0030 47bb 9ad4 503d
000001a0: c070 8eba 2a9d 093d e477 ecbc 0834 afbc
000001b0: c02c 93bb 5ba3 67bd 52c3 7bbd 0077 ad3c
000001c0: e822 28bd 38ad ba3c f752 54bd 5034 d0bb
000001d0: 8492 40bd 6019 b13b e008 0ebd f930 11bd
000001e0: e5b7 6bbd 6466 fbbc 1031 c33c 38ee 4c3d
000001f0: c2d9 503d f064 263c 8082 853c a03d 34bc
00000200: 843a 98bc 2067 7c3b 992b 90bd e00b c3bb
00000210: 2b3b 803d 1019 b8bb 4e11 793d acec 55bd
00000220: 6093 e13c 067a 6cbd 9c44 9b3c e0e3 babc
00000230: d01a 3b3c 289e 5b3d a640 1d3d 30f9 833c
00000240: 7711 843d 50be 1f3c 4208 333d d0cb 98bb
00000250: 1c69 acbc 8caf 2cbd e0d4 6bbb 1681 b3bc
00000260: d8c2 40bd 84a2 50bd aac5 6dbd 3409 8c3c
00000270: 26fd 2abd 7483 073d 0063 ca3b 3a54 ccbc
00000280: 4b27 893d 709d 0e3c de17 21bd 637e 853d
00000290: 8aa3 85bc ef36 79bd 203f 433b 9b8a 1cbd
000002a0: 680d e4bc 6853 01bc 4040 0ebb 742a 3a3d
000002b0: 245f 78bd 8018 6a3a e088 d13c 98c5 013d
000002c0: fced 923c b809 353c 326a 7dbd 0cc9 59bd
000002d0: 8e9d dcbc 9f91 0cbd 4e42 703d a6a3 543d
000002e0: d651 743d 026c 7abd 72a3 b4bc 50d7 163c
000002f0: ebb7 6ebd a250 763d 4e26 e3bc e988 10bd
00000300: 706b 213d 5094 643c da22 2d3d 0297 9dbc
00000310: 48cb 773c f64f 87bd f05a e73c 88c4 3e3c
00000320: 5cc1 eabc 9811 7d3c c8bd 253c 9405 83bc
00000330: 8852 28bc 6cbd 80bd 0eaf 553d 3f35 8f3d
00000340: be54 663d 38a5 6bbd c0da a4bb ab0d 75bd
00000350: 30bb a23c 70ba 8bbd 5eff 2b3d 8d07 56bd
00000360: 282e 4e3d 3fe3 883d e02e 413b 0173 863d
00000370: 80b4 6cbb 80e3 eb3b 706d 413d 727b 4abd
00000380: 140f 143d d2e0 773d 0c67 2bbc 7d92 20bd
00000390: d61c 1d3d 3cf0 5b3d 8099 0e3c 686e 5abd
000003a0: a022 193b 54d0 e7bc c678 143d aaf6 4c3d
000003b0: 87d0 61bd cb95 853d 7298 5ebd 20bc b03c
000003c0: c947 73bd ac0b 4bbd 7cef 1a3d 5e61 203d
000003d0: 00ee 7ebc c6de 623d d0cf 693c a8c4 88bd
000003e0: 3c88 e93c c4ad a23c 7ef1 e0bc c018 af3a
000003f0: e876 1e3c e641 6a3d 39a3 73bd 685f 3b3c

bias f4 [2]
-0.034727074 0.03712763
00000000: fa3d 0ebd 2413 183d

weight f4 [4, 3]
0.24807745 -0.40612358 0.3772472 -0.040842712 -0.4786306 0.43487716 0.5601878 -0.21744314
0.14301807 0.14395481 -0.09182596 0.009188235
00000000: 0408 7e3e 6eef cfbe 8c26 c13e b04a 27bd
00000010: 120f f5be 38a8 de3e 7868 0f3f 6aa9 5ebe
00000020: 5473 123e e468 133e 400f bcbd 408a 163c

bias f4 [4]
0.30485952 0.14076209 0.079407275 0.5715468
00000000: 8c16 9c3e f023 103e 48a0 a23d e450 123f

weight f4 [4, 8]
0.31666437 0.051304758 -0.18455254 0.0238806 -0.063684255 -0.2916105 -0.15912643 -0.32987928
0.06606504 0.022070408 0.3146325 -0.21687558 0.04810229 -0.29756713 0.02640614 0.07060319
-0.18987732 -0.18907493 -0.1863331 -0.19263351 0.20683202 -0.21794342 -0.3387595 -0.3210618
0.28997526 -0.017442673 -0.27497336 -0.2893213 0.15940002 0.087114275 0.10474807 0.04462096
00000000: d521 a23e f024 523d 57fb 3cbe 40a1 c33c
00000010: e46c 82bd f94d 95be 0af2 22be f0e5 a8be
00000020: 1c4d 873d 00cd b43c 8317 a13e a214 5ebe
00000030: e806 453d b85a 98be b051 d83c 6898 903d
00000040: 336f 42be dc9c 41be 1bce 3ebe b841 45be
00000050: c6cb 533e 8f2c 5fbe e371 adbe 3662 a4be
00000060: a377 943e f0e3 8ebc 4fc9 8cbe ec21 94be
00000070: c239 233e f868 b23d 2886 d63d 78c4 363d

bias f4 [4]
0.26889434 -0.2933351 0.17394546 0.29980007
00000000: 85ac 893e 0530 96be c21e 323e 657f 993e

weight f4 [10, 2]
0.4181803 0.0047215223 0.69851726 -0.21326339 -0.57767093 0.6789456 -0.6516493 0.23985916
-0.5573621 0.39945143 -0.40643445 0.507224 0.6049828 0.44950217 -0.64965814 -0.38586357
-0.5554094 0.44990295 0.01776278 0.24888301
00000000: ba1b d63e 00b7 9a3b 07d2 323f b861 5abe
00000010: 3ee2 13bf 61cf 2d3f 7dd2 26bf a49d 753e
00000020: 48af 0ebf e684 cc3e 2d18 d0be 6fd9 013f
00000030: 27e0 1a3f 2625 e63e ff4f 26bf e98f c5be
00000040: 4f2f 0ebf ae59 e63e 4083 913c 30db 7e3e

bias f4 [10]
0.46582073 0.68355817 -0.56380033 0.1954571 -0.42420575 0.1287942 0.56408185 -0.51201004
-0.19799942 -0.0037377477
00000000: 0e80 ee3e abfd 2e3f 3855 10bf e825 483e
00000010: 7f31 d9be a0e2 033e ab67 103f 1713 03bf
00000020: 5cc0 4abe 00f5 74bb

weight f4 [10, 2]
0.7045023 0.66775817 -0.1033929 -0.15124667 -0.48198074 0.56858593 -0.66151255 -0.4423574
0.27778625 0.44251484 -0.43549022 0.5608452 0.36429328 -0.39333722 0.49356478 0.7008206
-0.3670257 0.37971467 0.43532044 0.03811711
00000000: 435a 343f 33f2 2a3f a8bf d3bd 68e0 1abe
00000010: 2ec6 f6be d98e 113f e358 29bf ab7c e2be
00000020: 003a 8e3e 4e91 e23e 93f8 debe 8d93 0f3f
00000030: a684 ba3e 7f63 c9be 86b4 fc3e fb68 333f
00000040: cbea bbbe f669 c23e 52e2 de3e b020 1c3d

bias f4 [10]
-0.6489533 -0.39468768 0.38831574 0.42535287 0.549135 0.26551366 0.6869274 0.2033717
-0.28134757 -0.44434983
00000000: ce21 26bf 8114 cabe 52d1 c63e dac7 d93e
00000010: 1d94 0c3f 68f1 873e 79da 2f3f ac40 503e
00000020: ca0c 90be d281 e3be

weight f4 [10, 2]
-0.04355985 -0.42377156 -0.36211374 0.21733612 0.45658082 0.50500137 -0.38767445 -0.29078838
0.39367503 -0.47437432 -0.6476591 -0.32248223 0.14319515 0.43110126 -0.15943974 0.42624313
-0.31732994 -0.41002703 0.48740238 -0.027883947
00000000: d06b 32bd 96f8 d8be f966 b9be 5c8d 5e3e
00000010: f6c4 e93e c547 013f 447d c6be 37e2 94be
00000020: c68f c93e 31e1 f2be fdcc 25bf 641c a5be
00000030: c0a1 123e 4eb9 dc3e 2c44 23be 8a3c da3e
00000040: 1279 a2be 10ef d1be ce8c f93e e06c e4bc

bias f4 [10]
-0.18370402 -0.63903975 -0.35340106 0.058692753 0.08569449 -0.2424258 0.5935797 0.19892216
0.43771404 0.38356715
00000000: e81c 3cbe 1c98 23bf fcf0 b4be d067 703d
00000010: 9880 af3d 783e 78be d7f4 173f 40b2 4b3e
00000020: 0e1c e03e ea62 c43e

F f4 [2, 2]
1.0 0.01 0.0 1.0
00000000: 0000 803f 0ad7 233c 0000 0000 0000 803f

Q f4 [2, 2]
3.3333333e-07 5e-05 5e-05 0.01
00000000: fcf4 b234 17b7 5138 17b7 5138 0ad7 233c

H f4 [1, 2]
1.0 0.0
00000000: 0000 803f 0000 0000

prior_Q f4 [2, 2]
1.0 0.0 0.0 1.0
00000000: 0000 803f 0000 0000 0000 0000 0000 803f

prior_Sigma f4 [2, 2]
0.0 0.0 0.0 0.0
00000000: 0000 0000 0000 0000 0000 0000 0000 0000

m1x_0 f4 [2]
-541.7338 -0.77864635
00000000: f76e 07c4 5e55 47bf

m2x_0 f4 [2, 2]
0.0 0.0 0.0 0.0
00000000: 0000 0000 0000 0000 0000 0000 0000 0000

h_S f4 [1, 562, 1]
nan 0.6603792 0.68451405 0.68451405 0.6603792 0.6603792 0.6603792 0.6603792
0.6603792 0.6603792 0.6603792 0.6603792 0.6603792 0.6603792 0.6603792 0.6603792
0.6603792 0.6603792 0.6603792 0.6603792 0.6603792 0.6603792 0.6603792 0.6603792
0.68451405 0.6603792 0.6603792 0.6603792 0.6603792 0.6603792 0.6603792 0.6603792
0.6603792 0.6603792 0.6603792 0.6603792 0.6603792 0.6603792 0.6603792 0.6603792
0.6603792 0.6603792 0.6603792 0.6603792 0.6603792 0.6603792 0.6603792 0.6603792
0.6603792 0.6603792 0.6603792 0.6603792 0.6603792 0.6603792 0.6603792 0.6603792
0.6603792 0.6603792 0.6603792 0.6603792 0.6603792 0.6603792 0.6603792 0.6603792
0.6603792 0.6603792 0.6603792 0.6603792 0.6603792 0.6603792 0.6603792 0.6603792
0.6603792 0.6603792 0.6603792 0.6603792 0.6603792 0.6603792 0.6603792 0.6603792
0.6603792 0.6603792 0.6603792 0.6603792 0.6603792 0.6603792 0.6603792 0.6603792
0.68451405 0.68451405 0.68451405 0.68451405 0.68451405 0.68451405 0.68451405 0.68451405
0.68451405 0.68451405 0.68451405 0.68451405 0.68451405 0.68451405 0.68451405 0.68451405
0.68451405 0.68451405 0.68451405 0.68451405 0.68451405 0.68451405 0.68451405 0.68451405
0.68451405 0.68451405 0.68451405 0.68451405 0.68451405 0.68451405 0.68451405 0.68451405
0.68451405 0.68451405 0.68451405 0.68451405 0.68451405 0.68451405 0.68451405 0.68451405
0.68451405 0.68451405 0.68451405 0.68451405 0.68451405 0.68451405 0.68451405 0.68451405
0.68451405 0.68451405 0.68451405 0.68451405 0.68451405 0.68451405 0.68451405 0.68451405
0.68451405 0.68451405 0.68451405 0.68451405 0.68451405 0.68451405 0.68451405 0.68451405
0.68451405 0.68451405 0.68451405 0.68451405 0.68451405 0.68451405 0.68451405 0.68451405
0.68451405 0.68451405 0.68451405 0.68451405 0.68451405 0.68451405 0.68451405 0.68451405
0.68451405 0.68451405 0.68451405 0.68451405 0.68451405 0.68451405 0.68451405 0.68451405
0.68451405 0.68451405 0.68451405 0.68451405 0.68451405 0.68451405 0.68451405 0.68451405
0.68451405 0.68451405 0.68451405 0.68451405 0.68451405 0.68451405 0.68451405 0.68451405
0.68451405 0.68451405 0.68451405 0.68451405 0.68451405 0.68451405 0.68451405 0.68451405
0.68451405 0.68451405 0.68451405 0.68451405 0.68451405 0.68451405 0.68451405 0.68451405
0.68451405 0.68451405 0.68451405 0.68451405 0.68451405 0.68451405 0.68451405 0.68451405
0.68451405 0.68451405 0.68451405 0.68451405 0.68451405 0.68451405 0.68451405 0.68451405
0.68451405 0.68451405 0.68451405 0.68451405 0.68451405 0.68451405 0.68451405 0.68451405
0.68451405 0.68451405 0.68451405 0.68451405 0.68451405 0.68451405 0.68451405 0.68451405
0.68451405 0.68451405 0.68451405 0.68451405 0.68451405 0.68451405 0.68451405 0.68451405
0.68451405 0.68451405 0.68451405 0.68451405 0.68451405 0.68451405 0.68451405 0.68451405
00000000: 0000 c07f 9c0e 293f 503c 2f3f 503c 2f3f
00000010: 9c0e 293f 9c0e 293f 9c0e 293f 9c0e 293f
00000020: 9c0e 293f 9c0e 293f 9c0e 293f 9c0e 293f
00000030: 9c0e 293f 9c0e 293f 9c0e 293f 9c0e 293f
00000040: 9c0e 293f 9c0e 293f 9c0e 293f 9c0e 293f
00000050: 9c0e 293f 9c0e 293f 9c0e 293f 9c0e 293f
00000060: 503c 2f3f 9c0e 293f 9c0e 293f 9c0e 293f
00000070: 9c0e 293f 9c0e 293f 9c0e 293f 9c0e 293f
00000080: 9c0e 293f 9c0e 293f 9c0e 293f 9c0e 293f
00000090: 9c0e 293f 9c0e 293f 9c0e 293f 9c0e 293f
000000a0: 9c0e 293f 9c0e 293f 9c0e 293f 9c0e 293f
000000b0: 9c0e 293f 9c0e 293f 9c0e 293f 9c0e 293f
000000c0: 9c0e 293f 9c0e 293f 9c0e 293f 9c0e 293f
000000d0: 9c0e 293f 9c0e 293f 9c0e 293f 9c0e 293f
000000e0: 9c0e 293f 9c0e 293f 9c0e 293f 9c0e 293f
000000f0: 9c0e 293f 9c0e 293f 9c0e 293f 9c0e 293f
00000100: 9c0e 293f 9c0e 293f 9c0e 293f 9c0e 293f
00000110: 9c0e 293f 9c0e 293f 9c0e 293f 9c0e 293f
00000120: 9c0e 293f 9c0e 293f 9c0e 293f 9c0e 293f
00000130: 9c0e 293f 9c0e 293f 9c0e 293f 9c0e 293f
00000140: 9c0e 293f 9c0e 293f 9c0e 293f 9c0e 293f
00000150: 9c0e 293f 9c0e 293f 9c0e 293f 9c0e 293f
00000160: 503c 2f3f 503c 2f3f 503c 2f3f 503c 2f3f
00000170: 503c 2f3f 503c 2f3f 503c 2f3f 503c 2f3f
00000180: 503c 2f3f 503c 2f3f 503c 2f3f 503c 2f3f
00000190: 503c 2f3f 503c 2f3f 503c 2f3f 503c 2f3f
000001a0: 503c 2f3f 503c 2f3f 503c 2f3f 503c 2f3f
000001b0: 503c 2f3f 503c 2f3f 503c 2f3f 503c 2f3f
000001c0: 503c 2f3f 503c 2f3f 503c 2f3f 503c 2f3f
000001d0: 503c 2f3f 503c 2f3f 503c 2f3f 503c 2f3f
000001e0: 503c 2f3f 503c 2f3f 503c 2f3f 503c 2f3f
000001f0: 503c 2f3f 503c 2f3f 503c 2f3f 503c 2f3f
00000200: 503c 2f3f 503c 2f3f 503c 2f3f 503c 2f3f
00000210: 503c 2f3f 503c 2f3f 503c 2f3f 503c 2f3f
00000220: 503c 2f3f 503c 2f3f 503c 2f3f 503c 2f3f
00000230: 503c 2f3f 503c 2f3f 503c 2f3f 503c 2f3f
00000240: 503c 2f3f 503c 2f3f 503c 2f3f 503c 2f3f
00000250: 503c 2f3f 503c 2f3f 503c 2f3f 503c 2f3f
00000260: 503c 2f3f 503c 2f3f 503c 2f3f 503c 2f3f
00000270: 503c 2f3f 503c 2f3f 503c 2f3f 503c 2f3f
00000280: 503c 2f3f 503c 2f3f 503c 2f3f 503c 2f3f
00000290: 503c 2f3f 503c 2f3f 503c 2f3f 503c 2f3f
000002a0: 503c 2f3f 503c 2f3f 503c 2f3f 503c 2f3f
000002b0: 503c 2f3f 503c 2f3f 503c 2f3f 503c 2f3f
000002c0: 503c 2f3f 503c 2f3f 503c 2f3f 503c 2f3f
000002d0: 503c 2f3f 503c 2f3f 503c 2f3f 503c 2f3f
000002e0: 503c 2f3f 503c 2f3f 503c 2f3f 503c 2f3f
000002f0: 503c 2f3f 503c 2f3f 503c 2f3f 503c 2f3f
00000300: 503c 2f3f 503c 2f3f 503c 2f3f 503c 2f3f
00000310: 503c 2f3f 503c 2f3f 503c 2f3f 503c 2f3f
00000320: 503c 2f3f 503c 2f3f 503c 2f3f 503c 2f3f
00000330: 503c 2f3f 503c 2f3f 503c 2f3f 503c 2f3f
00000340: 503c 2f3f 503c 2f3f 503c 2f3f 503c 2f3f
00000350: 503c 2f3f 503c 2f3f 503c 2f3f 503c 2f3f
00000360: 503c 2f3f 503c 2f3f 503c 2f3f 503c 2f3f
00000370: 503c 2f3f 503c 2f3f 503c 2f3f 503c 2f3f
00000380: 503c 2f3f 503c 2f3f 503c 2f3f 503c 2f3f
00000390: 503c 2f3f 503c 2f3f 503c 2f3f 503c 2f3f
000003a0: 503c 2f3f 503c 2f3f 503c 2f3f 503c 2f3f
000003b0: 503c 2f3f 503c 2f3f 503c 2f3f 503c 2f3f
000003c0: 503c 2f3f 503c 2f3f 503c 2f3f 503c 2f3f
000003d0: 503c 2f3f 503c 2f3f 503c 2f3f 503c 2f3f
000003e0: 503c 2f3f 503c 2f3f 503c 2f3f 503c 2f3f
000003f0: 503c 2f3f 503c 2f3f 503c 2f3f 503c 2f3f

h_Sigma f4 [1, 562, 4]
nan nan nan nan 0.0 0.0 0.0 0.5591824
0.0 0.0 0.0 0.5617223 0.0 0.0 0.0 0.5617223
0.0 0.0 0.0 0.5591824 0.0 0.0 0.0 0.5591824
0.0 0.0 0.0 0.5591824 0.0 0.0 0.0 0.5591824
0.0 0.0 0.0 0.5591824 0.0 0.0 0.0 0.5591824
0.0 0.0 0.0 0.5591824 0.0 0.0 0.0 0.5591824
0.0 0.0 0.0 0.5591824 0.0 0.0 0.0 0.5591824
0.0 0.0 0.0 0.5591824 0.0 0.0 0.0 0.5591824
0.0 0.0 0.0 0.5591824 0.0 0.0 0.0 0.5591824
0.0 0.0 0.0 0.5591824 0.0 0.0 0.0 0.5591824
0.0 0.0 0.0 0.5591824 0.0 0.0 0.0 0.5591824
0.0 0.0 0.0 0.5591824 0.0 0.0 0.0 0.5591824
0.0 0.0 0.0 0.5617223 0.0 0.0 0.0 0.5591824
0.0 0.0 0.0 0.5591824 0.0 0.0 0.0 0.5591824
0.0 0.0 0.0 0.5591824 0.0 0.0 0.0 0.5591824
0.0 0.0 0.0 0.5591824 0.0 0.0 0.0 0.5591824
0.0 0.0 0.0 0.5591824 0.0 0.0 0.0 0.5591824
0.0 0.0 0.0 0.5591824 0.0 0.0 0.0 0.5591824
0.0 0.0 0.0 0.5591824 0.0 0.0 0.0 0.5591824
0.0 0.0 0.0 0.5591824 0.0 0.0 0.0 0.5591824
0.0 0.0 0.0 0.5591824 0.0 0.0 0.0 0.5591824
0.0 0.0 0.0 0.5591824 0.0 0.0 0.0 0.5591824
0.0 0.0 0.0 0.5591824 0.0 0.0 0.0 0.5591824
0.0 0.0 0.0 0.5591824 0.0 0.0 0.0 0.5591824
0.0 0.0 0.0 0.5591824 0.0 0.0 0.0 0.5591824
0.0 0.0 0.0 0.5591824 0.0 0.0 0.0 0.5591824
0.0 0.0 0.0 0.5591824 0.0 0.0 0.0 0.5591824
0.0 0.0 0.0 0.5591824 0.0 0.0 0.0 0.5591824
0.0 0.0 0.0 0.5591824 0.0 0.0 0.0 0.5591824
0.0 0.0 0.0 0.5591824 0.0 0.0 0.0 0.5591824
0.0 0.0 0.0 0.5591824 0.0 0.0 0.0 0.5591824
0.0 0.0 0.0 0.5591824 0.0 0.0 0.0 0.5591824
00000000: 0000 c07f 0000 c07f 0000 c07f 0000 c07f
00000010: 0000 0000 0000 0000 0000 0000 9426 0f3f
00000020: 0000 0000 0000 0000 0000 0000 08cd 0f3f
00000030: 0000 0000 0000 0000 0000 0000 08cd 0f3f
00000040: 0000 0000 0000 0000 0000 0000 9426 0f3f
00000050: 0000 0000 0000 0000 0000 0000 9426 0f3f
00000060: 0000 0000 0000 0000 0000 0000 9426 0f3f
00000070: 0000 0000 0000 0000 0000 0000 9426 0f3f
00000080: 0000 0000 0000 0000 0000 0000 9426 0f3f
00000090: 0000 0000 0000 0000 0000 0000 9426 0f3f
000000a0: 0000 0000 0000 0000 0000 0000 9426 0f3f
000000b0: 0000 0000 0000 0000 0000 0000 9426 0f3f
000000c0: 0000 0000 0000 0000 0000 0000 9426 0f3f
000000d0: 0000 0000 0000 0000 0000 0000 9426 0f3f
000000e0: 0000 0000 0000 0000 0000 0000 9426 0f3f
000000f0: 0000 0000 0000 0000 0000 0000 9426 0f3f
00000100: 0000 0000 0000 0000 0000 0000 9426 0f3f
00000110: 0000 0000 0000 0000 0000 0000 9426 0f3f
00000120: 0000 0000 0000 0000 0000 0000 9426 0f3f
00000130: 0000 0000 0000 0000 0000 0000 9426 0f3f
00000140: 0000 0000 0000 0000 0000 0000 9426 0f3f
00000150: 0000 0000 0000 0000 0000 0000 9426 0f3f
00000160: 0000 0000 0000 0000 0000 0000 9426 0f3f
00000170: 0000 0000 0000 0000 0000 0000 9426 0f3f
00000180: 0000 0000 0000 0000 0000 0000 08cd 0f3f
00000190: 0000 0000 0000 0000 0000 0000 9426 0f3f
000001a0: 0000 0000 0000 0000 0000 0000 9426 0f3f
000001b0: 0000 0000 0000 0000 0000 0000 9426 0f3f
000001c0: 0000 0000 0000 0000 0000 0000 9426 0f3f
000001d0: 0000 0000 0000 0000 0000 0000 9426 0f3f
000001e0: 0000 0000 0000 0000 0000 0000 9426 0f3f
000001f0: 0000 0000 0000 0000 0000 0000 9426 0f3f
00000200: 0000 0000 0000 0000 0000 0000 9426 0f3f
00000210: 0000 0000 0000 0000 0000 0000 9426 0f3f
00000220: 0000 0000 0000 0000 0000 0000 9426 0f3f
00000230: 0000 0000 0000 0000 0000 0000 9426 0f3f
00000240: 0000 0000 0000 0000 0000 0000 9426 0f3f
00000250: 0000 0000 0000 0000 0000 0000 9426 0f3f
00000260: 0000 0000 0000 0000 0000 0000 9426 0f3f
00000270: 0000 0000 0000 0000 0000 0000 9426 0f3f
00000280: 0000 0000 0000 0000 0000 0000 9426 0f3f
00000290: 0000 0000 0000 0000 0000 0000 9426 0f3f
000002a0: 0000 0000 0000 0000 0000 0000 9426 0f3f
000002b0: 0000 0000 0000 0000 0000 0000 9426 0f3f
000002c0: 0000 0000 0000 0000 0000 0000 9426 0f3f
000002d0: 0000 0000 0000 0000 0000 0000 9426 0f3f
000002e0: 0000 0000 0000 0000 0000 0000 9426 0f3f
000002f0: 0000 0000 0000 0000 0000 0000 9426 0f3f
00000300: 0000 0000 0000 0000 0000 0000 9426 0f3f
00000310: 0000 0000 0000 0000 0000 0000 9426 0f3f
00000320: 0000 0000 0000 0000 0000 0000 9426 0f3f
00000330: 0000 0000 0000 0000 0000 0000 9426 0f3f
00000340: 0000 0000 0000 0000 0000 0000 9426 0f3f
00000350: 0000 0000 0000 0000 0000 0000 9426 0f3f
00000360: 0000 0000 0000 0000 0000 0000 9426 0f3f
00000370: 0000 0000 0000 0000 0000 0000 9426 0f3f
00000380: 0000 0000 0000 0000 0000 0000 9426 0f3f
00000390: 0000 0000 0000 0000 0000 0000 9426 0f3f
000003a0: 0000 0000 0000 0000 0000 0000 9426 0f3f
000003b0: 0000 0000 0000 0000 0000 0000 9426 0f3f
000003c0: 0000 0000 0000 0000 0000 0000 9426 0f3f
000003d0: 0000 0000 0000 0000 0000 0000 9426 0f3f
000003e0: 0000 0000 0000 0000 0000 0000 9426 0f3f
000003f0: 0000 0000 0000 0000 0000 0000 9426 0f3f

h_Q f4 [1, 562, 4]
nan nan nan nan 0.054236293 0.098855086 -0.2617861 0.77058303
0.054236293 0.098855086 -0.2617861 0.77058303 0.054236293 0.098855086 -0.2617861 0.77058303
0.054236293 0.098855086 -0.2617861 0.77058303 0.054236293 0.098855086 -0.2617861 0.77058303
0.054236293 0.098855086 -0.2617861 0.77058303 0.054236293 0.098855086 -0.2617861 0.77058303
0.054236293 0.098855086 -0.2617861 0.77058303 0.054236293 0.098855086 -0.2617861 0.77058303
0.054236293 0.098855086 -0.2617861 0.77058303 0.054236293 0.098855086 -0.2617861 0.77058303
0.054236293 0.098855086 -0.2617861 0.77058303 0.054236293 0.098855086 -0.2617861 0.77058303
0.054236293 0.098855086 -0.2617861 0.77058303 0.054236293 0.098855086 -0.2617861 0.77058303
0.054236293 0.098855086 -0.2617861 0.77058303 0.054236293 0.098855086 -0.2617861 0.77058303
0.054236293 0.098855086 -0.2617861 0.77058303 0.054236293 0.098855086 -0.2617861 0.77058303
0.054236293 0.098855086 -0.2617861 0.77058303 0.054236293 0.098855086 -0.2617861 0.77058303
0.054236293 0.098855086 -0.2617861 0.77058303 0.054236293 0.098855086 -0.2617861 0.77058303
0.054236293 0.098855086 -0.2617861 0.77058303 0.054236293 0.098855086 -0.2617861 0.77058303
0.054236293 0.098855086 -0.2617861 0.77058303 0.054236293 0.098855086 -0.2617861 0.77058303
0.054236293 0.098855086 -0.2617861 0.77058303 0.054236293 0.098855086 -0.2617861 0.77058303
0.054236293 0.098855086 -0.2617861 0.77058303 0.054236293 0.098855086 -0.2617861 0.77058303
0.054236293 0.098855086 -0.2617861 0.77058303 0.054236293 0.098855086 -0.2617861 0.77058303
0.054236293 0.098855086 -0.2617861 0.77058303 0.054236293 0.098855086 -0.2617861 0.77058303
0.054236293 0.098855086 -0.2617861 0.77058303 0.054236293 0.098855086 -0.2617861 0.77058303
0.054236293 0.098855086 -0.2617861 0.77058303 0.054236293 0.098855086 -0.2617861 0.77058303
0.054236293 0.098855086 -0.2617861 0.77058303 0.054236293 0.098855086 -0.2617861 0.77058303
0.054236293 0.098855086 -0.2617861 0.77058303 0.054236293 0.098855086 -0.2617861 0.77058303
0.054236293 0.098855086 -0.2617861 0.77058303 0.054236293 0.098855086 -0.2617861 0.77058303
0.054236293 0.098855086 -0.2617861 0.77058303 0.054236293 0.098855086 -0.2617861 0.77058303
0.054236293 0.098855086 -0.2617861 0.77058303 0.054236293 0.098855086 -0.2617861 0.77058303
0.054236293 0.098855086 -0.2617861 0.77058303 0.054236293 0.098855086 -0.2617861 0.77058303
0.054236293 0.098855086 -0.2617861 0.77058303 0.054236293 0.098855086 -0.2617861 0.77058303
0.054236293 0.098855086 -0.2617861 0.77058303 0.054236293 0.098855086 -0.2617861 0.77058303
0.054236293 0.098855086 -0.2617861 0.77058303 0.054236293 0.098855086 -0.2617861 0.77058303
0.054236293 0.098855086 -0.2617861 0.77058303 0.054236293 0.098855086 -0.2617861 0.77058303
0.054236293 0.098855086 -0.2617861 0.77058303 0.054236293 0.098855086 -0.2617861 0.77058303
0.054236293 0.098855086 -0.2617861 0.77058303 0.054236293 0.098855086 -0.2617861 0.77058303
00000000: 0000 c07f 0000 c07f 0000 c07f 0000 c07f
00000010: e026 5e3d 8974 ca3d d408 86be ee44 453f
00000020: e026 5e3d 8974 ca3d d408 86be ee44 453f
00000030: e026 5e3d 8974 ca3d d408 86be ee44 453f
00000040: e026 5e3d 8974 ca3d d408 86be ee44 453f
00000050: e026 5e3d 8974 ca3d d408 86be ee44 453f
00000060: e026 5e3d 8974 ca3d d408 86be ee44 453f
00000070: e026 5e3d 8974 ca3d d408 86be ee44 453f
00000080: e026 5e3d 8974 ca3d d408 86be ee44 453f
00000090: e026 5e3d 8974 ca3d d408 86be ee44 453f
000000a0: e026 5e3d 8974 ca3d d408 86be ee44 453f
000000b0: e026 5e3d 8974 ca3d d408 86be ee44 453f
000000c0: e026 5e3d 8974 ca3d d408 86be ee44 453f
000000d0: e026 5e3d 8974 ca3d d408 86be ee44 453f
000000e0: e026 5e3d 8974 ca3d d408 86be ee44 453f
000000f0: e026 5e3d 8974 ca3d d408 86be ee44 453f
00000100: e026 5e3d 8974 ca3d d408 86be ee44 453f
00000110: e026 5e3d 8974 ca3d d408 86be ee44 453f
00000120: e026 5e3d 8974 ca3d d408 86be ee44 453f
00000130: e026 5e3d 8974 ca3d d408 86be ee44 453f
00000140: e026 5e3d 8974 ca3d d408 86be ee44 453f
00000150: e026 5e3d 8974 ca3d d408 86be ee44 453f
00000160: e026 5e3d 8974 ca3d d408 86be ee44 453f
00000170: e026 5e3d 8974 ca3d d408 86be ee44 453f
00000180: e026 5e3d 8974 ca3d d408 86be ee44 453f
00000190: e026 5e3d 8974 ca3d d408 86be ee44 453f
000001a0: e026 5e3d 8974 ca3d d408 86be ee44 453f
000001b0: e026 5e3d 8974 ca3d d408 86be ee44 453f
000001c0: e026 5e3d 8974 ca3d d408 86be ee44 453f
000001d0: e026 5e3d 8974 ca3d d408 86be ee44 453f
000001e0: e026 5e3d 8974 ca3d d408 86be ee44 453f
000001f0: e026 5e3d 8974 ca3d d408 86be ee44 453f
00000200: e026 5e3d 8974 ca3d d408 86be ee44 453f
00000210: e026 5e3d 8974 ca3d d408 86be ee44 453f
00000220: e026 5e3d 8974 ca3d d408 86be ee44 453f
00000230: e026 5e3d 8974 ca3d d408 86be ee44 453f
00000240: e026 5e3d 8974 ca3d d408 86be ee44 453f
00000250: e026 5e3d 8974 ca3d d408 86be ee44 453f
00000260: e026 5e3d 8974 ca3d d408 86be ee44 453f
00000270: e026 5e3d 8974 ca3d d408 86be ee44 453f
00000280: e026 5e3d 8974 ca3d d408 86be ee44 453f
00000290: e026 5e3d 8974 ca3d d408 86be ee44 453f
000002a0: e026 5e3d 8974 ca3d d408 86be ee44 453f
000002b0: e026 5e3d 8974 ca3d d408 86be ee44 453f
000002c0: e026 5e3d 8974 ca3d d408 86be ee44 453f
000002d0: e026 5e3d 8974 ca3d d408 86be ee44 453f
000002e0: e026 5e3d 8974 ca3d d408 86be ee44 453f
000002f0: e026 5e3d 8974 ca3d d408 86be ee44 453f
00000300: e026 5e3d 8974 ca3d d408 86be ee44 453f
00000310: e026 5e3d 8974 ca3d d408 86be ee44 453f
00000320: e026 5e3d 8974 ca3d d408 86be ee44 453f
00000330: e026 5e3d 8974 ca3d d408 86be ee44 453f
00000340: e026 5e3d 8974 ca3d d408 86be ee44 453f
00000350: e026 5e3d 8974 ca3d d408 86be ee44 453f
00000360: e026 5e3d 8974 ca3d d408 86be ee44 453f
00000370: e026 5e3d 8974 ca3d d408 86be ee44 453f
00000380: e026 5e3d 8974 ca3d d408 86be ee44 453f
00000390: e026 5e3d 8974 ca3d d408 86be ee44 453f
000003a0: e026 5e3d 8974 ca3d d408 86be ee44 453f
000003b0: e026 5e3d 8974 ca3d d408 86be ee44 453f
000003c0: e026 5e3d 8974 ca3d d408 86be ee44 453f
000003d0: e026 5e3d 8974 ca3d d408 86be ee44 453f
000003e0: e026 5e3d 8974 ca3d d408 86be ee44 453f
000003f0: e026 5e3d 8974 ca3d d408 86be ee44 453f
