KalmanNetPHAv2/KalmanNet_TSP-main/KNet/2days/2daysmodelteston2904y.pt (torch, 108744 bytes, 43 tensors)

weight_ih_l0 f4 [12, 10]
000000 4e e5 9a be 94 c8 5b 3e 0e aa 91 be 00 ec c0 bc
       -0.3025307 0.21463233 -0.28450054 -0.023550034
000010 6c 4f 9a be 0c 95 33 be 3c dc 83 3e 94 e2 28 3e
       -0.3013872 -0.17537326 0.25753963 0.16492683
000020 40 68 74 bc aa 8a c4 3e 18 89 a8 3d b0 21 c1 bd
       -0.014917433 0.38387042 0.082292736 -0.094302535
000030 14 12 63 3e c0 81 f0 3d d8 2f 08 3e 68 4f fa bd
       0.22174865 0.11743498 0.13299501 -0.12222177
000040 0c ae a8 3e c6 94 b1 3e 30 2e 7a bd 64 fb 9f 3e
       0.32945287 0.34683818 -0.061079204 0.31246483
000050 dc d8 6b 3e 9c 7d 0e 3e e0 75 1f be 88 5e 8f 3d
       0.23031944 0.13915104 -0.1557231 0.07000452
000060 c0 51 93 3d 40 1f 0d 3e a4 00 e4 be e4 51 53 3e
       0.07193327 0.13781452 -0.4453174 0.20636708
000070 06 fa bb 3e 40 e9 ca bd fc 8a 6d 3e 00 44 88 ba
       0.3671419 -0.0990777 0.2319755 -0.0010396242
000080 18 b8 4d 3e 48 7c 6b 3e 3c c4 74 be a8 06 96 3e
       0.20089757 0.22996628 -0.23902982 0.29301953
000090 68 9b b4 bd d4 d7 20 be 30 5a f0 3e f4 75 1b be
       -0.08818704 -0.15707332 0.46943808 -0.15181714
0000a0 6c f0 f7 3e 20 e8 62 3e e0 af ce 3d a8 c0 8a 3d
       0.48425615 0.22158861 0.10092139 0.067750275
0000b0 16 98 a1 be c2 db d9 3e 3c fe 44 3e 36 f7 86 be
       -0.31561345 0.42550474 0.19237608 -0.26360482
0000c0 d4 a0 73 3e 90 90 d6 3e 64 96 b6 be fa 1e f8 be
       0.2379182 0.41907167 -0.35661614 -0.48461133
0000d0 50 0e a1 3e 54 06 fd 3e f0 aa 6d 3d aa 97 a5 3e
       0.31456232 0.4941889 0.058024347 0.32342273
0000e0 a8 d8 bc be 6e 0c dd 3e 90 6e 91 be 00 d6 61 3d
       -0.36884046 0.43173546 -0.28404665 0.055135727
0000f0 a0 e1 d4 bd e6 ad c7 be 6e 58 a5 3e 00 30 7c 3e
       -0.10394597 -0.3899986 0.3229403 0.24627686
000100 d0 09 b4 3d b6 5f 9b 3e 0c 62 65 be 38 34 b0 3d
       0.08790934 0.3034646 -0.22400683 0.0860371
000110 7c c3 7c 3e ac 0b 26 be 5c fd 44 3e 70 28 a8 3e
       0.24683946 -0.1621539 0.19237274 0.3284335
000120 24 ec ea 3e 0c c7 59 be 2e c7 d9 be 8e b3 e8 be
       0.45883286 -0.21267337 -0.42534775 -0.4544949
000130 9e 7f ad 3e f0 90 e7 3e 62 3d a9 3e a0 48 e5 3c
       0.33886427 0.45227766 0.33054644 0.027988732
000140 64 58 e5 3e 98 1f dd 3d 68 a9 c2 be 50 b4 ee 3d
       0.44794 0.10797042 -0.38019872 0.11655486
000150 f4 97 a9 3e a4 c3 ac 3e b0 72 24 be c0 47 d2 3d
       0.33123744 0.33743012 -0.16059375 0.102675915
000160 00 bf b6 3b 10 46 5b be 8a 87 c8 be 88 be bb be
       0.005576968 -0.21413445 -0.39165908 -0.366688
000170 b0 23 61 be d8 14 84 3e 6e 4e e3 be 1c 39 58 3e
       -0.2198627 0.25797153 -0.44395775 0.21115535
000180 bc cd 9a 3e ee 94 df be 84 b3 40 3e 50 32 0e 3d
       0.30235088 -0.43668312 0.1881848 0.03471595
000190 24 11 56 3e 16 8f 8c be 8c d1 0b be 32 d1 ca 3e
       0.20904976 -0.27452916 -0.13654155 0.39612728
0001a0 80 9f cc be d8 58 ad be 16 4d be be 00 f6 c7 bc
       -0.3996544 -0.33856845 -0.37168187 -0.024409294
0001b0 f4 8a ce 3e 40 7b e8 3c e8 ee c4 3d e8 02 ea be
       0.40340388 0.028379083 0.0961588 -0.45705342
0001c0 20 13 42 3e a0 96 c4 3e 0c f2 a3 be 9c df bf 3e
       0.18952608 0.38396168 -0.32020605 0.37475288
0001d0 6c d0 30 3e b4 99 18 3e 6e 60 a7 be 02 05 cb 3e
       0.17267007 0.14902383 -0.32690758 0.39652258

weight_hh_l0 f4 [12, 4]
000000 00 01 6b bd 00 26 e0 bb 46 75 bf 3e 16 4f 84 be
       -0.057374 -0.0068404675 0.3739416 -0.25841588
000010 78 23 80 3e a8 82 ee bd 40 2a e2 3e 00 df 1d 3e
       0.2502706 -0.116460145 0.4417286 0.15417099
000020 6e 73 c2 be 0a 8c b9 3e 76 2b f8 be 34 7c 65 3e
       -0.3797869 0.36239654 -0.48470658 0.22410661
000030 08 6c ad 3d c0 36 a7 bd 38 b8 be 3e 04 b9 65 3e
       0.08467871 -0.081647396 0.37249923 0.22433859
000040 e8 48 50 be e0 4b 30 3e 84 2e da 3e 18 10 ad 3e
       -0.20340312 0.17216444 0.42613614 0.3380134
000050 e0 a8 02 3e 20 c0 02 3e da 05 c4 3e 98 b4 64 be
       0.12759733 0.12768602 0.38285714 -0.22334516
000060 e4 79 8c 3e f8 fb 91 bd 44 7b d8 3e 28 52 b0 3e
       0.27436745 -0.07128137 0.42281544 0.3443768
000070 c8 62 fc bd 36 d5 a0 be 9c 71 72 3e e0 71 c6 bd
       -0.123235285 -0.31412667 0.23676151 -0.09689689
000080 38 ae 79 be 80 c8 a9 bd f0 1a 1a be 98 58 3f 3e
       -0.24382865 -0.082901955 -0.15049338 0.1868614
000090 00 35 89 3b 10 2b 64 be 10 ff 7b bd 00 08 28 be
       0.0041872263 -0.22282052 -0.061522543 -0.16409302
0000a0 bc 91 19 3e 3e 27 c2 3e c8 4f 8e be aa 59 ff be
       0.14997 0.37920564 -0.27795243 -0.49873096
0000b0 d8 80 b4 be 34 d8 24 3e 1a 08 bc be b4 e5 f5 3e
       -0.3525455 0.160981 -0.3672493 0.48026812

bias_ih_l0 f4 [12]
000000 e0 dd c6 3d e8 88 b1 be bc ac ab be bc a1 4a 3e
       0.09710288 -0.34674764 -0.33530223 0.1978826
000010 30 67 00 3d d0 05 50 3e 20 4a 47 be 50 f5 a6 bd
       0.031348407 0.20314717 -0.1946187 -0.081522584
000020 14 97 22 3e 90 1a e3 3d ec 4d 99 3e e8 e7 8e be
       0.15877944 0.11089051 0.29942262 -0.27911305

bias_hh_l0 f4 [12]
000000 c8 50 74 be d8 07 cd bd 04 70 32 3e 08 b0 f3 be
       -0.2385894 -0.10011262 0.17425543 -0.4759524
000010 40 e9 3b bd dc 77 94 be 98 a4 a2 3d 74 ce c5 be
       -0.04587674 -0.28997695 0.0794155 -0.38634074
000020 b8 a1 80 bd e0 74 2d 3d 00 0f 18 3e 7a da ab be
       -0.062808454 0.04234779 0.14849472 -0.33565122

weight_ih_l0 f4 [12, 14]
000000 50 af a6 bd 7c 74 86 be 50 89 51 be c0 26 81 bc
       -0.08138907 -0.26260746 -0.20462537 -0.015765548
000010 68 04 54 be 8c d5 36 3e 80 00 00 bc 78 04 53 3e
       -0.20704806 0.17854899 -0.007812619 0.20607173
000020 70 6a da 3d 96 e8 91 3e 54 79 c4 3e 6c e3 02 3e
       0.106648326 0.2849776 0.38373816 0.12782067
000030 2c d3 5a be f4 5a be 3e d8 91 81 be c0 57 2f bd
       -0.21369618 0.37178767 -0.25306582 -0.042808294
000040 56 e9 f5 3e 60 80 f6 bc 90 85 69 3e 48 fd b7 be
       0.48029584 -0.03009051 0.22804856 -0.35935426
000050 10 66 48 be a8 8c aa 3d f4 b7 c2 3e a0 89 07 be
       -0.19570184 0.08327609 0.3803097 -0.13236094
000060 c8 08 9a bd 84 84 6f 3e ae 0b ff 3e ac 1d 7f 3e
       -0.07521206 0.23390394 0.49813598 0.24913663
000070 14 8f 2a be 9c 5c b4 3e a0 df 5b bd 4a 1e de be
       -0.16656142 0.35226905 -0.053680062 -0.43382484
000080 c2 39 d0 3e ec 88 67 be 00 2f 61 bc 2c 4d c6 be
       0.40669066 -0.22610825 -0.013744116 -0.38730752
000090 74 25 85 3e 58 28 cd bd c0 a7 56 3e c6 a9 a5 be
       0.26005137 -0.100174606 0.20962429 -0.3235609
0000a0 de 1d de 3e 56 e6 8d be 4e 1f fa 3e 38 e5 a1 3d
       0.43382162 -0.27714795 0.4885201 0.07905048
0000b0 7c 4f 7e be bc c7 8a be 5c 21 1d be 56 30 ea 3e
       -0.24835008 -0.2710551 -0.15344757 0.45740002
0000c0 5e 5c e7 be c0 de 23 3c 30 c8 0c 3d 90 dd 65 bd
       -0.45187658 0.010001838 0.0343706 -0.0561195
0000d0 80 ee 9f 3e 70 a4 0d 3e a4 7c ab 3e 90 3f d2 bd
       0.3123665 0.13832259 0.3349353 -0.1026603
0000e0 d8 21 e4 bd a4 d9 32 3e 3e e7 8c 3e a8 89 ce be
       -0.11139268 0.17465836 0.27520174 -0.40339398
0000f0 f8 3e 34 be 0a 5f bb 3e 1e 4e a0 3e 1e 1b f5 3e
       -0.17602146 0.36595947 0.313096 0.4787225
000100 40 a1 10 3d e8 30 42 be e8 ac df bd a0 11 64 3e
       0.03531003 -0.18963969 -0.10921651 0.22272348
000110 ac 55 75 be ec 77 3c be 80 a8 0e 3c 60 86 b6 bd
       -0.23958462 -0.18405122 0.008707166 -0.08912349
000120 54 df 63 3e 34 a6 87 3e 68 f3 91 3d 40 f0 f4 bd
       0.22253162 0.2649399 0.07126504 -0.119598866
000130 e6 d5 b9 be b4 4b fb be 6c dc c6 be 34 75 86 be
       -0.36296004 -0.49081194 -0.38840044 -0.26261294
000140 3c ee 4c 3e 00 c4 f4 bb 00 9f 73 bd 58 aa a3 bd
       0.20012754 -0.007469654 -0.059477806 -0.07991475
000150 24 53 59 be b4 ee 2d 3e 1c 4c 22 3e 94 54 5e 3e
       -0.21223122 0.1698559 0.15849346 0.21711951
000160 60 dd e0 3e de a9 ff be f0 4a 67 3e 00 b7 d2 3e
       0.43918896 -0.49934286 0.2258718 0.41155243
000170 e0 4d 8b 3e 10 66 95 3e 48 ab 4a 3e 68 fd a4 3e
       0.2720785 0.2917943 0.19791901 0.32224584
000180 a8 1d 1e be 00 76 d6 bb c0 70 61 3c b4 8e 13 be
       -0.15441 -0.0065448284 0.013759792 -0.14409906
000190 70 3d a9 bd a0 a5 9b bc e0 62 0f 3e a4 a3 0c be
       -0.082636714 -0.018999875 0.14002562 -0.13734299
0001a0 30 34 50 3e c2 c9 d6 3e ca e2 e2 3e 00 32 cc bb
       0.20332408 0.41950804 0.4431365 -0.0062315464
0001b0 38 fe 8b be f0 61 9a 3d 0a 63 f1 be ec 73 90 be
       -0.2734239 0.07538211 -0.47145873 -0.2821344
0001c0 60 a2 02 be ca f6 d3 3e 20 ae f4 be 50 73 1b 3d
       -0.12757254 0.41399223 -0.47789097 0.037951767
0001d0 a0 d6 0e be f0 2a b2 bd d0 3d ca be 5a ce ef 3e
       -0.1394906 -0.08699596 -0.39500284 0.4683712
0001e0 2c d3 49 3e c2 a2 8c 3e b0 eb 4d bd 34 00 4f 3e
       0.19709462 0.27467924 -0.050273597 0.20214921
0001f0 c4 76 35 be 98 03 ec 3d 78 68 12 be 10 9c ed 3d
       -0.17721087 0.11524123 -0.14297664 0.11602032
000200 dc 74 9f 3e 84 4d 02 3e 30 15 05 be ba 2d dc 3e
       0.31143844 0.12724882 -0.12996364 0.43003637
000210 8c cf 6f 3e 40 14 ba bd 48 90 83 be be 9c cd 3e
       0.23419017 -0.09085894 -0.25696015 0.40158647
000220 b8 d6 fb 3d ea af ac 3e 00 e9 1b 3e a8 8d 41 be
       0.12296814 0.33727962 0.15225601 -0.18901694
000230 34 ba 82 3e c8 26 a0 3e e6 ea 8e be c8 69 a0 be
       0.25532687 0.31279588 -0.27913588 -0.31330705
000240 60 90 8b 3c e0 09 4f be ec 75 0a 3e d0 c1 1b 3e
       0.017036617 -0.20218611 0.13521546 0.15210652
000250 00 49 de 3e b0 f0 1d 3e a0 1b ef bd b4 f9 8c 3e
       0.4341507 0.15423846 -0.11675191 0.27534258
000260 9c 28 82 be 84 ff 32 3e e2 96 fa 3e 9c dd a7 be
       -0.25421607 0.17480284 0.4894324 -0.32786262
000270 b8 1b 38 3e ac aa 32 3e b8 35 e4 be 90 93 d7 be
       0.17979324 0.17447919 -0.44572234 -0.4210477
000280 80 9b ed bc 38 7b 55 be 48 2b dd 3d f0 2c d4 3d
       -0.029004812 -0.20847785 0.10799271 0.10360134
000290 72 c0 e5 be 0c 84 c4 3e 32 a9 b3 be 34 ef 9f 3e
       -0.44873387 0.38381994 -0.35090023 0.31237185

weight_hh_l0 f4 [12, 4]
000000 00 a6 86 3a 80 89 c5 bb 34 44 0a 3e 9a 4a d1 3e
       0.001027286 -0.006028354 0.1350258 0.4087723
000010 4c 60 36 3e 40 10 b5 bc a4 d5 5b 3e 00 db 88 be
       0.17810172 -0.022102475 0.21468216 -0.26729584
000020 e0 96 49 3e 00 18 f0 3a b8 11 0f 3e 0e 73 e4 be
       0.1968646 0.00183177 0.13971603 -0.4461903
000030 90 ac ee be e4 5b 77 be 5e 7b fb 3e 60 0d e9 3d
       -0.4661603 -0.24156147 0.4911756 0.11379504
000040 c6 40 c4 3e d0 bf 67 3e 00 df f8 bc 80 12 ae 3e
       0.38330668 0.22631764 -0.030379772 0.3399849
000050 4c be 95 be 80 de 1c be 58 07 44 3e 7e 48 c6 be
       -0.29246747 -0.15319252 0.19143426 -0.38727182
000060 54 e5 8c be 14 1d ec be 62 2f e6 be e0 18 9d 3c
       -0.27518713 -0.46115935 -0.44958025 0.0191769
000070 54 a5 94 be c6 c1 94 3e 00 ca 13 3b ce 7d cb be
       -0.29032385 0.29054087 0.0022550821 -0.3974442
000080 00 14 61 bd 44 4e ea be 4c 0c 70 3e 5c a4 f4 3e
       -0.054950714 -0.45762837 0.23442191 0.47781646
000090 c0 12 56 3c f8 45 b4 3d 54 84 61 3e 9e c9 e7 be
       0.013065994 0.08802408 0.22023135 -0.4527101
0000a0 40 63 ab be 4c 93 4c be 30 f9 15 be 28 3c f5 be
       -0.3347416 -0.19978064 -0.14645839 -0.47897458
0000b0 78 52 81 bd dc 16 93 be 60 28 66 be 6e 7d ad 3e
       -0.06314558 -0.28728378 -0.2247634 0.33884758

bias_ih_l0 f4 [12]
000000 52 9c fe be 30 1b f6 3d ce 5a c7 3e 48 83 06 be
       -0.49728638 0.12016904 0.38936466 -0.13136017
000010 58 f8 4a be 14 8e 21 be a2 3a f9 3e a8 bd cc 3e
       -0.19821298 -0.15776855 0.48677546 0.39988446
000020 6e 65 d8 be 90 25 bd 3d f8 bb bf be 7c 29 24 be
       -0.42264885 0.0923568 -0.37448096 -0.1603145

bias_hh_l0 f4 [12]
000000 ca f9 e1 be 78 14 ce 3d e2 0a b7 be d4 b1 c1 be
       -0.44135886 0.10062498 -0.3575049 -0.37830985
000010 80 e6 b9 be c0 71 9b 3e 28 a3 9a be 50 f6 8a 3d
       -0.3630867 0.30360222 -0.30202603 0.06785262
000020 a0 ff fe bd 34 5f a6 3e 6e ab d4 3e e4 27 0c be
       -0.124511 0.3249451 0.4153704 -0.13687092

weight_ih_l0 f4 [3, 11]
000000 50 d4 d0 3e b8 99 cc be c4 4b cc be 80 c7 19 3d
       0.40786982 -0.39961028 -0.39901555 0.037543774
000010 5e 23 55 bf d8 59 3c 3f 6e 00 02 bf da 83 02 3f
       -0.8325709 0.7357459 -0.50781906 0.5098244
000020 f0 d0 30 3f 20 fc 9b 3e d8 dc 2d 3f 10 ef 70 bf
       0.69068813 0.30465794 0.67915106 -0.9411478
000030 a0 03 48 3e f0 82 17 3f 68 c8 83 3e 62 b7 33 3f
       0.19532633 0.5918417 0.25738835 0.70201695
000040 bc 0d 18 bf 28 1b 37 be c2 0a 4f bf f0 37 de 3d
       -0.59395957 -0.17881453 -0.8087579 0.10850513
000050 ea c8 78 3f fc 04 b2 3e cc 77 c1 be 60 9b 38 bf
       0.9718157 0.34769428 -0.3778671 -0.72112083
000060 84 5c 3d bf f0 dd dc 3e 48 76 85 be f0 c2 95 3d
       -0.7396929 0.43138075 -0.26066804 0.07312572
000070 0a 19 2c bf 36 d7 1d 3f b0 1f 87 3e cc e2 c1 3e
       -0.67225707 0.6165651 0.26391363 0.37868345
000080 80 2f cd be
       -0.40075302

weight_hh_l0 f4 [3, 1]
000000 ea 71 04 bf 36 7c 6b 3f c0 0c 5c 3e
       -0.5173632 0.91986406 0.21489239

bias_ih_l0 f4 [3]
000000 fa 25 14 bf 34 c1 a3 3e 80 b0 6b 3d
       -0.5787045 0.3198334 0.05754137

bias_hh_l0 f4 [3]
000000 00 38 18 be 10 d5 09 3f 90 27 89 bd
       -0.14865112 0.5384073 -0.06696999

weight f4 [1, 4]
000000 b6 18 de 3e ee 65 f6 be 96 39 d1 be 24 86 1d be
       0.43378228 -0.4812464 -0.40864247 -0.15383202

weight f4 [200, 5]
000000 b0 a1 c0 3c 44 70 4b 3e 92 d2 99 be e0 13 dd 3c
       0.023514599 0.19867045 -0.30043465 0.026987016
000010 58 56 bf 3d 62 db db be 18 07 3f 3d f8 12 a3 be
       0.09342641 -0.42940813 0.046637625 -0.3185041
000020 60 c5 9f 3e 4c 8e 93 be c2 8c ce 3e 5e 54 37 be
       0.31205273 -0.288195 0.40341765 -0.17903277
000030 d4 10 e1 3e 2c c8 69 3e c4 61 51 3e 40 7a cd 3d
       0.4395815 0.22830266 0.20447451 0.10033083
000040 ac 30 ac be dc 79 73 3e 88 df bb be cc 76 da bd
       -0.33630884 0.23776954 -0.36693978 -0.1066719
000050 f4 90 b5 bd e0 0c 36 3e 78 77 90 3d 80 46 81 3e
       -0.08865538 0.17778349 0.07054037 0.252491
000060 ac 24 61 3e 64 e7 8f bd fd 1e ab be b8 c6 c4 3e
       0.21986645 -0.07026556 -0.3342208 0.3843286
000070 88 a2 83 3e 38 90 49 be 48 1c bf be ec ce ce be
       0.2570994 -0.19683921 -0.37326264 -0.40392244
000080 10 91 7a bd 8c ba e3 bd b8 86 d6 bd 4d 31 9a be
       -0.0611735 -0.11119565 -0.10474914 -0.3011574
000090 78 de 61 be 30 bf d2 3e aa 9b ce 3e 80 65 a4 3e
       -0.22057521 0.4116149 0.40353137 0.32108688
0000a0 ec 6d 1d 3e d3 8d 83 be 80 dc cd bb 48 ca cc be
       0.15373963 -0.2569414 -0.006282389 -0.39998078
0000b0 7c 57 59 3e 50 1a cc bc d0 63 d4 3d f2 d1 1e be
       0.21224779 -0.02491489 0.103706 -0.15509775
0000c0 5c 03 0d be 1c 61 c9 3e 1c 96 83 bd e8 5a 37 3e
       -0.13770813 0.393319 -0.064251155 0.17905772
0000d0 f8 25 c4 3e 30 6c dc be 68 19 a0 be 24 46 c2 be
       0.38310218 -0.4305129 -0.31269383 -0.37944138
0000e0 9c 1b 63 3e a8 d4 74 3e 9e 1c 3c be 0a 62 da be
       0.22178501 0.23909247 -0.18370292 -0.42652923
0000f0 96 99 aa 3e e0 47 9c be de 6d 60 be 1c cc 3e be
       0.33320302 -0.30523586 -0.21916911 -0.18632549
000100 82 23 86 be 22 e5 9d be 90 1f 12 bd 91 91 5c be
       -0.26198965 -0.30838877 -0.03567463 -0.21539904
000110 f8 3d 5b 3e 1f 16 b6 be c0 ce 0b 3e ca df d0 3e
       0.21410358 -0.35563752 0.13653088 0.40795738
000120 0a c5 dd be 3e c9 b4 be 07 35 88 be f6 06 db be
       -0.4331439 -0.35309786 -0.26602957 -0.42778748
000130 64 32 a0 3e 84 57 e2 bd 98 ea 20 3e 38 33 8e 3d
       0.31288445 -0.110518485 0.1571449 0.06943363
000140 88 b1 ba 3e 2e 99 d9 3e 18 a8 38 3d a6 88 72 be
       0.3646357 0.4249968 0.04508218 -0.2368494
000150 45 10 92 be b6 e3 8b be a0 14 27 be d8 f9 85 3d
       -0.28528038 -0.27322167 -0.16316462 0.065417945
000160 f8 16 07 3e 08 bf 0b be a4 71 d2 3e 00 e6 3a be
       0.13192356 -0.13647091 0.41102326 -0.182518
000170 90 6c 9a 3d 40 68 28 3e 84 dd c8 3e 72 5f 90 3e
       0.07540238 0.16446018 0.39231503 0.2819782
000180 b0 75 46 bd 38 a8 4b bd 64 cd e6 bd d2 2d 89 3e
       -0.04845208 -0.049720973 -0.11269644 0.2679277
000190 40 85 b9 bd d4 42 f7 bd 56 67 46 be 46 c7 a1 3e
       -0.090586185 -0.12073293 -0.19375357 0.31597346
0001a0 ec cf 48 3e f6 67 a1 3e c8 d3 79 bd 92 bc e1 be
       0.19610566 0.31524628 -0.060992986 -0.4408918
0001b0 d4 89 6a 3e 30 d9 75 3d f8 33 ce bd 3c 32 90 bd
       0.2290414 0.06002158 -0.10068506 -0.070408314
0001c0 78 47 10 3e ee 8c 57 be 6c 16 92 3e 60 67 1c 3d
       0.14089763 -0.21049854 0.28532732 0.038184524
0001d0 f4 42 2e be eb aa 55 be 70 ad 2f be 36 d7 28 be
       -0.17017728 -0.20865981 -0.17156005 -0.16488346
0001e0 e6 30 bf 3e 80 a0 db 3c 80 a1 df 3e b4 04 30 3e
       0.37341994 0.02680993 0.43677902 0.17189294
0001f0 f0 ed e4 bd 1a b2 84 3e 20 2e b3 3e 7f 13 ce be
       -0.111781955 0.2591713 0.34996128 -0.4024925
000200 cc 8b 62 3e 5b d2 df be a9 ee 50 be f4 ca c6 3e
       0.22123641 -0.43715176 -0.20403542 0.38826716
000210 5f 1c a5 be 4c 7a bf 3e 48 46 df bd 3b 77 85 be
       -0.32248208 0.37397993 -0.10902077 -0.26067528
000220 52 99 a6 be 25 d1 c1 be 74 d1 af 3e 74 ec a2 3e
       -0.3253885 -0.37854877 0.34339488 0.31821024
000230 d4 7b 1d 3e 20 c7 67 3c 20 96 56 bc d6 35 c6 3e
       0.15379268 0.014146596 -0.013097316 0.3871295
000240 f2 4d e0 be b4 69 a8 bd ff 6e b1 be 32 9d a1 3e
       -0.43809468 -0.08223286 -0.34654996 0.31565243
000250 dc b2 b5 3e 82 86 d1 3e 5e 35 b8 3e 18 ec 20 3e
       0.3548802 0.40922934 0.35978216 0.15715063
000260 00 38 56 bc 84 e9 8b 3e 5a 8e 0e be 5f 07 a0 be
       -0.013074875 0.27326596 -0.1392149 -0.31255624
000270 af 81 b7 be a0 db ba 3c b8 7b 9b bd 18 a7 32 3e
       -0.35841128 0.022809803 -0.07591957 0.17446554
000280 30 b0 91 3e d0 04 30 3e 54 f8 b1 3e 1f 94 71 be
       0.28454733 0.17189336 0.34759772 -0.2359166
000290 b2 d7 8d 3e 6c 2c 12 3e 98 4b ee bd d6 e6 94 be
       0.27703625 0.14274758 -0.11635512 -0.29082364
0002a0 52 af 1f be 80 7a 7c bc 98 5a 08 3e 30 97 60 bd
       -0.15594223 -0.015410066 0.13315809 -0.054831684
0002b0 32 38 82 3e 38 0a 03 be f8 d4 1f be 4b 4e 7d be
       0.254335 -0.12796867 -0.15608585 -0.24736898
0002c0 20 12 4b bc d0 09 02 3d 16 c3 e2 3e f4 f3 cb 3e
       -0.012394458 0.03174764 0.44289464 0.3983456
0002d0 70 0b 52 3e ed 90 66 be 38 35 00 be 40 29 ce 3c
       0.20512176 -0.22516222 -0.12520301 0.025166154
0002e0 d8 53 d1 3e 70 3b 89 3e d6 09 72 be 50 f4 9c be
       0.4088428 0.2680316 -0.23636565 -0.30655146
0002f0 18 95 16 3d 8c 05 28 3e 88 bb 42 be 3a da a8 3e
       0.03676328 0.16408366 -0.1901685 0.32978994
000300 45 ef b1 be 82 65 48 be 90 45 1d be b2 28 be be
       -0.3475286 -0.19569972 -0.15358567 -0.37140423
000310 80 a1 8c 3e 12 b5 c5 be 48 db 6b 3e 9e 4b 27 be
       0.27466965 -0.38614708 0.23032868 -0.1633744
000320 22 58 33 be 14 1d 5b be 94 1d a3 3e 43 9d 97 be
       -0.17514089 -0.21397811 0.31858504 -0.2961217
000330 cc d2 20 3e 9c c6 c1 bd 94 47 d2 3e a5 4f 65 be
       0.15705413 -0.0946171 0.41070235 -0.22393663
000340 f8 9c 2a 3e aa d9 8e be 63 ed 99 be d0 58 89 be
       0.16661441 -0.2790044 -0.30063924 -0.2682557
000350 ec 36 4a 3e 9b 14 dc be ec e6 69 3e 98 f4 e0 bd
       0.19747514 -0.4298447 0.22841996 -0.109841526
000360 f4 80 9a be 34 6c 7e 3e 1a 66 be be e3 0d a2 be
       -0.30176508 0.24845964 -0.37187272 -0.3165122
000370 3c de b6 3e f0 8c 5e 3d 1c 0b 55 3e 5e 6f 95 3e
       0.35716426 0.054333627 0.20805019 0.2918653
000380 48 bd b0 3d 38 bf 17 3e 60 78 04 3e 60 bf 06 bd
       0.086298525 0.14819038 0.12936544 -0.032897353
000390 3c 46 92 be f0 b5 f1 3c 24 03 b8 be b8 e6 1a 3d
       -0.2856921 0.0295057 -0.35939896 0.037817687
0003a0 96 12 a7 be 76 ac 51 be ee 30 7c be d6 2e 29 be
       -0.32631367 -0.20475945 -0.2462804 -0.16521773
0003b0 c8 d0 67 be a4 cc 29 3e ec ce 87 be f0 37 79 bd
       -0.22638237 0.1658197 -0.26525056 -0.06084436
0003c0 90 16 95 3d 7a 86 9a be 4e 57 ab 3e 7c c5 2e 3e
       0.07279694 -0.30180722 0.33465046 0.17067522
0003d0 f8 d2 a7 be 94 49 de 3e 3e 9c 81 be 9a 0e b3 be
       -0.32778144 0.4341551 -0.25314516 -0.34972078
0003e0 fc 06 9c 3e 10 6a 6b bd 18 7b 96 bd 8c 1a a9 3e
       0.3047408 -0.057474196 -0.07347697 0.33028066
0003f0 c2 af 4f be 38 7a 07 3e c8 2f 32 bd ec bc 40 3e
       -0.2028189 0.13230217 -0.0435026 0.18822068

bias f4 [200]
000000 44 29 0b 3e 3c 55 1c 3e 40 25 81 3d 17 68 b0 be
       0.1358996 0.1526689 0.06305933 -0.34454414
000010 58 8e 2f 3d 44 c1 16 3e 44 89 f0 bd b4 67 35 3e
       0.04286036 0.14722162 -0.11744931 0.17715341
000020 08 72 ab 3d 28 cd 9a 3e e4 60 eb bd 40 eb 27 3c
       0.08371359 0.30234647 -0.1149309 0.010248959
000030 60 be 30 3d dc d8 53 3e 08 6f d8 3e 88 48 82 3d
       0.043150306 0.20688194 0.4227221 0.063614905
000040 04 dd 33 3e 7c 39 86 3e 58 cb c8 3e 60 b7 8d 3e
       0.1756478 0.26215732 0.3921764 0.27678967
000050 18 bb 95 3e 5c b2 45 3e c0 6f 02 3e 40 2e 8e 3b
       0.29244304 0.1930632 0.12737942 0.0043390095
000060 1c e9 4a 3e 08 a2 9a 3e d5 1c 65 be d0 58 0e 3e
       0.19815487 0.30201745 -0.2237428 0.13901067
000070 f8 57 71 be 96 91 af be a0 a4 30 bc cc a0 7a 3e
       -0.23568714 -0.3429076 -0.010781437 0.24475402
000080 f8 94 d2 bd 20 27 05 3e e4 34 b9 3e bd 6d e0 be
       -0.1028232 0.13003206 0.36173165 -0.43833724
000090 80 26 64 3d 04 c2 86 3e 03 9e 85 be 7d 92 81 be
       0.05570078 0.26319897 -0.26097116 -0.25307074
0000a0 b8 18 b6 be 40 20 82 3e 6e 4b 9b 3e 39 02 e2 be
       -0.35565734 0.2541523 0.30330986 -0.4414232
0000b0 30 54 0d 3e 08 ae db bd 3a 03 0f be cc 4d 79 3e
       0.13801646 -0.10726553 -0.13966075 0.24346083
0000c0 c8 87 ba 3d f8 a3 a4 3e 54 93 b2 3e ca 4c 3c be
       0.091079295 0.32156348 0.34878027 -0.18388668
0000d0 6a 9a bb 3e 90 b2 4c 3e f8 3f ec bd c8 85 54 3e
       0.36641246 0.19989991 -0.115356386 0.20754158
0000e0 1c 49 58 3e 0e d9 93 be b0 80 b4 3e 3e df 28 be
       0.21121639 -0.28876537 0.3525443 -0.1649141
0000f0 80 ac 2c 3b 8e 23 9a be aa ea c0 be 3f 33 94 be
       0.0026347935 -0.3010525 -0.37679034 -0.28945348
000100 18 58 dd bd 8d d9 cf be ec 5f c1 bd 36 3d 29 be
       -0.10807818 -0.40595666 -0.09442124 -0.16527256
000110 a0 c4 7a 3e 28 1b dd 3e a9 1b e2 be 20 0d c7 3d
       0.24489069 0.4318478 -0.44161728 0.097193
000120 1a 8d 9e 3e c0 6e 45 3c 5c 2b 05 be a5 f7 4e be
       0.30967027 0.012050331 -0.13004822 -0.20211656
000130 06 50 2f be 28 40 a4 3e b8 48 d5 be 75 46 a4 be
       -0.1712037 0.32080197 -0.41657043 -0.32085004
000140 b2 64 8b be a2 0a 97 3e a0 97 77 3e 34 6c 88 3e
       -0.27225262 0.295003 0.24178934 0.26645052
000150 14 dc ba 3e 1f 0e b7 be 78 45 4c bd be ae ac 3e
       0.3649603 -0.3575296 -0.049870938 0.33727068
000160 fe 57 dc be c5 0b d3 be b4 cf 87 3e 90 02 2b 3e
       -0.43035883 -0.41219917 0.26525652 0.16700196
000170 d6 02 8e 3e db bd c3 be f0 c3 a8 3c c0 fe 56 3c
       0.2773654 -0.38230786 0.020601243 0.013122261
000180 20 c5 12 be 88 cb f0 bd cc d6 58 3e d8 8c ac 3e
       -0.1433301 -0.117575705 0.21175689 0.33701205
000190 6c df 13 3e 50 b2 bf 3e 5a 33 2b be 0c c8 72 3e
       0.14440697 0.3744073 -0.16718808 0.23709124
0001a0 8e f3 99 be 90 f6 bd 3d 30 ba 93 bc c9 5b c0 be
       -0.3006863 0.09275544 -0.018033117 -0.37570027
0001b0 92 ad 80 be cf 39 4a be a6 fe b1 be 76 71 ca 3e
       -0.25132424 -0.19748615 -0.34764594 0.3953969
0001c0 1c b3 37 3e 18 a1 33 3e c4 01 0e 3e cc ef 92 3e
       0.17939419 0.17541921 0.13867861 0.28698575
0001d0 2d ab a7 be 6b 65 c2 be 5e 71 b7 be 78 cf 2f 3e
       -0.32747784 -0.37968 -0.3582868 0.17168987
0001e0 24 76 a2 3e ea a0 a6 be 78 5b 31 bd e9 78 c0 be
       0.3173076 -0.32544643 -0.043300122 -0.37592247
0001f0 6c 29 8c be 1a 30 d6 be c9 15 74 be f0 84 69 3d
       -0.27375352 -0.41833574 -0.23836435 0.057011545
000200 a8 90 44 3d ae 04 b7 be 46 ed 20 be 6a b5 ab be
       0.047989517 -0.35745758 -0.15715513 -0.33536845
000210 e4 ae 18 3e e4 c7 dd be 18 77 de 3d 44 41 67 3e
       0.14910465 -0.43316567 0.10862559 0.2258349
000220 40 5a 85 be f4 37 93 3e 3d 74 6f be d0 03 1b 3e
       -0.26045418 0.28753626 -0.23384185 0.15138173
000230 c4 43 65 3e 90 b3 a3 3d f7 e6 82 be d9 92 99 be
       0.22389132 0.07993233 -0.25566837 -0.29994848
000240 be c7 bf be 84 d3 bb bd f8 ff a5 bd 65 38 ba be
       -0.3745708 -0.09171203 -0.08105463 -0.3637115
000250 9c 45 18 be c0 d9 16 bc 24 97 06 3e c8 b4 e4 bd
       -0.14870304 -0.009207189 0.13143593 -0.11167294
000260 cc 23 04 be 08 0e a7 3d b2 f7 db 3e 80 01 39 bc
       -0.1290428 0.08156973 0.42962414 -0.0112918615
000270 11 bc 75 be d8 b1 dc 3e 16 18 4b be 14 a0 d7 be
       -0.23997523 0.43104434 -0.19833407 -0.42114317
000280 00 7c 31 3e 50 42 9f bd 1c 49 49 be f0 84 e5 3d
       0.17332458 -0.0777632 -0.19656795 0.112069964
000290 68 3c 8d 3e f6 e9 16 be 10 91 df 3c b8 1e 65 3e
       0.2758515 -0.14737687 0.02729085 0.22375
0002a0 b0 24 6e 3d dc 82 9a 3e 33 a8 7f be 40 87 58 3d
       0.058140457 0.30177963 -0.24966507 0.05286336
0002b0 e0 7c 72 3d c0 c3 87 3d aa 5c c5 3e 20 81 88 3e
       0.05920112 0.06629133 0.3854726 0.26661015
0002c0 d4 72 51 be 18 f0 32 bd 2c 5f 54 3e 9a 55 c5 3e
       -0.2045396 -0.043686002 0.2073943 0.3854187
0002d0 9c 1a a1 3e d6 9b c1 3e 94 a5 6c 3e 54 74 20 be
       0.31465614 0.37814206 0.23110038 -0.15669376
0002e0 26 5c a9 be a2 da b5 be ee b1 87 3e e2 fc 96 3e
       -0.33078116 -0.35518366 0.26502937 0.2948981
0002f0 e0 30 a9 be d4 ce d6 be cc 53 23 3e 86 78 a7 be
       -0.330451 -0.41954672 0.15949935 -0.3270914
000300 08 68 68 3e 28 fe 47 3e 00 e1 8b ba 70 76 eb bd
       0.22695935 0.19530547 -0.0010671914 -0.114971995
000310 88 f7 e0 3e e0 22 e0 3e 94 b4 d5 3e b6 3e 8c be
       0.4393885 0.43776608 0.41739333 -0.27391595

weight f4 [2, 200]
000000 36 18 34 3d c1 25 8b 3d 6b 31 0d bd ac 1a f1 3c
       0.0439684 0.0679431 -0.034470957 0.029431663
000010 00 74 45 3d 7c ef fe 3c 00 f2 89 bb 7c 29 90 3c
       0.04820633 0.031120054 -0.004209757 0.017597906
000020 57 c6 87 3d 84 cd ed bc c1 3f 87 3d c4 b5 57 bd
       0.06629627 -0.029028662 0.06603957 -0.05266358
000030 72 c2 52 3d c8 5b 4a bc 5c 20 4d 3d 48 a6 0b 3c
       0.05145497 -0.012350984 0.05007969 0.008523531
000040 36 6a d0 bc 30 0e f8 3c 97 3d 21 bd cc 7d 1c 3d
       -0.02544127 0.030280203 -0.039365377 0.038205907
000050 78 ac a8 bc 1c fd fc 3c 98 6b 51 3c 9c 9c b5 3c
       -0.020590052 0.03088241 0.012782 0.022169404
000060 18 84 bf 3c a0 ea 5e bd f0 21 e2 bb 52 d9 7d 3d
       0.023378417 -0.054422975 -0.0069010183 0.06197483
000070 d5 47 88 bd fc 3c 3d bc 54 18 db 3c 88 58 2a 3d
       -0.06654326 -0.011550184 0.026744999 0.041588336
000080 78 05 f5 3c 1a 45 89 bc a0 86 0c 3d 62 82 8a bd
       0.029909834 -0.016756583 0.034308076 -0.0676315
000090 af 5b 1a bd 28 37 1e bc d4 37 0a bd d8 b8 c0 bc
       -0.037685093 -0.009656705 -0.033744648 -0.02352564
0000a0 76 7f b5 bc de 8b 57 3d 00 f9 9e ba ab 5e 5e bd
       -0.022155505 0.052623622 -0.0012128651 -0.0542895
0000b0 c1 a5 85 3d 54 9e 81 3c 2f cc 03 bd 6f 85 6c bd
       0.06525756 0.015822567 -0.032177147 -0.05774444
0000c0 88 bf 8a 3c bc 66 14 bc 08 6b ce bc 78 76 bc 3c
       0.016937032 -0.009057697 -0.02519752 0.023005709
0000d0 7a 87 79 3d 1a b6 54 bd 09 aa 16 bd 33 8d 81 3d
       0.060920216 -0.051931478 -0.036783252 0.0632576
0000e0 ed 89 81 bd be 04 6a 3d f6 b0 e6 bc 3b 76 83 3d
       -0.063251354 0.05713343 -0.028160553 0.06419035
0000f0 ce 2e 5d bd 5b 45 8c 3d 2c 79 4c bd 00 0d b4 bb
       -0.053999715 0.06849166 -0.049920246 -0.005494714
000100 b1 20 88 bd dc 3d 89 bc f2 f8 23 3d f4 e4 e6 bc
       -0.066468604 -0.01675313 0.040032335 -0.028185345
000110 f0 cd b2 3c 72 27 0f bd 40 03 b2 3a ac 53 2a bd
       0.021826714 -0.034949727 0.0013581291 -0.041583702
000120 00 04 7e ba 5f 44 8a bd 10 27 8c 3c ce d5 3f bd
       -0.0009689927 -0.06751322 0.01710847 -0.04683476
000130 d3 b6 84 3d 50 db c9 3c 03 5b 82 bd 34 08 26 3d
       0.064801835 0.02464071 -0.06365015 0.040535167
000140 05 3a 80 3d d8 9e e6 bc f8 32 20 3c a8 fb 4a bd
       0.06261066 -0.028151914 0.009777777 -0.049556404
000150 80 e1 a4 bc 36 20 6c bd 46 f9 57 bd a9 24 26 bd
       -0.020127058 -0.057647906 -0.05272796 -0.040562306
000160 98 81 8d bd d0 32 79 bd 7a ab fe bc 2e 18 28 3d
       -0.06909484 -0.060839474 -0.031087626 0.041038685
000170 06 8f 60 bd b0 ba 3c 3d 20 b6 5b bd ee bc 67 3d
       -0.054823898 0.046076477 -0.053640485 0.05657666
000180 1d 9e 07 bd 44 f3 75 bd 7f fa 84 bd a0 5c ac bb
       -0.033109773 -0.06004645 -0.06493091 -0.005260065
000190 ce b9 0a bd 10 62 82 bd b8 cd 51 3d 17 1c 85 3d
       -0.033868603 -0.0636636 0.05122158 0.06499498
0001a0 56 5c fe bc 30 69 a2 bb 06 5f 0e bd be bd 35 3d
       -0.031049889 -0.004956387 -0.03475859 0.044370405
0001b0 72 3b 27 3d 87 a4 8a bd ee 5c 7c bd d0 4b 73 3c
       0.040828176 -0.06769662 -0.061612062 0.014849618
0001c0 d8 7c 0f 3c be 02 8b bd 30 28 af bc 65 a0 7f bd
       0.008757792 -0.067876324 -0.021381468 -0.062408824
0001d0 f8 ef 3a bc f6 d2 59 3d a5 b4 90 3d a0 97 24 3c
       -0.011409752 0.053179704 0.07065705 0.010045916
0001e0 7c 67 a8 3c 16 9e de bc 64 24 16 bd 6d a8 17 bd
       0.020557158 -0.02717499 -0.0366558 -0.037025858
0001f0 dc f9 00 bd 96 29 4b 3d 4a 79 69 3d 30 18 a6 3b
       -0.031488284 0.049600206 0.057000436 0.0050688013
000200 82 1d 5e 3d 00 ec 68 bd c0 b8 38 3c da ec 32 3d
       0.05422736 -0.056865692 0.011274517 0.04368291
000210 b8 b0 f9 3c c0 0c 3a 3d 90 c3 a3 3c 6e ee 64 3d
       0.030479774 0.045422316 0.019990712 0.055891447
000220 50 27 b7 3c d0 29 bd bb 0e a5 2f 3d 28 0e e9 bc
       0.022357613 -0.0057728067 0.042882018 -0.028449133
000230 ca ad 21 3d 14 9d 1d bc 9e 0c 46 3d 99 1a 41 bd
       0.03947238 -0.00961997 0.048351876 -0.047144506
000240 66 20 09 bd 6c 71 58 bc 44 ee 38 3d 28 94 18 bc
       -0.033478163 -0.013210636 0.045149103 -0.009312667
000250 80 e0 5f 3a 78 b0 b8 bc 0c 44 da 3c fe 44 ee bc
       0.0008540228 -0.022545084 0.026643775 -0.029085632
000260 94 ed 1b 3d c8 33 9f bc d4 86 8d bc 5f 60 8d bd
       0.03806837 -0.01943387 -0.017276205 -0.06903147
000270 6a b2 6d 3d a6 39 92 bc a4 10 2f bd 1e 9c 17 3d
       0.058031477 -0.017849755 -0.04274048 0.03701412
000280 fa 6d 35 bd 90 95 0b 3c 01 0c 0b bd be 87 04 3d
       -0.044294335 0.008519545 -0.033946995 0.032356016
000290 de 87 9e bc 30 ca 83 3c 00 1b 66 ba a4 9c 2d 3d
       -0.019351896 0.016087621 -0.0008777827 0.042385712
0002a0 61 6a 84 3d 70 92 57 3d 3a fd 2c bd 08 38 55 3d
       0.06465603 0.052629888 -0.042233683 0.05205539
0002b0 98 7b 8e 3c f0 2d 51 bc d8 8f 29 bc e8 92 82 bd
       0.017392918 -0.0127673 -0.010349236 -0.063756764
0002c0 48 91 47 3c d8 5b ca bc 30 bd 84 bd 30 a2 16 3d
       0.012180634 -0.024701998 -0.06481397 0.036775768
0002d0 0e 37 99 bc a3 20 89 bd f0 78 42 3c 0c 4e 4f bd
       -0.01870301 -0.06695678 0.011869654 -0.05061154
0002e0 b4 6f 48 bd 58 84 bc 3c ec f5 b3 3c 34 45 82 3c
       -0.048934653 0.023012325 0.02196785 0.01590214
0002f0 8c b4 bc bc ce 66 7b 3d ea 4c 82 bd 60 40 06 3c
       -0.02303531 0.06137734 -0.063623264 0.008194059
000300 48 ae fd bc d2 05 5b bd 36 4b 78 bd c2 e5 6c bd
       -0.030966893 -0.053472348 -0.0606186 -0.0578363
000310 a0 53 c6 3b 36 63 48 bd 62 30 25 3d 5b 21 83 3d
       0.0060524493 -0.04892274 0.040329345 0.064028464
000320 35 9e 20 bd 4d 4d 74 bd 90 16 04 3c ed a9 8a 3d
       -0.039213378 -0.059644032 0.00806202 0.06770692
000330 6c df bb bc f8 45 1f 3d d6 40 53 3d 48 85 33 3c
       -0.022933684 0.038885087 0.051575504 0.01095707
000340 20 58 b5 bb 02 15 db bc 1c 42 76 bc 42 b2 0b 3d
       -0.005534187 -0.026743416 -0.01503041 0.034105547
000350 7e e0 70 3d 28 3f 47 3c f1 2d 8d 3d 0a 2d 91 bc
       0.058807842 0.012161054 0.06893528 -0.017721672
000360 0e b0 54 3d b8 23 09 3d c2 af 30 bd 42 f2 69 3d
       0.05192571 0.03348133 -0.043136366 0.0571158
000370 da 0f 53 bd 57 52 8f bd 5c 74 d0 3c 42 74 16 bd
       -0.05152879 -0.06998127 0.02544611 -0.036731966
000380 3f 64 5d bd 9f 36 27 bd 11 e5 84 bd 40 d1 e8 bb
       -0.05405068 -0.040823575 -0.064890034 -0.0071050227
000390 fe 66 4c 3d 4f bf 21 bd 99 89 7e bd 38 e6 3f bd
       0.04990291 -0.039489087 -0.062142942 -0.046850413
0003a0 18 63 f4 bc 10 d8 a1 bb 78 ea 3d 3c 37 7e 32 bd
       -0.029832408 -0.0049390867 0.011591546 -0.0435774
0003b0 4c 67 b4 3c 9a 1b 21 3d 3e 3b 3f bd 40 4a 74 bb
       0.022021912 0.039332964 -0.046687357 -0.0037275702
0003c0 90 cd 2f bd 3c ba 94 3c 00 56 12 b9 b2 3b 84 bc
       -0.04292065 0.01815521 -0.00013955683 -0.016141746
0003d0 12 f0 6a 3d f5 1a 85 bd 34 b8 42 bc 80 b4 19 bb
       0.057357855 -0.06499282 -0.011884738 -0.0023453534
0003e0 32 69 72 3d 05 0e 77 bd d4 35 de 3c dc 29 47 bc
       0.059182353 -0.060316104 0.027125277 -0.012155976
0003f0 bc 87 44 3d 33 b0 67 bd d6 86 39 3d 82 83 cb bc
       0.04798101 -0.05656452 0.045294605 -0.024842981

bias f4 [2]
000000 c7 76 6c bd a7 b3 8e bd
       -0.057730462 -0.0696786

weight f4 [4, 3]
000000 d8 c0 ff 3e f6 e0 d0 be 24 91 03 3e 58 0f d8 3d
       0.49951816 -0.40796632 0.12848336 0.105498016
000010 70 1b 45 be 4e f5 bf 3e ac 7b 0c 3e 54 74 12 3f
       -0.19248748 0.3749184 0.13719052 0.5720875
000020 70 76 70 3e 80 84 c4 bd 41 dd 0e bf 20 e8 7b 3d
       0.2348268 -0.09595585 -0.55806357 0.06150067

bias f4 [4]
000000 50 ac bf 3e b6 6c b1 be 40 e0 52 3e 32 76 fd be
       0.37436152 -0.34653252 0.20593357 -0.49504238

weight f4 [4, 8]
000000 06 15 5e 3e e6 ec 4d be 35 96 08 be ae 97 a1 be
       0.21687707 -0.20109901 -0.1333855 -0.31561035
000010 f8 5c 14 be 8a 94 77 3e 60 48 2b bc fd d9 aa 3e
       -0.1448859 0.24177757 -0.010454267 0.33369437
000020 e0 17 90 bd 7e 67 83 be 28 50 b7 3d c5 83 9d 3e
       -0.07035804 -0.25664896 0.089508355 0.30764595
000030 7a 2b 0f be 54 5b 76 be 8b f4 88 3e 70 5e 0a 3d
       -0.13981429 -0.24058276 0.2674907 0.03378147
000040 fc 62 b3 bd 85 e1 b1 3e aa 02 68 3e 70 85 89 bc
       -0.08759114 0.3474237 0.22657266 -0.01678726
000050 40 33 37 bd da ae 8d be cd 77 ae 3e ec 1d 52 be
       -0.04472661 -0.27672464 0.34075776 -0.20519227
000060 72 91 a4 be 25 e3 81 be 4c 3d c5 3d 02 d4 8b be
       -0.32142216 -0.2536861 0.09630832 -0.27310187
000070 50 b2 93 3c 1d 39 98 be 16 e5 6d 3e 56 56 4d 3e
       0.018029362 -0.29731074 0.2323192 0.20052466

bias f4 [4]
000000 75 7e a8 3e b0 89 f4 3c 3a 28 5b be 40 7d 80 be
       0.3290898 0.02985081 -0.21402064 -0.25095558

weight f4 [10, 2]
000000 c0 61 68 3e 96 d5 34 bf 43 b0 19 3f 01 05 2b 3f
       0.22693539 -0.70638406 0.6003458 0.6680451
000010 45 df 97 be d0 5f bb 3d 64 d4 26 3e 76 ad fa 3e
       -0.2966253 0.09149134 0.16291958 0.48960465
000020 99 21 18 3f e0 93 5a 3e 52 f3 ca 3e 2a 68 98 3e
       0.59426266 0.21345472 0.39638764 0.2976697
000030 20 93 21 bd f6 c1 e0 3e cc b3 22 be 50 a6 f2 bd
       -0.03944695 0.4389798 -0.158889 -0.11848128
000040 cc a6 8b 3e a6 28 8f be d3 bf 0f 3f 38 e2 c5 3d
       0.27275693 -0.279607 0.56152076 0.096622884

bias f4 [10]
000000 5c c8 20 be 36 9b e6 3e f0 d0 cf bd 08 59 a4 3d
       -0.15701431 0.45040292 -0.101472735 0.08024794
000010 da 4d 86 be 18 43 cb 3d 00 36 04 bd c4 e9 10 3e
       -0.2623127 0.099249065 -0.03227806 0.14151675
000020 c2 15 fe 3e 20 60 f2 bc
       0.49625975 -0.029586852

weight f4 [10, 2]
000000 5d 0e 14 bf 80 f5 fd bc b4 0d 2f 3e bc 6f 51 be
       -0.57834417 -0.031000853 0.17095071 -0.2045278
000010 f9 d4 18 bf 8a 9f 98 be 24 40 1e be 44 99 2c 3e
       -0.5969997 -0.2980922 -0.15454155 0.16855341
000020 bb f6 00 3f f0 7b e8 be 00 7d 3a 3d 3f 1f 8f be
       0.5037648 -0.45407057 0.045529366 -0.27953526
000030 eb 17 32 3f bf 58 b6 be b6 d2 fc 3e 08 18 01 3e
       0.69567746 -0.35614583 0.4937951 0.12606823
000040 4d 82 1d bf 0c a7 05 be e9 82 25 bf 4c 6b 24 3e
       -0.6152695 -0.13052005 -0.6465288 0.16056556

bias f4 [10]
000000 ca 4a 82 3e c7 50 97 be ef e8 31 bf 58 62 04 bf
       0.25447685 -0.29553816 -0.69496053 -0.5171256
000010 5e 4c 06 bf 59 4d 12 3f 6c b3 54 be 7a a3 cb 3e
       -0.5246028 0.57149273 -0.20771569 0.3977316
000020 bc 5f 62 3e 57 e0 8b be
       0.22106832 -0.27319595

weight f4 [10, 2]
000000 f8 f4 bb be 46 3c da be 28 04 5a be 2c c8 dc be
       -0.36710334 -0.4262411 -0.21290648 -0.4312147
000010 58 80 a9 3d c2 78 8b 3e 86 7b ac be fa 09 f1 3e
       0.08276433 0.27240568 -0.3368799 0.47077924
000020 80 82 b6 be 80 e7 1e 3e b3 10 26 3f db 53 0c 3f
       -0.3564644 0.15517998 0.6486923 0.54815453
000030 00 75 75 bc 76 99 96 3e 7e c0 12 bf c5 0b dc be
       -0.014981508 0.29413956 -0.5732497 -0.4297773
000040 cc 58 1e 3e 9a f9 ec 3e 70 06 c3 3d 39 32 04 bf
       0.15463561 0.4628418 0.09522712 -0.51639134

bias f4 [10]
000000 a9 6b 03 3f 5c 4f b1 be fb a9 e1 be 5c ab ba be
       0.5133615 -0.3463086 -0.44074997 -0.36458862
000010 72 74 f1 3e 70 e5 10 bd 38 89 9a 3d 6d 4c bf be
       0.47159153 -0.03537506 0.07545704 -0.37362996
000020 1a 7e c1 3e a0 4c 90 3c
       0.3779152 0.017614663

F f4 [2, 2]
000000 00 00 80 3f 0a d7 23 3c 00 00 00 00 00 00 80 3f
       1.0 0.01 0.0 1.0

Q f4 [2, 2]
000000 fc f4 b2 34 17 b7 51 38 17 b7 51 38 0a d7 23 3c
       3.3333333e-07 5e-05 5e-05 0.01

H f4 [1, 2]
000000 00 00 80 3f 00 00 00 00
       1.0 0.0

prior_Q f4 [2, 2]
000000 00 00 80 3f 00 00 00 00 00 00 00 00 00 00 80 3f
       1.0 0.0 0.0 1.0

prior_Sigma f4 [2, 2]
000000 00 00 00 00 00 00 00 00 00 00 00 00 00 00 00 00
       0.0 0.0 0.0 0.0

m1x_0 f4 [2]
000000 f7 6e 07 c4 5e 55 47 bf
       -541.7338 -0.77864635

m2x_0 f4 [2, 2]
000000 00 00 00 00 00 00 00 00 00 00 00 00 00 00 00 00
       0.0 0.0 0.0 0.0

h_S f4 [1, 279, 1]
000000 00 00 c0 7f 62 90 58 3f 62 90 58 3f 62 90 58 3f
       nan 0.8459531 0.8459531 0.8459531
000010 62 90 58 3f 62 90 58 3f 62 90 58 3f 62 90 58 3f
       0.8459531 0.8459531 0.8459531 0.8459531
000020 62 90 58 3f 62 90 58 3f 53 57 3f 3f 62 90 58 3f
       0.8459531 0.8459531 0.7474262 0.8459531
000030 53 57 3f 3f 53 57 3f 3f 62 90 58 3f 53 57 3f 3f
       0.7474262 0.7474262 0.8459531 0.7474262
000040 53 57 3f 3f 62 90 58 3f 62 90 58 3f 62 90 58 3f
       0.7474262 0.8459531 0.8459531 0.8459531
000050 62 90 58 3f 62 90 58 3f 62 90 58 3f 53 57 3f 3f
       0.8459531 0.8459531 0.8459531 0.7474262
000060 62 90 58 3f 62 90 58 3f 62 90 58 3f 62 90 58 3f
       0.8459531 0.8459531 0.8459531 0.8459531
000070 62 90 58 3f 62 90 58 3f 62 90 58 3f 62 90 58 3f
       0.8459531 0.8459531 0.8459531 0.8459531
000080 62 90 58 3f 62 90 58 3f 62 90 58 3f 62 90 58 3f
       0.8459531 0.8459531 0.8459531 0.8459531
000090 62 90 58 3f 62 90 58 3f 62 90 58 3f 62 90 58 3f
       0.8459531 0.8459531 0.8459531 0.8459531
0000a0 62 90 58 3f 62 90 58 3f 62 90 58 3f 62 90 58 3f
       0.8459531 0.8459531 0.8459531 0.8459531
0000b0 62 90 58 3f 62 90 58 3f 62 90 58 3f 62 90 58 3f
       0.8459531 0.8459531 0.8459531 0.8459531
0000c0 62 90 58 3f 62 90 58 3f 62 90 58 3f 62 90 58 3f
       0.8459531 0.8459531 0.8459531 0.8459531
0000d0 62 90 58 3f 62 90 58 3f 62 90 58 3f 62 90 58 3f
       0.8459531 0.8459531 0.8459531 0.8459531
0000e0 62 90 58 3f 62 90 58 3f 62 90 58 3f 62 90 58 3f
       0.8459531 0.8459531 0.8459531 0.8459531
0000f0 62 90 58 3f 62 90 58 3f 62 90 58 3f 62 90 58 3f
       0.8459531 0.8459531 0.8459531 0.8459531
000100 62 90 58 3f 62 90 58 3f 62 90 58 3f 62 90 58 3f
       0.8459531 0.8459531 0.8459531 0.8459531
000110 62 90 58 3f 62 90 58 3f 62 90 58 3f 62 90 58 3f
       0.8459531 0.8459531 0.8459531 0.8459531
000120 62 90 58 3f 62 90 58 3f 62 90 58 3f 62 90 58 3f
       0.8459531 0.8459531 0.8459531 0.8459531
000130 62 90 58 3f 62 90 58 3f 62 90 58 3f 62 90 58 3f
       0.8459531 0.8459531 0.8459531 0.8459531
000140 62 90 58 3f 62 90 58 3f 62 90 58 3f 62 90 58 3f
       0.8459531 0.8459531 0.8459531 0.8459531
000150 62 90 58 3f 62 90 58 3f 62 90 58 3f 53 57 3f 3f
       0.8459531 0.8459531 0.8459531 0.7474262
000160 53 57 3f 3f 53 57 3f 3f 53 57 3f 3f 53 57 3f 3f
       0.7474262 0.7474262 0.7474262 0.7474262
000170 53 57 3f 3f 53 57 3f 3f 53 57 3f 3f 53 57 3f 3f
       0.7474262 0.7474262 0.7474262 0.7474262
000180 53 57 3f 3f 53 57 3f 3f 53 57 3f 3f 53 57 3f 3f
       0.7474262 0.7474262 0.7474262 0.7474262
000190 53 57 3f 3f 53 57 3f 3f 53 57 3f 3f 53 57 3f 3f
       0.7474262 0.7474262 0.7474262 0.7474262
0001a0 53 57 3f 3f 53 57 3f 3f 53 57 3f 3f 53 57 3f 3f
       0.7474262 0.7474262 0.7474262 0.7474262
0001b0 53 57 3f 3f 53 57 3f 3f 53 57 3f 3f 53 57 3f 3f
       0.7474262 0.7474262 0.7474262 0.7474262
0001c0 53 57 3f 3f 53 57 3f 3f 53 57 3f 3f 53 57 3f 3f
       0.7474262 0.7474262 0.7474262 0.7474262
0001d0 53 57 3f 3f 53 57 3f 3f 53 57 3f 3f 53 57 3f 3f
       0.7474262 0.7474262 0.7474262 0.7474262
0001e0 53 57 3f 3f 53 57 3f 3f 53 57 3f 3f 53 57 3f 3f
       0.7474262 0.7474262 0.7474262 0.7474262
0001f0 53 57 3f 3f 53 57 3f 3f 53 57 3f 3f 53 57 3f 3f
       0.7474262 0.7474262 0.7474262 0.7474262
000200 53 57 3f 3f 53 57 3f 3f 53 57 3f 3f 53 57 3f 3f
       0.7474262 0.7474262 0.7474262 0.7474262
000210 53 57 3f 3f 53 57 3f 3f 53 57 3f 3f 53 57 3f 3f
       0.7474262 0.7474262 0.7474262 0.7474262
000220 53 57 3f 3f 53 57 3f 3f 53 57 3f 3f 53 57 3f 3f
       0.7474262 0.7474262 0.7474262 0.7474262
000230 53 57 3f 3f 53 57 3f 3f 53 57 3f 3f 53 57 3f 3f
       0.7474262 0.7474262 0.7474262 0.7474262
000240 53 57 3f 3f 53 57 3f 3f 53 57 3f 3f 53 57 3f 3f
       0.7474262 0.7474262 0.7474262 0.7474262
000250 53 57 3f 3f 53 57 3f 3f 53 57 3f 3f 53 57 3f 3f
       0.7474262 0.7474262 0.7474262 0.7474262
000260 53 57 3f 3f 53 57 3f 3f 53 57 3f 3f 53 57 3f 3f
       0.7474262 0.7474262 0.7474262 0.7474262
000270 53 57 3f 3f 53 57 3f 3f 53 57 3f 3f 53 57 3f 3f
       0.7474262 0.7474262 0.7474262 0.7474262
000280 53 57 3f 3f 53 57 3f 3f 53 57 3f 3f 53 57 3f 3f
       0.7474262 0.7474262 0.7474262 0.7474262
000290 53 57 3f 3f 53 57 3f 3f 53 57 3f 3f 53 57 3f 3f
       0.7474262 0.7474262 0.7474262 0.7474262
0002a0 53 57 3f 3f 53 57 3f 3f 53 57 3f 3f 53 57 3f 3f
       0.7474262 0.7474262 0.7474262 0.7474262
0002b0 53 57 3f 3f 53 57 3f 3f 53 57 3f 3f 53 57 3f 3f
       0.7474262 0.7474262 0.7474262 0.7474262
0002c0 53 57 3f 3f 53 57 3f 3f 53 57 3f 3f 53 57 3f 3f
       0.7474262 0.7474262 0.7474262 0.7474262
0002d0 53 57 3f 3f 53 57 3f 3f 53 57 3f 3f 53 57 3f 3f
       0.7474262 0.7474262 0.7474262 0.7474262
0002e0 53 57 3f 3f 53 57 3f 3f 53 57 3f 3f 53 57 3f 3f
       0.7474262 0.7474262 0.7474262 0.7474262
0002f0 53 57 3f 3f 53 57 3f 3f 53 57 3f 3f 53 57 3f 3f
       0.7474262 0.7474262 0.7474262 0.7474262
000300 53 57 3f 3f 53 57 3f 3f 53 57 3f 3f 53 57 3f 3f
       0.7474262 0.7474262 0.7474262 0.7474262
000310 53 57 3f 3f 53 57 3f 3f 53 57 3f 3f 53 57 3f 3f
       0.7474262 0.7474262 0.7474262 0.7474262
000320 53 57 3f 3f 53 57 3f 3f 53 57 3f 3f 53 57 3f 3f
       0.7474262 0.7474262 0.7474262 0.7474262
000330 53 57 3f 3f 53 57 3f 3f 53 57 3f 3f 53 57 3f 3f
       0.7474262 0.7474262 0.7474262 0.7474262
000340 53 57 3f 3f 53 57 3f 3f 53 57 3f 3f 53 57 3f 3f
       0.7474262 0.7474262 0.7474262 0.7474262
000350 53 57 3f 3f 53 57 3f 3f 53 57 3f 3f 53 57 3f 3f
       0.7474262 0.7474262 0.7474262 0.7474262
000360 53 57 3f 3f 53 57 3f 3f 53 57 3f 3f 53 57 3f 3f
       0.7474262 0.7474262 0.7474262 0.7474262
000370 53 57 3f 3f 53 57 3f 3f 53 57 3f 3f 53 57 3f 3f
       0.7474262 0.7474262 0.7474262 0.7474262
000380 53 57 3f 3f 53 57 3f 3f 53 57 3f 3f 53 57 3f 3f
       0.7474262 0.7474262 0.7474262 0.7474262
000390 53 57 3f 3f 53 57 3f 3f 53 57 3f 3f 53 57 3f 3f
       0.7474262 0.7474262 0.7474262 0.7474262
0003a0 53 57 3f 3f 53 57 3f 3f 53 57 3f 3f 53 57 3f 3f
       0.7474262 0.7474262 0.7474262 0.7474262
0003b0 53 57 3f 3f 53 57 3f 3f 53 57 3f 3f 53 57 3f 3f
       0.7474262 0.7474262 0.7474262 0.7474262
0003c0 53 57 3f 3f 53 57 3f 3f 53 57 3f 3f 53 57 3f 3f
       0.7474262 0.7474262 0.7474262 0.7474262
0003d0 53 57 3f 3f 53 57 3f 3f 53 57 3f 3f 53 57 3f 3f
       0.7474262 0.7474262 0.7474262 0.7474262
0003e0 53 57 3f 3f 53 57 3f 3f 53 57 3f 3f 53 57 3f 3f
       0.7474262 0.7474262 0.7474262 0.7474262
0003f0 53 57 3f 3f 53 57 3f 3f 53 57 3f 3f 53 57 3f 3f
       0.7474262 0.7474262 0.7474262 0.7474262

h_Sigma f4 [1, 279, 4]
000000 00 00 c0 7f 00 00 c0 7f 00 00 c0 7f 00 00 c0 7f
       nan nan nan nan
000010 58 5b 77 3d 00 00 00 00 00 00 00 00 00 00 00 00
       0.060389847 0.0 0.0 0.0
000020 58 5b 77 3d 00 00 00 00 00 00 00 00 00 00 00 00
       0.060389847 0.0 0.0 0.0
000030 58 5b 77 3d 00 00 00 00 00 00 00 00 00 00 00 00
       0.060389847 0.0 0.0 0.0
000040 58 5b 77 3d 00 00 00 00 00 00 00 00 00 00 00 00
       0.060389847 0.0 0.0 0.0
000050 58 5b 77 3d 00 00 00 00 00 00 00 00 00 00 00 00
       0.060389847 0.0 0.0 0.0
000060 58 5b 77 3d 00 00 00 00 00 00 00 00 00 00 00 00
       0.060389847 0.0 0.0 0.0
000070 58 5b 77 3d 00 00 00 00 00 00 00 00 00 00 00 00
       0.060389847 0.0 0.0 0.0
000080 58 5b 77 3d 00 00 00 00 00 00 00 00 00 00 00 00
       0.060389847 0.0 0.0 0.0
000090 58 5b 77 3d 00 00 00 00 00 00 00 00 00 00 00 00
       0.060389847 0.0 0.0 0.0
0000a0 b0 f9 8b 3d 00 00 00 00 00 00 00 00 00 00 00 00
       0.068347335 0.0 0.0 0.0
0000b0 58 5b 77 3d 00 00 00 00 00 00 00 00 00 00 00 00
       0.060389847 0.0 0.0 0.0
0000c0 b0 f9 8b 3d 00 00 00 00 00 00 00 00 00 00 00 00
       0.068347335 0.0 0.0 0.0
0000d0 b0 f9 8b 3d 00 00 00 00 00 00 00 00 00 00 00 00
       0.068347335 0.0 0.0 0.0
0000e0 58 5b 77 3d 00 00 00 00 00 00 00 00 00 00 00 00
       0.060389847 0.0 0.0 0.0
0000f0 b0 f9 8b 3d 00 00 00 00 00 00 00 00 00 00 00 00
       0.068347335 0.0 0.0 0.0
000100 b0 f9 8b 3d 00 00 00 00 00 00 00 00 00 00 00 00
       0.068347335 0.0 0.0 0.0
000110 58 5b 77 3d 00 00 00 00 00 00 00 00 00 00 00 00
       0.060389847 0.0 0.0 0.0
000120 58 5b 77 3d 00 00 00 00 00 00 00 00 00 00 00 00
       0.060389847 0.0 0.0 0.0
000130 58 5b 77 3d 00 00 00 00 00 00 00 00 00 00 00 00
       0.060389847 0.0 0.0 0.0
000140 58 5b 77 3d 00 00 00 00 00 00 00 00 00 00 00 00
       0.060389847 0.0 0.0 0.0
000150 58 5b 77 3d 00 00 00 00 00 00 00 00 00 00 00 00
       0.060389847 0.0 0.0 0.0
000160 58 5b 77 3d 00 00 00 00 00 00 00 00 00 00 00 00
       0.060389847 0.0 0.0 0.0
000170 b0 f9 8b 3d 00 00 00 00 00 00 00 00 00 00 00 00
       0.068347335 0.0 0.0 0.0
000180 58 5b 77 3d 00 00 00 00 00 00 00 00 00 00 00 00
       0.060389847 0.0 0.0 0.0
000190 58 5b 77 3d 00 00 00 00 00 00 00 00 00 00 00 00
       0.060389847 0.0 0.0 0.0
0001a0 58 5b 77 3d 00 00 00 00 00 00 00 00 00 00 00 00
       0.060389847 0.0 0.0 0.0
0001b0 58 5b 77 3d 00 00 00 00 00 00 00 00 00 00 00 00
       0.060389847 0.0 0.0 0.0
0001c0 58 5b 77 3d 00 00 00 00 00 00 00 00 00 00 00 00
       0.060389847 0.0 0.0 0.0
0001d0 58 5b 77 3d 00 00 00 00 00 00 00 00 00 00 00 00
       0.060389847 0.0 0.0 0.0
0001e0 58 5b 77 3d 00 00 00 00 00 00 00 00 00 00 00 00
       0.060389847 0.0 0.0 0.0
0001f0 58 5b 77 3d 00 00 00 00 00 00 00 00 00 00 00 00
       0.060389847 0.0 0.0 0.0
000200 58 5b 77 3d 00 00 00 00 00 00 00 00 00 00 00 00
       0.060389847 0.0 0.0 0.0
000210 58 5b 77 3d 00 00 00 00 00 00 00 00 00 00 00 00
       0.060389847 0.0 0.0 0.0
000220 58 5b 77 3d 00 00 00 00 00 00 00 00 00 00 00 00
       0.060389847 0.0 0.0 0.0
000230 58 5b 77 3d 00 00 00 00 00 00 00 00 00 00 00 00
       0.060389847 0.0 0.0 0.0
000240 58 5b 77 3d 00 00 00 00 00 00 00 00 00 00 00 00
       0.060389847 0.0 0.0 0.0
000250 58 5b 77 3d 00 00 00 00 00 00 00 00 00 00 00 00
       0.060389847 0.0 0.0 0.0
000260 58 5b 77 3d 00 00 00 00 00 00 00 00 00 00 00 00
       0.060389847 0.0 0.0 0.0
000270 58 5b 77 3d 00 00 00 00 00 00 00 00 00 00 00 00
       0.060389847 0.0 0.0 0.0
000280 58 5b 77 3d 00 00 00 00 00 00 00 00 00 00 00 00
       0.060389847 0.0 0.0 0.0
000290 58 5b 77 3d 00 00 00 00 00 00 00 00 00 00 00 00
       0.060389847 0.0 0.0 0.0
0002a0 58 5b 77 3d 00 00 00 00 00 00 00 00 00 00 00 00
       0.060389847 0.0 0.0 0.0
0002b0 58 5b 77 3d 00 00 00 00 00 00 00 00 00 00 00 00
       0.060389847 0.0 0.0 0.0
0002c0 58 5b 77 3d 00 00 00 00 00 00 00 00 00 00 00 00
       0.060389847 0.0 0.0 0.0
0002d0 58 5b 77 3d 00 00 00 00 00 00 00 00 00 00 00 00
       0.060389847 0.0 0.0 0.0
0002e0 58 5b 77 3d 00 00 00 00 00 00 00 00 00 00 00 00
       0.060389847 0.0 0.0 0.0
0002f0 58 5b 77 3d 00 00 00 00 00 00 00 00 00 00 00 00
       0.060389847 0.0 0.0 0.0
000300 58 5b 77 3d 00 00 00 00 00 00 00 00 00 00 00 00
       0.060389847 0.0 0.0 0.0
000310 58 5b 77 3d 00 00 00 00 00 00 00 00 00 00 00 00
       0.060389847 0.0 0.0 0.0
000320 58 5b 77 3d 00 00 00 00 00 00 00 00 00 00 00 00
       0.060389847 0.0 0.0 0.0
000330 58 5b 77 3d 00 00 00 00 00 00 00 00 00 00 00 00
       0.060389847 0.0 0.0 0.0
000340 58 5b 77 3d 00 00 00 00 00 00 00 00 00 00 00 00
       0.060389847 0.0 0.0 0.0
000350 58 5b 77 3d 00 00 00 00 00 00 00 00 00 00 00 00
       0.060389847 0.0 0.0 0.0
000360 58 5b 77 3d 00 00 00 00 00 00 00 00 00 00 00 00
       0.060389847 0.0 0.0 0.0
000370 58 5b 77 3d 00 00 00 00 00 00 00 00 00 00 00 00
       0.060389847 0.0 0.0 0.0
000380 58 5b 77 3d 00 00 00 00 00 00 00 00 00 00 00 00
       0.060389847 0.0 0.0 0.0
000390 58 5b 77 3d 00 00 00 00 00 00 00 00 00 00 00 00
       0.060389847 0.0 0.0 0.0
0003a0 58 5b 77 3d 00 00 00 00 00 00 00 00 00 00 00 00
       0.060389847 0.0 0.0 0.0
0003b0 58 5b 77 3d 00 00 00 00 00 00 00 00 00 00 00 00
       0.060389847 0.0 0.0 0.0
0003c0 58 5b 77 3d 00 00 00 00 00 00 00 00 00 00 00 00
       0.060389847 0.0 0.0 0.0
0003d0 58 5b 77 3d 00 00 00 00 00 00 00 00 00 00 00 00
       0.060389847 0.0 0.0 0.0
0003e0 58 5b 77 3d 00 00 00 00 00 00 00 00 00 00 00 00
       0.060389847 0.0 0.0 0.0
0003f0 58 5b 77 3d 00 00 00 00 00 00 00 00 00 00 00 00
       0.060389847 0.0 0.0 0.0
