KalmanNetPHAv2/KalmanNet_TSP-main/KNet/2days/2daysmodelteston2904x.pt (torch, 108744 bytes, 43 tensors)

weight_ih_l0 f4 [12, 10]
0.016884744 -0.052746892 -0.28668177 0.22277886 0.4015854 -0.30325913 -0.3304789 0.37129283
0.111411214 -0.31222755 -0.25716138 -0.045737207 0.25741583 -0.21143949 -0.13321126 0.08111131
-0.13139242 -0.16692102 -0.23380584 -0.07275027 -0.043695092 -0.24974239 0.20804042 -0.2793398
0.4666443 0.061944604 0.13433117 -0.35739446 -0.488797 0.21692216 0.26287872 0.035588503
0.4098789 -0.0336892 -0.42153913 -0.20133084 -0.25177562 -0.35015953 -0.40850252 0.22745353
0.25260848 -0.22259659 -0.12350625 -0.1427263 0.40677613 0.2959743 -0.26826847 -0.46531188
0.0060341954 -0.27671838 -0.00220716 -0.22647488 0.0007867217 -0.45963013 -0.38911378 0.34176403
0.014592826 -0.14063662 -0.31161302 -0.28286195 -0.088852346 0.46594125 0.4786541 0.13000244
-0.31353378 0.27802545 -0.07061523 -0.39081246 -0.11290449 -0.15878391 0.3329934 0.17655993
0.32851988 -0.080341816 0.4016956 -0.27937186 0.35507035 0.20435667 -0.11080903 0.06649548
0.3494178 0.092119396 -0.44026083 0.22047406 0.37321264 -0.2566967 0.10658306 0.35358125
0.4572215 -0.19462651 -0.46676874 -0.2579071 0.26972538 0.2577967 0.13773966 -0.17920172
-0.35668617 -0.30708748 -0.22549653 0.24579233 0.30109984 -0.20838588 0.22624362 -0.41311502
0.20269525 0.3703192 0.24639499 -0.015820622 0.32635564 0.24609554 -0.18715763 0.3690588
-0.11540955 -0.031252325 0.4444087 -0.28922343 -0.38815492 -0.1898008 -0.33953267 -0.04222709
00000000: e051 8a3c 200d 58bd f4c7 92be 2420 643e
00000010: 9a9c cd3e c844 9bbe 8834 a9be 181a be3e
00000020: 902b e43d 4adc 9fbe a8aa 83be f056 3bbd
00000030: 02cc 833e 9883 58be 8868 08be b01d a63d
00000040: bc8b 06be 58ed 2abe cc6a 6fbe 18fe 94bd
00000050: a0f9 32bd 78bc 7fbe 8c08 553e a005 8fbe
00000060: 00ec ee3e a0b9 7d3d 1c8e 093e 68fc b6be
00000070: 9a43 fabe d820 5e3e 0a98 863e 40c5 113d
00000080: a6db d13e b0fd 09bd fad3 d7be ac29 4ebe
00000090: bce8 80be 1c48 b3be 3e27 d1be 94e9 683e
000000a0: e655 813e 5cf0 63be d8f0 fcbd d826 12be
000000b0: f644 d03e f289 973e 7c5a 89be 5c3d eebe
000000c0: 80ba c53b 08ae 8dbe 00a6 10bb 08e9 67be
000000d0: 003c 4e3a a454 ebbe ec39 c7be b2fb ae3e
000000e0: c016 6f3c 0c03 10be be8b 9fbe 48d3 90be
000000f0: 38f8 b5bd da8f ee3e 2612 f53e 5c1f 053e
00000100: 8087 a0be 5a59 8e3e b89e 90bd 9218 c8be
00000110: 783a e7bd 4098 22be 1c7e aa3e 20cc 343e
00000120: c233 a83e 408a a4bd 0cab cd3e d409 8fbe
00000130: c8cb b53e e042 513e d8ef e2bd c82e 883d
00000140: e4e6 b23e 18a9 bc3d de69 e1be f4c3 613e
00000150: ba15 bf3e c06d 83be 3848 da3d 9a08 b53e
00000160: f018 ea3e 2c4c 47be 50fc eebe 660c 84be
00000170: 7219 8a3e eefd 833e a00b 0d3e a880 37be
00000180: 929f b6be 923a 9dbe 90e8 66be fcb0 7b3e
00000190: c229 9a3e 1c63 55be 68ac 673e d083 d3be
000001a0: 588f 4f3e 7a9a bd3e f84e 7c3e 409a 81bc
000001b0: 1618 a73e 7800 7c3e 40a6 3fbe 46f5 bc3e
000001c0: d85b ecbd 7002 00bd 8a89 e33e 1815 94be
000001d0: 3ebc c6be 245b 42be 3ad7 adbe 50f6 2cbd

weight_hh_l0 f4 [12, 4]
0.28039783 -0.010364056 -0.18167323 -0.39653796 -0.22854066 0.07871854 -0.011202395 -0.48121667
0.3503222 -0.21835625 0.44633955 0.41282403 0.29305792 0.22705436 0.42097163 0.013324559
-0.043489695 0.25607216 0.45916086 0.10490638 0.44391203 0.46279967 0.46761107 0.27061355
-0.20246816 -0.47841233 -0.093556166 0.0884766 0.3274243 -0.09989631 -0.44757873 -0.108624816
-0.06447846 -0.33644253 0.07671189 0.43858206 -0.014190376 -0.4727589 -0.4889505 -0.47682083
0.4495011 -0.06136781 -0.2979384 -0.03763771 -0.4952408 0.14625388 -0.391518 -0.16286045
00000000: 4e90 8f3e 00ce 29bc 8c08 3abe 0607 cbbe
00000010: 9006 6abe 3037 a13d 408a 37bc 0862 f6be
00000020: 6e5d b33e c898 5fbe 9e86 e43e ac5d d33e
00000030: b00b 963e f080 683e 9889 d73e 404f 5a3c
00000040: 4022 32bd e41b 833e 2217 eb3e 28d9 d63d
00000050: 7048 e33e 14f4 ec3e b86a ef3e dc8d 8a3e
00000060: d053 4fbe 76f2 f4be 609a bfbd 3833 b53d
00000070: 28a4 a73e 7096 ccbd 0a29 e5be b076 debd
00000080: 480d 84bd 3242 acbe 201b 9d3d d48d e03e
00000090: c07e 68bc 740d f2be b857 fabe dc21 f4be
000000a0: 0225 e63e d05c 7bbd 628b 98be 002a 1abd
000000b0: 3490 fdbe 94c3 153e 0c75 c8be e4c4 26be

bias_ih_l0 f4 [12]
-0.27095056 0.33570492 -0.1418925 0.17536211 -0.33898145 -0.22056991 0.4298259 -0.10378754
0.4461826 -0.42171466 0.39583302 0.064219534
00000000: 08ba 8abe 84e1 ab3e 444c 11be 2092 333e
00000010: fa8e adbe 14dd 61be 2412 dc3e 908e d4bd
00000020: 0c72 e43e fcea d7be a0aa ca3e 8885 833d

bias_hh_l0 f4 [12]
-0.017337143 0.29822743 0.07883936 0.12553829 0.45481378 0.115939856 0.08028811 0.15322047
0.32768714 -0.121953666 0.019228041 -0.40805423
00000000: a006 8ebc 44b1 983e 8876 a13d 1c8d 003e
00000010: 5add e83e e071 ed3d 186e a43d d4e5 1c3e
00000020: 9cc6 a73e d8c2 f9bd 2084 9d3c 7cec d0be

weight_ih_l0 f4 [12, 14]
-0.12237841 -0.10373193 0.3549965 0.35566187 0.42517728 -0.32742447 -0.062336206 0.40956718
-0.23771995 0.010022044 -0.00033581257 0.3407446 -0.018025279 0.0072591305 0.35462046 -0.14058614
0.22371083 -0.19703728 0.1785919 -0.013424695 -0.43501985 0.41093785 -0.3809216 0.23493338
0.20665658 -0.491184 0.08060318 0.2997958 0.028935373 0.33223927 0.33466393 -0.05257517
0.24847597 -0.31123173 -0.36614257 0.008208096 -0.041975796 0.09101641 -0.23375511 0.24496865
-0.059084117 -0.496185 -0.32267118 0.10815477 0.49938393 -0.064789176 0.025323987 -0.41554928
-0.07914668 0.34609473 -0.32871616 0.43998504 -0.37718523 0.41720468 -0.23503369 -0.017119765
0.2889595 0.44468892 0.013615966 0.0007061362 -0.3364507 0.34130794 -0.0525223 0.43375474
-0.41157877 -0.09534037 0.48154002 -0.18451267 -0.32221603 -0.47935045 -0.16387612 -0.45525336
-0.39860946 0.4755321 -0.15332508 -0.49196285 -0.08257949 -0.4472291 0.14283717 -0.070289195
0.31858075 -0.19375187 0.31138468 0.49498016 0.42180687 0.39331907 0.08168614 -0.020618796
0.39075136 0.09369904 0.42008656 -0.45517164 -0.19793028 -0.09110767 0.22039503 0.041086793
0.39673525 0.26998252 0.2874002 -0.30242068 0.028617442 -0.3754537 -0.073571324 -0.49712175
0.06280136 -0.34619766 -0.495084 -0.31427962 -0.08573341 0.4766571 0.26707625 -0.14915937
0.057599723 0.45703292 0.07124281 -0.040227532 0.15906566 -0.46326953 0.48119003 0.19281393
0.14268148 0.18664443 -0.3079539 0.15737098 -0.12747777 0.14266008 -0.12595785 -0.019821525
-0.4168266 0.45627445 0.21369958 0.39986992 0.49295682 -0.45082253 -0.06698406 0.45436156
-0.49093747 -0.45372796 -0.10596496 -0.36018717 0.28821236 -0.3813573 -0.1764484 -0.118456125
0.06948906 0.4084102 0.16632736 0.44507515 0.11958957 0.34483534 -0.3111971 -0.071522415
-0.10389006 -0.45450097 -0.47681624 -0.47300327 0.40267116 -0.45103824 0.16008842 -0.26929843
0.26452148 0.25209874 0.39885515 -0.49763405 -0.15195143 -0.20848483 -0.37143713 -0.22326785
00000000: 88a1 fabd 6871 d4bd 1ac2 b53e 5019 b63e
00000010: d6b0 d93e 2ea4 a7be 4054 7fbd cab2 d13e
00000020: dc6c 73be 8033 243c 0010 b0b9 1476 ae3e
00000030: c0a9 93bc 00de ed3b d090 b53e d0f5 0fbe
00000040: 7414 653e 24c4 49be cce0 363e 40f3 5bbc
00000050: ecba debe 7266 d23e 2808 c3be 6092 703e
00000060: c89d 533e 787c fbbe 4813 a53d d67e 993e
00000070: e009 ed3c 441b aa3e 1259 ab3e 1059 57bd
00000080: 7c70 7e3e c459 9fbe 0a77 bbbe 407b 063c
00000090: d0ee 2bbd d066 ba3d 805d 6fbe 10d9 7a3e
000000a0: 3002 72bd f60b febe 2835 a5be 4080 dd3d
000000b0: 40af ff3e 30b0 84bd 4074 cf3c e0c2 d4be
000000c0: a817 a2bd 5433 b13e 7c4d a8be b845 e13e
000000d0: 6c1e c1be da9b d53e acac 70be c03e 8cbc
000000e0: 80f2 933e 44ae e33e 8015 5f3c 001c 393a
000000f0: 4443 acbe eabf ae3e a021 57bd 1a15 de3e
00000100: 74ba d2be d041 c3bd 6a8c f63e e4f0 3cbe
00000110: 80f9 a4be 6c6d f5be 24cf 27be f816 e9be
00000120: 8a16 ccbe f278 f33e 4001 1dbe 8ee2 fbbe
00000130: 701f a9bd 36fb e4be e843 123e c8f3 8fbd
00000140: 041d a33e e466 46be d06d 9f3e 0a6e fd3e
00000150: 12f7 d73e 1e61 c93e 104b a73d c0e8 a8bc
00000160: 9010 c83e 48e5 bf3d 9615 d73e 420c e9be
00000170: 3cae 4abe a896 babd 3caf 613e a04a 283d
00000180: e220 cb3e 263b 8a3e 1e26 933e e2d6 9abe
00000190: 206f ea3c 783b c0be 90ac 96bd be86 febe
000001a0: 009e 803d d240 b1be a67b fdbe 42e9 a0be
000001b0: 0095 afbd 660c f43e 38be 883e 3cbd 18be
000001c0: b0ed 6b3d 3800 ea3e c0e7 913d a0c5 24bd
000001d0: 1ce2 223e aa31 edbe 8a5e f63e 0471 453e
000001e0: 181b 123e b81f 3f3e 22ac 9dbe dc25 213e
000001f0: 8889 02be 7c15 123e 18fb 00be c060 a2bc
00000200: 4c6a d5be ce9c e93e 10d4 5a3e c0bb cc3e
00000210: d664 fc3e 36d2 e6be f02e 89bd 14a2 e83e
00000220: 285c fbbe 084f e8be 2804 d9bd 746a b8be
00000230: 9290 933e 4441 c3be e4ae 34be 2099 f2bd
00000240: 4850 8e3d 241b d13e b851 2a3e e4e0 e33e
00000250: 60eb f43d 428e b03e 3a55 9fbe 587a 92bd
00000260: 50c4 d4bd 5ab4 e8be 4221 f4be 7c2d f2be
00000270: ea2a ce3e 7cee e6be 38ee 233e 7ce1 89be
00000280: 5c6f 873e 1613 813e be36 cc3e e4c9 febe
00000290: 2899 1bbe 0c7d 55be 022d bebe 54a0 64be

weight_hh_l0 f4 [12, 4]
0.2122882 -0.21010697 0.09397167 -0.41442204 1.2457371e-05 -0.46967924 -0.43477678 0.2221005
0.15491521 -0.3643403 -0.2675138 -0.44089907 -0.051113605 0.33324903 -0.15090442 -0.46804154
0.1794532 -0.45629555 -0.16955608 0.042462885 0.18742889 0.3123293 -0.3149451 0.28389066
-0.23861814 0.09132725 -0.46982807 0.46784538 0.26288015 0.19658905 -0.49089187 -0.4808271
0.14882416 0.15176088 0.37120152 -0.3579052 0.35816246 0.106508315 0.06280398 -0.28641558
-0.28649557 0.23782527 0.05245453 -0.31965435 -0.32360846 -0.29527253 -0.37504548 0.26222038
00000000: 1462 593e 4826 57be 3874 c03d 202f d4be
00000010: 0000 5137 cc79 f0be 109b debe 506e 633e
00000020: 18a2 1e3e d08a babe 92f7 88be 86bd e1be
00000030: 805c 51bd 9e9f aa3e b086 1abe 24a3 efbe
00000040: 94c2 373e 929f e9be 1ca0 2dbe 90ed 2d3d
00000050: 5ced 3f3e a0e9 9f3e 7c40 a1be 1e5a 913e
00000060: 5058 74be c809 bb3d 4e8d f0be 6e89 ef3e
00000070: 3a98 863e a44e 493e 2e56 fbbe f82e f6be
00000080: 5c65 183e 3467 1b3e 200e be3e 5a3f b7be
00000090: 1261 b73e 0821 da3d 609f 803d 10a5 92be
000000a0: 8caf 92be 7888 733e 90da 563d bca9 a3be
000000b0: 02b0 a5be f62d 97be f605 c0be c041 863e

bias_ih_l0 f4 [12]
-0.017001987 0.32013887 0.042075872 -0.40779388 0.36452 0.08822286 0.28214025 0.2603671
-0.26527703 0.42522967 0.09409928 0.23486114
00000000: c047 8bbc 3ee9 a33e c057 2c3d 5cca d0be
00000010: 5ea2 ba3e 30ae b43d b074 903e d64e 853e
00000020: 64d2 87be b4b7 d93e 20b7 c03d 707f 703e

bias_hh_l0 f4 [12]
0.47478807 0.11424065 -0.22872627 0.088799715 0.34523958 -0.45840913 0.4940622 0.23046613
0.45269853 0.4797647 0.47422934 -0.29896343
00000000: 6c17 f33e 00f7 e93d 3837 6abe a0dc b53d
00000010: 3ec3 b03e 9ab4 eabe b8f5 fc3e 50ff 6b3e
00000020: 1ac8 e73e b8a3 f53e 30ce f23e bc11 99be

weight_ih_l0 f4 [3, 11]
0.8564224 -0.56136954 0.96805716 0.84436715 0.4191482 0.13471627 0.34196532 0.45027173
0.95839727 -0.17590141 0.42841876 0.8157679 -0.58189535 0.21740043 0.19706202 -0.86071193
0.2650516 -0.5144546 0.7978705 -0.75742674 0.76741815 0.7077503 0.74587107 0.9364822
0.5519073 -0.75046575 0.31924856 -0.9708979 -0.10592091 0.62885606 0.45047307 -0.9462631
-0.1944443
00000000: 803e 5b3f eab5 0fbf 98d2 773f 7228 583f
00000010: 989a d63e 10f3 093e 1416 af3e 048a e63e
00000020: 8659 753f 801f 34be b459 db3e 2ad6 503f
00000030: 18f7 14bf 389e 5e3e a0ca 493e 9e57 5cbf
00000040: d8b4 873e 4cb3 03bf 3e41 4c3f b8e6 41bf
00000050: 8475 443f 202f 353f 68f1 3e3f 4cbd 6f3f
00000060: cc49 0d3f 861e 40bf 8c74 a33e c48c 78bf
00000070: 10ed d8bd b6fc 203f 68a4 e63e 4c3e 72bf
00000080: 681c 47be

weight_hh_l0 f4 [3, 1]
0.02417612 0.9910011 0.12943745
00000000: 000d c63c 40b2 7d3f 408b 043e

bias_ih_l0 f4 [3]
0.07257879 -0.9711094 -0.2962401
00000000: 30a4 943d a09a 78bf c8ac 97be

bias_hh_l0 f4 [3]
-0.78546643 -0.09249115 -0.25838292
00000000: 5414 49bf 006c bdbd c44a 84be

weight f4 [1, 4]
-0.1699413 -0.19889891 0.30092877 0.18641627
00000000: 1805 2ebe 28ac 4bbe 5613 9a3e e8e3 3e3e

weight f4 [200, 5]
0.007763833 0.11157179 0.22500193 0.35490668 -0.21881373 0.38954234 0.025703043 0.43843848
0.111778975 -0.17620286 -0.34377953 -0.44576064 -0.2835478 0.43359935 -0.07345331 -0.23473722
-0.40578884 -0.3165204 0.42462313 0.39563894 -0.28038198 -0.3347373 -0.32157278 0.13526809
0.35074472 -0.2103383 -0.034322053 -0.40779415 -0.23508877 0.22294736 0.34855264 0.04774922
-0.1995956 -0.2518794 -0.30167243 -0.40363586 -0.2496704 0.39155966 0.2662605 0.4346887
0.16728169 -0.29894456 -0.23730308 -0.30163553 0.16127574 0.34104007 -0.24896246 -0.34813136
0.105528295 0.17408305 -0.15514362 0.044526994 -0.04203412 0.022464097 -0.19043007 -0.12506339
-0.20779744 0.11032605 -0.3053363 -0.10066295 -0.09249118 -0.43088135 0.43402427 0.18241286
-0.33343875 -0.14764884 -0.34095442 -0.16103527 0.104231596 -0.100338966 -0.21905474 0.13452482
-0.06742364 -0.32628536 -0.43565938 0.22831571 -0.116610974 0.21995473 0.07669842 -0.27622512
0.20491672 -0.37158602 0.27086687 -0.2175796 -0.35894316 0.16294271 -0.04173222 0.38571095
-0.17382154 0.40248466 -0.23217607 0.28885216 0.25705802 -0.36201096 -0.025437355 -0.18107489
0.0671407 0.35422987 -0.23210718 0.2518109 0.2174105 -0.17096737 -0.2357283 -0.02585861
-0.43057412 0.3750044 0.3648559 0.359331 -0.35016024 -0.24343503 0.14748174 0.30530715
-0.36212873 0.27831906 0.27629966 0.17589897 0.048114687 -0.050865203 0.15823537 0.053987682
-0.22045793 0.34222174 0.16771823 0.15707266 -0.29424745 -0.3140133 -0.0052360296 -0.17695978
0.13660163 0.046414196 0.30533874 0.088519454 -0.07480976 0.08106202 0.2101245 -0.040996462
-0.119037956 0.38878626 -0.27675718 0.42886817 -0.24997321 0.32555342 0.089190066 0.099027574
0.22683239 0.2726648 -0.2128985 0.19942147 -0.08624619 0.040448636 0.34276813 0.028039515
0.25736678 -0.21880002 -0.10966861 0.44694406 0.2213282 -0.15742558 -0.32291242 -0.26582897
0.18468642 0.2352559 -0.2135024 0.17660761 -0.20354761 -0.40928647 -0.3286453 -0.16981545
-0.3539853 -0.07913506 0.33221674 0.12021828 0.22085327 -0.28260535 0.14235348 -0.442476
0.103889465 0.3942911 0.13874966 0.3411097 -0.12311646 0.38207585 -0.0113043785 -0.0316177
-0.31461066 -0.39586723 -0.24656817 -0.4351215 0.15612435 -0.023611248 -0.27227628 -0.17534637
-0.18768895 -0.184906 -0.24395625 -0.18062323 0.1375233 0.08460516 0.31260234 0.25317228
0.36332512 0.19834906 -0.04220605 0.3154692 -0.27232575 -0.047536522 -0.11681515 0.09881264
0.08349359 -0.3035184 -0.21217175 -0.31793183 -0.20050697 0.06945586 -0.11927754 -0.41399348
-0.096637934 0.42544812 0.26633084 0.024145871 -0.19342202 0.12614316 -0.17778772 0.09317899
0.17671043 0.14931381 0.15995365 -0.2993868 -0.3548569 0.09956938 0.14761084 0.30896962
-0.4301964 -0.17973715 -0.4445854 0.26229525 -0.24816044 0.0068483055 0.22936821 0.44666576
0.20038116 0.049865723 0.106692016 0.4101681 -0.25269425 -0.31904095 -0.4009933 -0.34865147
-0.2999432 0.21858442 -0.046616077 0.42677945 0.23260939 0.19556403 -0.33411825 -0.032815725
00000000: c067 fe3b c07f e43d e866 663e 54b6 b53e
00000010: b510 60be 1872 c73e 308f d23c 027b e03e
00000020: 60ec e43d 866e 34be df03 b0be bd3a e4be
00000030: 2d2d 91be bc00 de3e b06e 96bd f45e 70be
00000040: 8ec3 cfbe f60e a2be 3468 d93e 3091 ca3e
00000050: 3a8e 8fbe b062 abbe 30a5 a4be b883 0a3e
00000060: d094 b33e ec62 57be 4895 0cbd 65ca d0be
00000070: 1cbb 70be 504c 643e 7e75 b23e b094 433d
00000080: ca62 4cbe 56f6 80be cf74 9abe 5ca9 cebe
00000090: 99a9 7fbe 827a c83e 4c53 883e 848f de3e
000000a0: e44b 2b3e 430f 99be 94ff 72be f96f 9abe
000000b0: 7825 253e ce9c ae3e 04f0 7ebe 463e b2be
000000c0: 381f d83d d442 323e f8dd 1ebe f061 363d
000000d0: f82b 2cbd a006 b83c 1a00 43be 9e10 00be
000000e0: dac8 54be a0f2 e13d 0a55 9cbe 6028 cebd
000000f0: 046c bdbd 7b9c dcbe 6e38 de3e 70ca 3a3e
00000100: 7cb8 aabe 4231 17be 9491 aebe 6ee6 24be
00000110: 6077 d53d 847e cdbd e34f 60be e0c0 093e
00000120: 6815 8abd e00e a7be bf0e dfbe 98cb 693e
00000130: bcd1 eebd d03b 613e 1014 9d3d 616d 8dbe
00000140: b0d5 513e 8640 bebe 10af 8a3e 30cd 5ebe
00000150: 66c7 b7be 74da 263e 68ef 2abd e87b c53e
00000160: 46fe 31be 7812 ce3e 90bf 6dbe 6ee4 933e
00000170: 1c9d 833e 8059 b9be 0062 d0bc b26b 39be
00000180: 1081 893d 9e5d b53e 81ad 6dbe 5ced 803e
00000190: dca0 5e3e 1212 2fbe c262 71be 70d5 d3bc
000001a0: 3674 dcbe 9400 c03e 64ce ba3e 3cfa b73e
000001b0: 3448 b3be 0847 79be 7405 173e 3851 9c3e
000001c0: f068 b9be d67f 8e3e 2677 8d3e dc1e 343e
000001d0: e813 453d 0858 50bd 7408 223e 3022 5d3d
000001e0: b9bf 61be b037 af3e 54be 2b3e a8d7 203e
000001f0: 9aa7 96be 5ac6 a0be 0093 abbb f234 35be
00000200: 4ce1 0b3e d01c 3e3d 5c55 9c3e b049 b53d
00000210: dc35 99bd d803 a63d e02a 573e e8eb 27bd
00000220: 2cca f3bd fe0e c73e 1eb3 8dbe 9c94 db3e
00000230: faf8 7fbe f0ae a63e 48a9 b63d f8ce ca3d
00000240: c046 683e b89a 8b3e 1002 5abe 2435 4c3e
00000250: d8a1 b0bd 78ad 253d 4e7f af3e 20b3 e53c
00000260: 94c5 833e 1d0d 60be f099 e0bd dad5 e43e
00000270: dca3 623e 2c34 21be c754 a5be bc1a 88be
00000280: 701e 3d3e ece6 703e 60a0 5abe a0d8 343e
00000290: c96e 50be ff8d d1be 3244 a8be 1ae4 2dbe
000002a0: 903d b5be 9011 a2bd 5018 aa3e 0035 f63d
000002b0: 5c27 623e a6b1 90be 1cc5 113e 378c e2be
000002c0: 00c4 d43d 86e0 c93e 6414 0e3e eea5 ae3e
000002d0: 7c24 fcbd 729f c33e 0036 39bc 9081 01bd
000002e0: a614 a1be 1caf cabe 5e7c 7cbe 3fc8 debe
000002f0: 10df 1f3e 606c c1bc cc67 8bbe 008e 33be
00000300: 8831 40be 0058 3dbe abcf 79be 4cf5 38be
00000310: e8d2 0c3e 7845 ad3d 6a0d a03e cc9f 813e
00000320: c005 ba3e 041c 4b3e 40e0 2cbd 2e85 a13e
00000330: 486e 8bbe a8b5 42bd c83c efbd 485e ca3d
00000340: b0fe aa3d c466 9bbe 8d43 59be f6c7 a2be
00000350: b351 4dbe e03e 8e3d c847 f4bd f4f6 d3be
00000360: 1cea c5bd 56d4 d93e 845c 883e 90cd c53c
00000370: 6c10 46be ac2b 013e fc0d 36be a0d4 be3d
00000380: 94f3 343e b8e5 183e e4ca 233e 3a49 99be
00000390: ceaf b5be 08eb cb3d 4c27 173e 4431 9e3e
000003a0: b442 dcbe 040d 38be b3a0 e3be 904b 863e
000003b0: c51d 7ebe c067 e03b 80df 6a3e 60b1 e43e
000003c0: b830 4d3e 0040 4c3d 5881 da3d 8e01 d23e
000003d0: 2461 81be 5659 a3be fe4e cdbe 7282 b2be
000003e0: 2892 99be 98d4 5f3e 80f0 3ebd d682 da3e
000003f0: 2831 6e3e f041 483e 8c11 abbe c869 06bd

bias f4 [200]
-0.02606237 -0.19693825 0.09598726 -0.15440693 -0.44035634 0.035879374 0.44048178 -0.40720862
0.4026153 -0.39463383 0.33490127 0.35656708 0.025643498 0.35724056 0.37447017 -0.062779546
-0.16015357 -0.25741553 -0.0667758 -0.2932021 0.16492242 -0.24748082 0.27174276 0.02203688
0.3088373 0.24527937 0.23517424 -0.074741304 -0.10324755 0.18126357 0.13988131 -0.11935553
0.3078559 -0.4366554 -0.43816447 -0.080255896 -0.2004118 0.1751684 0.4239819 0.045684874
0.059231997 -0.39785987 -0.02233079 0.13802582 -0.07549718 0.4268945 -0.30977756 -0.091517955
-0.2357734 0.37281543 0.0073738396 0.4461469 0.25550508 -0.30852664 0.40051752 -0.14690042
-0.33719498 -0.360471 -0.07319099 -0.22299339 -0.25554436 -0.20036766 0.0006119609 -0.19642016
0.44090813 0.23915714 0.21188319 -0.35582006 0.0029291809 -0.32561892 -0.29723015 0.007514268
-0.16721356 0.27556294 -0.05050859 -0.20296992 0.3483914 -0.43597263 0.36908454 0.13715374
-0.017543912 -0.12569997 0.2796716 -0.27595448 -0.11746195 0.087090194 0.21134257 -0.09732312
-0.24459212 -0.09353635 -0.17781651 0.20725226 -0.05267173 0.43711126 0.15300304 0.42026466
-0.34615156 -0.23000343 -0.33486408 -0.24332702 -0.030831397 -0.2334878 0.29618436 -0.03750938
0.11337185 0.096380174 -0.30540866 0.4387737 -0.059556454 -0.3876194 0.38420922 -0.028622687
-0.25663343 0.29662877 0.21928364 -0.2247577 -0.25575942 0.08186531 0.30814636 -0.32036096
-0.2810083 -0.4341033 -0.12513667 0.21554899 0.1888498 0.437876 -0.14844278 -0.2707804
0.093931794 -0.42569387 -0.15280348 -0.33116564 0.37194633 -0.39276212 0.13785148 0.28970724
-0.42136782 0.10882163 0.24384338 0.021488637 -0.022691458 0.11098546 -0.17826942 -0.075588614
-0.06754121 0.12303221 -0.15362933 0.037107676 0.42347944 0.30535632 -0.19124427 -0.01790014
-0.34814698 -0.43223962 -0.31305897 -0.2534006 -0.07030523 -0.0094996095 0.379983 -0.24357039
-0.3218149 0.023978353 0.25397867 -0.2909811 0.22147137 -0.262865 0.37568474 -0.24420752
0.03848785 0.26408178 -0.061529577 -0.0059377253 -0.3765659 -0.4262437 -0.28976658 -0.15856215
-0.008037955 0.42887455 -0.4446901 -0.33304718 -0.010584682 -0.20215036 0.0874393 -0.26165056
0.1339736 0.22261006 -0.102071226 0.04978019 0.15987861 0.22512132 -0.2650532 0.06748474
-0.1345964 -0.22167061 0.2453962 -0.1487588 -0.3565476 -0.20440471 0.16155553 -0.23392166
00000000: c080 d5bc 2eaa 49be f894 c43d da1c 1ebe
00000010: 6376 e1be 40f6 123d d486 e13e a67d d0be
00000020: 9823 ce3e 720d cabe 2e78 ab3e f68f b63e
00000030: 5012 d23c 3ce8 b63e 8eba bf3e 9092 80bd
00000040: 4cff 23be f8cb 83be c0c1 88bd 961e 96be
00000050: 6ce1 283e 9d6b 7dbe de21 8b3e b086 b43c
00000060: ec1f 9e3e 842a 7b3e 84d1 703e f811 99bd
00000070: 7473 d3bd 289d 393e 0c3d 0f3e ac70 f4bd
00000080: 4a9f 9d3e 4c91 dfbe 1857 e0be 345d a4bd
00000090: c038 4dbe 585f 333e 2814 d93e 1020 3b3d
000000a0: 409d 723d 4ab4 cbbe 10ef b6bc a456 0d3e
000000b0: 449e 9abd ea91 da3e 2a9b 9ebe c46d bbbd
000000c0: 956e 71be aae1 be3e 40a0 f13b 5e6d e43e
000000d0: 90d1 823e 34f7 9dbe a210 cd3e 106d 16be
000000e0: d2a4 acbe a88f b8be 28e5 95bd 6158 64be
000000f0: b6d6 82be 2e2d 4dbe 006c 203a 5e22 49be
00000100: b6be e13e 9ce5 743e e8f7 583e 0c2e b6be
00000110: 80f7 3f3b 86b7 a6be 8d2e 98be 403a f63b
00000120: 083a 2bbe 9616 8d3e 18e2 4ebd 59d7 4fbe
00000130: 5c60 b23e ce37 dfbe a6f8 bc3e 0872 0c3e
00000140: 40b8 8fbc 7eb7 00be 1e31 8f3e e849 8dbe
00000150: e48f f0bd 585c b23d 306a 583e 5851 c7bd
00000160: 5b76 7abe fc8f bfbd 8815 36be f039 543e
00000170: 50be 57bd 0ccd df3e d4ac 1c3e ee2c d73e
00000180: c73a b1be 0586 6bbe 4e73 abbe b82a 79be
00000190: 2092 fcbc 6d17 6fbe 7aa5 973e 70a3 19bd
000001a0: 802f e83d f862 c53d 865e 9cbe f2a6 e03e
000001b0: 78f1 73bd 0d76 c6be 12b7 c43e 207a eabc
000001c0: 7565 83be badf 973e e48b 603e e226 66be
000001d0: e6f2 82be 00a9 a73d 5cc5 9d3e 5a06 a4be
000001e0: 52e0 8fbe ca42 debe d423 00be e0b8 5c3e
000001f0: d861 413e 4831 e03e 6201 18be bba3 8abe
00000200: 505f c03d 8cf4 d9be 8478 1cbe 8b8e a9be
00000210: c06f be3e 1e18 c9be f028 0d3e 8254 943e
00000220: 86bd d7be e0dd de3d 14b2 793e f008 b03c
00000230: 70e3 b9bc 584c e33d 428c 36be 34ce 9abd
00000240: 0c53 8abd 50f8 fb3d 0251 1dbe 38fe 173d
00000250: 4cd2 d83e aa57 9c3e 8ad5 43be 50a3 92bc
00000260: 5240 b2be 834e ddbe 4449 a0be b9bd 81be
00000270: 30fc 8fbd 40a4 1bbc 228d c23e 846a 79be
00000280: ecc4 a4be 406e c43c 7e09 823e 7afb 94be
00000290: 64c9 623e 3e96 86be c059 c03e 8911 7abe
000002a0: 70a5 1d3d ba35 873e 7006 7cbd 4091 c2bb
000002b0: 3fcd c0be 9d3c dabe 495c 94be 1e5e 22be
000002c0: a0b1 03bc 7295 db3e 6cae e3be 2985 aabe
000002d0: 606b 2dbc 8100 4fbe 6013 b33d 10f7 85be
000002e0: 6030 093e e4f3 633e b80a d1bd 50e6 4b3d
000002f0: 38b7 233e 3486 663e 0eb5 87be 7035 8a3d
00000300: a4d3 09be 9ffd 62be 2449 7b3e 3a54 18be
00000310: 688d b6be 784f 51be d06e 253e 2989 6fbe

weight f4 [2, 200]
-0.04802084 0.050726093 -0.015410963 -0.028886963 0.05213031 0.015878983 0.0012367964 0.029709913
-0.022956874 -0.030507307 -0.02945995 -0.035352536 -0.0033423454 -0.052707706 -0.026432935 0.0536523
0.06485342 -0.042117037 -0.03127775 -0.028629031 0.044019572 -0.0023547336 -0.02396024 -0.011718672
-0.036543343 -0.03402624 0.049062178 0.002895832 0.022284895 0.0036985576 0.037040003 0.013981871
0.021343388 -0.011963595 0.045795098 -0.053130917 0.0033697113 -0.0495578 0.05175189 0.024598502
0.056101 0.012509033 0.009287596 0.020618357 -0.031081691 0.04348623 -0.012131922 0.03905993
0.006587133 0.052571245 0.009747535 0.013172828 0.06672145 -0.04333085 -0.04735872 0.06989249
-0.06895336 0.02273196 -0.014491536 0.026270986 0.058828466 0.061212935 -0.028152183 -0.050211944
-0.007878132 -0.043618806 -0.03513901 -0.029519822 0.021738306 -0.027342271 -0.008323219 0.04749216
0.028140627 0.030466713 -0.06245805 -0.046354167 -0.0371798 0.047556452 -0.06973316 0.030046262
-0.068993725 -0.06670384 0.059153236 -0.022569235 0.05463726 -0.05042874 -0.056079224 -0.008439332
-0.02620133 0.06092135 -0.052862816 -0.056297936 0.010459036 -0.06859787 0.026059538 -0.055824574
0.049189 -0.0010289028 -0.054306857 0.06797353 -0.015980326 0.038547516 0.002871804 0.037990056
0.037791193 -0.02187901 0.035903014 -0.0016533956 -0.054505274 -0.04515283 -0.026555616 0.049557604
0.057836063 0.040594913 -0.020185888 -0.016829811 0.045413747 0.06970694 0.0019069612 -0.066382185
0.066421874 -0.034452554 -0.012160048 0.0070507973 0.02236402 -0.041120954 -0.038060207 0.060975008
-0.015699591 0.048872642 -0.006982103 0.0066517144 0.0035546497 0.01692576 0.044547 -0.00053831935
-0.046642613 -0.0060252696 0.044268303 0.03447113 -0.06283794 0.041574664 0.012865514 -0.0019855872
-0.04807107 -0.040527333 -0.014674623 0.02973234 0.050284952 0.00029827654 -0.012876276 0.025229037
-0.039873607 0.024431773 0.00084134936 0.05104042 -0.05915507 -0.042753782 -0.059165057 0.018752642
-0.017195366 0.06418664 0.043342665 -0.046809852 0.0089518875 -0.041721303 0.06650858 0.0153937265
0.070386045 -0.05400731 0.06511042 0.004761167 -0.028512511 -0.013530783 -0.056479476 0.025506735
0.01476185 -0.067219734 -0.0152822025 0.006389983 0.05626542 0.0511396 -0.068641126 -0.016579408
0.04500275 -0.061110716 0.060458846 -0.06990952 0.01606965 -0.020474594 0.050733082 -0.061829455
0.06315271 0.022065312 -0.020335376 0.0451464 -0.04189106 0.009952888 -0.031355586 0.0111190975
0.040306754 -0.040545642 9.031594e-05 0.026085526 0.040546827 -0.015377499 -0.033051122 -0.014193248
-0.040810533 -0.020217247 -0.009883065 0.034469664 0.003912084 -0.009794522 0.025012545 0.04397572
0.04967113 -0.06027851 -0.0073920265 -0.037365545 -0.058379356 -0.069033094 0.033295162 -0.009183951
-0.030847844 -0.009705558 -0.027655557 -0.05307461 -0.047323808 0.014441393 0.046682082 -0.02420545
0.05470901 -0.027051322 -0.0090372525 0.05255311 -0.024112314 0.05253964 0.02203346 0.054768376
0.005861014 0.026755318 -0.01652541 -0.018127758 0.058873735 -0.03565476 -0.048147086 -0.06704429
0.063852005 0.04585232 0.05723878 0.03403025 -0.008715775 -0.06907397 -0.028331392 0.052560344
00000000: 80b1 44bd 2ac6 4f3d 447e 7cbc 5aa4 ecbc
00000010: 9886 553d a414 823c 001c a23a 3462 f33c
00000020: 0e10 bcbc 76ea f9bc fe55 f1bc d2cd 10bd
00000030: 400b 5bbb 09e4 57bd e289 d8bc 84c2 5b3d
00000040: dfd1 843d ea82 2cbd 191d 00bd 6e87 eabc
00000050: de4d 343d e051 1abb 4448 c4bc acff 3fbc
00000060: 79ae 15bd 195f 0bbd 6cf5 483d 00c8 3d3b
00000070: d08e b63c 8063 723b 42b7 173d 3814 653c
00000080: 54d8 ae3c f402 44bc a493 3b3d ce9f 59bd
00000090: 60d6 5c3b 1ffd 4abd caf9 533d cc82 c93c
000000a0: 2aca 653d b0f2 4c3c 002b 183c d4e7 a83c
000000b0: 089f febc 9e1e 323d f8c4 46bc 4efd 1f3d
000000c0: e0d8 d73b f254 573d 20b4 1f3c d8d2 573c
000000d0: 41a5 883d b07b 31bd 38fb 41bd cb23 8f3d
000000e0: 6b37 8dbd 6038 ba3c e86d 6dbc 4036 d73c
000000f0: 1ef6 703d 6aba 7a3d 689f e6bc 0aab 4dbd
00000100: 4813 01bc a2a9 32bd eced 0fbd 8ed3 f1bc
00000110: 8814 b23c e6fc dfbc 1c5e 08bc 2487 423d
00000120: 2c87 e63c 5495 f93c 03d4 7fbd dedd 3dbd
00000130: d949 18bd 8eca 423d 42d0 8ebd 9423 f63c
00000140: 954c 8dbd 069c 88bd aa4a 723d 1ee3 b8bc
00000150: 52cb 5f3d 5e8e 4ebd 54b3 65bd 2045 0abc
00000160: 2ca4 d6bc aa88 793d ae86 58bd aa98 66bd
00000170: 605c 2b3c 0a7d 8cbd d07a d53c 4fa8 64bd
00000180: 687a 493d 40dc 86ba de70 5ebd b535 8b3d
00000190: 2ce9 82bc 00e4 1d3d e034 3c3b 769b 1b3d
000001a0: f0ca 1a3d 9c3b b3bc 0a0f 133d c0b6 d8ba
000001b0: ec40 5fbd 2df2 38bd 2a8b d9bc eafc 4a3d
000001c0: 82e5 6c3d da46 263d e05c a5bc acde 89bc
000001d0: c403 3a3d 83c2 8e3d 00f3 f93a 62f3 87bd
000001e0: 3108 883d 1f1e 0dbd f03a 47bc 600a e73b
000001f0: c034 b73c 726e 28bd 05e5 1bbd eec0 793d
00000200: 6e9c 80bc ae2e 483d 20ca e4bb a0f6 d93b
00000210: 20f5 683b e4a7 8a3c ea76 363d 001e 0dba
00000220: 530c 3fbd a06f c5bb ae52 353d 9a31 0d3d
00000230: 2eb1 80bd 324a 2a3d e0c9 523c a020 02bb
00000240: 2ce6 44bd fdff 25bd d46d 70bc 3c91 f33c
00000250: 98f7 4d3d 0062 9c39 04f7 52bc 20ad ce3c
00000260: 8252 23bd 2425 c83c 008e 5c3a c20f 513d
00000270: 964c 72bd 971e 2fbd 0f57 72bd 249f 993c
00000280: 4cdd 8cbc 4974 833d 1488 313d b0bb 3fbd
00000290: f0aa 123c f5e3 2abd a735 883d f835 7c3c
000002a0: 8f26 903d c536 5dbd 9d58 853d 9003 9c3b
000002b0: 1293 e9bc 38b0 5dbc 0657 67bd 80f3 d03c
000002c0: b0db 713c 80aa 89bd 3462 7abc 1063 d13b
000002d0: 9276 663d c277 513d b893 8cbd 8ad1 87bc
000002e0: ce54 383d 3b4f 7abd b2a3 773d b92c 8fbd
000002f0: 80a4 833c 56ba a7bc 7ecd 4f3d e240 7dbd
00000300: 3556 813d 50c2 b43c 6096 a6bc 6eeb 383d
00000310: f695 2bbd 7011 233c b76e 00bd e02c 363c
00000320: b218 253d 3013 26bd 0068 bd38 50b1 d53c
00000330: 6e14 263d e8f1 7bbc 9d60 07bd cc8a 68bc
00000340: f228 27bd a49e a5bc 94ec 21bc 1030 0d3d
00000350: f030 803b 3479 20bc 1ce7 cc3c e21f 343d
00000360: f473 4b3d 99e6 76bd d038 f2bb 9d0c 19bd
00000370: 311f 6fbd 3961 8dbd 8260 083d 4878 16bc
00000380: 9eb4 fcbc 1004 1fbc e88d e2bc c364 59bd
00000390: 9cd6 41bd 989b 6c3c b635 3f3d 824a c6bc
000003a0: 8e16 603d bc9a ddbc fc10 14bc ee41 573d
000003b0: 3087 c5bc ce33 573d 847f b43c ce54 603d
000003c0: c00d c03b f82d db3c 4c60 87bc aa80 94bc
000003d0: 9625 713d ba0a 12bd e135 45bd 844e 89bd
000003e0: d7c4 823d a4cf 3b3d 3673 6a3d 4e63 0b3d
000003f0: 9ccc 0ebc a776 8dbd 3c17 e8bc 8449 573d

bias f4 [2]
-0.029192738 -0.06296731
00000000: 9c25 efbc 01f5 80bd

weight f4 [4, 3]
-0.11650872 0.5227635 0.21481061 -0.18122584 -0.14936012 -0.09815669 -0.5385871 -0.042055666
0.15570468 -0.472888 -0.121406555 -0.4976104
00000000: 209c eebd d4d3 053f 50f7 5b3e 4493 39be
00000010: dcf1 18be 6006 c9bd d8e0 09bf 9042 2cbd
00000020: 0c71 1f3e 601e f2be 00a4 f8bd cac6 febe

bias f4 [4]
0.03549981 0.1335175 -0.30952513 -0.40322393
00000000: 4068 113d d0b8 083e 147a 9ebe 5e73 cebe

weight f4 [4, 8]
0.16815153 -0.15064299 0.22876069 0.3496882 -0.2923818 -0.26649982 0.24199167 0.28253374
-0.3462928 -0.01160872 -0.14708251 0.09480062 -0.040368795 -0.297158 0.0006521344 -0.32066944
-0.10774538 -0.17195012 0.23236033 -0.16186851 0.25360975 0.086946666 0.27622035 0.22679457
0.27912077 0.21171632 -0.23697132 0.14742628 0.23317692 0.23649362 0.09432143 0.32589057
00000000: ea2f 2c3e 2842 1abe 3e40 6a3e 550a b33e
00000010: 11b3 95be aa72 88be aacc 773e 43a8 903e
00000020: 4a4d b1be 8032 3ebc cc9c 16be d426 c23d
00000030: c059 25bd 1825 98be 00f4 2a3a c92e a4be
00000040: 9ca9 dcbd b113 30be deef 6d3e dcc0 25be
00000050: 23d9 813e 1811 b23d c16c 8d3e d63c 683e
00000060: ebe8 8e3e 2acc 583e 9ca8 72be eaf6 163e
00000070: eec5 6e3e 622b 723e 982b c13d 21db a63e

bias f4 [4]
0.15538791 -0.21018966 0.22344819 0.08622673
00000000: 021e 1f3e f53b 57be 9acf 643e a497 b03d

weight f4 [10, 2]
-0.12725079 0.5727835 0.2380302 0.16496986 0.28303915 0.38790268 -0.6565924 0.5504281
0.24927288 0.063708305 0.10889608 -0.41829818 -0.13888025 -0.6885635 0.11099297 -0.35028362
-0.26514557 0.16417944 -0.49352247 -0.55080616
00000000: 084e 02be f1a1 123f 30be 733e dced 283e
00000010: 82ea 903e 2e9b c63e 7116 28bf dbe8 0c3f
00000020: 6441 7f3e 8079 823d e804 df3d 2e2b d6be
00000030: a036 0ebe b345 30bf 4850 e33d 6058 b3be
00000040: 29c1 87be a81e 283e faae fcbe a201 0dbf

bias f4 [10]
-0.38610366 -0.34522364 0.46676964 0.45148617 0.25855947 0.41285223 -0.63122684 0.11532432
-0.48119536 0.4412138
00000000: 61af c5be 27c1 b0be 6efc ee3e 3229 e73e
00000010: e861 843e 5e61 d33e 1598 21bf 282f ec3d
00000020: 3d5f f6be c6e6 e13e

weight f4 [10, 2]
0.51706165 0.6602743 0.26849967 -0.09359777 0.6491657 -0.3299236 0.1333679 0.47161895
-0.38226625 -0.3071958 0.65811104 0.31245166 -0.56152844 0.5432281 0.46807772 0.438407
0.11833066 0.17157644 -0.33283055 -0.58573246
00000000: 275e 043f bd07 293f ca78 893e 30b0 bfbd
00000010: b92f 263f bfeb a8be 9891 083e 0a78 f13e
00000020: 67b8 c3be c548 9dbe f779 283f aaf9 9f3e
00000030: 54c0 0fbf ff10 0b3f e2a7 ef3e e276 e03e
00000040: 5857 f23d bcb1 2f3e c468 aabe 90f2 15bf

bias f4 [10]
-0.013659954 0.3627879 0.4604401 -0.55895334 -0.17729032 0.52198964 0.26566702 0.39296693
0.4428113 -0.64608145
00000000: 00ce 5fbc 56bf b93e cebe eb3e 9117 0fbf
00000010: 988b 35be 1da1 053f 8205 883e f632 c93e
00000020: 2ab8 e23e 9865 25bf

weight f4 [10, 2]
0.17293769 0.44609457 -0.25703374 0.51737565 0.17042828 0.29515797 -0.56295884 -0.061303914
0.4210531 0.11374313 -0.45473078 -0.38103354 -0.6638066 -0.09711164 -0.16248065 0.04017651
-0.63128906 -0.43163574 0.538583 0.25912315
00000000: 9416 313e 8266 e43e ed99 83be bb72 043f
00000010: c084 2e3e f21e 973e 121e 10bf d019 7bbd
00000020: 4694 d73e 28f2 e83d 79d2 e8be d416 c3be
00000030: 3bef 29bf 78e2 c6bd 5461 26be 2090 243d
00000040: 299c 21bf 5cff dcbe 93e0 093f caab 843e

bias f4 [10]
-0.49023712 0.64842016 -0.3346807 -0.39818177 0.6798509 -0.25434357 -0.2915687 0.07062799
-0.08614075 0.19028181
00000000: 5c00 fbbe ddfe 253f 455b abbe 7bde cbbe
00000010: b50a 2e3f 5239 82be 7e48 95be 68a5 903d
00000020: 906a b0bd 3cd9 423e

F f4 [2, 2]
1.0 0.01 0.0 1.0
00000000: 0000 803f 0ad7 233c 0000 0000 0000 803f

Q f4 [2, 2]
3.3333333e-07 5e-05 5e-05 0.01
00000000: fcf4 b234 17b7 5138 17b7 5138 0ad7 233c

H f4 [1, 2]
1.0 0.0
00000000: 0000 803f 0000 0000

prior_Q f4 [2, 2]
1.0 0.0 0.0 1.0
00000000: 0000 803f 0000 0000 0000 0000 0000 803f

prior_Sigma f4 [2, 2]
0.0 0.0 0.0 0.0
00000000: 0000 0000 0000 0000 0000 0000 0000 0000

m1x_0 f4 [2]
29.427383 -0.7510694
00000000: 486b eb41 1646 40bf

m2x_0 f4 [2, 2]
0.0 0.0 0.0 0.0
00000000: 0000 0000 0000 0000 0000 0000 0000 0000

h_S f4 [1, 279, 1]
nan 0.5385745 0.5385745 0.5385745 0.5385745 0.37985653 0.5385745 0.5385745
0.5385745 0.5385745 0.5385745 0.5385745 0.5385745 0.37985653 0.37985653 0.37985653
0.37985653 0.29777396 0.37985653 0.5385745 0.5385745 0.5385745 0.5385745 0.6875984
0.5385745 0.5385745 0.5385745 0.5385745 0.5385745 0.5385745 0.5385745 0.5385745
0.5385745 0.5385745 0.5385745 0.5385745 0.5385745 0.5385745 0.5385745 0.5385745
0.5385745 0.5385745 0.5385745 0.5385745 0.5385745 0.5385745 0.5385745 0.5385745
0.5385745 0.5385745 0.5385745 0.5385745 0.5385745 0.5385745 0.5385745 0.5385745
0.5385745 0.5385745 0.5385745 0.5385745 0.5385745 0.5385745 0.5385745 0.5385745
0.5385745 0.5385745 0.5385745 0.5385745 0.5385745 0.5385745 0.5385745 0.5385745
0.5385745 0.5385745 0.5385745 0.5385745 0.5385745 0.5385745 0.5385745 0.5385745
0.5385745 0.5385745 0.5385745 0.5385745 0.5385745 0.5385745 0.5385745 0.5385745
0.5385745 0.5385745 0.5385745 0.5385745 0.5385745 0.5385745 0.5385745 0.5385745
0.5385745 0.5385745 0.5385745 0.5385745 0.5385745 0.5385745 0.5385745 0.5385745
0.5385745 0.5385745 0.5385745 0.5385745 0.5385745 0.5385745 0.5385745 0.5385745
0.5385745 0.5385745 0.5385745 0.5385745 0.5385745 0.5385745 0.5385745 0.5385745
0.5385745 0.5385745 0.5385745 0.5385745 0.5385745 0.5385745 0.5385745 0.5385745
0.5385745 0.5385745 0.5385745 0.5385745 0.5385745 0.5385745 0.5385745 0.5385745
0.5385745 0.5385745 0.5385745 0.5385745 0.5385745 0.5385745 0.5385745 0.5385745
0.5385745 0.5385745 0.5385745 0.5385745 0.5385745 0.5385745 0.5385745 0.5385745
0.5385745 0.5385745 0.5385745 0.5385745 0.5385745 0.5385745 0.5385745 0.5385745
0.5385745 0.5385745 0.5385745 0.5385745 0.5385745 0.5385745 0.5385745 0.5385745
0.5385745 0.5385745 0.5385745 0.5385745 0.5385745 0.5385745 0.5385745 0.5385745
0.5385745 0.5385745 0.5385745 0.5385745 0.5385745 0.5385745 0.5385745 0.5385745
0.5385745 0.5385745 0.5385745 0.5385745 0.5385745 0.5385745 0.5385745 0.5385745
0.5385745 0.5385745 0.5385745 0.5385745 0.5385745 0.5385745 0.5385745 0.5385745
0.5385745 0.5385745 0.5385745 0.5385745 0.5385745 0.5385745 0.5385745 0.5385745
0.5385745 0.5385745 0.5385745 0.5385745 0.5385745 0.5385745 0.5385745 0.5385745
0.5385745 0.5385745 0.5385745 0.5385745 0.5385745 0.5385745 0.5385745 0.5385745
0.5385745 0.5385745 0.5385745 0.5385745 0.5385745 0.5385745 0.5385745 0.5385745
0.5385745 0.5385745 0.5385745 0.5385745 0.5385745 0.5385745 0.5385745 0.5385745
0.5385745 0.5385745 0.5385745 0.5385745 0.5385745 0.5385745 0.5385745 0.5385745
0.5385745 0.5385745 0.5385745 0.5385745 0.5385745 0.5385745 0.5385745 0.5385745
00000000: 0000 c07f 05e0 093f 05e0 093f 05e0 093f
00000010: 05e0 093f 8e7c c23e 05e0 093f 05e0 093f
00000020: 05e0 093f 05e0 093f 05e0 093f 05e0 093f
00000030: 05e0 093f 8e7c c23e 8e7c c23e 8e7c c23e
00000040: 8e7c c23e d475 983e 8e7c c23e 05e0 093f
00000050: 05e0 093f 05e0 093f 05e0 093f 7306 303f
00000060: 05e0 093f 05e0 093f 05e0 093f 05e0 093f
00000070: 05e0 093f 05e0 093f 05e0 093f 05e0 093f
00000080: 05e0 093f 05e0 093f 05e0 093f 05e0 093f
00000090: 05e0 093f 05e0 093f 05e0 093f 05e0 093f
000000a0: 05e0 093f 05e0 093f 05e0 093f 05e0 093f
000000b0: 05e0 093f 05e0 093f 05e0 093f 05e0 093f
000000c0: 05e0 093f 05e0 093f 05e0 093f 05e0 093f
000000d0: 05e0 093f 05e0 093f 05e0 093f 05e0 093f
000000e0: 05e0 093f 05e0 093f 05e0 093f 05e0 093f
000000f0: 05e0 093f 05e0 093f 05e0 093f 05e0 093f
00000100: 05e0 093f 05e0 093f 05e0 093f 05e0 093f
00000110: 05e0 093f 05e0 093f 05e0 093f 05e0 093f
00000120: 05e0 093f 05e0 093f 05e0 093f 05e0 093f
00000130: 05e0 093f 05e0 093f 05e0 093f 05e0 093f
00000140: 05e0 093f 05e0 093f 05e0 093f 05e0 093f
00000150: 05e0 093f 05e0 093f 05e0 093f 05e0 093f
00000160: 05e0 093f 05e0 093f 05e0 093f 05e0 093f
00000170: 05e0 093f 05e0 093f 05e0 093f 05e0 093f
00000180: 05e0 093f 05e0 093f 05e0 093f 05e0 093f
00000190: 05e0 093f 05e0 093f 05e0 093f 05e0 093f
000001a0: 05e0 093f 05e0 093f 05e0 093f 05e0 093f
000001b0: 05e0 093f 05e0 093f 05e0 093f 05e0 093f
000001c0: 05e0 093f 05e0 093f 05e0 093f 05e0 093f
000001d0: 05e0 093f 05e0 093f 05e0 093f 05e0 093f
000001e0: 05e0 093f 05e0 093f 05e0 093f 05e0 093f
000001f0: 05e0 093f 05e0 093f 05e0 093f 05e0 093f
00000200: 05e0 093f 05e0 093f 05e0 093f 05e0 093f
00000210: 05e0 093f 05e0 093f 05e0 093f 05e0 093f
00000220: 05e0 093f 05e0 093f 05e0 093f 05e0 093f
00000230: 05e0 093f 05e0 093f 05e0 093f 05e0 093f
00000240: 05e0 093f 05e0 093f 05e0 093f 05e0 093f
00000250: 05e0 093f 05e0 093f 05e0 093f 05e0 093f
00000260: 05e0 093f 05e0 093f 05e0 093f 05e0 093f
00000270: 05e0 093f 05e0 093f 05e0 093f 05e0 093f
00000280: 05e0 093f 05e0 093f 05e0 093f 05e0 093f
00000290: 05e0 093f 05e0 093f 05e0 093f 05e0 093f
000002a0: 05e0 093f 05e0 093f 05e0 093f 05e0 093f
000002b0: 05e0 093f 05e0 093f 05e0 093f 05e0 093f
000002c0: 05e0 093f 05e0 093f 05e0 093f 05e0 093f
000002d0: 05e0 093f 05e0 093f 05e0 093f 05e0 093f
000002e0: 05e0 093f 05e0 093f 05e0 093f 05e0 093f
000002f0: 05e0 093f 05e0 093f 05e0 093f 05e0 093f
00000300: 05e0 093f 05e0 093f 05e0 093f 05e0 093f
00000310: 05e0 093f 05e0 093f 05e0 093f 05e0 093f
00000320: 05e0 093f 05e0 093f 05e0 093f 05e0 093f
00000330: 05e0 093f 05e0 093f 05e0 093f 05e0 093f
00000340: 05e0 093f 05e0 093f 05e0 093f 05e0 093f
00000350: 05e0 093f 05e0 093f 05e0 093f 05e0 093f
00000360: 05e0 093f 05e0 093f 05e0 093f 05e0 093f
00000370: 05e0 093f 05e0 093f 05e0 093f 05e0 093f
00000380: 05e0 093f 05e0 093f 05e0 093f 05e0 093f
00000390: 05e0 093f 05e0 093f 05e0 093f 05e0 093f
000003a0: 05e0 093f 05e0 093f 05e0 093f 05e0 093f
000003b0: 05e0 093f 05e0 093f 05e0 093f 05e0 093f
000003c0: 05e0 093f 05e0 093f 05e0 093f 05e0 093f
000003d0: 05e0 093f 05e0 093f 05e0 093f 05e0 093f
000003e0: 05e0 093f 05e0 093f 05e0 093f 05e0 093f
000003f0: 05e0 093f 05e0 093f 05e0 093f 05e0 093f

h_Sigma f4 [1, 279, 4]
nan nan nan nan 0.02059333 0.0 0.21301417 0.14442864
0.02059333 0.0 0.21301417 0.14442864 0.02059333 0.0 0.21301417 0.14442864
0.02059333 0.0 0.21301417 0.14442864 0.01370275 0.0 0.21526225 0.15054339
0.02059333 0.0 0.21301417 0.14442864 0.02059333 0.0 0.21301417 0.14442864
0.02059333 0.0 0.21301417 0.14442864 0.02059333 0.0 0.21301417 0.14442864
0.02059333 0.0 0.21301417 0.14442864 0.02059333 0.0 0.21301417 0.14442864
0.02059333 0.0 0.21301417 0.14442864 0.01370275 0.0 0.21526225 0.15054339
0.01370275 0.0 0.21526225 0.15054339 0.01370275 0.0 0.21526225 0.15054339
0.01370275 0.0 0.21526225 0.15054339 0.010094583 0.0 0.21643944 0.15374531
0.01370275 0.0 0.21526225 0.15054339 0.02059333 0.0 0.21301417 0.14442864
0.02059333 0.0 0.21301417 0.14442864 0.02059333 0.0 0.21301417 0.14442864
0.02059333 0.0 0.21301417 0.14442864 0.027005032 0.0 0.21092233 0.13873887
0.02059333 0.0 0.21301417 0.14442864 0.02059333 0.0 0.21301417 0.14442864
0.02059333 0.0 0.21301417 0.14442864 0.02059333 0.0 0.21301417 0.14442864
0.02059333 0.0 0.21301417 0.14442864 0.02059333 0.0 0.21301417 0.14442864
0.02059333 0.0 0.21301417 0.14442864 0.02059333 0.0 0.21301417 0.14442864
0.02059333 0.0 0.21301417 0.14442864 0.02059333 0.0 0.21301417 0.14442864
0.02059333 0.0 0.21301417 0.14442864 0.02059333 0.0 0.21301417 0.14442864
0.02059333 0.0 0.21301417 0.14442864 0.02059333 0.0 0.21301417 0.14442864
0.02059333 0.0 0.21301417 0.14442864 0.02059333 0.0 0.21301417 0.14442864
0.02059333 0.0 0.21301417 0.14442864 0.02059333 0.0 0.21301417 0.14442864
0.02059333 0.0 0.21301417 0.14442864 0.02059333 0.0 0.21301417 0.14442864
0.02059333 0.0 0.21301417 0.14442864 0.02059333 0.0 0.21301417 0.14442864
0.02059333 0.0 0.21301417 0.14442864 0.02059333 0.0 0.21301417 0.14442864
0.02059333 0.0 0.21301417 0.14442864 0.02059333 0.0 0.21301417 0.14442864
0.02059333 0.0 0.21301417 0.14442864 0.02059333 0.0 0.21301417 0.14442864
0.02059333 0.0 0.21301417 0.14442864 0.02059333 0.0 0.21301417 0.14442864
0.02059333 0.0 0.21301417 0.14442866 0.02059333 0.0 0.21301417 0.14442866
0.02059333 0.0 0.21301417 0.14442864 0.02059333 0.0 0.21301417 0.14442864
0.02059333 0.0 0.21301417 0.14442864 0.02059333 0.0 0.21301417 0.14442864
0.02059333 0.0 0.21301417 0.14442864 0.02059333 0.0 0.21301417 0.14442864
0.02059333 0.0 0.21301417 0.14442864 0.02059333 0.0 0.21301417 0.14442864
00000000: 0000 c07f 0000 c07f 0000 c07f 0000 c07f
00000010: 58b3 a83c 0000 0000 6320 5a3e 1ae5 133e
00000020: 58b3 a83c 0000 0000 6320 5a3e 1ae5 133e
00000030: 58b3 a83c 0000 0000 6320 5a3e 1ae5 133e
00000040: 58b3 a83c 0000 0000 6320 5a3e 1ae5 133e
00000050: 8081 603c 0000 0000 b56d 5c3e 0c28 1a3e
00000060: 58b3 a83c 0000 0000 6320 5a3e 1ae5 133e
00000070: 58b3 a83c 0000 0000 6320 5a3e 1ae5 133e
00000080: 58b3 a83c 0000 0000 6320 5a3e 1ae5 133e
00000090: 58b3 a83c 0000 0000 6320 5a3e 1ae5 133e
000000a0: 58b3 a83c 0000 0000 6320 5a3e 1ae5 133e
000000b0: 58b3 a83c 0000 0000 6320 5a3e 1ae5 133e
000000c0: 58b3 a83c 0000 0000 6320 5a3e 1ae5 133e
000000d0: 8081 603c 0000 0000 b56d 5c3e 0c28 1a3e
000000e0: 8081 603c 0000 0000 b56d 5c3e 0c28 1a3e
000000f0: 8081 603c 0000 0000 b56d 5c3e 0c28 1a3e
00000100: 8081 603c 0000 0000 b56d 5c3e 0c28 1a3e
00000110: c063 253c 0000 0000 4da2 5d3e 696f 1d3e
00000120: 8081 603c 0000 0000 b56d 5c3e 0c28 1a3e
00000130: 58b3 a83c 0000 0000 6320 5a3e 1ae5 133e
00000140: 58b3 a83c 0000 0000 6320 5a3e 1ae5 133e
00000150: 58b3 a83c 0000 0000 6320 5a3e 1ae5 133e
00000160: 58b3 a83c 0000 0000 6320 5a3e 1ae5 133e
00000170: a839 dd3c 0000 0000 06fc 573e 9011 0e3e
00000180: 58b3 a83c 0000 0000 6320 5a3e 1ae5 133e
00000190: 58b3 a83c 0000 0000 6320 5a3e 1ae5 133e
000001a0: 58b3 a83c 0000 0000 6320 5a3e 1ae5 133e
000001b0: 58b3 a83c 0000 0000 6320 5a3e 1ae5 133e
000001c0: 58b3 a83c 0000 0000 6320 5a3e 1ae5 133e
000001d0: 58b3 a83c 0000 0000 6320 5a3e 1ae5 133e
000001e0: 58b3 a83c 0000 0000 6320 5a3e 1ae5 133e
000001f0: 58b3 a83c 0000 0000 6320 5a3e 1ae5 133e
00000200: 58b3 a83c 0000 0000 6320 5a3e 1ae5 133e
00000210: 58b3 a83c 0000 0000 6320 5a3e 1ae5 133e
00000220: 58b3 a83c 0000 0000 6320 5a3e 1ae5 133e
00000230: 58b3 a83c 0000 0000 6320 5a3e 1ae5 133e
00000240: 58b3 a83c 0000 0000 6320 5a3e 1ae5 133e
00000250: 58b3 a83c 0000 0000 6320 5a3e 1ae5 133e
00000260: 58b3 a83c 0000 0000 6320 5a3e 1ae5 133e
00000270: 58b3 a83c 0000 0000 6320 5a3e 1ae5 133e
00000280: 58b3 a83c 0000 0000 6320 5a3e 1ae5 133e
00000290: 58b3 a83c 0000 0000 6320 5a3e 1ae5 133e
000002a0: 58b3 a83c 0000 0000 6320 5a3e 1ae5 133e
000002b0: 58b3 a83c 0000 0000 6320 5a3e 1ae5 133e
000002c0: 58b3 a83c 0000 0000 6320 5a3e 1ae5 133e
000002d0: 58b3 a83c 0000 0000 6320 5a3e 1ae5 133e
000002e0: 58b3 a83c 0000 0000 6320 5a3e 1ae5 133e
000002f0: 58b3 a83c 0000 0000 6320 5a3e 1ae5 133e
00000300: 58b3 a83c 0000 0000 6320 5a3e 1ae5 133e
00000310: 58b3 a83c 0000 0000 6320 5a3e 1ae5 133e
00000320: 58b3 a83c 0000 0000 6320 5a3e 1ae5 133e
00000330: 58b3 a83c 0000 0000 6320 5a3e 1ae5 133e
00000340: 58b3 a83c 0000 0000 6320 5a3e 1ae5 133e
00000350: 58b3 a83c 0000 0000 6320 5a3e 1ae5 133e
00000360: 58b3 a83c 0000 0000 6320 5a3e 1be5 133e
00000370: 58b3 a83c 0000 0000 6320 5a3e 1be5 133e
00000380: 58b3 a83c 0000 0000 6320 5a3e 1ae5 133e
00000390: 58b3 a83c 0000 0000 6320 5a3e 1ae5 133e
000003a0: 58b3 a83c 0000 0000 6320 5a3e 1ae5 133e
000003b0: 58b3 a83c 0000 0000 6320 5a3e 1ae5 133e
000003c0: 58b3 a83c 0000 0000 6320 5a3e 1ae5 133e
000003d0: 58b3 a83c 0000 0000 6320 5a3e 1ae5 133e
000003e0: 58b3 a83c 0000 0000 6320 5a3e 1ae5 133e
000003f0: 58b3 a83c 0000 0000 6320 5a3e 1ae5 133e

h_Q f4 [1, 279, 4]
nan nan nan nan 0.7606462 -0.1741844 0.25956827 0.35437256
0.7606462 -0.1741844 0.25956827 0.35437256 0.7606462 -0.1741844 0.25956827 0.35437256
0.7606462 -0.1741844 0.25956827 0.35437256 0.7606462 -0.1741844 0.25956827 0.35437256
0.7606462 -0.1741844 0.25956827 0.35437256 0.7606462 -0.1741844 0.25956827 0.35437256
0.7606462 -0.1741844 0.25956827 0.35437256 0.7606462 -0.1741844 0.25956827 0.35437256
0.7606462 -0.1741844 0.25956827 0.35437256 0.7606462 -0.1741844 0.25956827 0.35437256
0.7606462 -0.1741844 0.25956827 0.35437256 0.7606462 -0.1741844 0.25956827 0.35437256
0.7606462 -0.1741844 0.25956827 0.35437256 0.7606462 -0.1741844 0.25956827 0.35437256
0.7606462 -0.1741844 0.25956827 0.35437256 0.7606462 -0.1741844 0.25956827 0.35437256
0.7606462 -0.1741844 0.25956827 0.35437256 0.7606462 -0.1741844 0.25956827 0.35437256
0.7606462 -0.1741844 0.25956827 0.35437256 0.7606462 -0.1741844 0.25956827 0.35437256
0.7606462 -0.1741844 0.25956827 0.35437256 0.7606462 -0.1741844 0.25956827 0.35437256
0.7606462 -0.1741844 0.25956827 0.35437256 0.7606462 -0.1741844 0.25956827 0.35437256
0.7606462 -0.1741844 0.25956827 0.35437256 0.7606462 -0.1741844 0.25956827 0.35437256
0.7606462 -0.1741844 0.25956827 0.35437256 0.7606462 -0.1741844 0.25956827 0.35437256
0.7606462 -0.1741844 0.25956827 0.35437256 0.7606462 -0.1741844 0.25956827 0.35437256
0.7606462 -0.1741844 0.25956827 0.35437256 0.7606462 -0.1741844 0.25956827 0.35437256
0.7606462 -0.1741844 0.25956827 0.35437256 0.7606462 -0.1741844 0.25956827 0.35437256
0.7606462 -0.1741844 0.25956827 0.35437256 0.7606462 -0.1741844 0.25956827 0.35437256
0.7606462 -0.1741844 0.25956827 0.35437256 0.7606462 -0.1741844 0.25956827 0.35437256
0.7606462 -0.1741844 0.25956827 0.35437256 0.7606462 -0.1741844 0.25956827 0.35437256
0.7606462 -0.1741844 0.25956827 0.35437256 0.7606462 -0.1741844 0.25956827 0.35437256
0.7606462 -0.1741844 0.25956827 0.35437256 0.7606462 -0.1741844 0.25956827 0.35437256
0.7606462 -0.1741844 0.25956827 0.35437256 0.7606462 -0.1741844 0.25956827 0.35437256
0.7606462 -0.1741844 0.25956827 0.35437256 0.7606462 -0.1741844 0.25956827 0.35437256
0.7606462 -0.1741844 0.25956827 0.35437256 0.7606462 -0.1741844 0.25956827 0.35437256
0.7606462 -0.1741844 0.25956827 0.35437256 0.7606462 -0.1741844 0.25956827 0.35437256
0.7606462 -0.1741844 0.25956827 0.35437256 0.7606462 -0.1741844 0.25956827 0.35437256
0.7606462 -0.1741844 0.25956827 0.35437256 0.7606462 -0.1741844 0.25956827 0.35437256
0.7606462 -0.1741844 0.25956827 0.35437256 0.7606462 -0.1741844 0.25956827 0.35437256
0.7606462 -0.1741844 0.25956827 0.35437256 0.7606462 -0.1741844 0.25956827 0.35437256
0.7606462 -0.1741844 0.25956827 0.35437256 0.7606462 -0.1741844 0.25956827 0.35437256
00000000: 0000 c07f 0000 c07f 0000 c07f 0000 c07f
00000010: b6b9 423f 655d 32be 22e6 843e 5270 b53e
00000020: b6b9 423f 655d 32be 22e6 843e 5270 b53e
00000030: b6b9 423f 655d 32be 22e6 843e 5270 b53e
00000040: b6b9 423f 655d 32be 22e6 843e 5270 b53e
00000050: b6b9 423f 655d 32be 22e6 843e 5270 b53e
00000060: b6b9 423f 655d 32be 22e6 843e 5270 b53e
00000070: b6b9 423f 655d 32be 22e6 843e 5270 b53e
00000080: b6b9 423f 655d 32be 22e6 843e 5270 b53e
00000090: b6b9 423f 655d 32be 22e6 843e 5270 b53e
000000a0: b6b9 423f 655d 32be 22e6 843e 5270 b53e
000000b0: b6b9 423f 655d 32be 22e6 843e 5270 b53e
000000c0: b6b9 423f 655d 32be 22e6 843e 5270 b53e
000000d0: b6b9 423f 655d 32be 22e6 843e 5270 b53e
000000e0: b6b9 423f 655d 32be 22e6 843e 5270 b53e
000000f0: b6b9 423f 655d 32be 22e6 843e 5270 b53e
00000100: b6b9 423f 655d 32be 22e6 843e 5270 b53e
00000110: b6b9 423f 655d 32be 22e6 843e 5270 b53e
00000120: b6b9 423f 655d 32be 22e6 843e 5270 b53e
00000130: b6b9 423f 655d 32be 22e6 843e 5270 b53e
00000140: b6b9 423f 655d 32be 22e6 843e 5270 b53e
00000150: b6b9 423f 655d 32be 22e6 843e 5270 b53e
00000160: b6b9 423f 655d 32be 22e6 843e 5270 b53e
00000170: b6b9 423f 655d 32be 22e6 843e 5270 b53e
00000180: b6b9 423f 655d 32be 22e6 843e 5270 b53e
00000190: b6b9 423f 655d 32be 22e6 843e 5270 b53e
000001a0: b6b9 423f 655d 32be 22e6 843e 5270 b53e
000001b0: b6b9 423f 655d 32be 22e6 843e 5270 b53e
000001c0: b6b9 423f 655d 32be 22e6 843e 5270 b53e
000001d0: b6b9 423f 655d 32be 22e6 843e 5270 b53e
000001e0: b6b9 423f 655d 32be 22e6 843e 5270 b53e
000001f0: b6b9 423f 655d 32be 22e6 843e 5270 b53e
00000200: b6b9 423f 655d 32be 22e6 843e 5270 b53e
00000210: b6b9 423f 655d 32be 22e6 843e 5270 b53e
00000220: b6b9 423f 655d 32be 22e6 843e 5270 b53e
00000230: b6b9 423f 655d 32be 22e6 843e 5270 b53e
00000240: b6b9 423f 655d 32be 22e6 843e 5270 b53e
00000250: b6b9 423f 655d 32be 22e6 843e 5270 b53e
00000260: b6b9 423f 655d 32be 22e6 843e 5270 b53e
00000270: b6b9 423f 655d 32be 22e6 843e 5270 b53e
00000280: b6b9 423f 655d 32be 22e6 843e 5270 b53e
00000290: b6b9 423f 655d 32be 22e6 843e 5270 b53e
000002a0: b6b9 423f 655d 32be 22e6 843e 5270 b53e
000002b0: b6b9 423f 655d 32be 22e6 843e 5270 b53e
000002c0: b6b9 423f 655d 32be 22e6 843e 5270 b53e
000002d0: b6b9 423f 655d 32be 22e6 843e 5270 b53e
000002e0: b6b9 423f 655d 32be 22e6 843e 5270 b53e
000002f0: b6b9 423f 655d 32be 22e6 843e 5270 b53e
00000300: b6b9 423f 655d 32be 22e6 843e 5270 b53e
00000310: b6b9 423f 655d 32be 22e6 843e 5270 b53e
00000320: b6b9 423f 655d 32be 22e6 843e 5270 b53e
00000330: b6b9 423f 655d 32be 22e6 843e 5270 b53e
00000340: b6b9 423f 655d 32be 22e6 843e 5270 b53e
00000350: b6b9 423f 655d 32be 22e6 843e 5270 b53e
00000360: b6b9 423f 655d 32be 22e6 843e 5270 b53e
00000370: b6b9 423f 655d 32be 22e6 843e 5270 b53e
00000380: b6b9 423f 655d 32be 22e6 843e 5270 b53e
00000390: b6b9 423f 655d 32be 22e6 843e 5270 b53e
000003a0: b6b9 423f 655d 32be 22e6 843e 5270 b53e
000003b0: b6b9 423f 655d 32be 22e6 843e 5270 b53e
000003c0: b6b9 423f 655d 32be 22e6 843e 5270 b53e
000003d0: b6b9 423f 655d 32be 22e6 843e 5270 b53e
000003e0: b6b9 423f 655d 32be 22e6 843e 5270 b53e
000003f0: b6b9 423f 655d 32be 22e6 843e 5270 b53e
