NF_NCLT/trained_model/v1_2904NVP_4Aff_64hidd_cal2_200kiter.pth (torch, 316844 bytes, 57 tensors)

mask f8 [2]
1.0 0.0
00000000: 0000 0000 0000 f03f 0000 0000 0000 0000

scale f8 [2]
0.0 -0.16225438525130792
00000000: 0000 0000 0000 0000 daba 246f c0c4 c4bf

weight f8 [64, 2]
0.0618517132543861 0.5088863968849182 -0.013113943459486853 -0.2293461263179779 -0.1256050969512526 0.1286357045173645 2.765391230826086 0.06706058979034424
0.0039594014476326345 0.10802143812179565 -0.1568347562615741 -0.18243902921676636 -0.1683359370044828 -0.2909170985221863 -0.11321810999573223 0.5417738556861877
0.01312224013662458 -0.35952314734458923 0.1942848564516724 0.3876267075538635 0.05333091937444653 -0.21090450882911682 0.036445231101608105 -0.3506842851638794
0.012956493901955564 -0.4322277307510376 0.044355128570030836 -0.5208382606506348 0.08030552269405575 -0.4647144377231598 4.7970150800112625 0.026416659355163574
-0.003931533845484974 -0.387289822101593 -3.7139558342812893 -0.4082338511943817 -0.14611671275724872 0.6364657282829285 -0.003512348440852171 0.3856748938560486
-0.04574715360701711 -0.10396230220794678 0.0049387453559026845 -0.125355064868927 0.08442728030713686 0.612332284450531 0.04436248722673442 0.531830370426178
-0.1148502194558716 -0.34763985872268677 -5.287630196885815 -0.16525399684906006 -0.03605142260534564 0.6589418053627014 0.09670619890126168 0.478087842464447
-0.3195589009229056 0.36363035440444946 -0.10889511111559907 0.37314456701278687 0.2822544001728229 -0.6751108169555664 4.388599774052119 -0.2870905101299286
-0.054495017212333595 0.28753870725631714 -0.4380786528142155 0.003509998321533203 1.0614580754711846 -0.2521776556968689 0.15669688517128658 0.5191712975502014
0.10226975612453014 0.2441718578338623 0.07330657129680197 -0.1591576337814331 0.16978234283196067 -0.47670966386795044 0.013122396918691189 -0.13674283027648926
-0.061249892729297234 -0.5054658055305481 0.03926622323333117 0.6805692315101624 0.10666524112589797 0.04399287700653076 -3.573906774439603 0.1940205693244934
-0.003232852995282717 0.08289748430252075 0.03425571185436932 0.6792259812355042 -0.05499235455850626 -0.012526154518127441 -4.168610178523103 0.3237178921699524
0.013203654694554617 -0.20336377620697021 -0.03786822262078822 0.109494149684906 -0.04114228987999319 -0.3495384752750397 -0.003193949672648808 -0.2976799011230469
0.24050910765081307 0.2509026527404785 4.718345260846677 0.4356841444969177 -0.0001957553216723044 -0.2721027433872223 0.3151587658337894 -0.3151054382324219
0.013484440827722698 0.049746930599212646 -0.005223255969142251 0.5531360507011414 4.395985601789327 0.39660555124282837 0.003877835725104965 -0.21361514925956726
-0.2988407172830901 0.3325948119163513 0.04104115908145423 -0.4837026000022888 4.226908459225046 0.21770155429840088 -0.03341556230971824 -0.5019799470901489
00000000: 0021 421b 07ab af3f 0000 0020 cc48 e03f
00000010: 5f9f 3db2 7bdb 8abf 0000 00c0 365b cdbf
00000020: c2ea ceeb d313 c0bf 0000 0080 2277 c03f
00000030: 8758 0870 851f 0640 0000 0000 e22a b13f
00000040: 8948 abbb bb37 703f 0000 0000 4ba7 bb3f
00000050: fd81 824a 2913 c4bf 0000 0080 295a c7bf
00000060: a07f 1630 088c c5bf 0000 00c0 629e d2bf
00000070: 3821 bfaf dcfb bcbf 0000 0020 3656 e13f
00000080: 5080 e541 d5df 8a3f 0000 0060 6d02 d7bf
00000090: d1b3 4880 53de c83f 0000 0040 e0ce d83f
000000a0: 6b60 28b5 304e ab3f 0000 0040 ebfe cabf
000000b0: 3c67 5a07 f3a8 a23f 0000 0080 9c71 d6bf
000000c0: 9745 a32c ef88 8a3f 0000 0080 9ea9 dbbf
000000d0: 2a7f 3c25 b7b5 a63f 0000 0000 b5aa e0bf
000000e0: 66be a819 e78e b43f 0000 00a0 e1bd ddbf
000000f0: cf44 9cb8 2430 1340 0000 0000 f80c 9b3f
00000100: 9fb0 a114 831a 70bf 0000 0040 5bc9 d8bf
00000110: 5736 f879 2eb6 0dc0 0000 00e0 8020 dabf
00000120: 1980 58d3 f3b3 c2bf 0000 0060 ed5d e43f
00000130: 5c92 f0b5 edc5 6cbf 0000 00c0 e5ae d83f
00000140: e323 41c1 2b6c a7bf 0000 0000 469d babf
00000150: 1909 975c a63a 743f 0000 0080 a20b c0bf
00000160: 6033 cfb7 069d b53f 0000 00e0 3998 e33f
00000170: b1b7 9d0f aeb6 a63f 0000 0020 c104 e13f
00000180: 305b 80f0 d266 bdbf 0000 0040 bb3f d6bf
00000190: d1dd c387 8826 15c0 0000 0000 0b27 c5bf
000001a0: 5de3 2002 5575 a2bf 0000 0020 0d16 e53f
000001b0: b3f4 99c9 bcc1 b83f 0000 00c0 fd98 de3f
000001c0: 6c03 272d a773 d4bf 0000 0040 b845 d73f
000001d0: 8c8f efcc 8ce0 bbbf 0000 00c0 99e1 d73f
000001e0: 603d 79c2 7410 d23f 0000 0000 829a e5bf
000001f0: ba25 6319 ed8d 1140 0000 00e0 b05f d2bf
00000200: cba0 7159 c5e6 abbf 0000 00c0 0867 d23f
00000210: 376b ba0b 7b09 dcbf 0000 0000 00c1 6c3f
00000220: d794 8376 bbfb f03f 0000 00c0 ad23 d0bf
00000230: 1d0e 99be a40e c43f 0000 0020 0d9d e03f
00000240: 97bc ecc9 592e ba3f 0000 0000 0641 cf3f
00000250: 6139 4d2e 38c4 b23f 0000 0000 475f c4bf
00000260: 5f65 f384 6dbb c53f 0000 0040 6982 debf
00000270: b124 e34c eadf 8a3f 0000 0000 ca80 c1bf
00000280: 3cca 4f5c 255c afbf 0000 00a0 c62c e0bf
00000290: 9fca 3fd1 b31a a43f 0000 0020 39c7 e53f
000002a0: a374 41ca 694e bb3f 0000 0000 3c86 a63f
000002b0: 185e 596f 5c97 0cc0 0000 0080 aad5 c83f
000002c0: ac85 66bc c87b 6abf 0000 0000 c538 b53f
000002d0: 183f 3bf4 f689 a13f 0000 0020 38bc e53f
000002e0: 60b7 b738 f527 acbf 0000 0000 50a7 89bf
000002f0: 281e 8a25 a8ac 10c0 0000 0040 cbb7 d43f
00000300: 706a ce88 840a 8b3f 0000 0000 d307 cabf
00000310: 9a88 6db3 7663 a3bf 0000 0000 cf07 bc3f
00000320: 48c4 082b 9a10 a5bf 0000 00a0 d65e d6bf
00000330: 947a 73ac 322a 6abf 0000 0000 300d d3bf
00000340: a20c e09f 00c9 ce3f 0000 0000 ca0e d03f
00000350: d24a 6ae6 95df 1240 0000 00c0 3fe2 db3f
00000360: d065 c168 75a8 29bf 0000 00a0 216a d1bf
00000370: 3d72 13ac 8f2b d43f 0000 0000 b02a d4bf
00000380: b91b e102 bb9d 8b3f 0000 0000 6e78 a93f
00000390: c3c1 0e19 fb64 75bf 0000 0060 4ab3 e13f
000003a0: f87c e53f 7d95 1140 0000 0040 fc61 d93f
000003b0: 6f75 cb33 69c4 6f3f 0000 00c0 bd57 cbbf
000003c0: 616b dcd0 3420 d3bf 0000 00c0 3b49 d53f
000003d0: 51ed 16c8 5803 a53f 0000 00c0 fbf4 debf
000003e0: b33a eeb0 5ae8 1040 0000 0000 a5dd cb3f
000003f0: d56a 9836 d81b a1bf 0000 0040 3810 e0bf

bias f8 [64]
2.1191451648878012 -2.705616297769437 2.1189437582007256 -0.3523482822959442 -2.3497746977539733 2.764646093440341 -2.673762056186732 1.7278950188529503
2.842797184198749 -2.267578196375347 -1.219696774431596 -2.546368788918662 2.8071479119724145 1.4460565089789144 -1.6735864205082005 0.04458267356645543
2.75079413255326 0.9432266485383992 2.3140674426883256 2.612825380325817 -1.826761075994192 -2.284061679526363 2.6519822401150583 1.6476326885824613
1.8195919835544525 -0.4291201496552324 2.785776784081341 2.9810719652432325 2.4549909790609408 1.741711029869985 -3.4730417189605993 -0.29055788429245105
1.1985231255743705 -1.4986737742114118 -3.5536773195139078 -1.650577264383728 -1.6751596427526674 -1.9229298401206965 -2.8916217482119624 2.79327362193131
-2.5499031255840308 1.362209818916492 3.2838729716043207 0.7824189616404729 2.7376549144107303 1.4941290424918199 1.8129032886038434 1.3633769160155866
2.828115155154491 -2.252683430738323 -1.6503370329346712 2.4514620145684005 -4.030952089644681 -1.1029962987493243 2.467119680924078 -3.90378657755117
2.9538502159170794 1.9818863906014963 -1.0423968956660736 -2.5032238122025787 3.739528519845906 1.3690235662831893 -0.9518580116760971 2.6299847571764365
00000000: 695b 5561 02f4 0040 fd8d 5328 1aa5 05c0
00000010: 9948 fcc8 98f3 0040 a3d2 50cf df8c d6bf
00000020: a392 3ead 56cc 02c0 31b9 62c5 fe1d 0640
00000030: a1dc 645c dd63 05c0 cb50 4e3f 75a5 fb3f
00000040: 2b5b 3a73 0cbe 0640 3170 9409 0024 02c0
00000050: bc86 d3c3 e083 f3bf aeaf 7f99 f65e 04c0
00000060: 50a6 e7f6 0975 0640 c7b7 6326 0c23 f73f
00000070: 7ecc f18d 02c7 fabf a451 df49 8ad3 a63f
00000080: 70c2 aa5a a001 0640 0105 06a7 e92e ee3f
00000090: 7ead 98ca 3583 0240 e243 35fe 10e7 0440
000000a0: 6103 70d2 693a fdbf 87e6 3c21 c245 02c0
000000b0: 9bef f676 4237 0540 fd83 1418 b45c fa3f
000000c0: dee1 d67b 0c1d fd3f f0b9 345c b476 dbbf
000000d0: edae ac56 4549 0640 e3ef 2d42 3cd9 0740
000000e0: 8755 784f d2a3 0340 2bfc 8562 0cde fb3f
000000f0: 9ba2 c418 cac8 0bc0 c962 a818 8098 d2bf
00000100: 4977 bd95 262d f33f 41c6 f959 91fa f7bf
00000110: 1dcb de5f ee6d 0cc0 c2c9 a0b4 c368 fabf
00000120: 5e3a 9332 74cd fabf 6822 7d14 52c4 febf
00000130: 24c8 4795 0a22 07c0 aacb 37d7 9f58 0640
00000140: 10d0 229c 3366 04c0 2895 e885 9ccb f53f
00000150: 3712 4a31 5f45 0a40 f883 807d 9309 e93f
00000160: aa05 a99e b7e6 0540 3c19 d8da f3e7 f73f
00000170: 68d4 f5e0 a601 fd3f 5488 2650 64d0 f53f
00000180: 1daf a5d6 fa9f 0640 f118 fae3 7e05 02c0
00000190: 3b50 fdcd c767 fabf 13a9 df1d 989c 0340
000001a0: 2b11 93e7 b11f 10c0 5dcc 6b72 dfa5 f1bf
000001b0: 4f18 473e a9bc 0340 192b 0975 f43a 0fc0
000001c0: d12b d538 7ca1 0740 a455 0081 ceb5 ff3f
000001d0: 4367 055e a8ad f0bf 03d4 bf34 9a06 04c0
000001e0: 6294 b9ed 8dea 0d40 bf3b 4a41 85e7 f53f
000001f0: 98b3 d2ee 9e75 eebf 0e69 c872 350a 0540

weight f8 [64, 64]
0.04221767979563692 0.039182225409897485 -0.02364889374047565 0.06973772197788335 0.5180028687727489 -0.04292156582069248 -0.16942001030237638 -0.050991036185901416
0.033878529690535175 0.08928022773933747 0.08810941261459533 0.5516167279932432 -0.34885823352252915 0.055838089293306206 0.10205571215153639 0.04358632437264293
-0.7782934292330184 0.10289588674251367 0.09487236287035472 -0.9107830647961261 -0.05680174440936424 0.5391914500159292 -0.03667274553976837 -0.11477795890106673
-0.12288360558800736 0.11728902181542468 -0.46522201489033516 -0.05495485466289084 -0.012110928224106624 -0.04020566229051535 0.07711201743897508 0.04225932058316015
-0.11191281575133738 0.0322451608687084 0.07131138617645658 -0.11267852063072982 -0.0841614283873562 0.08356965751669483 -0.04140253287926917 -0.07727992506163102
0.11210926668854158 -0.0465359170970743 0.04075655421401263 0.009621894087110876 -0.9530360576152325 0.008947879013761966 -0.20699457027157145 -0.03508697409585495
-0.2883211897053523 0.3842195207732271 0.07373033284508175 -0.5809645000840215 -0.09144788639521574 -0.07871742898636037 -0.7497239729811127 -0.0038362190546809023
-0.2769576806157046 -0.6042800356076705 0.07154185282618633 0.5466373139925954 0.004159122339837605 -0.08537880142778605 0.12063567140266042 -0.34758512712012213
-0.06396582917398752 -0.3282958442869154 0.08680080586098697 -0.08443742033925689 -0.6954654714390804 -0.08595376416484811 0.04105844157868042 0.09881034795061211
0.08594048940104086 -0.07242929980232121 -0.011594164929289422 -0.31582586514547223 0.2279659498860761 0.001570669796328523 0.0015760632421958647 -0.10797450888755594
0.8713229741887365 -0.01523816674458611 0.024758442049244985 0.8288812300532088 0.08802870306620891 -0.8131343686755758 -0.12118592045440588 -0.05234329725233396
0.10697672242347953 0.05063265163979237 0.2514531595874645 -0.12352067044955269 -0.015516205246403026 -0.050080832570722315 0.009008049333831515 -0.1281369400575153
0.1621282810517035 -0.017466472267183137 0.11159525166096267 -0.12353620381210031 -0.1574739656652177 -0.03608733134110709 0.0818557841103726 0.2721453980937236
0.09584333270264915 -0.01879318843928163 -0.11968213491366622 -0.003625310516224643 0.563328384034887 -0.09923903241614133 0.06469997878939696 0.047215114323295344
0.31635425261105454 -0.6479326651910209 -0.15186599429099898 0.6981587360524046 0.045801041767782394 0.039913539501304184 0.6971699423097976 0.07920953849517402
0.299012671531491 0.5349448324077135 0.08226217833361629 -0.7146935295442658 0.10176423319159386 -0.07020066354507043 -0.07490710352072785 0.44242150015093784
0.0014003114104477533 0.2891518221474201 0.016681757587098014 0.16823094948934778 0.7646831141204194 -0.04372892647633033 -0.020288032062443378 -0.07218388876844137
-0.1208062259646202 0.1480979585648369 0.0051831995197578595 0.387834456716656 -0.29263854244232873 -0.0681022887698337 -0.010298846634934179 0.07437465152961564
-0.8363647609431815 -0.021038116508544882 -0.05743910890629667 -0.7303594892767754 0.04314171676108721 0.8156786227058628 0.009291211314850435 -0.01384257819106768
-0.07768999957974092 0.04240319085618215 -0.26852335290380835 0.06421010024389703 0.05699239816874724 0.008010030384556947 0.005542769867798802 -0.01688156465062606
-0.21165228981299275 -0.16860210428636305 0.04843414510837686 0.002546580259474699 0.20543692324738133 0.18962057535363375 -0.06510745680082575 -0.29207106426519763
-0.054326192240209153 -0.02203342242690197 0.04476284449930349 0.05763595722540938 -0.5859435327293745 0.09495446639072953 -0.15245553697558678 -0.09950662264604504
-0.2475021506345184 0.5678609865054601 0.14782129686558668 -0.6744298167939364 0.1574446198461962 -0.011052211668302449 -0.7196875668569959 -0.027510567612603037
-0.33495379295435196 -0.5178977209886001 -0.04204549502870361 0.7536259677970919 -0.04698062737854269 -0.06726468811938906 0.046943883325875485 -0.5030221923059675
0.035904438010097586 0.12151794097424613 -0.09399367409526281 -0.021446277588942433 0.05807084007544864 0.07914229242802098 -0.18313534457085215 0.04886773661334185
0.047205499197459706 -0.07788658006895526 -0.07900590723069821 0.026285124162226954 -0.023387166399358318 0.010376914973194757 0.0371911017913518 -0.06059534690790985
0.09686036262421636 -0.11331560540115376 -0.015506706060253431 -0.051069513907526176 -0.07112358155710467 -0.1558140548501924 -0.14617927000264544 0.017055095509546037
0.04668976125954026 -0.12050269148523769 -0.0442745706750067 -0.2046533303470939 0.13348125226869662 -0.04909195513642244 0.01572823100277228 0.056519144813734136
0.14054031200254133 0.06677732766931437 -0.03247899482184955 0.02473995047056618 -0.030723658780307302 0.15078201075098135 0.09735578134354313 0.048898542130678166
0.03112062759185814 0.021485080469173107 -0.04191976194961712 -0.10666911208576339 -0.08021278010112326 0.0557026927264711 0.05955855496557819 -0.0033187182428251727
0.01098783187107136 0.007144485930722414 -0.14498187757030023 0.02803184607912516 0.014112237878264038 -0.06936414622733506 -0.014851261071337786 -0.04927429417591918
0.016739627430533748 -0.01835834405496424 -0.030425204392695054 -0.04205508172918766 0.05413515978631751 0.15001682020949816 -0.09589404634308894 0.03160072029152583
00000000: ab0d 1244 8e9d a53f 23a5 7051 b10f a43f
00000010: a6c4 ce64 6a37 98bf eb4a 31d3 54da b13f
00000020: d09e 93c0 7a93 e03f 9c68 fcc2 d0f9 a5bf
00000030: 3fb2 c40d 8eaf c5bf a37d 9d41 7f1b aabf
00000040: 5065 1dd2 8658 a13f 14e4 51aa 11db b63f
00000050: cd42 a6a5 568e b63f 4d0a d51f d8a6 e13f
00000060: 9fda fa7b b153 d6bf ca91 c55e cf96 ac3f
00000070: 1e93 0fba 5220 ba3f 8979 775b f250 a63f
00000080: 8eeb 279f c7e7 e8bf 55b7 7384 6257 ba3f
00000090: 008a d21f 8e49 b83f b099 a186 2225 edbf
000000a0: de1c 3045 1e15 adbf 503d 836d 0e41 e13f
000000b0: 3be4 7e25 c5c6 a2bf 641e c89b 1662 bdbf
000000c0: cf0d 37cb 4c75 bfbf 4988 e040 a706 be3f
000000d0: 6353 d58e 32c6 ddbf 5e2d 11ef 0a23 acbf
000000e0: b586 2c45 9dcd 88bf 9eb6 4d29 d695 a4bf
000000f0: 366b 07f9 9cbd b33f 4c32 b67f 03a3 a53f
00000100: a0bf a77b 51a6 bcbf 1b4e c50e 7082 a03f
00000110: b6d6 7587 7641 b23f d915 12e1 7fd8 bcbf
00000120: a122 8276 9a8b b5bf 2ddd f831 d264 b53f
00000130: eb44 6079 b632 a5bf d5eb c6fe 9dc8 b3bf
00000140: f77d 0162 31b3 bc3f 04e8 0a44 8ed3 a7bf
00000150: 96c7 e406 0bde a43f 760f 70c3 a4b4 833f
00000160: dfb7 6b79 457f eebf 5683 dcfd 4353 823f
00000170: 690b e24e cc7e cabf 53bc 837c ebf6 a1bf
00000180: abcf 21b8 da73 d2bf e02b 0d79 0d97 d83f
00000190: 4df6 4ab8 fddf b23f 7bee ffdc 4297 e2bf
000001a0: 1114 5bf1 2069 b7bf 8122 1f4f d326 b4bf
000001b0: e664 1f21 bdfd e7bf 0429 2a6c 226d 6fbf
000001c0: b0b5 27b5 acb9 d1bf eef0 d115 4356 e3bf
000001d0: fa07 2f1e 9150 b23f 2be3 4b89 0d7e e13f
000001e0: f1e8 dfe6 2709 713f cd6d e797 62db b5bf
000001f0: 31ca 67b7 fae1 be3f b2a4 63b0 d53e d6bf
00000200: f021 5d88 1060 b0bf 2a00 a892 cc02 d5bf
00000210: 7b7b 70de 9338 b63f 346c ead6 b09d b5bf
00000220: 927f eacd 4041 e6bf d75d 0ede 1001 b6bf
00000230: cd3d 9caf 9c05 a53f 5c4a f48c a24b b93f
00000240: 5b34 6127 3200 b63f 7c53 ec01 ba8a b2bf
00000250: f5d9 9079 aebe 87bf 25f7 81b0 7d36 d4bf
00000260: ec5e aefd fc2d cd3f eb6c 1dda ddbb 593f
00000270: 87e6 3905 7dd2 593f 5445 79a8 37a4 bbbf
00000280: 449c ccb7 e0e1 eb3f bf4b 8d1e 3035 8fbf
00000290: 6f0d 9beb 465a 993f db18 ebed 3186 ea3f
000002a0: 6856 c790 0c89 b63f f5e2 165e 3205 eabf
000002b0: 4e5b 165d 0a06 bfbf 4b27 ba9b bdcc aabf
000002c0: 36fb 3d94 d362 bb3f a22a cedd 85ec a93f
000002d0: 9cdb 39fe ce17 d03f 75f8 f5f7 0c9f bfbf
000002e0: 6708 bbd0 f5c6 8fbf a76c 18e4 31a4 a9bf
000002f0: 5405 51ea cf72 823f ec6f 7a8f ca66 c0bf
00000300: 77d7 6f98 9ec0 c43f c5fa a71c bbe2 91bf
00000310: 43d1 45a4 8191 bc3f cab5 3e93 11a0 bfbf
00000320: e673 405e 1b28 c4bf b0e7 d1e7 097a a2bf
00000330: 9d13 be2b 80f4 b43f c471 2488 d46a d13f
00000340: d35d 7f4b 3089 b83f 11e7 ef86 853e 93bf
00000350: caa1 5e07 7da3 bebf 4967 5cc3 d3b2 6dbf
00000360: ead3 4a3f c906 e23f 6bc9 b6ae ba67 b9bf
00000370: 72cd f384 2d90 b03f 0979 ca57 942c a83f
00000380: 648f 3ae8 253f d43f 7c2d e048 ddbb e4bf
00000390: c75b 6d4b 5870 c3bf 7460 58fd 5057 e63f
000003a0: aadc 07f1 3b73 a73f e3c2 a625 8c6f a43f
000003b0: 7531 bf56 374f e63f eb36 5e89 1347 b43f
000003c0: 5e4f 540b 0623 d33f de5e 0ba0 441e e13f
000003d0: 7afe a355 220f b53f 18c6 01f7 c4de e6bf
000003e0: a6dd 7585 380d ba3f 4c65 15b2 abf8 b1bf
000003f0: 920f dca7 1c2d b3bf ae83 8c44 a250 dc3f
00000400: 9fdc 92ed 54f1 563f 34ed eca4 7681 d23f
00000410: e404 1bcd 0515 913f dbaa 1d7d 9788 c53f
00000420: 9f6b deb8 4878 e83f 23c6 354a a363 a6bf
00000430: 2b65 d5c8 62c6 94bf 9efd 8eb1 a47a b2bf
00000440: b8d5 ab25 28ed bebf 95f6 51b8 dff4 c23f
00000450: 6ee8 d086 fa3a 753f ab09 f79c 47d2 d83f
00000460: b3b0 5502 97ba d2bf 4f97 0ccf 266f b1bf
00000470: ba55 decb 8f17 85bf b899 f897 370a b33f
00000480: ece3 f807 80c3 eabf f49a 7e19 048b 95bf
00000490: 6121 87ac a868 adbf 5f8b 18dd 1a5f e7bf
000004a0: 7b11 2acd ab16 a63f 162d 120e 0a1a ea3f
000004b0: 7a6a e645 4507 833f aed1 fb64 7f59 8cbf
000004c0: 73d6 6be7 7de3 b3bf bf5a f2fb deb5 a53f
000004d0: aec8 bb92 7c2f d1bf ced3 9eb8 1270 b03f
000004e0: 20c1 828c 1b2e ad3f 8246 5514 9067 803f
000004f0: 19b3 fbf4 03b4 763f 9ea9 51a0 6649 91bf
00000500: 9366 6f17 6c17 cbbf d12d f9f5 c094 c5bf
00000510: d219 803a 5ccc a83f a26e cbdd 90dc 643f
00000520: be82 5ed1 c14b ca3f a072 e5ac 7c45 c83f
00000530: 786e afdd e1aa b0bf c11f 48d5 4ab1 d2bf
00000540: fcce f985 a4d0 abbf 1c51 f8f2 ed8f 96bf
00000550: 55a0 66d2 27eb a63f f1ac b6ce 7582 ad3f
00000560: 0603 cca6 0cc0 e2bf 5ddf c197 ef4e b83f
00000570: ecbe b3bc a983 c3bf 900b 001a 4479 b9bf
00000580: 2b1c 5585 26ae cfbf 51e3 b6cd ea2b e23f
00000590: fd51 d8e9 ceeb c23f a878 d2d6 ed94 e5bf
000005a0: 15d5 9532 2527 c43f 6185 4fbd 8aa2 86bf
000005b0: b3a2 5f38 ae07 e7bf 7819 c3f0 ba2b 9cbf
000005c0: 073f 9a08 e26f d5bf 0135 ca3d 9e92 e0bf
000005d0: b450 2fb4 fc86 a5bf 015b a334 b41d e83f
000005e0: 9fd6 4544 d80d a8bf 93fe a533 4238 b1bf
000005f0: 1c85 4357 0709 a83f 2ab9 23ff c118 e0bf
00000600: d2ba 1106 1162 a23f cd94 5cbe cc1b bf3f
00000610: 1721 452c f80f b8bf 5737 7653 03f6 95bf
00000620: 455a f30d 76bb ad3f 2275 b555 ab42 b43f
00000630: 4935 d69d fa70 c7bf bded 2a25 3105 a93f
00000640: b927 7db6 512b a83f d385 31fa 5ff0 b3bf
00000650: 0725 bf2b bb39 b4bf 229e 97d2 7cea 9a3f
00000660: 7a4e 532b cef2 97bf 9dc3 8bf3 7d40 853f
00000670: c5c8 ca4b b60a a33f 18bc 8472 5a06 afbf
00000680: ffec bf39 d7cb b83f a40b 5363 4002 bdbf
00000690: 9506 2edb fac1 8fbf e862 1c88 c825 aabf
000006a0: 7b1c c3b0 2735 b2bf 645b eb06 b7f1 c3bf
000006b0: a9db 0198 00b6 c2bf f04d c615 e476 913f
000006c0: 5ee6 556b b8e7 a73f a552 02af 43d9 bebf
000006d0: 9ceb 2f12 28ab a6bf 39db 6d90 1432 cabf
000006e0: 4ac4 8fe6 e915 c13f 2782 9dab 9422 a9bf
000006f0: 9594 1fb7 0f1b 903f 0550 25cd 13f0 ac3f
00000700: d307 e995 39fd c13f 1b38 74a6 5118 b13f
00000710: 3d33 2239 16a1 a0bf 98f5 b3f8 6d55 993f
00000720: 8f14 b3d6 0576 9fbf 2e13 802e d34c c33f
00000730: 8571 f2f8 4eec b83f 56f3 8bce 3a09 a93f
00000740: 13bd f3f6 15de 9f3f 483c de57 2f00 963f
00000750: 7269 42cd 8176 a5bf 9bd6 e6bb aa4e bbbf
00000760: a46c 4123 d388 b4bf 8f60 1e37 1085 ac3f
00000770: e560 8c7b 757e ae3f 3b8e 294a db2f 6bbf
00000780: 5253 52d4 c980 863f 37fb b456 8943 7d3f
00000790: b8ab 5623 c48e c2bf cb19 a058 61b4 9c3f
000007a0: dcbc 4881 e0e6 8c3f acb5 8f43 d9c1 b1bf
000007b0: 6795 d884 566a 8ebf bac1 09f4 7a3a a9bf
000007c0: 2e0a 7261 3124 913f 1495 4c9d 87cc 92bf
000007d0: 28eb 5ce7 c827 9fbf aa9f 5061 3e88 a5bf
000007e0: ba22 b189 9ab7 ab3f 9529 534c c033 c33f
000007f0: 87b7 ec20 838c b8bf 6042 5d38 f82d a03f

bias f8 [64]
-1.2683943902617325 0.7753341347862951 -0.879347237776333 -0.1007339465612496 -1.0671716987686672 1.0399900812659775 1.0213986133847712 -0.08178604612437108
0.20182153878337206 -0.3188116182964978 0.7356055108627331 -0.8391218956343721 -0.728803634331023 0.7194005492350474 0.8858313643787399 -1.1460903846422499
0.44798853026185526 -0.1393797600428987 0.07960110697086631 0.9045361893409706 0.10706517686202732 0.004521238492159723 1.0162851298656577 0.9948755278252684
1.0929851541873248 -0.7259594434292844 0.007632049093161755 1.0180750535732566 0.8835810846357475 -0.43421282084122736 -0.8751446783614504 -0.782237208612798
-1.0420960105555528 0.24494887551810646 -0.11569321512833781 0.9061737843226282 0.07536537095354777 0.33055118997135696 -0.3388258799768631 -0.7001398413211487
0.11351646137910025 -0.9298971653529737 -0.8134392469839312 -0.977206909829059 -0.8166830468572865 -1.0056918362256428 0.8354084571059197 -0.928263469072362
0.9328732689533158 0.9512316986797207 -0.6943190370687825 0.9227347842242916 0.09546361758763462 0.06184091256072984 -0.9812371822045208 0.4847049180870798
1.0297025468686938 0.07043109717828298 0.754765059932308 -1.0187680717066723 0.6564145686225311 0.04502033657032982 -0.004618321615487388 -1.0175216850107534
00000000: fea9 89ea 574b f4bf a125 0c88 89cf e83f
00000010: 2079 82d1 9c23 ecbf 32dc 132e b3c9 b9bf
00000020: ddd9 96a1 2213 f1bf 643a b3a3 cca3 f03f
00000030: 6dad 8a12 a657 f03f fd91 5f29 eeef b4bf
00000040: 34fb 59c6 49d5 c93f 51c5 8ad8 6867 d4bf
00000050: c035 7d91 148a e73f cd6d 6329 16da eabf
00000060: c50b d5ff 5b52 e7bf 030c f64c 5405 e73f
00000070: 4ee3 7804 bb58 ec3f c1c6 04df 6256 f2bf
00000080: 2e4c 9d15 d8ab dc3f dee5 8d2b 32d7 c1bf
00000090: 084f 2af7 bc60 b43f e792 e8e0 f5f1 ec3f
000000a0: 68b1 2999 9f68 bb3f ac3f 61b7 dc84 723f
000000b0: 20f2 4232 b442 f03f 6135 f333 05d6 ef3f
000000c0: 20f8 4300 de7c f13f 5409 784c 0f3b e7bf
000000d0: 9d04 1b94 c842 7f3f 8487 3f11 094a f03f
000000e0: e6fd bbd6 4b46 ec3f 2e16 4192 24ca dbbf
000000f0: 7996 9a69 2f01 ecbf fc99 9653 1608 e9bf
00000100: fc0c cadd 6cac f0bf 3268 c518 7c5a cf3f
00000110: cd65 580f 129e bdbf 5910 052a 60ff ec3f
00000120: cf13 7f1b 254b b33f d52c a52d c027 d53f
00000130: c47f 62be 52af d5bf 173b 23ab 8b67 e6bf
00000140: 534e 2e31 6a0f bd3f 2ab1 3ab3 b7c1 edbf
00000150: f385 62be b107 eabf 5083 e46c 4745 efbf
00000160: ca63 2e7c 4422 eabf db17 a752 5017 f0bf
00000170: ba4b 4284 aabb ea3f fb97 3797 55b4 edbf
00000180: 83f2 ae0a 19da ed3f 04ef 9775 7d70 ee3f
00000190: 956b a68e dc37 e6bf 95ff 2319 0b87 ed3f
000001a0: 6d2a 7fbb 4d70 b83f 4b9a 01b2 9ca9 af3f
000001b0: e700 e684 4b66 efbf 4d3d d9c6 6705 df3f
000001c0: 0c8b b660 a979 f03f 278b 00bb c507 b23f
000001d0: e953 120e 0927 e83f b806 e3bf df4c f0bf
000001e0: 4841 1b20 5901 e53f f6ee 72d2 e70c a73f
000001f0: 1c9a d044 a9ea 72bf d478 81d1 c447 f0bf

weight f8 [2, 64]
0.0055468082427978516 -0.04836799204349518 -0.0030634254217147827 0.05957312881946564 0.06799617409706116 0.04379737377166748 -0.035603031516075134 -0.10273642838001251
0.01537160575389862 -0.08528704941272736 -0.035134971141815186 -0.08653956651687622 0.08410017192363739 0.022969380021095276 0.03794780373573303 -0.03214484453201294
-0.09796121716499329 0.08636370301246643 0.06830459833145142 -0.12359417974948883 0.11286255717277527 0.043411120772361755 0.07535174489021301 0.06067550182342529
-0.0938350111246109 0.05369901657104492 0.09548315405845642 -0.09498025476932526 0.11960375308990479 0.05737631022930145 -0.06069199740886688 0.0929010808467865
-0.06165236234664917 0.007382437586784363 0.10455949604511261 0.01420353353023529 -0.025071680545806885 -0.023084044456481934 -0.025872573256492615 -0.0015516728162765503
-0.05718579888343811 -0.013322845101356506 -0.06264738738536835 -0.00044780969619750977 0.040210336446762085 0.007208079099655151 -0.058347687125205994 0.019824862480163574
0.11463019251823425 0.06450162827968597 -0.01613040268421173 -0.017802953720092773 -0.10359923541545868 -0.0014910101890563965 -0.1152501106262207 0.05686481297016144
-0.12246114015579224 -0.10407933592796326 -0.007394835352897644 -0.023185372352600098 0.07302063703536987 0.015250638127326965 -0.07860389351844788 0.11033537983894348
-0.22971699495033743 0.21998615505242863 -0.2536075792684516 -0.00018334293346215156 -0.19115240992164081 0.23204403053385378 0.20832309188490716 0.022406604706107253
0.03516172249046321 0.16996625682705074 0.1684066962224212 -0.19385149434705504 -0.11957325012863436 0.11157967311843006 0.20803018126871956 -0.2566885328350587
0.018669307145398727 -0.000104246071027233 5.509670279624257e-05 0.16829815307415916 0.08546535738769062 0.2586335917260656 0.23382094110517282 0.25909019888996454
0.2726663445699468 -0.11626477296692245 -1.6843406054152465e-05 0.222754869833008 0.1912072190963435 -0.21034057738648373 -0.2616034620045514 -0.11216554931062919
-0.2770234542707554 0.20862905768464446 0.09094726816866336 0.24780133448525343 0.023611268153302063 0.1353239159010846 -0.22782312545097402 -0.09676362577448958
0.086415577066882 -0.2011106042902088 -0.20701207083067677 -0.16821937495974484 -0.20417665510812846 -0.20793418392469018 0.15707798192635192 -0.16560755145298953
0.20530269421072944 0.21848885172352936 -0.12120964080871408 0.19085662093606195 -3.991008503193258e-05 -0.20650802354323092 -0.21404056979800265 0.0872391542970063
0.18391788979952037 4.450384857149039e-05 0.11390219521363325 -0.2234748084185393 0.1259465322029474 0.06134214300810013 -0.1377969574276157 -0.2220570895934824
00000000: 0000 0000 40b8 763f 0000 0080 b0c3 a8bf
00000010: 0000 0000 7818 69bf 0000 0080 5e80 ae3f
00000020: 0000 0080 3268 b13f 0000 0000 9c6c a63f
00000030: 0000 0080 8f3a a2bf 0000 0040 ef4c babf
00000040: 0000 0000 267b 8f3f 0000 0040 5fd5 b5bf
00000050: 0000 0000 36fd a1bf 0000 0000 7527 b6bf
00000060: 0000 00c0 9687 b53f 0000 0000 4985 973f
00000070: 0000 0000 e56d a33f 0000 0000 4a75 a0bf
00000080: 0000 0080 fc13 b9bf 0000 0080 ee1b b63f
00000090: 0000 0000 697c b13f 0000 0040 dea3 bfbf
000000a0: 0000 0080 8fe4 bc3f 0000 0080 fb39 a63f
000000b0: 0000 0080 404a b33f 0000 0000 dc10 af3f
000000c0: 0000 0040 9205 b8bf 0000 0000 707e ab3f
000000d0: 0000 0080 9571 b83f 0000 0040 a050 b8bf
000000e0: 0000 0000 5a9e be3f 0000 0080 6d60 ad3f
000000f0: 0000 0080 0513 afbf 0000 0080 5dc8 b73f
00000100: 0000 0000 e690 afbf 0000 0000 0c3d 7e3f
00000110: 0000 0040 69c4 ba3f 0000 0000 be16 8d3f
00000120: 0000 0000 64ac 99bf 0000 0000 58a3 97bf
00000130: 0000 0000 577e 9abf 0000 0000 306c 59bf
00000140: 0000 0000 7547 adbf 0000 0000 0249 8bbf
00000150: 0000 00c0 a809 b0bf 0000 0000 0059 3dbf
00000160: 0000 0000 7396 a43f 0000 0000 3886 7d3f
00000170: 0000 0080 bfdf adbf 0000 0000 f84c 943f
00000180: 0000 0080 6758 bd3f 0000 00c0 2d83 b03f
00000190: 0000 0000 7d84 90bf 0000 0000 f03a 92bf
000001a0: 0000 00c0 7a85 babf 0000 0000 c06d 58bf
000001b0: 0000 0000 0881 bdbf 0000 0080 621d ad3f
000001c0: 0000 0000 9d59 bfbf 0000 0080 f1a4 babf
000001d0: 0000 0000 0c4a 7ebf 0000 0000 e8bd 97bf
000001e0: 0000 0000 7bb1 b23f 0000 0000 ba3b 8f3f
000001f0: 0000 0080 621f b4bf 0000 0080 f03e bc3f
00000200: 0ed4 52d2 5d67 cdbf 8ef0 c29e 8128 cc3f
00000210: 5172 be48 1b3b d0bf 1aa5 6cce f707 28bf
00000220: cf1f 95a2 ae77 c8bf 9ffd 2f69 9eb3 cd3f
00000230: 0cda 52c1 54aa ca3f a861 b5c9 c1f1 963f
00000240: 5dcb 55a0 b700 a23f be73 3f4d 74c1 c53f
00000250: 43f2 59c2 598e c53f 972b 4032 20d0 c8bf
00000260: cd66 c73e 5a9c bebf b628 f146 7c90 bc3f
00000270: 31a7 90a4 bba0 ca3f 273a 72bd 956d d0bf
00000280: c38c 83fe 0b1e 933f 6d45 fadc d553 1bbf
00000290: 2140 034b f4e2 0c3f af21 b73b cb8a c53f
000002a0: 1ccc ebc2 0ee1 b53f e811 87e8 738d d03f
000002b0: 1855 9537 d8ed cd3f 0094 bc0e ef94 d03f
000002c0: 5f75 298a 5d73 d13f 34de 9135 87c3 bdbf
000002d0: 8921 ed0c 5ea9 f1be 918f 7a48 3b83 cc3f
000002e0: 4b92 6368 7a79 c83f 39c7 72a6 70ec cabf
000002f0: 861d 7572 1cbe d0bf 4aeb 06a6 e1b6 bcbf
00000300: 9757 1495 c0ba d1bf b41b e061 5bb4 ca3f
00000310: 4ee8 71f6 5148 b73f 1879 c241 f4b7 cf3f
00000320: 025f 2462 8d2d 983f 48b6 9448 4b52 c13f
00000330: e3ce 8ae4 4e29 cdbf 16d1 2440 80c5 b8bf
00000340: 8202 5ecd 541f b63f 3d12 2706 febd c9bf
00000350: b528 0c1d 5f7f cabf a5b9 0065 3688 c5bf
00000360: 0de6 25ec 7522 cabf b7a7 d65b 969d cabf
00000370: 60ce a59d 211b c43f 7f09 bbd4 a032 c5bf
00000380: 0038 b5d2 5b47 ca3f 33b9 5854 71f7 cb3f
00000390: c6bb 3b53 9807 bfbf 459e 9260 fd6d c83f
000003a0: 7511 7714 a4ec 04bf 4369 bddb da6e cabf
000003b0: 2b5a a66f ae65 cbbf 2ce7 a222 4e55 b63f
000003c0: 7f4c eb14 9f8a c73f fd8e e197 3455 073f
000003d0: 039a 62bb b128 bd3f 5599 d190 d29a ccbf
000003e0: 419a 6d16 041f c03f 6e35 2cc4 3c68 af3f
000003f0: b1e8 d1a8 54a3 c1bf c110 d3e0 5d6c ccbf

bias f8 [2]
0.008797243237495422 0.18884284796129983
00000000: 0000 0000 4a04 823f 69e4 09a0 002c c83f

weight f8 [64, 2]
0.04413623255943006 -0.599677562713623 0.04209573805572215 0.5642003417015076 0.03387038834526674 0.2900480031967163 -0.03046260705305695 -0.39471668004989624
-0.028605259541056322 0.3402710556983948 -0.041453733206863665 -0.002907395362854004 -0.07733132708996819 -0.33429622650146484 7.6140479241744545 -0.14593786001205444
-0.10466029957718094 -0.012415707111358643 -0.01571232725753449 0.10660070180892944 0.02817728552480936 -0.2867116928100586 -0.08419340791394973 -0.6305863261222839
-0.09765688396122725 -0.44617488980293274 -0.01276275645499295 -0.6627152562141418 0.08501334175343836 0.6386818289756775 2.1302940309563936 -0.2032288908958435
0.029218670731211697 -0.29913395643234253 1.5829059104698613 -0.13407349586486816 -0.03894137019252791 0.5532367825508118 0.028297884806500882 -0.293312132358551
0.03875620084643641 -0.6247209906578064 -0.012828227713913912 0.2822991609573364 -4.447448881770284 -0.045984506607055664 -1.6082623249986985 -0.5231494307518005
0.00316633273274564 0.5263660550117493 0.060258844220906396 0.23518067598342896 0.045468212465544514 -0.1121334433555603 0.028412999340588697 0.31744688749313354
-0.02874373705680459 -0.05300861597061157 0.013127265976171408 -0.49791204929351807 0.021125548088362242 -0.316193163394928 0.028177538878683617 -0.10386466979980469
-2.1332985246368343 0.5924983620643616 0.015445924316384195 -0.43173250555992126 -0.02848342110959098 -0.05149054527282715 0.013264568819675058 0.012000501155853271
-0.046286706837884536 -0.25232619047164917 0.01518979561711359 0.6208685040473938 -0.08111305533474147 0.30654412508010864 0.07864666337080926 -0.05704110860824585
-0.012716986720506203 0.4768204092979431 0.026267142927257174 0.17185944318771362 -0.03640660777681567 0.13243430852890015 0.0131260514687081 0.6321256756782532
-0.07347351855565033 0.3686230778694153 0.01429706907011015 -0.10231566429138184 -0.03298252398911913 0.23438799381256104 -0.02970629044602198 -0.11179417371749878
0.015039205415662093 0.35522180795669556 -0.08015765449556321 0.6431270241737366 0.03152089791285703 -0.016870975494384766 -0.046990672411883226 -0.28783994913101196
-0.003056705470831907 -0.022855281829833984 0.07470883969171871 -0.28447023034095764 -0.014926427177919607 -0.33489614725112915 0.1976058265192528 0.6563542485237122
-0.10498923416405632 0.4868625998497009 0.07043389912926336 0.5608789324760437 -0.0312759654863121 -0.18323922157287598 -0.09180865513385814 0.5578575730323792
-0.04016669652815223 -0.4303434193134308 0.1088227068488042 0.26550012826919556 0.015045426791320322 -0.056875407695770264 0.06918255253521682 -0.6155707240104675
00000000: 59a3 d236 0699 a63f 0000 0000 8f30 e3bf
00000010: 8928 8094 928d a53f 0000 00e0 ed0d e23f
00000020: a9d1 7da4 7557 a13f 0000 0080 2590 d23f
00000030: 48d4 2cf4 9631 9fbf 0000 00c0 0943 d9bf
00000040: 65c4 e378 b24a 9dbf 0000 0040 00c7 d53f
00000050: 6557 d778 6c39 a5bf 0000 0000 40d1 67bf
00000060: ebc4 ce60 fccb b3bf 0000 0000 1c65 d5bf
00000070: 1d06 a2fa c874 1e40 0000 0080 17ae c2bf
00000080: 49a1 df73 04cb babf 0000 0000 686d 89bf
00000090: e752 dc6e e416 90bf 0000 0000 2f4a bb3f
000000a0: e0c4 469f 81da 9c3f 0000 0000 7c59 d2bf
000000b0: c379 87fd b28d b5bf 0000 0060 c32d e4bf
000000c0: adbd d7a2 0a00 b9bf 0000 0020 218e dcbf
000000d0: 52e7 a52c 5c23 8abf 0000 00a0 f634 e5bf
000000e0: 1a00 8e32 6fc3 b53f 0000 00e0 1470 e43f
000000f0: e392 ce98 d70a 0140 0000 0080 6703 cabf
00000100: 8e80 e4cc 7feb 9d3f 0000 00c0 0225 d3bf
00000110: 7fcf e125 9553 f93f 0000 0000 5229 c1bf
00000120: a86d e08e 1ff0 a3bf 0000 00a0 1db4 e13f
00000130: a6da 28e7 1efa 9c3f 0000 0040 a0c5 d2bf
00000140: 6428 4e4e dad7 a33f 0000 00e0 b6fd e3bf
00000150: 48a7 f993 af45 8abf 0000 0080 3011 d23f
00000160: 2f57 270a 30ca 11c0 0000 0000 488b a7bf
00000170: 2222 9446 71bb f9bf 0000 00e0 a3bd e0bf
00000180: 8af8 21f1 47f0 693f 0000 00a0 fdd7 e03f
00000190: 5a75 724a 3fda ae3f 0000 0080 661a ce3f
000001a0: 9a1c 180b 9c47 a73f 0000 0000 c7b4 bcbf
000001b0: 5ae0 cb1b 4c18 9d3f 0000 00c0 0c51 d43f
000001c0: 2bc5 7e8a ff6e 9dbf 0000 0000 f223 abbf
000001d0: 79ab 6dd0 77e2 8a3f 0000 0080 cadd dfbf
000001e0: 6c2e 9988 efa1 953f 0000 0040 823c d4bf
000001f0: 4de4 dc9f 92da 9c3f 0000 0000 e096 babf
00000200: ae5c 1fd1 fe10 01c0 0000 0020 bff5 e23f
00000210: 5fe6 5cde 1ca2 8f3f 0000 0060 81a1 dbbf
00000220: b757 9308 c22a 9dbf 0000 0000 f85c aabf
00000230: 7257 354a 742a 8b3f 0000 0000 b893 883f
00000240: 066d 3728 e4b2 a7bf 0000 00c0 1c26 d0bf
00000250: 6175 44db d31b 8f3f 0000 00a0 27de e33f
00000260: 82fc f03f d3c3 b4bf 0000 0040 6b9e d33f
00000270: 57fd 1d0f 3022 b43f 0000 0000 7e34 adbf
00000280: a4c1 8b10 5d0b 8abf 0000 00c0 3984 de3f
00000290: bee4 531f c6e5 9a3f 0000 0080 7dff c53f
000002a0: 5bfa 840b e3a3 a2bf 0000 0080 9bf3 c03f
000002b0: e00b 45ce d4e1 8a3f 0000 00a0 5f3a e43f
000002c0: a18d 5117 29cf b2bf 0000 0040 8597 d73f
000002d0: 289f ad20 c847 8d3f 0000 0000 5c31 babf
000002e0: ebdf bedb 15e3 a0bf 0000 0000 6d00 ce3f
000002f0: 14f8 cd67 536b 9ebf 0000 0000 8b9e bcbf
00000300: 1342 58fb dfcc 8e3f 0000 0040 f4bb d63f
00000310: 771f 9548 3685 b4bf 0000 0020 7f94 e43f
00000320: cc40 5ad3 8123 a03f 0000 0000 a046 91bf
00000330: cbc1 7352 290f a8bf 0000 0040 f86b d2bf
00000340: deb7 fb40 600a 69bf 0000 0000 6067 97bf
00000350: a8b2 3257 1e20 b33f 0000 00a0 c234 d2bf
00000360: cb31 9a24 bf91 8ebf 0000 0040 f06e d5bf
00000370: 4e1a 33d1 254b c93f 0000 00a0 da00 e53f
00000380: 5dad 2a0f 93e0 babf 0000 00c0 c128 df3f
00000390: 193a 4abd f407 b23f 0000 0060 b8f2 e13f
000003a0: f53d d441 6703 a0bf 0000 0000 6274 c7bf
000003b0: 5e27 4aa3 c580 b7bf 0000 0020 f8d9 e13f
000003c0: 461b f4af ba90 a4bf 0000 0020 bf8a dbbf
000003d0: b551 fa0e cedb bb3f 0000 0040 f4fd d03f
000003e0: 2446 2f00 23d0 8e3f 0000 0000 c61e adbf
000003f0: e4b1 97a0 f2b5 b13f 0000 0060 c1b2 e3bf

bias f8 [64]
2.155062937408638 1.5812893903737077 -2.3457589281644977 -0.9433266687499984 1.947849547838209 -1.8071524750494379 1.3062949791798768 -0.6964725729618894
1.9211734433834335 -2.330294918357676 -1.862244862872305 1.4262141955478636 1.74167861152021 -0.047972908621473534 -1.459555489079954 -4.438286197367379
-2.308601757869824 -5.227555155378846 -1.3423571323065626 -1.8720283908180924 1.491402796666376 -0.026844433573943054 1.0118123971702846 4.673987534077733
-1.6755719626669154 -1.074109354528443 -0.7980939141875226 -1.872616866336596 1.923194283775898 0.11255494512472815 2.224416181863302 -1.694769201984881
4.421544554002922 -0.31354741708627004 1.4889221308139826 -2.097518994121788 -1.7144472130319799 2.860118113780794 1.3815416533254588 -1.2821445438458827
0.0858387140472484 2.0462079393974806 -1.269936625670113 -2.384279206507194 1.0274994427650754 -0.1672497285201974 -0.9697180703024751 1.597181839897949
0.25772790231651627 1.3406812472225784 -1.6529429149133568 -1.4337780754430576 2.1002572281957077 -1.1529044318245316 -2.6985576620391387 1.2752419464409959
1.8221590543943216 -1.0489191658584875 -1.276935004490343 1.6856988184458856 -1.203829444674547 -1.8588818000548066 2.339639298663936 -0.7580715074120887
00000000: 32ef 27a3 913d 0140 6dab 921a f64c f93f
00000010: db21 c641 1dc4 02c0 503a f768 bb2f eebf
00000020: 5be5 9749 642a ff3f 8e90 b3b6 18ea fcbf
00000030: eb1a 6890 95e6 f43f 4fd5 6dd9 8049 e6bf
00000040: ac68 545d 20bd fe3f b70c 83a9 71a4 02c0
00000050: 8de3 f244 c1cb fdbf 1e81 eff9 c5d1 f63f
00000060: adf3 4964 eadd fb3f 6217 3fb3 e78f a8bf
00000070: 23bb 44db 565a f7bf a4ec cf18 cec0 11c0
00000080: e24f cc32 0478 02c0 aa8d f937 04e9 14c0
00000090: cbf1 ec78 4b7a f5bf 96f4 bb0a d4f3 fdbf
000000a0: 3785 cd2d c9dc f73f 7e71 1e71 1b7d 9bbf
000000b0: 2e8a 3832 6230 f03f 291a c3c9 29b2 1240
000000c0: a3fb db8b 24cf fabf f46f 604a 8d2f f1bf
000000d0: 274e 923f fc89 e9bf b0a8 6d1a 3df6 fdbf
000000e0: fabe 8a5e 67c5 fe3f 0554 50a0 66d0 bc3f
000000f0: 5a5e 0eb6 9acb 0140 77b0 8c4f c61d fbbf
00000100: 71ff 2460 a9af 1140 0d5f 882f 2911 d4bf
00000110: e12f 2203 a0d2 f73f 67ef d309 b8c7 00c0
00000120: 1a0d 6b33 606e fbbf f315 0b9b 85e1 0640
00000130: 8b83 b16b cb1a f63f a801 49ff a983 f4bf
00000140: e749 90a5 86f9 b53f ca38 a444 a25e 0040
00000150: 82ee 3311 a951 f4bf 8ed9 03fa 0013 03c0
00000160: fa58 7541 a370 f03f 0d2b 2169 7068 c5bf
00000170: 6f42 c930 ee07 efbf 5e07 828b 0e8e f93f
00000180: e9d4 ed2b 9d7e d03f 48e7 f22d 6e73 f53f
00000190: 0f53 1b45 7472 fabf fdfe 7b47 c1f0 f6bf
000001a0: 2e4e 62a9 53cd 0040 e298 e1ea 4b72 f2bf
000001b0: 67a0 4666 a596 05c0 2f39 6719 6467 f43f
000001c0: 0abe ab40 9027 fd3f 2828 9876 5fc8 f0bf
000001d0: 4b75 3666 536e f4bf 4018 0253 9ff8 fa3f
000001e0: a16c eda9 e242 f3bf 10d7 a5d7 fabd fdbf
000001f0: 7795 01cf 94b7 0240 b2a8 8b2d 1f42 e8bf

weight f8 [64, 64]
0.35280233171749165 -0.011895109989547972 -0.6656342491257864 -0.2636286219681892 0.7429870617301836 0.058595716991536505 0.4695861191684671 0.10397262620931208
0.06265085854394584 -0.694623052820794 -0.21587127823441665 -0.11837810228965197 0.08912454058506439 0.02551410302810596 -0.07366455943784547 -0.09797693471297422
-0.8326738055353076 0.022860627933293045 -0.3303737871381176 -0.4509506256789698 0.25304297242431106 -0.12798878367807193 -0.061241937544398606 0.09652828403221604
-0.7081754729696768 -0.40031883641783916 -0.13099205973605135 -0.3125153300398276 0.3436025785968793 0.2260751155441156 0.3800621559469814 -0.1406279212040248
0.1019564474038591 -0.1705265020298689 0.17492283348395885 -0.10709516957177591 -0.10407346682358527 0.6423564374945635 0.1047612333962069 0.024264895076584015
0.049494738854930616 0.41742122045571045 -0.16329299865589236 -0.6662501661840883 0.11666857092935908 -0.08955497313495259 0.02088682955871786 0.3315561858061779
0.14634054798471652 -0.021344901205210973 -0.27730834622831213 -0.41396604706371826 0.7873565013523918 0.08933290719198848 -0.6477824618423942 0.30297461348280486
-0.11950252358025089 -0.07814063296688877 -0.0231838659925269 0.13388951785682088 0.03939550368926339 -0.019158662840139784 0.6276200329185275 -0.018333663652613713
4.475002900219132 6.484238971962457 0.07109858494252021 -2.099705574424872 -0.2271679567343425 -6.25155055049178 -0.2034319907825968 0.2006978384476777
-0.04473025716626782 -0.07875117672175944 0.03735718604638786 -0.16850294072084493 -0.2414058147100187 -0.593038002446097 0.20539600441094974 0.11904256330874707
0.05008451250277973 0.23410167274325522 -2.8647532474078514 0.1437065294499322 5.6806710247437975 -0.6557911305505285 -0.15932727958670298 -0.01740287790845512
0.2538803205630025 0.28569188245514326 0.3548726349465026 0.04320940857013285 -0.07522070942420031 0.5721204580843054 0.37916191523084136 0.16209831683166134
-0.15358668763972116 0.5397153724798401 -0.2526632819440464 0.08044320484301758 -5.561814426503268 0.2171398409752719 -0.1631328440187187 0.06756248214655299
-0.664127177297774 0.22472698390141144 -1.3162313119850388 0.049747670030735366 -0.15244639794287015 0.5388416088877144 -2.019153491160314 -0.27337797182095497
0.7927672661288633 -0.11082035326441833 0.05077620903185645 -2.765254157198295 -0.11324598412768619 0.1511444842547257 -0.27494188466834363 0.1150911948779053
-0.15361911501978875 0.1182460319268282 -1.7108513784246042 -0.0659242862104205 -4.762571132962373 0.20954015687426297 0.2799215001976656 0.20635260868048558
-0.003295621519802457 -0.12184826603725114 -0.3578060004683365 0.020534565970531018 -0.02686347746906083 0.18305857972788547 0.08267421518125596 -0.13445395661880427
0.1302915143212687 -0.6549496690985199 -0.021421059090226045 0.160664323516601 0.2234223521218614 -0.033733118900335306 -0.20162686151604736 -0.15565600709158603
0.12692022015324303 -0.21569524301913437 -0.11077525838010623 9.411551570591461e-05 0.15625059190468915 -0.062050872851049065 0.1373757670091335 0.11382035389876011
0.15016222461051645 0.036129759227626415 -0.02511739804823519 -0.06146345681514569 -0.0024824970085630185 0.18972691433969274 0.6835503031257022 -0.055455825888119564
0.12116022788587262 -0.11985664917921679 -0.10177441595164714 0.023351774853643207 0.12016146954880909 1.1011967628537243 0.1020318105153202 -0.008664482339096757
-0.061281543037402984 0.18045944157279786 -0.3031902198579843 0.04861772122865725 -0.06515551167060529 -0.09078795865685042 0.1490759042381134 0.09769602833967515
0.13865420457965077 0.07633723429385945 0.013525699978153593 0.0802044500000871 -0.07048050847263489 -0.13013658333504732 -0.8132815716495568 -0.08616149127313877
0.10438205837950465 0.07407335189837086 0.1588199102139936 0.1876607821306143 0.16652470612698922 -0.2007625161385905 0.8265412175073862 -0.03512869805643849
-0.2719631320576626 -0.09519657323578898 0.7152848354975879 0.23947289468294755 -0.7420679249794436 -0.07787457766943134 -0.5402209961603504 -0.008860212911634668
-0.10621287486442625 0.5757674353719461 0.43037821457570075 -0.1145311549594258 0.0569911518539488 0.19816335632086068 0.04256895025855103 -0.047977287265586074
0.9136228618471451 -0.05631351740383835 0.2069122083335492 0.3490691888794628 -0.30760632139955185 -0.010090394675300993 -0.13193647859887087 -0.1436292453400772
0.5219973211762647 0.21264580969861863 0.19019000758815063 0.4287870757192852 -0.36151008273504354 -0.266101325070007 -0.45945737732088027 0.3085345117182516
-0.0925895715465087 0.1924417137440017 -0.35790552078041526 0.11643637357023043 0.22224211124128618 -0.7872865123834062 0.03096520539120277 -0.07915983357729299
0.14206875867283839 -0.33931857495735873 0.3073120111595268 0.5847606077668841 -0.02922403382129522 0.035303669916839066 0.10541993188474358 -0.2816723056275207
-0.12790552600528474 -0.14481477260860692 0.22489675879097124 0.3835167795428579 -0.7513077853475856 0.05877489581965428 0.6447151603744132 -0.18113673615344045
-0.10682015042888343 0.048656800254539126 0.1079252626180338 -0.23412076269534152 0.0950922230328556 0.06822869774406559 -0.7081319478278674 -0.016115139864778263
00000000: 8677 2b3b 5094 d63f a875 19a3 765c 88bf
00000010: f7f7 6232 e04c e5bf 9925 6995 4adf d0bf
00000020: c56e 6fcd 8cc6 e73f db21 5400 4200 ae3f
00000030: e7fb 1ef0 b20d de3f dc8b 3f35 f39d ba3f
00000040: c237 83fc e209 b03f 3837 dd1f 5a3a e6bf
00000050: fccd 1488 aba1 cbbf 7187 e5fd 064e bebf
00000060: ea78 15ab ddd0 b63f 9cb5 5e78 5e20 9a3f
00000070: 4ae8 a839 aedb b2bf e2c3 5a32 0415 b9bf
00000080: 0052 6089 43a5 eabf 87aa 5bc5 c668 973f
00000090: 38b0 cd18 d824 d5bf f2b8 5903 60dc dcbf
000000a0: 08e2 c226 db31 d03f 3e79 13bc ef61 c0bf
000000b0: 1832 cb6d 1a5b afbf 99af 0edf 13b6 b83f
000000c0: b27d 079c 5fa9 e6bf 0ccb 98e5 d29e d9bf
000000d0: f50e 4d0a 59c4 c0bf dd42 814c 4000 d4bf
000000e0: 7d45 79ab 95fd d53f 67c7 d985 07f0 cc3f
000000f0: 9354 8f38 f052 d83f 6ce5 3c81 1800 c2bf
00000100: 7746 3757 d119 ba3f 7ee7 a8fa cfd3 c5bf
00000110: a391 9114 df63 c63f 61cf deca 966a bbbf
00000120: e57d 6308 8fa4 babf 4741 6d16 2f8e e43f
00000130: ef48 53d7 a1d1 ba3f fddf 2d8b e5d8 983f
00000140: 3177 69d9 5f57 a93f 2de0 a07e 07b7 da3f
00000150: 3e48 72f4 c8e6 c4bf 1ee3 56de eb51 e5bf
00000160: ddd6 9cd0 fddd bd3f 340c cf20 13ed b6bf
00000170: 34be 7c67 5b63 953f f7bc b46f 3738 d53f
00000180: 5c27 d67d 49bb c23f 0c70 7312 70db 95bf
00000190: 2c57 7d81 6bbf d1bf 9bc1 7272 6b7e dabf
000001a0: 823f f342 0632 e93f 27a0 d87a 85de b63f
000001b0: 6a22 1149 a2ba e4bf 2052 1ba2 ef63 d33f
000001c0: bd0f 91a6 b797 bebf efde 1447 0601 b4bf
000001d0: ea55 eee8 82bd 97bf cf72 3cae 4a23 c13f
000001e0: f3df e8bf a52b a43f a07e 5519 549e 93bf
000001f0: 7662 769b 7615 e43f c821 3757 0fc6 92bf
00000200: 09c9 0729 67e6 1140 121c 5057 dcef 1940
00000210: 79b8 1e51 8433 b23f db11 ab6f 32cc 00c0
00000220: 2fc3 6ff0 d613 cdbf aa9c ae77 9601 19c0
00000230: e98a af39 0f0a cabf 8a5d 417e 77b0 c93f
00000240: c771 575f e2e6 a6bf fe9d 8a80 0929 b4bf
00000250: 55fd ad28 7b20 a33f 7082 d61d 8191 c5bf
00000260: ba33 9fbf 62e6 cebf 2351 39d5 2afa e2bf
00000270: f048 d690 6a4a ca3f 603a 3ecc 9279 be3f
00000280: f898 785e ada4 a93f b082 2f2a 0bf7 cd3f
00000290: e9cf 25c0 03eb 06c0 6fc4 1abe f964 c23f
000002a0: 0b70 3ad3 01b9 1640 9915 57ae 3dfc e4bf
000002b0: b3bf 9717 d664 c4bf 2e73 e45d 0fd2 91bf
000002c0: 41a1 7a3e 933f d03f 3b29 f89a c648 d23f
000002d0: fdcb 55b6 3bb6 d63f ba5e 6029 8b1f a63f
000002e0: ce77 f516 aa41 b3bf 3707 1b90 cf4e e23f
000002f0: 3388 7356 3044 d83f 35aa c33c a3bf c43f
00000300: a8bc 4184 baa8 c3bf 4161 3e2c 5945 e13f
00000310: 9861 369d a22b d0bf e776 fc05 ed97 b43f
00000320: 9802 f147 4c3f 16c0 1adf d201 3dcb cb3f
00000330: f65f fb7a 89e1 c4bf 1d8b 415b c64b b13f
00000340: 951e 5ca3 8740 e5bf e050 3193 dac3 cc3f
00000350: 9026 6f90 480f f5bf 461d abcf 8678 a93f
00000360: 6360 c712 5d83 c3bf 3ab2 fcc1 303e e13f
00000370: 291a 11f2 3927 00c0 6bbd 1a52 067f d1bf
00000380: 079c 2b75 595e e93f d278 0001 b95e bcbf
00000390: 64d2 69da 56ff a93f 965b 5292 3d1f 06c0
000003a0: ca53 3b56 b0fd bcbf 8423 6cd4 b358 c33f
000003b0: 79df bcd8 a598 d1bf f7e3 0ed6 9d76 bd3f
000003c0: 5075 8689 caa9 c3bf 74eb 0138 5f45 be3f
000003d0: 3367 eab1 a55f fbbf bb30 49fd 69e0 b0bf
000003e0: cac9 7372 df0c 13c0 30a1 7c3c 36d2 ca3f
000003f0: 74f5 32de 3bea d13f 650d dd24 c369 ca3f
00000400: 11b1 b854 6bff 6abf 154d b4ad 7231 bfbf
00000410: 7fbd 9423 4be6 d6bf 97ba 1f65 0307 953f
00000420: 84ec be74 1982 9bbf 2a7c 97aa 766e c73f
00000430: c90b 6d2a 232a b53f be6e 3f89 c935 c1bf
00000440: 9b63 7a70 64ad c03f b8bb 2902 59f5 e4bf
00000450: d9eb f3f0 66ef 95bf 49a2 9107 a690 c43f
00000460: 7686 c787 1a99 cc3f 5723 f0a4 7745 a1bf
00000470: 0c70 1ab4 e8ce c9bf f130 f139 89ec c3bf
00000480: b530 61f9 eb3e c03f 11c1 55d7 e69b cbbf
00000490: 4dd1 f26f c45b bcbf 1abc 7d3f fcab 183f
000004a0: 4c0b 1bf7 0400 c43f d3c1 2acb 21c5 afbf
000004b0: 2e98 4875 8795 c13f 2044 9da9 5423 bd3f
000004c0: b5fc e509 8438 c33f 820b 978c 997f a23f
000004d0: 1b0d b60c 60b8 99bf 161f d761 2378 afbf
000004e0: 90b1 da6e 2c56 64bf d246 21b6 f848 c83f
000004f0: 9c10 a3e2 a4df e53f 4cd1 1fbd b464 acbf
00000500: c581 5850 5b04 bf3f 50d1 6ee4 ecae bebf
00000510: 7ff2 145c e30d babf d126 3315 87e9 973f
00000520: 3d91 f3ed e6c2 be3f 5daf 2e7f 809e f13f
00000530: d2a1 50b9 c11e ba3f 33f9 4322 afbe 81bf
00000540: 235c 635e 4b60 afbf a2a0 e783 4b19 c73f
00000550: 3374 b0f3 7767 d3bf eec2 5d05 6ce4 a83f
00000560: 8086 c717 08ae b0bf f940 4d31 e13d b7bf
00000570: 7a83 a952 eb14 c33f a701 ab5e 9b02 b93f
00000580: dead 0fc5 6bbf c13f fb5b c244 d68a b33f
00000590: d350 7eb8 5cb3 8b3f 7d79 be61 4788 b43f
000005a0: 193a e5b6 020b b2bf 65f6 b7c8 50a8 c0bf
000005b0: 1794 1513 6706 eabf 2056 31f3 ad0e b6bf
000005c0: 6875 0757 c8b8 ba3f 2a9a e89f 78f6 b23f
000005d0: 2a50 29f8 3554 c43f 1313 ffbc 4405 c83f
000005e0: 904d 657b ae50 c53f 3bf9 890c 96b2 c9bf
000005f0: 19b0 3f91 0673 ea3f 625f 9b82 63fc a1bf
00000600: e9f1 790d d867 d1bf f62d bd78 cd5e b8bf
00000610: 1f2e f905 9de3 e63f 058a 783d 0ca7 ce3f
00000620: 3750 a63b 05bf e7bf 5caf 479c 96ef b3bf
00000630: 40e1 e38a 7d49 e1bf 934e 87a5 4d25 82bf
00000640: 33f4 f457 c430 bbbf 15c7 20d4 af6c e23f
00000650: 45dd 2011 518b db3f e980 ecec e951 bdbf
00000660: 6587 bfba f12d ad3f d8f3 54b7 6a5d c93f
00000670: 73fd 5ef2 98cb a53f 9652 839f 7a90 a8bf
00000680: 825d 1003 663c ed3f 0bf9 2417 20d5 acbf
00000690: 15c6 f767 197c ca3f 98d3 914b 2657 d63f
000006a0: 5b0d 9d6c d2af d3bf 65bd 12d9 45aa 84bf
000006b0: 92a3 5d66 4be3 c0bf aa0d be6f 7162 c2bf
000006c0: 3ea7 e1b9 33b4 e03f a2bc 2457 fa37 cb3f
000006d0: 18fd 4e6b 2558 c83f 065b ca58 3f71 db3f
000006e0: 6d5c a12f fb22 d7bf bb44 26da cd07 d1bf
000006f0: 77f1 5fea bf67 ddbf 1f1a 6189 07bf d33f
00000700: 272f be3d f3b3 b7bf ce55 7519 eea1 c83f
00000710: a6d2 b38e ece7 d6bf da89 8c30 c6ce bd3f
00000720: 06a4 c9f3 6d72 cc3f 9b98 e87b 7331 e9bf
00000730: eb65 e0c1 57b5 9f3f f30b 5fa0 d143 b4bf
00000740: 7f3e 2420 4f2f c23f e27f 9741 65b7 d5bf
00000750: 2a48 66ff ffaa d33f 9821 cbe0 5bb6 e23f
00000760: fb21 14b6 e7ec 9dbf ed75 7197 5213 a23f
00000770: 24a1 caf7 ccfc ba3f cbfb 3647 eb06 d2bf
00000780: ddce 9551 355f c0bf 4a73 2a5c 4a89 c2bf
00000790: 53e7 fdbf 6ac9 cc3f eea4 66f6 898b d83f
000007a0: c689 e99f b60a e8bf d810 be3e be17 ae3f
000007b0: 5a64 21b0 81a1 e43f f20c f112 7d2f c7bf
000007c0: bc56 a5bc 9058 bbbf e27a a44b 8be9 a83f
000007d0: 7f4e 5b71 fda0 bb3f 23a8 8b4d abf7 cdbf
000007e0: 89b1 07c4 f657 b83f 409d 7599 6f77 b13f
000007f0: 0e8d a554 04a9 e6bf b43d c2ba 7c80 90bf
