NF_NCLT/trained_model/v1_2201NVP_4Aff_64hidd_cal_200kiter.pth (torch, 316787 bytes, 57 tensors)

mask f8 [2]
00000000: 0000 0000 0000 f03f 0000 0000 0000 0000
1.0 0.0

scale f8 [2]
00000000: 0000 0000 0000 0000 82cd f953 793f cdbf
0.0 -0.22849957085018607

weight f8 [64, 2]
00000000: bda2 ba53 f935 d03f 0000 0080 2878 c4bf
00000010: 966f ca53 0a6b be3f 0000 00c0 f840 dc3f
00000020: 95f8 d780 599f 96bf 0000 0080 8476 e3bf
00000030: d525 a742 434e e1bf 0000 0000 4414 94bf
00000040: aa43 ac40 8314 bebf 0000 0000 fac8 bdbf
00000050: cd53 ba8e 93a8 d3bf 0000 0000 c4c5 acbf
00000060: 0921 7416 50b5 dbbf 0000 00e0 f33e e23f
00000070: 83ee f4cb 556a 9d3f 0000 0060 44c0 e1bf
00000080: 0995 b568 1b7b d4bf 0000 0040 d9ff de3f
00000090: 06bb 2290 0f91 9dbf 0000 0060 21f0 e13f
000000a0: 5131 e006 a498 c0bf 0000 0080 2ebd e3bf
000000b0: 54f9 d589 fd95 9bbf 0000 0060 dced e13f
000000c0: 6637 c007 8d6d c03f 0000 0080 40ec c7bf
000000d0: d545 00a9 2afc a6bf 0000 0040 ebf3 d33f
000000e0: 5242 b82b 7f87 ab3f 0000 0000 d2ff e0bf
000000f0: a777 5e35 a536 b13f 0000 0000 44aa 9bbf
00000100: 5e06 be08 a360 dd3f 0000 0000 9b8e e1bf
00000110: 99db 0592 7957 64bf 0000 0080 216d d13f
00000120: 3bf0 c842 429b 6a3f 0000 0080 4e8a c63f
00000130: f5fe e8c7 0591 b4bf 0000 00e0 b669 e43f
00000140: 17ee a5f0 75ee b63f 0000 0080 d313 ccbf
00000150: 7e44 feed 0a48 de3f 0000 0020 bf74 e0bf
00000160: e570 8fd8 2b36 9b3f 0000 00a0 734b e63f
00000170: 9927 0398 2c07 c93f 0000 0000 2c1c 993f
00000180: af6b 6e85 986e b93f 0000 0060 7e4e e53f
00000190: 7e5b 8404 b9e4 b3bf 0000 00c0 8b73 d43f
000001a0: 78f0 54df 58ab b0bf 0000 00c0 737e e1bf
000001b0: 6036 8fd6 cf45 ddbf 0000 0000 ca87 bcbf
000001c0: 7c76 198b 0a8f 69bf 0000 0000 ec40 95bf
000001d0: 4971 384c 7ec3 a1bf 0000 0000 cd69 c6bf
000001e0: 75a8 c283 75d8 643f 0000 0000 9863 83bf
000001f0: 22e2 ebc0 2b79 6c3f 0000 00e0 3dff e13f
00000200: ce77 4827 deba df3f 0000 00c0 3982 d43f
00000210: ca95 6dce 405f a33f 0000 00a0 5e40 e03f
00000220: 131a d34a c747 cebf 0000 0000 c297 dbbf
00000230: 2313 d9a0 d604 a33f 0000 0040 1671 d23f
00000240: 1cfc 6ad6 2b12 c83f 0000 0000 e0ee 99bf
00000250: 6671 a091 82fa dbbf 0000 0040 56c4 de3f
00000260: 67e2 f571 9f2e d0bf 0000 0000 d81b 833f
00000270: aa6f 87e6 ccff bf3f 0000 0000 b0de e1bf
00000280: 5d18 d39c cefe d8bf 0000 0040 1e16 d83f
00000290: 6f7e 624c 480c cbbf 0000 0000 599a c3bf
000002a0: 1b14 2f96 ce8f a4bf 0000 0000 4759 ca3f
000002b0: 3149 332c 50c0 d93f 0000 0000 00d1 c7bf
000002c0: 2b81 2801 86fa d2bf 0000 0080 e0b3 ca3f
000002d0: 14bd e72c 19a1 debf 0000 00c0 adbf d43f
000002e0: ea77 2dc2 100a c0bf 0000 0000 81af d13f
000002f0: 8491 535c c8f6 d5bf 0000 0020 4bd9 e03f
00000300: d211 16dc 9073 a3bf 0000 0020 57ec dcbf
00000310: ae89 bede 8c78 953f 0000 00e0 7822 d7bf
00000320: a2ff 3086 e89d a13f 0000 0080 cbf0 cc3f
00000330: 8d4f f475 eb67 a8bf 0000 00c0 3b8f d73f
00000340: 4a75 2237 1b54 debf 0000 0020 aa52 e2bf
00000350: 33de 6d6f c23a a2bf 0000 00a0 429b dcbf
00000360: cc02 9c53 f3a2 a5bf 0000 00c0 f02f d83f
00000370: ea0d 6a90 7b68 e0bf 0000 00e0 4348 e33f
00000380: 929e c8be f0b2 e0bf 0000 00c0 636d d53f
00000390: b26c fa5c d631 6cbf 0000 0020 475d d2bf
000003a0: 3b5f 5c6e 3955 df3f 0000 0080 f647 e2bf
000003b0: 5efc 530e 4677 c03f 0000 0000 5dce d9bf
000003c0: a0a6 f3c2 f3f1 a0bf 0000 0080 2979 e0bf
000003d0: dfa1 408c f460 99bf 0000 0080 7ac1 c0bf
000003e0: c903 0250 bfb1 6bbf 0000 0080 5878 c4bf
000003f0: 337b 9ef5 864b e03f 0000 00e0 2e4b e3bf
0.2532943074861967 -0.1599169373512268 0.11882080598519304 0.4414655566215515 -0.02209224556826735 -0.6082174777984619 -0.5408035566153396 -0.01960855722427368
-0.11750049904755025 -0.11634790897369385 -0.30716408670678846 -0.05619633197784424 -0.43294145767914977 0.5701846480369568 0.02872594888070391 -0.5547201037406921
-0.3200138590385256 0.4843657612800598 -0.02887367551073352 0.560562789440155 -0.1296582254002581 -0.6168434619903564 -0.026939355409461754 0.560285747051239
0.12834322813472027 -0.18689733743667603 -0.04489262879372872 0.31176263093948364 0.05376813324631215 -0.5312280654907227 0.06724007180170465 -0.02701669931411743
0.4590232453702806 -0.5486578941345215 -0.0024831175252830293 0.2722858190536499 0.003247861305025549 0.17609578371047974 -0.08033786898249302 0.6379045844078064
0.08957612157058069 -0.219355046749115 0.47314713708426115 -0.5142512917518616 0.02657383450774455 0.6967104077339172 0.19553143904186923 0.02452152967453003
0.09934380776978345 0.6658317446708679 -0.07770878181723437 0.31955236196517944 -0.06511455013691314 -0.546686053276062 -0.4573859782511587 -0.11144697666168213
-0.0031199651646563447 -0.020755469799041748 -0.034694620899446145 -0.1751037836074829 0.0025446219643372966 -0.00946730375289917 0.0034757475435720645 0.5624074339866638
0.49578050457227796 0.3204483389854431 0.0378360988604914 0.507857620716095 -0.2365655055384229 -0.4311375617980957 0.03714628900028163 0.288152277469635
0.1880545422518204 -0.025325298309326172 -0.4371649191032446 0.4807334542274475 -0.25284563187555026 0.009330451488494873 0.12499695423269822 -0.5584335327148438
-0.3905521899690763 0.3763499855995178 -0.21131232957576482 -0.15314781665802002 -0.04015966018008773 0.2058495283126831 0.40236286465109844 -0.186065673828125
-0.2965407382307769 0.20861440896987915 -0.4785826624419809 0.3241991400718689 -0.12530717355087911 0.2763369083404541 -0.3431874181390173 0.52652508020401
-0.03799107252692448 -0.4519250690937042 0.020967675299866144 -0.3614790141582489 0.03440786970213529 0.22609847784042358 -0.047667844914172176 0.3681172728538513
-0.4738834417747354 -0.5725908875465393 -0.0356045495054186 -0.44697633385658264 -0.04225883861181998 0.3779260516166687 -0.5127542324630074 0.602571427822113
-0.5218433119052455 0.3348016142845154 -0.003441733053319484 -0.2869432270526886 0.48957668092178935 -0.5712845325469971 0.12863994311917087 -0.40322041511535645
-0.033095948741743486 -0.5147902965545654 -0.024783917484599512 -0.13090449571609497 -0.003380654961859329 -0.15992265939712524 0.5092196271178636 -0.6029276251792908

bias f8 [64]
00000000: 437d c8b5 e577 0fc0 510d dafe e3f8 0bc0
00000010: 75e2 26ba e04a 06c0 12e9 80e5 bd91 03c0
00000020: 675f b302 f2ed 0340 0177 0304 aefb 00c0
00000030: 84e8 f28c bcd7 01c0 7b86 3268 e388 1240
00000040: 2a89 d920 68eb 1140 2621 b2b9 5985 f0bf
00000050: 4ff0 cd15 1c04 02c0 8878 b3c1 464e f1bf
00000060: fcb0 d74d 1716 f1bf a489 1aeb aa46 fbbf
00000070: 811d ae14 4202 fd3f 7411 7b4f 7763 0540
00000080: 1a7b 3102 3174 0140 1f84 517e 815b 0240
00000090: 2b6e fd85 71be 09c0 317a c07c 7b90 00c0
000000a0: c2c0 6a17 c5e6 06c0 4434 bef1 15cc 0240
000000b0: ffa9 26be 75b0 fc3f 19b9 e52d 64c1 05c0
000000c0: 5431 1b88 dbcf 0140 6e1d 75ae a738 02c0
000000d0: ff4a 7ad0 6881 02c0 bce5 5af0 c59f 02c0
000000e0: 95b8 ca09 6d5e 0240 e989 c032 3620 04c0
000000f0: 0494 a847 a6f8 fcbf 9401 bbd7 a14e 03c0
00000100: f82b d720 c2d7 0340 e79a 53a9 1133 0740
00000110: 01a8 e224 f5aa 0d40 eee2 eded 6288 e9bf
00000120: 80fe 6c87 c0a1 00c0 ac61 9789 c130 03c0
00000130: 9edd df3a 26c5 0d40 b17c 7b34 654b 0140
00000140: 45f3 b6ee a10d ffbf e711 c370 80d0 05c0
00000150: faf3 4130 ab08 08c0 fc8c bbad 9d77 0140
00000160: 1db8 bfb9 39ea 1340 7673 74be 1583 02c0
00000170: 2a92 99f6 f003 0d40 9cf1 71e1 6ca9 01c0
00000180: 4de4 b9e6 b334 03c0 6b03 e859 fec7 0840
00000190: bd4f 0304 3fab 0240 52a6 84ad 0202 0a40
000001a0: a226 7195 8d12 01c0 7d74 e53a ee31 04c0
000001b0: 1dbe 9f4d 4140 08c0 e9f9 1835 ce45 01c0
000001c0: 8070 7638 ebda 05c0 3dc3 d132 9bf6 fe3f
000001d0: a336 15da 950a 0240 277f c469 c180 0040
000001e0: 6c78 dac1 bda6 f5bf 6bcc f7fe 0472 e3bf
000001f0: c0e0 a48d 7242 0040 6ee4 c58e 3aad 0140
-3.933543605977009 -3.496528616933269 -2.7865614455334318 -2.4461629800763456 2.4911842547407335 -2.1228905023152724 -2.2303401004438133 4.633679988941021
4.479889405515033 -1.0325562719099906 -2.2520066932175165 -1.0816104475448203 -1.0678933182453525 -1.704752844213183 1.8130513007943991 2.673567410414927
2.1817341014242517 2.2946805828692187 -3.217989966198521 -2.070548033355657 -2.862680609650938 2.3496512304468826 1.7930810382628122 -2.7194293580752285
2.2264929421709585 -2.2776635770311975 -2.31318819878777 -2.32801425721547 2.2961064114561602 -2.5157283749588157 -1.81070545188527 -2.413394627947307
2.480350739065667 2.899936030258107 3.708475387732506 -0.797898735719256 -2.0789805011880276 -2.398806643421457 3.7212643241470706 2.161814126986052
-1.9408282589713093 -2.726807480767309 -3.0042327661635655 2.183406216894239 4.978735830618487 -2.314006317070773 3.626924444734205 -2.2077272045991787
-2.400733759448974 3.0976531051568847 2.3336162866125663 3.250981670008323 -2.1340591120868604 -2.5243801690363044 -3.031374556004961 -2.1590847156760344
-2.731893960108266 1.9352066025860062 2.255168632290251 2.062868906315902 -1.353208310355991 -0.6076683978884722 2.032445055574584 2.209584346212572

weight f8 [64, 64]
00000000: 5d0d 03c5 3b19 c2bf ba85 e089 04b8 ad3f
00000010: ec2d eebd 337a bb3f a0d3 e0e8 e472 b3bf
00000020: 129d f308 5acb ae3f c253 6e5f 7c0c 863f
00000030: 4687 68e6 b0b3 b2bf 9902 1c63 84bd a0bf
00000040: eabd 6a78 cd3f 92bf 4e21 e9c0 1a4c 933f
00000050: 5e2a f5f4 f7a0 8bbf cf21 f7b0 0773 a53f
00000060: 5920 a420 5cdd a33f 3b14 8385 0872 c0bf
00000070: 48f1 187a b8fa a0bf 2c06 d3e8 84e2 853f
00000080: 1740 187c 906b b5bf 0c6e b012 724f 68bf
00000090: 98d8 c5eb 0a06 b6bf fdab ddac ad3a c3bf
000000a0: 7d14 25f1 867d adbf 9761 be90 8eab c33f
000000b0: cccd 4032 5e49 84bf abfa 0017 871a c0bf
000000c0: c423 51ad a148 afbf 9dc0 71b8 fc0b 6dbf
000000d0: a8f4 c1f8 b9b6 633f 2811 8c51 6ace 7b3f
000000e0: ca1f 7fcd 3fcb b23f 1238 5dd5 826c b53f
000000f0: fdcc 6ff8 0f5d b4bf 36c7 367b e8d9 b33f
00000100: dbf5 76ee a99c b03f 8cc6 acd0 01a4 913f
00000110: ee3f 8e6d 8bb4 b23f ec5b a10e 7bc0 c3bf
00000120: fc69 5c13 90fa b63f 0b2c eadd 158c b23f
00000130: 77ae 785c 551b b3bf 0edc 2306 c5cd bfbf
00000140: 6616 1ae3 5796 a13f f320 1d24 fdc9 933f
00000150: a083 8afe c49f bcbf 49ba 56cc 4de4 a33f
00000160: 2823 34c6 5270 b13f 79ec 7304 b2f5 b5bf
00000170: e45b 9742 c730 973f c1d3 e127 1244 723f
00000180: 6a9e c0fc d6b7 c1bf a063 497f 640e 763f
00000190: b33d 2636 a2e2 bd3f b105 f25d 3290 babf
000001a0: 2690 4581 6305 a73f d7e9 5492 d082 b1bf
000001b0: 0a0a 5f89 47a5 c83f e47c 4c8c 03f9 a5bf
000001c0: 4fec 6f69 3d61 a9bf 61ef 9d65 eac1 98bf
000001d0: 5603 3543 d988 ab3f 8ab2 b87f 7dfc 703f
000001e0: f47b 7c7e c8e5 973f dfef 907f 074c b63f
000001f0: beae c748 a91e b73f 7217 ce35 e534 9e3f
00000200: 452b fc5e f12d bf3f b3d2 b3f2 8b80 d03f
00000210: 1bb5 5477 26c3 e53f 8b50 3255 0619 c3bf
00000220: 752c 1ee8 aa4d bdbf 275e c9ae f351 90bf
00000230: d8d1 6a11 04ba d2bf 3487 cfd2 5362 d6bf
00000240: cbb2 e077 2bc8 c9bf b63e 8b84 164a cc3f
00000250: f6f7 600d 9a98 cfbf 643e f76e 0e39 f33f
00000260: 0fb8 49d4 b1ee bf3f 6d9a b4ee 1c6e d03f
00000270: e457 8ff8 d4ea d5bf 91c3 7e7e 5938 bd3f
00000280: 28f6 602d 4d69 d13f f4d6 f11e 45ba cfbf
00000290: 3873 de55 783c d03f 95b1 7045 3172 8cbf
000002a0: 1650 58f3 41ea ca3f 4c27 5a65 1c16 d33f
000002b0: 6a98 f966 932b e2bf 65a9 b371 ff45 cd3f
000002c0: f07c 64a2 91a1 c73f 3de7 89ca 4860 d3bf
000002d0: f34e 26cc 24d8 cbbf c663 90f5 2df8 d2bf
000002e0: b988 62f2 4326 cabf 7945 fdee 731e 0340
000002f0: e6d6 619e c1a5 be3f e9a1 6cd6 bb04 cd3f
00000300: 5765 3730 e8d6 b63f e238 c01b 0615 11c0
00000310: 8a17 ce74 8dd8 d5bf ceab ce65 c504 b33f
00000320: 698c 558b 0128 d63f f1b4 01dd 4328 cebf
00000330: 189f a2ed fe91 d2bf fe3e 7c4c 9d7f b23f
00000340: e582 f909 0639 c7bf 4b85 212e d529 c3bf
00000350: ec27 433f 7c2c 1440 2ac4 89b5 8be9 d33f
00000360: 55f1 198a fdee bdbf 2fe6 c083 e373 cbbf
00000370: de24 6a4b 5a2e ccbf cffd 5acf bf8c 9cbf
00000380: 62de fcd2 8e64 ff3f 50e4 f6a6 a39a 09c0
00000390: 9b86 dd0e 8423 f9bf 8c88 bf65 48de c3bf
000003a0: 72d6 6066 b686 d2bf 097a 8a2a a983 0240
000003b0: d7d4 69e4 af51 0c40 395b 0dba cea0 c0bf
000003c0: af81 6b88 3d1a c3bf d29e 23e3 2cba b9bf
000003d0: 373e 61f1 0ace b73f ab3a bdd6 df04 bd3f
000003e0: 6e3d 8365 18eb ca3f 293c b4a9 9199 86bf
000003f0: 3a11 93fb 72a5 cebf 40cf f28f b301 d03f
00000400: ad59 33bc 2c3f c23f b149 6739 e751 943f
00000410: 13ff ed8c 5f53 1a3f 8f9c c974 cb10 c5bf
00000420: c52d e659 a7f6 9a3f 6600 4f50 04b1 b7bf
00000430: 8a22 5b89 cc7f 8fbf 78b8 09f8 3dc4 c2bf
00000440: 009e 144e a9a2 c2bf 409d a25e fc57 efbf
00000450: 979a fa10 f73d b2bf c77b ac76 ba68 e7bf
00000460: 6548 092c bced d03f 87b5 fe93 6620 01c0
00000470: 44a9 3236 231d 0340 0a70 0ccb cb95 f93f
00000480: b6f5 803e abed 7dbf 7759 6abf 9a97 803f
00000490: 152b 25d4 a401 b33f 09ae 5827 6450 e2bf
000004a0: 3984 6202 d331 a83f 7d5b 5ec8 b515 cc3f
000004b0: 813f c465 e8df f43f 2f46 aaec 2c4d c73f
000004c0: e749 9ac7 fcf3 9d3f bd95 a7c8 4fde e4bf
000004d0: 13bb b9b5 ee45 eebf daf5 c522 b271 b8bf
000004e0: 5d58 dac1 6785 603f 40c8 1930 ee84 f0bf
000004f0: e805 6838 9d71 c63f 857f a0bd 3165 ae3f
00000500: ce56 ed2d 7122 a93f 7ba0 af92 282b ec3f
00000510: 9654 75e8 39bf b13f b9be f24d c1c3 cc3f
00000520: 53ff 2758 7fd0 b53f b93c 2adc f5c5 cabf
00000530: 4be0 3fdb 2ab5 a33f 473f 554c 957a b93f
00000540: a018 a02e dc0f b3bf 5bb8 de1c dae9 d1bf
00000550: e18b b905 87a8 ecbf 9dc8 ad8a b34b a13f
00000560: 9c1f 45a5 4948 813f 67cb b084 578b c0bf
00000570: 4f86 e938 c4ea a6bf fcc8 5c81 1ad8 cdbf
00000580: 2c6b d2e6 edbd f0bf 05c3 d979 b24c e63f
00000590: 13c6 900f 7cee 0340 5434 abc6 71e8 4cbf
000005a0: 004b 0201 bf64 763f 8787 a029 bd3a f9bf
000005b0: 0d16 df21 b477 debf fe93 da08 b860 86bf
000005c0: 9940 2ee2 e90e b1bf 3602 5f1b e4cb cabf
000005d0: 34fa 9e07 2be7 c63f d60f 8c35 134e d03f
000005e0: 153c 4183 2227 f9bf c2f8 8c48 aa99 e8bf
000005f0: 7290 3a71 e458 a2bf 9ded 3cd0 458e a6bf
00000600: 4815 7fde 006d b43f 4c8b a6c3 3d89 b73f
00000610: 38c3 e4c9 835b a53f 4bcf c12a 5b2b 943f
00000620: 4b3d 65c5 2c5b c7bf b320 b669 1590 963f
00000630: ce08 4a63 b287 bfbf e361 04d0 f3db e7bf
00000640: 8063 534a b09f c6bf 6d41 580d 562d 8abf
00000650: 8743 f278 2200 b93f 9ee7 3431 0b42 c9bf
00000660: 619e 6920 1584 903f 4f90 97f7 5311 be3f
00000670: 1dec 6d37 bd62 84bf f7e9 d797 6ad7 9fbf
00000680: 4b96 3a56 914a 9fbf 27bc 4312 db92 edbf
00000690: 2261 df4e 4c6c f03f 6edf 14f3 7f43 b1bf
000006a0: 50ad 3e1c b463 913f 6c98 c0b2 32a7 6cbf
000006b0: a431 514f 6902 bb3f e561 0d7c f412 8e3f
000006c0: 926d 77b6 fbbb b1bf a384 b6cc 8172 af3f
000006d0: 47a9 5884 8056 a43f 8518 7c56 e17f 61bf
000006e0: 79c0 67cb a91a e8bf 5b87 b86b 9e7b b6bf
000006f0: b8d7 0e6f fea3 e83f 8c43 86ff b866 ea3f
00000700: d53f 518a da75 bc3f c963 8dfa 0f8c b83f
00000710: ddbc e488 4cd6 a1bf 4603 96dc 7460 d23f
00000720: 7d9f e5f7 0cd9 c23f 10f3 67e2 ade3 bbbf
00000730: fadf 93a6 3068 9b3f 60f4 4dca cd24 85bf
00000740: ab5e 276f ab7a 903f 464c 3f7c a28b a33f
00000750: afcb 87b7 bff3 b23f a5fc df8b 36d1 a4bf
00000760: 68f2 8464 c76a c2bf bf34 0faa c7bd a93f
00000770: 5199 9707 31a2 d4bf b95f d23b ee8e a73f
00000780: 0184 3eba 0e68 bd3f f8b9 7e5b 3700 a63f
00000790: 90ca 6aad 3135 bd3f 6ed0 762a de69 9c3f
000007a0: aeba 5fd2 4ed1 a03f 2f11 33ee 5bf8 86bf
000007b0: 2aed 7a04 3ed4 d93f b2b7 216c da0c b8bf
000007c0: 7994 9122 228f b4bf 879f b2f8 fcba ebbf
000007d0: 59c4 4110 2889 a7bf 238e ab6e a7e7 b6bf
000007e0: 26bb c6d8 41b3 693f 32a6 daa6 8a0b c5bf
000007f0: debc 2684 112d ecbf a4d7 988c 560a 93bf
-0.14139506454203402 0.058044568854039594 0.10733340632412308 -0.07597189603332177 0.060145200340963836 0.01076600233299441 -0.07305436730578405 -0.03269590101081583
-0.01782151267496871 0.018845003151257082 -0.013490616953864162 0.04189323458882976 0.03879821680499224 -0.12848001975194898 -0.03316284647414364 0.010685957293733749
-0.08367255239159054 -0.0029675701130267348 -0.08602970367596396 -0.1502282232353024 -0.05759832090056081 0.153673000980018 -0.009905563267330296 -0.12580956099733007
-0.06110100975690316 -0.003545754999827079 0.002406466699595617 0.006788649851618346 0.07341383711820906 0.08368699750028011 -0.07954501929616593 0.07754376419214001
0.06489049980060406 0.01722719989920178 0.07306739258478931 -0.1543115445553832 0.08976078484230493 0.07245003383484076 -0.07463582522967181 -0.12423354530243122
0.0343501534198765 0.019325213746271563 -0.11181288923627486 0.038851195520113686 0.06812016810375765 -0.0857802639838371 0.022647012175948236 0.004459448739102479
-0.13842284528185483 0.0053848195717244585 0.11673940488821337 -0.10376276773060657 0.044962987451782774 -0.06840232441474058 0.1925439282186548 -0.04291544997817612
-0.049570006485702416 -0.024177229358869016 0.05377844758414223 0.0041470434476137494 0.023337490768536598 0.0870976149025746 0.09031160380225864 0.02949865475559172
0.12179478234263026 0.2578458662167506 0.6800720530206122 -0.1492011943815935 -0.11446636359157643 -0.015937621634604462 -0.292603508957908 -0.34975143038728906
-0.2014211974468679 0.22101098510619516 -0.2468445363355724 1.201429780445232 0.12473594124614372 0.2567207652195183 -0.342458002790748 0.11414107645283723
0.27205209189910073 -0.2478720093819714 0.2536907995761797 -0.013889679843565964 0.21027397520140373 0.2982245435492714 -0.5678193103056064 0.22869866420598864
0.18461819104502508 -0.3027517297665446 -0.217533683474009 -0.29639767628537717 -0.20429276786041387 2.3898695632021227 0.1197167407679803 0.22670696229876278
0.08921672036321603 -4.2705311142037505 -0.3413423195528301 0.07429155097513204 0.3461917744336405 -0.23560379306164905 -0.2901608772904054 0.07225974194829729
-0.1814277218536723 -0.1497141337631923 5.043442715143083 0.3111295006593219 -0.11692795392622675 -0.21447414334561318 -0.22016457254748095 -0.027880665808650392
1.962050270243616 -3.200507454309026 -1.5711708622624545 -0.15522103279278487 -0.2894721984660925 2.3142875026235328 3.5398862690732176 -0.12990745625094194
-0.149238292323401 -0.10049706025494778 0.09298771279394989 0.11335562698989558 0.21029953915283833 -0.011035097114044561 -0.23942410739813075 0.2501038461443734
0.1425529402683429 0.019843685988073016 0.00010042448705682395 -0.16457503511921742 0.02633153425408154 -0.09254481278094459 -0.015380475942394573 -0.14661383258084348
-0.14558903038526694 -0.9794904564231857 -0.07125801243328521 -0.7315342252585361 0.264510195736085 -2.140820652208905 2.3892273172579355 1.5990713054261527
-0.007306736872178579 0.008101662603888766 0.07424383334470648 -0.5723133820042118 0.04725512889968581 0.21941253932592622 1.3046649909265116 0.18204270893015592
0.02925105064657343 -0.6521376532588686 -0.9460366772962935 -0.0954848608871183 0.002016737604956949 -1.0324537161764198 0.17534222845283343 0.05936580123693517
0.04909089742311111 0.8802683701478736 0.06932413029911041 0.22472397142472803 0.0852126684403605 -0.20916627168887716 0.03849157263169952 0.0995267211303573
-0.07446075571360433 -0.2798981935437774 -0.8955721961796109 0.03378068034989321 0.00843865905393653 -0.12925237635644324 -0.04475987620095322 -0.2331574565556095
-1.0463694588167511 0.6968624477286488 2.4914475647026477 -0.0008822017237776294 0.005467172726769887 -1.5768405557687133 -0.4760561304832159 -0.01092666413325993
-0.06663381359089939 -0.20934726082306704 0.17892969009513282 0.25476532201014146 -1.5720543982640767 -0.7687579552655495 -0.035834444829817694 -0.04405420462577612
0.07978825981179682 0.09193788553834031 0.0417138275100854 0.019696640476879506 -0.18246993673754228 0.02203401048385052 -0.12316431926777513 -0.7455996573290203
-0.1767483103674543 -0.01278178432679119 0.09765830471793722 -0.19732799437207132 0.016128854850107625 0.11745190424659423 -0.00995395493895584 -0.031095185773645864
-0.030557890785209357 -0.9241767269830959 1.0264399605712886 -0.06743621525390406 0.016981901382377373 -0.003497694988271729 0.1055055445332927 0.014684591327452654
-0.06927464680432241 0.06142049430787579 0.03972245803409407 -0.002136173356009743 -0.7532547924765957 -0.08782377366926879 0.7700187844372897 0.8250393858635205
0.11117330433739821 0.0958871828746758 -0.03483809634269062 0.28713723699188554 0.14724886040061938 -0.1089428594350006 0.026764640967456878 -0.010324104057639782
0.016092947634972415 0.038174703280355035 0.0740318129608528 -0.040658669066027366 -0.14388363273782834 0.05027603102608102 -0.32239938489364756 0.04601234894033674
0.11486904189088422 0.04297039977915412 0.11409292682473393 0.027747603742412634 0.03284689252892768 -0.011215894896289129 0.4035792392493983 -0.09394612445768649
-0.08030904144250596 -0.8665757043245187 -0.04596829603622927 -0.08947226001651436 0.00313723431300818 -0.16441472193882728 -0.8805015164452035 -0.018594124156343775

bias f8 [64]
00000000: 081c 5743 14d8 c2bf bba7 3e33 bfe9 c4bf
00000010: d71a d182 80e1 833f e9ac d868 a04d edbf
00000020: b0dc d2f3 2a1b f0bf 7eaa 8644 6b7a eb3f
00000030: e748 3b60 3346 c1bf 4d14 8977 00b1 abbf
00000040: d542 2130 1177 dabf 4d05 9eeb e159 a0bf
00000050: d5b9 6430 a2a0 ad3f b63a e87f 1f6d cb3f
00000060: fecd b3e5 f8fa d33f 865c 2a91 a7c4 d0bf
00000070: ab74 3260 5fc6 ee3f fd64 78f5 5682 bebf
00000080: 76d4 3b98 c3d9 f13f 754b af06 37a7 b33f
00000090: 7592 2d1b df85 ce3f 67cf e082 5e4e ef3f
000000a0: 923c 171c 39f1 edbf d782 f05d 3df6 d73f
000000b0: addf 1a8e 35a7 ef3f 5359 9962 c109 e53f
000000c0: 7784 c0d0 d33c 92bf 3234 eb3c b206 eebf
000000d0: 13d2 30e2 b59e c9bf cc6e ceb9 8679 f0bf
000000e0: 931a 7553 3ef9 ee3f 683a b609 0d57 ed3f
000000f0: 9d67 d96d 91e1 d23f b024 fb18 2f84 63bf
00000100: 0884 677a 8da1 cbbf 6eb4 2d9c a273 d3bf
00000110: 9ae6 d21b 9a6c cbbf c607 7c01 9209 ecbf
00000120: 8e9a 97e5 84c3 d83f e5c0 157d 44f8 f0bf
00000130: 52bc a43a 4958 c1bf 2a7e e1f4 9f33 e9bf
00000140: 75b3 e20f c34d c1bf 4ddc 4945 0104 c63f
00000150: 0fc5 ee66 f85a d13f c959 6ff0 6cc1 c0bf
00000160: 0b0f 0b3a b5d5 ccbf f6a0 49e4 aa8c f0bf
00000170: 40a9 2ad9 d026 edbf 5a93 4db7 5feb 823f
00000180: 5ad0 003d ea90 c33f b96d 8752 df65 e5bf
00000190: 6f25 a3d3 9169 c33f 6d7e ef3c dd21 c9bf
000001a0: fb80 b583 075e e5bf 820c 3abe f136 b0bf
000001b0: 1e2c f2c6 311d f1bf 5cbf 4090 6e55 f0bf
000001c0: f8a9 3a97 f87c 8b3f 09d5 c635 2355 e0bf
000001d0: 966c 6e49 36ce da3f 6186 9c15 6c9d c33f
000001e0: 47dd f515 b6a1 e03f 6379 0a03 69e8 eebf
000001f0: df6d 78cd 14c0 e63f fd3a 556b 113d c1bf
-0.14721921241854852 -0.163383388540124 0.009707454673969646 -0.9157259032994293 -1.0066327595102784 0.8586937273406219 -0.13495485495383905 -0.054084791747790996
-0.41351728153408135 -0.03193574906527861 0.05786616173496709 0.21426767106500727 0.3121931307971123 -0.2620028417235932 0.9617154005860774 -0.11917632573058153
1.1156650492314646 0.07677024758531366 0.23846043421794474 0.9783165508474497 -0.9356961773536503 0.3744042794587989 0.9891612792480281 0.6574408460390181
-0.01781016313191627 -0.9383174123592026 -0.20015595955341378 -1.0296695001660963 0.9679252271678983 0.9168763341602473 0.2950175831552942 -0.0023823661684657313
-0.21586769558692276 -0.3039328122311592 -0.21425176962457188 -0.8761682538026825 0.38693354054559215 -1.060612190831358 -0.13550677646114423 -0.787551859171747
-0.13518560672437344 0.17199722178676993 0.2711773877336591 -0.13090287914265122 -0.22527184805050413 -1.0343426625714165 -0.9109882585083042 0.009238002568687943
0.15285995463057384 -0.6686855899710543 0.15165922960140274 -0.19634595370642974 -0.6677281925622361 -0.06333838361938329 -1.0696275492980543 -1.0208573946838078
0.013421957125804504 -0.5103927660299244 0.4188361851790402 0.15324164443250068 0.5197401455797398 -0.9658703860657564 0.7109474194616573 -0.13467614880433834

weight f8 [2, 64]
00000000: 0000 0000 8d57 9e3f 0000 0000 0fec b03f
00000010: 0000 0000 d799 b73f 0000 00c0 91e2 babf
00000020: 0000 0080 d443 a93f 0000 0080 1dc2 abbf
00000030: 0000 0080 3391 a23f 0000 0080 568f abbf
00000040: 0000 0000 1223 a13f 0000 0000 9214 99bf
00000050: 0000 0000 4056 8ebf 0000 0080 5826 bf3f
00000060: 0000 0040 e22b b9bf 0000 0000 70d5 76bf
00000070: 0000 0000 b08f a53f 0000 0000 d8d8 8fbf
00000080: 0000 0080 d595 a53f 0000 0000 d2d7 bc3f
00000090: 0000 0000 b7dd 9fbf 0000 0080 c11e babf
000000a0: 0000 0000 7683 9ebf 0000 0040 b484 b7bf
000000b0: 0000 0000 58d7 bd3f 0000 0000 1344 a6bf
000000c0: 0000 00c0 7758 b03f 0000 0000 7e27 82bf
000000d0: 0000 0000 5a4f 8ebf 0000 0000 cc94 b1bf
000000e0: 0000 00c0 c20b b3bf 0000 0080 ff2d bf3f
000000f0: 0000 0080 f2b1 b83f 0000 0080 0d03 bbbf
00000100: 0000 0000 07c5 9b3f 0000 0040 65a8 bbbf
00000110: 0000 00c0 49b3 b9bf 0000 00c0 26f2 b4bf
00000120: 0000 0000 2610 853f 0000 0000 226c b03f
00000130: 0000 0000 d4c0 91bf 0000 0000 7e8e 9d3f
00000140: 0000 0000 1bbe a53f 0000 0080 0bd4 a3bf
00000150: 0000 00c0 0b6c b2bf 0000 0000 e85a 813f
00000160: 0000 0040 2d70 bf3f 0000 00c0 feaf b2bf
00000170: 0000 00c0 3606 bdbf 0000 0000 20ab 933f
00000180: 0000 0000 7516 bfbf 0000 00c0 9fc1 b4bf
00000190: 0000 00c0 c800 b2bf 0000 00c0 adf9 b73f
000001a0: 0000 0000 0eb9 913f 0000 0000 94fe a1bf
000001b0: 0000 0000 7000 76bf 0000 0000 9718 9cbf
000001c0: 0000 0080 4879 be3f 0000 0000 24a4 a6bf
000001d0: 0000 0040 91ca b1bf 0000 0040 5992 b5bf
000001e0: 0000 0040 86c2 b0bf 0000 0000 a5c5 9bbf
000001f0: 0000 0000 b465 74bf 0000 0040 febf b4bf
00000200: 1a16 c461 e4c5 023f fc63 cccd 7580 b9bf
00000210: c157 1a16 ca11 b73f 8ff2 16cd 3f72 d1bf
00000220: 5231 659d 0cc4 d0bf da6e 33b7 0e9e d73f
00000230: 5f2d 4066 11a8 a2bf a083 5a16 a15b acbf
00000240: 5a87 bd91 3345 c7bf 223c 8a97 9c64 033f
00000250: d5e0 d504 05ab b43f 02d7 c646 959b 113f
00000260: dfad d5db f28e d03f 6d8a 5314 27c4 e4be
00000270: 20b6 f895 b22f d13f 5488 84b7 dbd9 be3f
00000280: 848b ec5e dff2 d73f 222b c66f dbb5 903f
00000290: db52 e9c3 034e a3be 8157 4739 b1c5 cc3f
000002a0: bd92 e661 b306 d6bf 68cf ed5a 765a d33f
000002b0: 7f45 5247 d352 d83f 8be0 9adf 4798 cc3f
000002c0: 4db9 57ed 9e84 b53f 54a4 2ecc 6d0c cdbf
000002d0: c2c4 012e f537 eabe 9498 ce4e bf19 d0bf
000002e0: 5a4b 8485 75b8 d53f d7ba 69b8 2ee4 d03f
000002f0: c559 d568 6289 b3bf 36f3 35b8 58a0 c2bf
00000300: f9fb 2dce d054 b73f 4733 cb4f a949 d4bf
00000310: ec29 12b8 7c36 b93f d92d acde 1f33 d0bf
00000320: 9540 8af4 1eee ce3f 692b 5e57 ddce cfbf
00000330: 52be 8c02 fa7d b33f a46b 8dd9 8d7b cbbf
00000340: eede 1630 5c5c f4be c627 168e 7e97 c1bf
00000350: d7ed 8b15 9e06 b93f 3c11 5b30 682c 1bbf
00000360: 9c6a f74d ad38 c03f 93cb 9f1e 39ef d5bf
00000370: 2a4d 064e cefe cebf a70a 73c3 d023 223f
00000380: 81c6 8a41 6000 00bf 91b5 1521 7fce ccbf
00000390: 39c7 ed4a 00fa b0bf da70 c5ab fd79 e93e
000003a0: 183e 240c 883a d8bf b25b 9397 981d 06bf
000003b0: 893c f61d a8ef d0bf 35db 9218 7a20 c9bf
000003c0: e6d4 f1ef 0aa1 aa3f 8174 279f b063 b93f
000003d0: 2a24 73f1 ec05 b13f 7c10 38ff f8be debe
000003e0: 912d a6a3 9ecd ce3f 14e0 1985 4af7 d4bf
000003f0: f0c2 f509 15ba c13f 16fa bad2 1256 c0bf
0.029630854725837708 0.06610196828842163 0.09219115972518921 -0.10501967370510101 0.049345627427101135 -0.05421535670757294 0.036264047026634216 -0.053827956318855286
0.03347069025039673 -0.024492532014846802 -0.014812946319580078 0.12167885899543762 -0.09832586348056793 -0.005574643611907959 0.042111873626708984 -0.015550315380096436
0.04215876758098602 0.11266815662384033 -0.0311192125082016 -0.10203179717063904 -0.02979835867881775 -0.09186865389347076 0.11656713485717773 -0.043488115072250366
0.06384991109371185 -0.0088643878698349 -0.01479978859424591 -0.06867671012878418 -0.07439820468425751 0.12179562449455261 0.09646525979042053 -0.10551533102989197
0.027118787169456482 -0.10803826153278351 -0.10039196908473969 -0.08181993663311005 0.010284706950187683 0.06414997577667236 -0.017337143421173096 0.028863877058029175
0.04246601462364197 -0.03872714936733246 -0.07196114957332611 0.008474171161651611 0.12280543148517609 -0.07299797236919403 -0.11337606608867645 0.019207477569580078
-0.12143641710281372 -0.08107946813106537 -0.07032446563243866 0.09365354478359222 0.01730749011039734 -0.03514540195465088 -0.005371510982513428 -0.02743755280971527
0.11903813481330872 -0.04422104358673096 -0.06949718296527863 -0.0842643529176712 -0.0654682070016861 -0.02712114155292511 -0.004979804158210754 -0.08105458319187164
3.5806686556266214e-05 -0.0996163966596128 0.09011519469853992 -0.2725982191875937 -0.2619658982337302 0.3690220631667508 -0.03643850682427784 -0.055386575678546324
-0.18179936043002948 3.6989239508782254e-05 0.08073455207875509 6.716822253491006e-05 0.25872489422064676 -9.902105953367793e-06 0.2685362305227006 0.12051175337231373
0.3741987635605073 0.016318730065488236 -5.753262327193563e-07 0.22478308960733887 -0.3441589790402693 0.3023963821390141 0.3800552555558951 0.22339723985874502
0.08405488295077142 -0.22694179982980478 -1.2501995513699414e-05 -0.2515714902496111 0.3393834880709413 0.26392715462763533 -0.07631506976517873 -0.1455183886972919
0.09113793405229832 -0.31699593345983995 0.09848765844268542 -0.2531203913246976 0.24164187374527005 -0.24850050703056617 0.07614100038767305 -0.21470807192494334
-1.9417554545346953e-05 -0.13743574083156157 0.09775722528495777 -0.00010365854185595975 0.1267296438880593 -0.3427260207237676 -0.2421510582904401 0.0001383964861130977
-3.052037954399696e-05 -0.22505177607983431 -0.06631471471135066 1.2148154717444107e-05 -0.37857247529697835 -4.218217777356789e-05 -0.26462748456919677 -0.1963036174763261
0.05200990847598934 0.09917739759062451 0.06649666685838498 -7.330414507848126e-06 0.24065001478843986 -0.32759345052863975 0.13849127756431967 -0.12762675561494125

bias f8 [2]
00000000: 0000 0000 5a38 8c3f 7ace acc2 9a5d cb3f
0.013779357075691223 0.21379408364883884

weight f8 [64, 2]
00000000: 9a18 ec59 0837 adbf 0000 0080 ac49 d13f
00000010: eaa2 bde1 4dc8 7abf 0000 0000 bfa0 b4bf
00000020: aa5a 3df0 0da9 aabf 0000 00c0 e6d2 e2bf
00000030: d3b0 c52c 663a c8bf 0000 0040 64c3 df3f
00000040: cea5 e4da 8a55 ac3f 0000 0000 2c27 973f
00000050: 3621 46ba e64a c23f 0000 0040 8308 e3bf
00000060: 2802 b68d fb5e a93f 0000 00c0 a62e cbbf
00000070: 9971 2507 3755 ce3f 0000 0080 d190 ce3f
00000080: 5d2f 06a3 e87a e1bf 0000 00a0 e82c e3bf
00000090: e503 bc0b 9dc6 76bf 0000 0020 d09e e43f
000000a0: e468 481f 886d 743f 0000 00e0 b650 e53f
000000b0: b302 f23f 96b1 a23f 0000 0040 9550 d23f
000000c0: 68ae fb00 9251 a5bf 0000 0080 18b8 d2bf
000000d0: 174c 36d8 f6e3 ac3f 0000 0020 c805 e43f
000000e0: dc47 e990 d40c 883f 0000 0000 d879 cd3f
000000f0: 524b 9741 a2fb ab3f 0000 0060 4b13 e43f
00000100: 3311 d273 a711 723f 0000 0000 9d70 d8bf
00000110: 2617 7264 26dd 773f 0000 0040 5f17 d33f
00000120: 1ed0 a5e5 ee5b a03f 0000 0000 9d94 cf3f
00000130: 9418 994b e055 ddbf 0000 00a0 2b73 e63f
00000140: 7398 8d7d 5cb8 6e3f 0000 0080 5f2e d2bf
00000150: 101d 7e9b 68b9 9f3f 0000 0080 f670 cb3f
00000160: 11c8 f172 4859 ae3f 0000 00e0 c795 e23f
00000170: b604 b4bc f012 dfbf 0000 0000 805a 6bbf
00000180: 8d26 35f7 1e68 b3bf 0000 0000 8d51 c8bf
00000190: 82cc 4c7a 77f7 b63f 0000 00e0 be92 dfbf
000001a0: 88fc 31c0 44a6 aabf 0000 0000 a926 c93f
000001b0: ff18 1ada e641 cc3f 0000 0000 919e d6bf
000001c0: 783c 310c a82c b3bf 0000 00a0 0f34 e43f
000001d0: 8add c272 ccf4 a4bf 0000 00c0 ec8b d33f
000001e0: beb5 4188 d5d6 a0bf 0000 00a0 067b d6bf
000001f0: 9178 bb35 50b0 abbf 0000 0000 cc80 c63f
00000200: 02e5 d25e 6e1c 71bf 0000 0080 e76e c3bf
00000210: 4373 3d7f c7d8 af3f 0000 0000 2088 9f3f
00000220: bf22 5e54 a147 d13f 0000 0080 7201 c3bf
00000230: dfcd bdd2 1521 d13f 0000 0000 845a a0bf
00000240: 87db 9b1a b909 a5bf 0000 0040 7722 d83f
00000250: c36a 6900 9a3b ac3f 0000 0060 827d d7bf
00000260: 89dc 2f8c ed81 c9bf 0000 0000 5650 bb3f
00000270: aa9f 9524 b681 cabf 0000 0000 74e2 b93f
00000280: 7d16 64e7 3677 aa3f 0000 00c0 1ab7 de3f
00000290: 495a 27ee 1c84 ae3f 0000 0040 3707 db3f
000002a0: 95d5 5b22 432b 8cbf 0000 0000 a049 c6bf
000002b0: c31f 05ef bc50 a23f 0000 0060 e650 e63f
000002c0: 802a 65e8 b363 b53f 0000 0000 6d18 d03f
000002d0: 984c 03f6 9256 dc3f 0000 00c0 0063 da3f
000002e0: 9ae7 2420 606b a63f 0000 0060 5239 d1bf
000002f0: 8cbe 4ab5 de79 79bf 0000 0060 fb5c dabf
00000300: a4ce dccd 5502 aa3f 0000 0080 81cc d4bf
00000310: b3c9 1ecd de83 e43f 0000 0040 00f9 d33f
00000320: 7bf1 9305 a5f9 b33f 0000 0020 aaac dcbf
00000330: cab1 7c3b 8b6b b5bf 0000 0000 3b6a d0bf
00000340: ddb1 9493 8026 aabf 0000 00c0 2e52 d8bf
00000350: 278d 2e10 6efd db3f 0000 00c0 bb88 db3f
00000360: 7f7d 8189 ed84 8bbf 0000 0020 69b3 e53f
00000370: 74cd 2fd7 0126 a0bf 0000 0040 0175 d13f
00000380: a3a5 1a0e 9196 dd3f 0000 00c0 6f46 e0bf
00000390: 12ca c695 9269 a73f 0000 00c0 5ff0 de3f
000003a0: adab 0126 5804 c4bf 0000 0080 1e17 c3bf
000003b0: 1094 8696 df93 cbbf 0000 0000 2fed b63f
000003c0: 8579 4e9a b7ad a23f 0000 0080 9674 cf3f
000003d0: 1050 abbd 9148 debf 0000 0080 8e5d c93f
000003e0: 158e bace b04c 6abf 0000 00c0 45b3 d0bf
000003f0: c582 34e1 3ba7 b6bf 0000 0080 723a c53f
-0.05706049058612557 0.270121693611145 -0.006538681245594738 -0.0805777907371521 -0.05207103307355017 -0.5882447957992554 -0.18928219972747815 0.49630075693130493
0.055340136738162835 0.022610366344451904 0.14291080565841136 -0.5947891473770142 0.04955278496618504 -0.2123611867427826 0.23697555397928907 0.2387945055961609
-0.5462535080018643 -0.599232017993927 -0.005560506305983791 0.644386351108551 0.004987270095194261 0.6661028265953064 0.03651113062460833 0.2861683964729309
-0.041637957210551246 -0.292486310005188 0.05642672910030216 0.6257057785987854 0.011743221924152829 0.23028087615966797 0.05465418863936712 0.6273552775382996
0.004411367522269938 -0.38187336921691895 0.005826139421633935 0.2983015179634094 0.03195139458958372 0.24672281742095947 -0.4583664644491219 0.7015588879585266
0.0037500196889821923 -0.2840803861618042 0.030980715265767123 0.21438485383987427 0.05927492526178935 0.5807837843894958 -0.48553102901503153 -0.003339052200317383
-0.07580750975935242 -0.18998873233795166 0.08971354232635245 -0.493331640958786 -0.05204977842458286 0.19649231433868408 0.22076116227635365 -0.3534281253814697
-0.07490015313782006 0.6313551068305969 -0.0409301652993533 0.3054153323173523 -0.032889054186721264 -0.35125890374183655 -0.054079538878554996 0.17580556869506836
-0.004177504667660205 -0.151822030544281 0.06220076969359536 0.030792713165283203 0.2699969600585454 -0.14848166704177856 0.2676443632146554 -0.031940579414367676
-0.04108980607809714 0.37710362672805786 0.055142223882929574 -0.36703547835350037 -0.19927758545938826 0.10669457912445068 -0.2070834807047935 0.10111165046691895
0.05169078421208171 0.47992581129074097 0.059601692267893976 0.42231541872024536 -0.013754391180081519 -0.17412185668945312 0.03577223222470096 0.697375476360321
0.08355259345732158 0.25149083137512207 0.4427840616674046 0.4122926592826843 0.04378795997986558 -0.2691236436367035 -0.006219739869876794 -0.41192516684532166
0.05079906595201791 -0.32498204708099365 0.641097450852888 0.3120728135108948 0.07802802454165729 -0.44803860783576965 -0.08367223932572823 -0.256483793258667
-0.05107499887012399 -0.380016028881073 0.4373431356454653 0.4302205443382263 -0.013437133559078827 0.6781507134437561 -0.031539971845542164 0.2727664113044739
0.46231485726692706 -0.5085982084274292 0.04572733000113173 0.483421266078949 -0.1563825784281482 -0.1491430401802063 -0.21545023774993455 0.08955663442611694
0.036481607042548915 0.2457454800605774 -0.47317927858716846 0.198167622089386 -0.003210397078719183 -0.26094192266464233 -0.08848928688213238 0.16584616899490356

bias f8 [64]
00000000: c02b 9f22 0a60 febf 28e4 55fa 6d3e 90bf
00000010: 2d23 f194 3fa6 03c0 7c8f 82bd c6b2 0840
00000020: e1eb af61 9f0c 0540 c743 0cee ef4a dc3f
00000030: 2f52 cf10 d1d7 fdbf 0a7e fe28 009d fd3f
00000040: 94ff 4643 e03a 04c0 41f7 ac84 a863 ea3f
00000050: f191 56da 4241 eabf 0995 ccdc 4a29 ff3f
00000060: dd30 16bf f9d5 ffbf fecb 14e4 32c4 0540
00000070: 1f0e df37 3744 f43f e0a2 b93b 93f5 0440
00000080: aa6b 4300 c5ec f6bf 6f25 a299 dc38 e1bf
00000090: 1238 fb04 32c6 bdbf c519 d626 d51c 01c0
000000a0: 6952 96c3 1f54 fabf dc6a a859 8f2e 0440
000000b0: 2420 b1d5 67c3 08c0 06fb 7904 b030 02c0
000000c0: 8dd9 7644 0766 fbbf 229c bd88 d475 01c0
000000d0: 835e 44d6 76e0 f7bf daa6 41cc 848d 12c0
000000e0: df50 f20f be5b 0340 0a6a 9e14 7b94 00c0
000000f0: c275 9336 9704 03c0 578c cef5 3dae 04c0
00000100: 80f1 7a9c 7b99 0740 bf22 1207 2b75 fe3f
00000110: 74e0 bbd6 435b 09c0 6398 4343 d070 10c0
00000120: f4ac 56e7 69d8 fdbf 0458 5abd f36c 0540
00000130: 349c 6516 20a8 ffbf 475b bbaf 3ec1 1340
00000140: 2eda 0fed 1e01 0440 2db2 d7ed a882 0740
00000150: c12c f942 4602 00c0 299b 7fc6 02a4 05c0
00000160: 0ecc 5d81 bcb3 fa3f f873 05be 90d5 0040
00000170: d01a c652 dd3d 0040 47ea 908f 63f0 cc3f
00000180: 649a e65c 31fb e4bf 7b96 22d6 6356 0640
00000190: 6965 e55e 85e5 0cc0 de18 ef1e ceab 0340
000001a0: ddfd a8e6 3494 03c0 f165 ccb6 37a0 0140
000001b0: 48b8 79ec 2be7 04c0 fa2b 4e57 fdea f83f
000001c0: ebbe fe2d ccb8 0240 b05c 0821 284e 0240
000001d0: f745 84d0 bef1 0140 2790 c1aa 8bc3 0a40
000001e0: b8bc a6d6 ae4f 0540 cffc 2b82 b11b 02c0
000001f0: 83a6 8686 a6df 0040 2fad a5c3 993d 0340
-1.8984471657192756 -0.015863150028483514 -2.4561759601678177 3.08729312948884 2.6311633712589217 0.44207380530229695 -1.8651896149286917 1.850830230839963
-2.528748059848974 0.8246653167077299 -0.8204664482514642 1.947581160065342 -1.9897401298831519 2.7208001917692846 1.2666542227242485 2.619909731486004
-1.4328050623214303 -0.5381911278392816 -0.11630547162641872 -2.139078429612001 -1.6455381050228886 2.5227343563577573 -3.095412892787879 -2.273773226711799
-1.7124092745194475 -2.1825342829574916 -1.4923008317763624 -4.638201896197382 2.4197961088012643 -2.0725003825039083 -2.3772415412665575 -2.5850791171701917
2.9499428010005317 1.9036054874615471 -3.16956298600058 -4.110169459343612 -1.8653353726065776 2.678199271506857 -1.9785462260131341 4.938715692339264
2.5005472679579475 2.9387987691354938 -2.001110575894558 -2.70508341862605 1.6688809445738602 2.1042799802221417 2.030207297011067 0.22608608732282873
-0.655663186499464 2.792182610445534 -3.6120707906490463 2.45888923804442 -2.447366525680748 2.203231266129244 -2.6128767466207456 1.557370511089856
2.3402331918112984 2.28816247755784 2.2430397310606582 3.34548123744209 2.663907696689048 -2.263522164313691 2.1092043409196903 2.4050784382758574

weight f8 [64, 64]
00000000: 809b 20fe 28c6 cf3f ad9a b50f 3cec fa3f
00000010: 6a16 c65c ce6e 7d3f 74fb f0e7 2da0 1a40
00000020: e102 6f1c 9d51 6cbf 5924 0929 d25b 0cc0
00000030: 415c dd29 c16f 05c0 4238 d45c 569a d7bf
00000040: 756f 2a00 7ea7 da3f c687 3c20 f537 bf3f
00000050: 58a4 4c19 e78c cabf 8917 a790 3db6 d3bf
00000060: 7877 e6ce f011 d43f 5b32 fc06 1e99 c1bf
00000070: 8e80 bae2 7773 e2bf 21d3 3fe8 c155 d1bf
00000080: 5f69 0037 f33f b1bf dae5 c219 5c10 d9bf
00000090: 02c6 7c04 ddd2 f2bf 18ac 0967 d7ac d03f
000000a0: 38db 5fcc 7655 b1bf 2057 c9b3 e081 e7bf
000000b0: 3b03 6ceb f31d f9bf fbd1 9a7c ac6c c23f
000000c0: a2ae 2719 442c b13f ae20 d9a4 fc59 06c0
000000d0: 501c 991f db0c d73f b020 c72b b2b5 23c0
000000e0: e0ad 6972 0b7c 0740 25ba 3641 87af d03f
000000f0: 883c 90ba c790 d33f b86c b047 4a35 c33f
00000100: 0976 0d43 91ce c43f 4d11 fbc3 29e0 d3bf
00000110: b27a 205c dbdd 12c0 91a1 94b8 da42 23c0
00000120: dbab 92ce 7ff0 c63f 1d34 f54f d73b 723f
00000130: d85b 928b 6f19 e63f e01b bb9c bb08 1b40
00000140: dfd6 49f0 f05a c6bf 8e2a 8aec 192a c6bf
00000150: 3067 891d c994 e03f 3774 43e0 5b77 a1bf
00000160: cd5a 1841 e86d cbbf 4532 d868 578a d4bf
00000170: 54bd f7f9 fa6b c2bf cd02 e69f 8ddc e93f
00000180: ac4b f8eb fd55 d8bf d9fc 61ec 6424 fbbf
00000190: 7733 ea79 b283 e8bf 5093 101e 87a3 0a40
000001a0: aaa1 cd81 7549 bb3f af6f 7b3d ac10 e4bf
000001b0: 7b35 88e0 0fea d73f 5782 eb9b 5d39 b23f
000001c0: cca2 02b4 f14d c3bf bdee 217b fb51 d4bf
000001d0: 79b1 f4e2 9ee6 fd3f 4250 20c2 6aaf 2740
000001e0: 7437 b10c 6af8 c0bf b471 d525 9b6f bb3f
000001f0: 0540 9eca 04fd d33f 56c2 2e9c 3ed1 f03f
00000200: a8a1 d0a0 5781 f5bf 34a8 8d88 0594 dcbf
00000210: 45a2 5fdd 1e55 e3bf 440b 0c51 0c6d c5bf
00000220: 331f 5f4c 2e32 e03f f07f 5a01 c516 ca3f
00000230: 20e9 340e 3f32 ce3f 3b3e 3753 f973 b73f
00000240: 6771 64e6 036b c9bf 0b6f 23b1 d0fa c3bf
00000250: 1cd3 8a19 a5be bc3f e8bc f016 6e33 ea3f
00000260: f5e1 8d6a 3175 ebbf 1cc1 7e2f 5e68 df3f
00000270: c52e cdc3 1db7 e23f 8153 4f1f ab1a db3f
00000280: 93d9 5520 6007 6bbf f6de 8004 a748 be3f
00000290: d91c 81c2 38c5 ce3f d1f0 f33a 9ff8 d2bf
000002a0: 4857 15dd f0cd a83f f7d0 ccc5 7019 d4bf
000002b0: eecc b96f 1d9f b23f 95d7 c13c d2a1 dbbf
000002c0: 7ee0 150d f0ca 03c0 2c90 5ea8 6a47 b0bf
000002d0: 06d3 9e2d 7350 f3bf d352 12dd cfda b1bf
000002e0: c9bc ee07 4a72 c1bf a93e fe81 e96f debf
000002f0: 4e85 8812 dc77 c3bf 25a9 2596 762e e5bf
00000300: 5245 6e2c 278e b8bf ec0a c338 1155 f73f
00000310: 98c8 1a18 7554 a13f f07c d7d7 a2f4 c33f
00000320: 66d6 6de9 ec62 fcbf dd86 3af0 11e7 da3f
00000330: c5b9 d2c6 0dbe b7bf a1fe 4770 5e2a c0bf
00000340: 3350 42f6 c788 dd3f 591d 5c6b 9331 da3f
00000350: 1ff3 32bd dc62 c43f c43e db22 256e bb3f
00000360: 9fad 145b 291b 0440 f3b8 cb75 fd6f d53f
00000370: a6fa 71e4 e9af e43f 23a1 a66c baf6 cfbf
00000380: d58b 21d4 7d02 c23f 449e 50a5 0fe3 d13f
00000390: 2136 c832 a064 cc3f c5fb d311 fa8b a9bf
000003a0: c4f2 b156 6fe6 e0bf 624e c6ab b4dd c63f
000003b0: 0b49 4ee5 7ab1 c23f ebaa 2ad6 896c 503f
000003c0: 01b5 24a4 9bbd ed3f 30c1 ec18 1d52 df3f
000003d0: 6e24 f6a1 df50 cbbf 3f8b a5bc 7129 c4bf
000003e0: 0332 31dd 2f26 99bf 096e 89e1 9efc d6bf
000003f0: 4c0c 4121 4493 4a3f e0d0 237a 49d3 503f
00000400: b287 1b44 aae4 c23f 16c2 2170 16b8 d3bf
00000410: ab2a 8d14 0a5f c63f ae2e b9cf 2356 b83f
00000420: 81f7 53e8 a208 c8bf 92f0 a303 5c98 c0bf
00000430: b037 9148 547d 863f 1efc 169e 6ed4 ccbf
00000440: be8a c658 f642 dd3f 490b 225b 1dae cabf
00000450: 8c39 f1a0 fc01 bc3f afdc 3954 4be8 d0bf
00000460: 56cb dd41 b1c4 b03f 3caf 7c9d f42c bfbf
00000470: 064f 0b7e b0bf ee3f c7e3 e056 7cb6 b9bf
00000480: 040b b991 34da d43f 2918 5d3c 58c9 ca3f
00000490: f4f8 f0f0 99cf c33f e1ca af42 78dd d43f
000004a0: 3a50 579a bf18 c43f 70b0 4308 40d0 fb3f
000004b0: 3a21 9129 e6b2 c3bf 6701 a63e 95bc bf3f
000004c0: c741 febd 5c26 d43f 72f9 bc82 4c6d c03f
000004d0: 9561 f0e4 fe1b b93f b80d 6595 d76d db3f
000004e0: 09ab 9404 8a80 90bf 60c1 c07d 08bf a53f
000004f0: 256c 189c ba42 c7bf 1f4d 3c42 2879 d53f
00000500: 15f6 413a 359d d4bf 6fb1 405d ee06 cdbf
00000510: c5f9 b770 4331 e23f c3c2 1248 2c5c e03f
00000520: 271a 41fe 296b cd3f 94f6 5e7e e141 cfbf
00000530: bd1f 6011 f689 d73f 5027 b9c7 e908 cfbf
00000540: 6461 cd09 a25a d3bf 6d65 b021 54dd c8bf
00000550: 0449 77ff 4071 0dc0 e3e4 eaea 04a5 c33f
00000560: 1114 4efe 03ed c8bf 44ca a77d 663c d3bf
00000570: 1554 22aa ccfc b6bf 16a2 3b09 5b1a c5bf
00000580: 9c20 5cd8 b4c2 c13f d69e 27ee 3d09 d6bf
00000590: 8b78 a073 6be1 a03f cc91 b429 aef1 8abf
000005a0: ffa0 507f 4852 cf3f 974e 458a 9115 d0bf
000005b0: 0fa0 6f62 cf40 02c0 bc77 257b c9b2 c0bf
000005c0: 3877 feef 062c cdbf 26da 880c 900c b3bf
000005d0: f378 68e8 6a52 dcbf 6a87 ece5 a780 cebf
000005e0: a9c2 8d29 bc5e b0bf 3c57 9026 7ff0 d13f
000005f0: c2f5 e170 ffef d2bf 3010 587f 5fce 90bf
00000600: 7042 6ad7 c65f c03f 7b7b 9465 f4b6 c8bf
00000610: ad52 0dd2 b5ad bc3f baa6 3228 b063 b93f
00000620: ca20 cf28 581e c6bf 576c 349e 47a6 b5bf
00000630: 0af2 68b0 bc0a cbbf 1432 edb1 4f36 cebf
00000640: 7b01 c01b 8325 d33f 9b52 527d 1ef2 babf
00000650: c5f9 9506 814b 963f b334 60c0 f591 a9bf
00000660: 0a3a f762 8f79 a03f c12b 5828 f906 cabf
00000670: 35f3 6912 f07d c83f 7216 f37a bfab c0bf
00000680: 067b 1140 98e6 b73f 7892 7f2b 83db b73f
00000690: 553a 3168 3838 bd3f 563c 7890 58de c43f
000006a0: acdc 3746 1e1f c73f 29cd 3958 9d87 f33f
000006b0: 2439 52b6 462b c4bf ac1b 3a30 f06a d13f
000006c0: ae72 6a12 1fef cb3f aecb db1f da96 7c3f
000006d0: 47b4 9ddc c910 a63f 38d8 40e8 4488 b13f
000006e0: 03d4 a72b 2d11 bfbf 4d29 9759 6717 ab3f
000006f0: a277 0acc d0b6 adbf f551 177d 59b8 d23f
00000700: 6cbe bef8 7755 d1bf a38c 57cd c70e c7bf
00000710: d4a9 1e39 0a1e b53f cf87 bb02 677f c03f
00000720: 9c4a cade 7abb ce3f 0ddf 3c9f 11c4 bbbf
00000730: 6c7a e265 87b0 ce3f 7528 11a0 6122 bfbf
00000740: b88c aa10 a1f7 a7bf 04f8 3ffb 590d c3bf
00000750: c0c7 1884 d2ff e8bf fb26 0da2 cb68 c73f
00000760: 2e9d c2d0 d192 753f 6cb6 d21f c2f2 d1bf
00000770: 3019 8153 855d babf b770 3485 b84b b3bf
00000780: c306 74c9 8c65 b13f 47ca 7386 4ee5 d1bf
00000790: 8665 8f86 0551 c1bf 7e45 b3e7 6812 68bf
000007a0: 631e 0a4b d7d2 d13f 0a22 c1ce de23 d7bf
000007b0: 2ac1 f8fb 7c53 06c0 6569 d718 2a51 8dbf
000007c0: 1ba3 d559 1348 c1bf 6a92 ad85 a801 abbf
000007d0: 5fbe 2527 0eb9 c9bf 847f dc69 b7c4 a73f
000007e0: e08b 74c6 ffeb 913f 956b 12dc 1e3f d33f
000007f0: fd98 1031 ca2b a6bf eb3d db8b a762 c7bf
0.24823486717761156 1.6826744664810278 0.0071857510596423455 6.656425117572201 -0.003456885201984825 -3.544834442702762 -2.679567648952372 -0.3687950045140306
0.4164729119890958 0.12194759404204011 -0.20742501006432934 -0.30799807668915286 0.3135950108061176 -0.13748526898452237 -0.5765952518741118 -0.2708592193660469
-0.06738205044567767 -0.391623521001376 -1.17648030999078 0.26054940283091943 -0.06771032800302812 -0.7346042167143629 -1.5698126979988973 0.14394146045891873
0.06708169569145153 -2.793938911319933 0.36015966497183616 -9.854874961907939 2.9355687082768185 0.2607133995869922 0.30571168154796924 0.15006378651091778
0.16255393766452667 -0.31055683268302375 -4.7166571039985445 -9.630574958938071 0.1792144545227917 0.00445160013562165 0.6906049467096365 6.758528183860989
-0.17465030415376412 -0.17315982866087548 0.5181623055352471 -0.03411376106826263 -0.21429160288308538 -0.3209436916229474 -0.14392029958205887 0.8081730006234352
-0.38024852794586184 -1.6963853105260596 -0.76607631503576 3.3298475598152564 0.10658964556717501 -0.6270352555106821 0.37366101195296836 0.07118783051147069
-0.15081616677823317 -0.31750380539572715 1.868803869768355 11.842611376232643 -0.13258100146998297 0.10717172311473783 0.3123180369084369 1.0510851002583386
-1.3440777093729626 -0.446534522393111 -0.604140694017652 -0.1673903842675718 0.5061255923874114 0.2038198715790709 0.23590839570699362 0.09161337167392329
-0.19857834577204445 -0.15609177254997805 0.11228401063528931 0.8187780807546945 -0.8580557900559699 0.49074511182972613 0.5848530601737926 0.42350271279911317
-0.0032994153468123926 0.1182960878367075 0.2403937291839842 -0.29642468220823753 0.04844620417377016 -0.3140527660027738 0.07274040200882201 -0.4317517846424093
-2.474090673666125 -0.06358973131733653 -1.207141092495648 -0.06974505564933091 -0.13630032908756665 -0.47558057493822986 -0.1520953264708091 -0.6619217808304582
-0.09591908297286025 1.45826837704288 0.03384748381849184 0.15590320147655445 -1.7741517179796573 0.4203533979399319 -0.0927437410743784 -0.12629299623948945
0.46147345589384087 0.4092758701740045 0.15926703680261142 0.1071494302843759 2.5132624736485947 0.3349603319501419 0.6464738332577624 -0.24971704774112266
0.14070103509865697 0.27948371070894873 0.22182085494607498 -0.04989606349590007 -0.5281292622817877 0.17864092242654112 0.14604126164028516 0.0010024400768694995
0.9293955045629049 0.4893868201643441 -0.21340556534076732 -0.1575147791982889 -0.024559734225748652 -0.3591687395580441 0.0008110125222703462 0.0010269372510807659
0.14760330510676806 -0.30811081838968 0.17477537158477693 0.09506439038630773 -0.18776356071606062 -0.12964964082482716 0.010981234039856819 -0.22523291320064315
0.457212053961637 -0.20843855810024994 0.10940531663184155 -0.2641781160850298 0.0655012880140878 -0.12177971691988615 0.9608995878029141 -0.10044076081329854
0.3258181975435692 0.2092695517296204 0.1547729898902116 0.3260174418675615 0.15700526271996457 1.73834231594358 -0.153897066398949 0.12397129802230254
0.3148414473917253 0.12833553680134063 0.09808343018847261 0.42857923116045127 -0.01611533787687861 0.042473092413618074 -0.18172390577169142 0.33551985233607867
-0.32209520997261737 -0.22677402070383887 0.5685136033569554 0.5112515838319144 0.2298328868366337 -0.24419802351433317 0.36779548355888975 -0.24245950939285388
-0.3024067970013873 -0.19425441403363256 -3.680299754932209 0.1534734866197943 -0.19473314206348438 -0.300561545095807 -0.08979491380371514 -0.16486680937602277
0.13875446857878593 -0.3443140817384863 0.03296981607876245 -0.013156281135317104 0.24469858376074424 -0.2513164377498724 -2.2816455545726124 -0.13045614731794142
-0.22790610044915538 -0.07441044145603168 -0.44253037162879066 -0.23830126501803345 -0.06394554152007949 0.28030375257491236 -0.2958983042115869 -0.016412250659428362
0.12792287367166777 -0.19308333358727822 0.11202560785506917 0.09917736989396078 -0.17280103676444575 -0.08456847774907437 -0.2112651692749668 -0.23603244960612868
0.2991645594593348 -0.10525694427117076 0.021772399928062364 -0.049941711171507384 0.03217742999150992 -0.2033378073686816 0.19134331606974234 -0.13024133208653016
0.09336234630744053 0.09319324314089694 0.11413910430676684 0.16303546003516328 0.18063715389846402 1.2206090399093432 -0.15757068540956098 0.27215199193636397
0.21823490523538197 0.006979801224349309 0.0430968362623863 0.06848555250402988 -0.1213558417874339 0.05291293114312854 -0.05803539744122978 0.29250180450370006
-0.2708415917540836 -0.18013856436218587 0.08248962301755763 0.1288880122511373 0.24009643438747197 -0.10846052301064564 0.23976223444784084 -0.12161836774717634
-0.046811135563325335 -0.14884495513973672 -0.7812283115401826 0.1828856030718312 0.005266971198728583 -0.28044179065441344 -0.10298951424292535 -0.07537415744849595
0.06795577925006584 -0.279620772648887 -0.1352850825340221 -0.0029384659697845863 0.27849371269301154 -0.36156435194837455 -2.7907657323159087 -0.014314965136624289
-0.1350120724339597 -0.05274702674686156 -0.2009599391126242 0.04642270247700167 0.017501827705142747 0.3007275723591019 -0.04330283974586455 -0.18269819573332255
