NF_NCLT/trained_model/v1_mix_4Aff_64hidd_cal_200kiterdecay1e5.pth (torch, 318853 bytes, 57 tensors)

mask f8 [2]
1.0 0.0
00000000: 0000 0000 0000 f03f 0000 0000 0000 0000

scale f8 [2]
0.0 -0.3776702831869627
00000000: 0000 0000 0000 0000 4c61 bdfa bf2b d8bf

weight f8 [64, 2]
0.0036027649602919255 2.227134e-318 0.011715556882470364 -2.58873e-318 0.006517902027977196 2.59619e-318 -0.006773626909663262 2.499577e-318
-0.011467581765749963 -2.669145e-318 0.08286191205769754 2.46145e-318 0.011444785675638681 -2.60273e-318 0.06592795183263249 -2.450536e-318
-0.003994016741857179 -2.5031e-318 -0.011684353694760063 -2.694595e-318 -0.004670802909695048 2.35502e-318 0.04468109271436251 2.2671e-318
-0.006738481625611848 -2.564393e-318 -0.011856950422915723 2.54813e-318 0.044709359141878326 -2.633375e-318 -0.006705560069575428 -2.60919e-318
0.002530331589603738 2.69623e-318 0.010271346609262365 -2.584284e-318 0.005538330771139451 -2.617263e-318 -0.010047396810364675 -2.591616e-318
0.04243242000098346 2.498475e-318 -0.0053139575497513645 -2.661784e-318 0.017267215534555527 -2.480763e-318 0.04439097627918388 2.43182e-318
-0.04477810321879666 2.42718e-318 -0.039245525790297275 2.24598e-318 0.006813805318405455 2.33392e-318 -0.044171198194067354 -2.33825e-318
-0.007034310206938523 -2.23951e-318 -0.011875735262989953 -2.287756e-318 -0.011347183528185315 -2.51193e-318 0.022488146440192924 -2.393363e-318
0.011438814886549787 -2.61129e-318 0.011578603431402072 -2.3121e-318 -0.012172702241214289 2.48675e-318 -0.011225295098896198 2.333067e-318
-0.006888937870675653 -2.643167e-318 -0.04144824216873422 -2.25637e-318 -0.011322847295217977 2.57984e-318 0.024345165168952604 2.40998e-318
-0.022451062379467666 2.712816e-318 0.022835089830678536 -2.4809e-318 -0.032276225811566174 -2.42576e-318 0.04333319839254688 2.414533e-318
0.006831882389236705 -2.39927e-318 0.0009956074544279516 2.654793e-318 -0.0825495639968226 2.312025e-318 -0.023506952741337146 2.596483e-318
0.010698940922395886 2.450926e-318 -0.040773765245719074 -2.40079e-318 -0.0037597157830010254 -2.35894e-318 0.011712017483060687 2.59327e-318
-0.010272453848415136 2.51756e-318 0.006868240792650495 -2.67145e-318 0.015466883851536434 2.538045e-318 -0.003701984240793061 -2.495086e-318
0.006930572443663258 -2.303117e-318 -0.044638817862467296 2.383294e-318 -0.022872436217924386 -2.475274e-318 -0.00680337961274461 -2.675934e-318
-0.011679926454582396 2.47001e-318 0.0021170151745167347 2.668636e-318 -0.02274360405559541 2.517423e-318 0.011537531451056385 2.66147e-318
00000000: 6484 bfb5 8b83 6d3f d9e0 0600 0000 0000
00000010: b12d 516d 53fe 873f bdfe 0700 0000 0080
00000020: 8073 c700 84b2 7a3f a304 0800 0000 0000
00000030: 3b42 d6a0 a9be 7bbf 40b8 0700 0000 0000
00000040: 1d50 2fc5 507c 87bf 513e 0800 0000 0080
00000050: d730 5f32 7036 b53f 1b9a 0700 0000 0000
00000060: c726 7e21 5d70 873f ce09 0800 0000 0080
00000070: 7b6f 037d a7e0 b03f 7a91 0700 0000 0080
00000080: 8443 93b4 075c 70bf 09bb 0700 0000 0080
00000090: 407d f367 f7ed 87bf 7052 0800 0000 0080
000000a0: a627 e41b b121 73bf f545 0700 0000 0000
000000b0: b35b eaaf 70e0 a63f 7200 0700 0000 0000
000000c0: 74a4 4e63 cf99 7bbf 7feb 0700 0000 0080
000000d0: d9ac 5ff2 7448 88bf a3de 0700 0000 0000
000000e0: 1dd1 ad26 25e4 a63f 0922 0800 0000 0080
000000f0: 60fa 3313 4a77 7bbf ea0e 0800 0000 0080
00000100: 61be 9c6d 7dba 643f bb53 0800 0000 0000
00000110: 9969 2ece 2409 853f 39fb 0700 0000 0080
00000120: 2f66 9558 5caf 763f 4c15 0800 0000 0080
00000130: ee00 afc5 ba93 84bf 0501 0800 0000 0080
00000140: 3083 63c0 b3b9 a53f 61b7 0700 0000 0000
00000150: e15a 379e 16c4 75bf 7f38 0800 0000 0080
00000160: 943b 0e38 7fae 913f 60a9 0700 0000 0080
00000170: 2295 b6fe 69ba a63f ae82 0700 0000 0000
00000180: 48a4 cdd1 27ed a6bf 037f 0700 0000 0000
00000190: c03a 9153 fd17 a4bf bfef 0600 0000 0000
000001a0: e9d1 0ff0 cae8 7b3f 4735 0700 0000 0000
000001b0: c259 5677 9b9d a6bf b338 0700 0000 0080
000001c0: cf98 9e44 02d0 7cbf a2ea 0600 0000 0080
000001d0: 1b60 9034 4e52 88bf c710 0700 0000 0080
000001e0: 02fc 3d31 313d 87bf 04c2 0700 0000 0080
000001f0: 807c 08f6 2107 973f 4664 0700 0000 0080
00000200: dae8 bdbe 3b6d 873f 9310 0800 0000 0080
00000210: 8fde 91d8 85b6 873f 0624 0700 0000 0080
00000220: 565c 3d70 00ee 88bf 1cae 0700 0000 0000
00000230: 63a0 b39a 49fd 86bf 9a34 0700 0000 0000
00000240: 5e59 bd2d 9337 7cbf c729 0800 0000 0080
00000250: 30cc 2e39 b438 a5bf f6f7 0600 0000 0080
00000260: 5bfe a4d6 6e30 87bf b5f7 0700 0000 0000
00000270: 0890 dd60 f0ed 983f 6971 0700 0000 0000
00000280: 9698 b84a 69fd 96bf d860 0800 0000 0000
00000290: ea8f 18f0 1462 973f 7ca9 0700 0000 0080
000002a0: ed14 996c 8286 a0bf e37d 0700 0000 0080
000002b0: bda8 dadb c42f a63f 0375 0700 0000 0000
000002c0: 7b05 e976 bffb 7b3f f268 0700 0000 0080
000002d0: 0b04 365d e14f 503f f832 0800 0000 0000
000002e0: 7358 aadd f721 b5bf f723 0700 0000 0000
000002f0: 75b9 02e5 3412 98bf de04 0800 0000 0000
00000300: 8880 e88a 53e9 853f c991 0700 0000 0000
00000310: 10c1 8788 4ce0 a4bf 256a 0700 0000 0080
00000320: c85c 910a b2cc 6ebf 0f49 0700 0000 0080
00000330: 6cba 7a60 78fc 873f 5402 0800 0000 0000
00000340: 83ff a06a b909 85bf 78c6 0700 0000 0000
00000350: 9c27 5e59 df21 7c3f 2340 0800 0000 0080
00000360: 1dcd 8102 1aad 8f3f aad6 0700 0000 0000
00000370: 280e d3a7 9f53 6ebf b3b4 0700 0000 0080
00000380: 143a cf5f 3b63 7c3f ec1c 0700 0000 0080
00000390: 65ea b32d e6da a6bf 505c 0700 0000 0000
000003a0: edb0 2436 df6b 97bf 09a5 0700 0000 0080
000003b0: a830 064f dcdd 7bbf af43 0800 0000 0080
000003c0: 0a0e 2331 a5eb 87bf e0a0 0700 0000 0000
000003d0: 81e6 11de b357 613f ea3d 0800 0000 0000
000003e0: 66a4 726e 194a 97bf 5cc6 0700 0000 0000
000003f0: 7524 1242 fda0 873f 4038 0800 0000 0000

bias f8 [64]
-1.4105658607521425 -0.058185560395755696 0.1305818405729954 -0.3401111897737201 0.06283294795488702 -0.33748156565306753 -0.06313783954930124 -0.14147763875407943
0.3405038070689331 0.05850328527741576 -0.10128449479705738 0.04050433290182178 -0.2906256818213505 0.05496749779946497 0.04238806933096654 -0.254452112647703
0.17391572102712388 -0.0958687559981806 -0.13668943208204798 0.1098503987172543 -0.0047517096913267 0.16173328292604203 -0.01916695519244479 0.054644701549067164
-0.021662260626347945 -0.0016146260187207071 -0.15299317338763352 -0.004235998169241241 -0.7458910555524275 0.05464405788915281 0.06535142536672271 -0.26638708630348396
-0.06328782215575897 -0.06079484875664274 0.05025351851696746 0.06821020197621426 -0.5570439735471091 0.004875692396238519 0.06581978617485928 0.29978304144311074
0.24577498743123005 -0.39568598693559276 -0.21782788964960512 -0.0017330140151119514 0.4494807095950914 0.13961759912480642 0.33309701463282765 0.5368457583205379
-0.07884709873846749 0.0015697834009820257 1.4560701977318242 -0.05781683206689484 0.09582724639822668 0.5206045028452876 -0.028438287852463606 1.4409718182949331
0.618135298052187 -0.04524922783265301 0.4067586903781512 -0.3926921966428299 0.0585035605647099 0.1236230341393756 0.3709491893889539 -0.06114792883690766
00000000: 7c8d 0c82 ad91 f6bf 9b97 ff6d 7fca adbf
00000010: 3d33 5bdf e7b6 c03f d83b 45b9 61c4 d5bf
00000020: afd7 93f0 d115 b03f 3ae6 de47 4c99 d5bf
00000030: b41c 012c cd29 b0bf 8e33 c873 f01b c2bf
00000040: 6992 e17a d0ca d53f ee3a f381 24f4 ad3f
00000050: 49c8 bed8 c7ed b9bf e3b9 51e2 fbbc a43f
00000060: ca39 b375 9c99 d2bf e086 c82a b324 ac3f
00000070: f5be 0897 e3b3 a53f 5b14 8e83 f148 d0bf
00000080: 522f 09cf de42 c63f 726b b8d3 da8a b8bf
00000090: a027 4010 0a7f c1bf 6e73 f1dd 271f bc3f
000000a0: b3df 965b 8776 73bf cfc8 6b1c adb3 c43f
000000b0: 569e dc96 80a0 93bf db18 1bec 63fa ab3f
000000c0: cb55 cab3 a12e 96bf 23f5 857c 3b74 5abf
000000d0: c006 1bc2 4795 c3bf f518 a519 c459 71bf
000000e0: 4540 3feb 56de e7bf 0dfa 1b53 4efa ab3f
000000f0: 7372 b2fa deba b03f 2a03 f06b 7c0c d1bf
00000100: 65e0 6476 a133 b0bf bd9f 599e 8020 afbf
00000110: df1f 1445 d4ba a93f 0dcc bd4a 3976 b13f
00000120: fa32 1ae2 4dd3 e1bf f4f8 31b6 88f8 733f
00000130: e0fc 0cc5 90d9 b03f 4e30 b935 a52f d33f
00000140: a091 9806 8e75 cf3f 3aed 5751 eb52 d9bf
00000150: f9d2 19c7 c8e1 cbbf 20b8 2da1 c964 5cbf
00000160: df33 f9bc 4ac4 dc3f 4cf2 174f fdde c13f
00000170: 0d91 0f24 7651 d53f fc74 df27 d72d e13f
00000180: ee58 77ce 522f b4bf 2a0c 9e17 26b8 593f
00000190: d803 7f43 104c f73f 4572 c5f5 2a9a adbf
000001a0: 269b 5869 2288 b83f ffdd 3bc6 caa8 e03f
000001b0: 804c 1f31 ed1e 9dbf df8c 2077 380e f73f
000001c0: 3865 34ad c3c7 e33f 59c6 6b23 e82a a7bf
000001d0: c36d 229a 5508 da3f 396c 7e73 de21 d9bf
000001e0: 5864 a6be 2df4 ad3f 6131 a958 c2a5 bf3f
000001f0: 21cf 39ab a1bd d73f de32 2505 c84e afbf

weight f8 [64, 64]
-4.052538717967906e-05 -4.84672185561437e-06 -2.5739866755557755e-06 1.0424026376185648e-05 4.3172458962997256e-06 1.194514937331558e-05 -4.257689358263884e-06 1.2378905528585954e-05
1.6215030432314437e-06 4.770053840831686e-06 2.6686773457544287e-05 1.5252497557646711e-05 7.96205082724271e-06 4.883472013369479e-06 1.5241328476537559e-05 6.441929424497162e-06
-2.483535574641337e-05 6.697324088851667e-06 -1.682068281553776e-06 -1.0404965118560134e-05 1.5414118370951087e-05 1.70544005683155e-06 8.791039565608528e-06 1.5256974985492035e-05
-1.526436963325061e-05 -1.5341916982287416e-05 5.5536291532162274e-05 -1.5317651528782245e-05 4.5310380208727056e-05 4.8501447577928635e-06 3.933371760311071e-06 9.765386969522295e-06
-4.239073767837068e-06 -4.5815704648014345e-06 4.156448145992652e-06 3.3921783012047603e-06 2.610474306090991e-05 -1.542722018241341e-05 3.841806700299385e-06 1.5589635554509963e-05
-1.0006018271501076e-05 7.993913986663554e-06 -1.5341457535454572e-05 1.538788276488863e-05 -1.737110131477415e-05 -2.768514803670446e-05 -1.1948391322998558e-05 -5.867125005916466e-06
1.2620886712775372e-06 -1.5711968525089612e-05 4.1505765919327524e-05 -4.757512545127945e-06 -6.719032890672654e-06 -2.2929078697680974e-05 3.8364684852426906e-06 4.1188786452960216e-05
-3.2290548950354395e-05 -1.5243732909478573e-05 -7.832309709223063e-06 1.3501137182711207e-05 4.754303710626821e-06 -4.083400581974604e-05 -8.35191154484773e-06 -4.514563517499377e-06
3.4320276502277424e-05 -6.161161725547121e-06 -9.348082154502144e-06 -5.385637074553845e-07 5.587095235583627e-06 -8.775785602269356e-06 -5.547649586252599e-06 -8.309726275988083e-06
3.571484801708987e-06 6.08570040401437e-06 -2.1111611032409096e-06 -5.356323819191914e-06 2.869242778929781e-06 6.512065661939865e-06 -5.36180191542321e-06 4.789662208231793e-06
9.53171508342436e-07 -4.83547411183212e-06 -9.093203049279982e-06 4.654724995793674e-06 -4.972283122450241e-06 8.623988399232352e-06 -7.3032831820334716e-06 -5.326894312462598e-06
5.355971943431654e-06 4.61236650902646e-06 -3.5080450152825015e-07 5.253052986026873e-06 -7.064713079819288e-05 6.5363324279579e-06 5.313527894493466e-06 -3.760242204274631e-06
-5.532399003852055e-06 -5.826471265382204e-06 7.213196868261767e-06 5.008404364019154e-06 -2.92379037785214e-05 4.835266336477814e-06 5.25959153233276e-06 -7.735421278175804e-06
4.18887140839326e-06 -7.549872700226302e-07 5.4941789054848415e-06 -5.1071556202141676e-06 1.2037467018708001e-05 1.4534831728573935e-06 8.764750522921473e-06 -2.774226346898429e-06
-4.3042770869526754e-06 4.522158315103286e-06 -3.578180805004264e-05 -6.153806660629236e-06 4.838389849341154e-06 2.2728778532321486e-05 -7.502545416510361e-06 -3.530329861594528e-05
4.252578413772647e-05 5.355318467131428e-06 4.848075735603378e-07 -5.320132400557108e-06 6.080386524939705e-06 2.2166808639156088e-05 1.3571824760384626e-06 -5.772864262763275e-06
8.055606068695281e-06 2.9543938232954204e-05 3.8193357540184124e-05 -4.1746256392935586e-05 -2.9284310117238563e-05 -2.4018407990557675e-05 2.9257139480127326e-05 -2.5520153940677205e-05
-2.2698020196776907e-05 -2.95142754237974e-05 9.022799578006391e-06 -3.7443410293452845e-05 -4.19331768275838e-05 -2.917358388360552e-05 -3.745265034294129e-05 -4.133554026131685e-05
1.4321680411799319e-05 1.6365318811693777e-05 2.971655942598995e-05 -1.1375186991557672e-05 -3.783842384983022e-05 -2.9621301088983454e-05 -6.608990596173735e-06 -3.76053506709219e-05
3.729712333845996e-05 3.8254044863397905e-05 -1.0296285089857455e-05 3.737425845382434e-05 5.19249996592834e-05 -2.9032619527463977e-05 -2.8886069317437414e-05 -1.567809832472916e-05
2.9234376135695065e-05 2.9444073344223474e-05 -2.6267987486556678e-05 -2.8134188605251512e-05 -1.7633449327087512e-05 3.806618229903864e-05 -2.8785077909488092e-05 -2.678530231012374e-05
1.535638709129211e-05 -1.815663740552127e-05 3.53077750968929e-05 -3.7595811260388547e-05 3.5325173596971675e-05 2.1745226544985383e-05 2.40511843347181e-05 2.201598927230659e-05
2.1709002928428372e-05 3.819541426721376e-05 -6.668716263172348e-06 2.9387125016380096e-05 -1.6338302781922268e-05 2.523441050581687e-05 6.787391872576418e-06 -7.130041885215437e-06
-2.252647859088147e-06 3.748734087768757e-05 1.8436872894171096e-05 -3.9895960536609016e-05 -2.9498204573208062e-05 -8.031733741984902e-05 1.7599248858864216e-05 2.949812531639323e-05
-0.00022377046394711579 7.233870616048001e-05 -1.812423249171838e-05 8.22293140979014e-05 -6.87123029590268e-05 5.08450064105604e-05 6.830582658904045e-05 5.4257812897219385e-05
3.108828344992685e-05 -7.178272198748221e-05 0.00012051062285134629 3.8839745425679636e-05 6.426812357888111e-05 -7.352373387917695e-05 3.901653432420329e-05 5.244681929290076e-05
-5.4232691402015066e-05 3.030895207500515e-05 -8.242997460578685e-07 -1.8290840666008183e-05 3.137560325939526e-05 6.226277445002151e-06 5.153561884492478e-05 3.953503045838185e-05
-3.750293974097125e-05 -2.634851301280787e-05 -0.00010726830269023215 -3.517455065224302e-05 0.00023990875075209753 -7.362078293912077e-05 -6.666164397208886e-05 3.936656720701158e-05
6.821339492508673e-05 7.043866797736018e-05 -7.505853224576046e-05 -6.427589020970316e-05 0.00017503548164706843 -2.961469880229767e-05 -6.619959453969658e-05 4.752529513074833e-05
-4.069858021107153e-05 2.8211212485680447e-05 -4.24798230599124e-05 3.316948074556425e-05 -0.00012760091252488284 -7.911832923960681e-05 -5.092983493884231e-05 -1.0469085885481331e-05
4.781785453817787e-05 -2.6560444123541393e-05 0.00023063596079402583 7.196548686031172e-05 -3.0270025162909686e-05 -0.00015902231086279087 6.336858777324312e-05 0.00022840689413383951
-0.000202475385700401 -3.9153798279457764e-05 -2.701531010646846e-05 0.00010319333383571225 -7.168273773222878e-05 -0.00040423235940271725 -3.075270461174575e-05 6.975348939420926e-05
00000000: 4eb9 64b3 393f 05bf 3ca7 5bc2 2054 d4be
00000010: ed1d c723 9897 c5be d5fa ae46 5bdc e53e
00000020: 765e 0784 9b1b d23e 1119 35d4 000d e93e
00000030: a258 3dbd a8db d1be ab96 2bd2 dff5 e93e
00000040: a36f 5473 4d34 bb3e 596d 706a ce01 d43e
00000050: 071e 971b adfb fb3e 9c2c 5a4d 9ffc ef3e
00000060: b659 e5ee 97b2 e03e 79bd ce90 967b d43e
00000070: bb21 3f3c a0f6 ef3e 8dd9 ae13 f804 db3e
00000080: 3529 c5a6 b00a fabe 2dba 7b6d 3217 dc3e
00000090: ed46 60a2 6d38 bcbe 3880 4d84 1fd2 e5be
000000a0: f8a8 1726 b229 f03e 4730 472c cf9c bc3e
000000b0: 6abf 1f47 a76f e23e 02ed d6ac 06ff ef3e
000000c0: 5c5a 707e 7f01 f0be 2594 d481 5016 f0be
000000d0: 83e4 6c72 f41d 0d3f ff36 75ff cc0f f0be
000000e0: f304 30cf 74c1 073f 3d8e afa3 cd57 d43e
000000f0: b02f 28ff 6c7f d03e 7c23 ba90 c07a e43e
00000100: 83e8 84b9 abc7 d1be a534 f87f 6c37 d3be
00000110: c0e8 45c4 f36e d13e 863d 2abe a574 cc3e
00000120: 67b7 9148 705f fb3e 2fe1 987f 362d f0be
00000130: 5597 dfc8 1b1d d03e 0622 0a99 cf58 f03e
00000140: 3ffd fdad f0fb e4be ba23 272c b3c3 e03e
00000150: 56fe 27ef 3016 f0be 2bf9 6d40 a722 f03e
00000160: 643b 20fe 0437 f2be 9acc ede2 ac07 fdbe
00000170: c9dd 2b66 be0e e9be ac86 990a c79b d8be
00000180: dfc8 5a2b a12c b53e bdd9 6a41 a679 f0be
00000190: 5701 fc41 cfc2 053f 71cb 3517 57f4 d3be
000001a0: d6e4 9ab2 812e dcbe 27d3 464a fa0a f8be
000001b0: 043b 626d 6017 d03e 81b2 1ced 4398 053f
000001c0: d133 4ed0 f6ed 00bf e4b9 b5b2 eaf7 efbe
000001d0: 8ad0 1f73 f06c e0be b445 422a 5e50 ec3e
000001e0: 2957 8e0d e5f0 d33e 2ded a8c1 a568 05bf
000001f0: 486a 72fb e583 e1be 3f9a 3cc5 79ef d2be
00000200: 5a74 a9b8 63fe 013f 9e5f 4d3d 7fd7 d9be
00000210: 0e4a d7a0 b69a e3be 51c3 061e 3a12 a2be
00000220: 493b 540b 196f d73e fb86 00ca 7667 e2be
00000230: 98b7 854e be44 d7be 772e 4015 406d e1be
00000240: 7f16 b188 b4f5 cd3e fa3a df96 7886 d93e
00000250: afff 2e17 afb5 c1be f0c0 9014 4f77 d6be
00000260: 6e30 30e6 a611 c83e 2b19 a2fa 4650 db3e
00000270: 6856 51e3 307d d6be 9ce4 a052 dc16 d43e
00000280: 4051 3950 aefb af3e c8d3 c000 0d48 d4be
00000290: e4ae 904f e011 e3be 2b46 7210 f985 d33e
000002a0: 41ca 05c7 f2da d4be ea75 baf0 f715 e23e
000002b0: a5bf e431 d7a1 debe 2398 228f b557 d6be
000002c0: 2095 825b ee76 d63e 1164 eda6 7d58 d33e
000002d0: 8733 9783 c68a 97be 5fb6 b935 6c08 d63e
000002e0: 5062 2077 0c85 12bf fdae 7b60 556a db3e
000002f0: 6fa7 166d 5b49 d63e ccf3 6f03 0f8b cfbe
00000300: 21da 3042 5e34 d7be 0aa4 ee39 2070 d8be
00000310: 0337 2075 1c41 de3e d911 6eb5 bb01 d53e
00000320: 1c0b d272 7da8 febe 5acb dce3 d347 d43e
00000330: 128a 0483 710f d63e 89e4 8334 ec38 e0be
00000340: 70c5 8734 c491 d13e 3730 7e90 4a55 a9be
00000350: 22cb dd65 540b d73e 887a 503f c46b d5be
00000360: 40e0 97de 903e e93e aeb7 3aa6 a962 b83e
00000370: 8c0c aa23 8a61 e23e bf10 3110 9b45 c7be
00000380: 0599 33ad ae0d d2be fa3c 9b69 a1f7 d23e
00000390: 4668 1c90 8dc2 02bf 2ee1 9e7e 99cf d9be
000003a0: 9943 8a79 2e4b d43e e4bf 80c4 35d5 f73e
000003b0: 5181 18fb cb77 dfbe 3adc 9d1a 5482 02bf
000003c0: cb26 1ed1 b64b 063f ff17 34bb 3a76 d63e
000003d0: 563f f420 7744 a03e c0d7 e2db 7250 d6be
000003e0: bbf2 dfeb c380 d93e e44b 977d 5b3e f73e
000003f0: f7c4 d5e9 0dc5 b63e 8790 7ad8 9036 d8be
00000400: 6c70 5211 d2e4 e03e 50fd e0f9 a3fa fe3e
00000410: 2c00 c1c5 3906 043f 40ab 8f72 16e3 05bf
00000420: 32cc c377 f2b4 febe df4e dc6d 642f f9be
00000430: c8a0 dc50 a7ad fe3e ebab 01a0 83c2 fabe
00000440: a240 2412 f4cc f7be 62b9 3890 adf2 febe
00000450: 4eb2 a221 14ec e23e 9489 02c8 91a1 03bf
00000460: 7195 17fc 2cfc 05bf 8a44 436b 3997 febe
00000470: 0241 5844 cfa2 03bf 2903 4359 f6ab 05bf
00000480: 28cc 8bc4 e408 ee3e ba24 3625 0829 f13e
00000490: 1d9f 056a fa28 ff3e cfe5 b0cb 01db e7be
000004a0: ee30 ff57 96d6 03bf 3d93 a24f 680f ffbe
000004b0: 80e4 8880 59b8 dbbe b159 a202 4eb7 03bf
000004c0: 348a 5866 ef8d 033f 451b 18f9 5e0e 043f
000004d0: 01f7 bba5 c697 e5be 2af2 febd 4998 033f
000004e0: 8461 2e67 4139 0b3f e579 156c 6271 febe
000004f0: 9f35 8691 0b4a febe d520 8db6 8e70 f0be
00000500: 0e20 df07 8ba7 fe3e 7c50 2d50 d5df fe3e
00000510: c13a e05a 428b fbbe 62fb 26b8 3680 fdbe
00000520: 54ba 2a69 717d f2be 14af 8010 28f5 033f
00000530: 5300 e37d ef2e febe 1ee1 7ef5 1f16 fcbe
00000540: a919 aee2 321a f03e 8bce 2d9f e209 f3be
00000550: f6d2 28ea ed82 023f 1a7d 173d 06b6 03bf
00000560: 530f fcb8 4385 023f 4c15 f596 30cd f63e
00000570: d2a7 67cd 3038 f93e eaf3 3a43 df15 f73e
00000580: 160e 5b52 77c3 f63e f58a ea70 8006 043f
00000590: 4173 b7c4 7af8 dbbe 7442 99da 8bd0 fe3e
000005a0: 0e88 309e c721 f1be 36e9 567c cf75 fa3e
000005b0: 5b9c 5012 e877 dc3e af91 65fd d2e7 ddbe
000005c0: 644a d641 86e5 c2be a8ee 8339 77a7 033f
000005d0: ef10 0842 1c55 f33e 5421 17c4 beea 04bf
000005e0: 9dff d32e 5dee febe 09db 9e59 010e 15bf
000005f0: 11c8 2a2c 4374 f23e 6809 87bc 57ee fe3e
00000600: 1e18 20a6 7d54 2dbf 4d33 3f82 91f6 123f
00000610: 4214 e8c5 2f01 f3be 608f fadb 508e 153f
00000620: ac82 4c60 3403 12bf 0a20 1a1e 4da8 0a3f
00000630: b968 512a ede7 113f 7bed 6c41 5c72 0c3f
00000640: e756 2049 994c 003f bf9d fec5 41d1 12bf
00000650: 9ce0 61bc 5497 1f3f bc20 b97d fb5c 043f
00000660: 9969 aef4 f5d8 103f 8649 4521 1846 13bf
00000670: 93e2 51e9 b574 043f 4723 38fd 4a7f 0b3f
00000680: 03b5 6a16 fd6e 0cbf c1fb b653 ffc7 ff3e
00000690: 8c02 a64f aea8 abbe 42ba e7ff e82d f3be
000006a0: bdc4 e584 2973 003f 38de b41c 6a1d da3e
000006b0: d427 5161 fe04 0b3f 9039 8c4d 4dba 043f
000006c0: 3f5e 9132 8fa9 03bf 893f ea06 e0a0 fbbe
000006d0: 4919 6668 a71e 1cbf e32e 8d5b 0c71 02bf
000006e0: 2a42 1d7a 0072 2f3f 4dd6 8c6b 9b4c 13bf
000006f0: a926 b252 9679 11bf 2d2d 1ef3 b0a3 043f
00000700: 0393 8f33 b9e1 113f 0fd4 f119 0f77 123f
00000710: ec3e dfc3 17ad 13bf de54 af62 7bd9 10bf
00000720: 494b b056 37f1 263f 9eb7 fa9a a20d ffbe
00000730: 8c43 cd5f 945a 11bf 69c1 e0b4 bcea 083f
00000740: 858b 6891 7856 05bf 2b2e 96c2 e394 fd3e
00000750: 6bb1 339b 8b45 06bf e3e5 22ae ee63 013f
00000760: 5366 127e 93b9 20bf d86a e08b 8abd 14bf
00000770: 384e bacd afb3 0abf e286 3935 8cf4 e5be
00000780: b0e5 a3f8 0012 093f 6e93 71d2 c3d9 fbbe
00000790: c146 5ad1 db3a 2e3f b7e8 67a6 85dd 123f
000007a0: f42c 3c4a 8cbd ffbe 5328 bd3f e7d7 24bf
000007b0: a0a4 5e0c 989c 103f 62c0 ed47 10f0 2d3f
000007c0: c000 d551 f289 2abf b6c0 d643 2287 04bf
000007d0: 2dca 70f9 dd53 fcbe 8168 d8f9 2f0d 1b3f
000007e0: cdf0 960e 8cca 12bf c892 7cc3 e47d 3abf
000007f0: ea0b 73e2 8e1f 00bf 5fe3 aad2 1349 123f

bias f8 [64]
5.237928803420413e-05 -5.178322495263019e-05 7.377366061038295e-06 0.00030736967280469725 7.22678571011974e-05 -0.00018793239309783616 -0.0004409759952512963 3.7466088329526815e-05
0.554746454473444 0.5790151713556521 2.5865417604262667e-05 0.00011047223585192154 0.5656425787874708 1.0870953389788458e-05 0.423241790607444 1.0042193686697677e-05
0.5776907039517821 -3.9151044529331074e-05 0.46658606309104506 4.726178697275184e-05 -0.00028284719584931623 0.00012863136963088917 0.5363173384042172 3.390110598915642e-05
9.900318237198432e-05 -0.5674935883302856 -0.00010346568450436474 -0.00018969936655466527 -8.391711549143653e-05 -5.436848518866761e-05 5.328736978210139e-05 0.0001167480086512478
-8.564863797560754e-05 2.246829047636167e-05 -0.5950654916484236 0.5845283584815665 3.446851835238099e-05 -1.6912022212520553e-05 0.0004765691693660252 -0.72576995897354
8.36019150249909e-05 -0.5889030864085341 6.16234015977066e-05 8.185494885738877e-05 2.5543174357378645e-05 -0.00018514199202014972 0.5835113660452865 -8.957456523207292e-05
0.00031282039139950504 0.5695042841883672 0.0004019609572376234 0.501810055190492 9.310259490436724e-05 6.521001060984165e-05 -0.5793321423609591 0.3412161677437017
-2.973594533011739e-05 -2.0008054271919135e-05 3.338780364808263e-05 6.494306451043865e-05 6.246260629106789e-05 -0.0003409443914006662 -4.008310779924055e-05 -2.560853144615195e-05
00000000: 0563 fca1 3a76 0b3f 9c5a ac0f 3a26 0bbf
00000010: 09df 0df1 62f1 de3e 9d43 46b1 ce24 343f
00000020: 47f4 c954 d0f1 123f 56c8 e4f6 f6a1 28bf
00000030: 2551 597a 59e6 3cbf 8bf1 1ffe 9ca4 033f
00000040: f421 f1a2 7bc0 e13f 1588 1bd3 4a87 e23f
00000050: f156 9cf6 311f fb3e f65f 768f aaf5 1c3f
00000060: d8c0 2377 be19 e23f a0d3 0675 4ccc e63e
00000070: a967 3dbc 6416 db3f bbc9 4297 5c0f e53e
00000080: cba2 1537 717c e23f 06bb 98a5 c386 04bf
00000090: 25b5 6fca 8bdc dd3f aaac 9ba2 5ec7 083f
000000a0: 535c b874 6389 32bf 873a 360d 27dc 203f
000000b0: 022a 97fa 8229 e13f 351b d621 21c6 013f
000000c0: 8fbd d1b8 fdf3 193f 382f 5250 e828 e2bf
000000d0: 62df c0ec 761f 1bbf 4f00 9e26 41dd 28bf
000000e0: 634f 0211 95ff 15bf de30 32ed 3681 0cbf
000000f0: e21c 8315 1cf0 0b3f 7380 2084 d39a 1e3f
00000100: 25ef 6d65 c873 16bf 96fe 282a 498f f73e
00000110: e375 33c9 c60a e3bf 9d69 e8d0 74b4 e23f
00000120: e8e5 c345 4912 023f 9d63 2651 c9bb f1be
00000130: 9151 28ff 803b 3f3f 5ebd c6eb 8139 e7bf
00000140: 9280 b2f6 6dea 153f 726b 1449 4bd8 e2bf
00000150: f82e 66fa 7927 103f 4b24 3d50 3175 153f
00000160: 05c0 7593 b1c8 fa3e 7c12 089a 5544 28bf
00000170: 0348 4007 20ac e23f 6b42 1a50 3f7b 17bf
00000180: 42cb bf59 4180 343f 6fab 700c 6139 e23f
00000190: 940d 652a c957 3a3f 981b fbf5 d30e e03f
000001a0: 36a2 b166 0268 183f c6d3 a673 2b18 113f
000001b0: 2dc8 9e8f e389 e2bf 6fd7 5456 7cd6 d53f
000001c0: e339 749a 2e2e ffbe 766c 2305 dffa f4be
000001d0: b31c b232 3c81 013f 9d60 4a5a 4106 113f
000001e0: c642 ac67 cb5f 103f 9d21 c502 1958 36bf
000001f0: 6e41 d218 dd03 05bf 4365 86e1 3cda fabe

weight f8 [2, 64]
2.299243e-318 2.28737e-318 -2.325513e-318 2.379203e-318 -2.391016e-318 -2.42871e-318 -2.556755e-318 -2.64074e-318
-2.459024e-318 -2.671344e-318 2.35903e-318 2.367484e-318 2.64683e-318 2.313803e-318 -2.620895e-318 -2.690197e-318
2.40721e-318 -2.356056e-318 2.532413e-318 2.291585e-318 2.48817e-318 -2.454913e-318 -2.589383e-318 -2.561977e-318
-2.31385e-318 2.660395e-318 2.53097e-318 -2.3197e-318 2.656206e-318 2.62078e-318 2.557595e-318 -2.67629e-318
-2.466094e-318 2.450467e-318 2.26785e-318 2.33081e-318 2.560214e-318 2.63848e-318 2.37569e-318 2.568677e-318
-2.3886e-318 -2.40879e-318 -2.318166e-318 2.61616e-318 2.417606e-318 -2.2685e-318 2.603296e-318 2.372997e-318
2.709456e-318 2.515876e-318 -2.415225e-318 -2.54331e-318 2.28702e-318 -2.54274e-318 2.45465e-318 -2.41913e-318
2.55595e-318 -2.399425e-318 2.27132e-318 2.675677e-318 2.476277e-318 2.59209e-318 2.6541e-318 -2.35115e-318
-4.1541599726373814e-07 2.227322454988977e-07 5.643319290766976e-07 -1.0518044736508036e-06 -7.907746592453025e-07 -1.2933085096362882e-06 2.7739514828678263e-06 -6.733720979175066e-07
0.21890830047738127 0.3307348717825566 -1.2241825602498052e-07 -2.3966575930745623e-06 0.25497700459999545 -1.7356151368983037e-07 0.0819333579770642 -2.10896271609587e-06
0.33370832257984634 9.023296083811983e-08 0.1148411848341166 -2.2904069573474117e-06 2.505781530459912e-06 -4.4323257011781316e-07 0.18948566781265738 -4.138018242396609e-07
-9.790045240887119e-08 -0.26600306231630844 -1.359607775857288e-06 2.33023918553313e-06 5.941684541334669e-07 5.796856576397742e-07 -7.280870266506826e-07 2.1262706608230526e-07
1.8735497469126638e-06 -3.9382908706206417e-07 -0.4048458369258106 0.3529613447493266 -2.6073460692537255e-07 -1.8540818253132088e-06 1.5120738090785467e-05 -0.5704002517386058
-3.831058090280823e-07 -0.41842611531221 -1.355421135804856e-06 -1.8413282461988546e-06 -7.074787095201083e-07 -4.540987746723588e-07 0.35076710948749334 1.974121558742349e-06
-3.390564573162073e-06 0.29437790252471435 -3.1801695686859093e-06 0.14753973652165303 -7.881562798922704e-07 -1.3719497980525547e-06 -0.3248015115400192 0.15233697459193293
5.8548961450122104e-08 5.97178704127307e-08 -4.5678167002133104e-08 -4.524540503635589e-08 6.801447730388242e-09 1.765437636370919e-06 -3.0839880097686216e-07 1.2834488333496122e-07
00000000: dc19 0700 0000 0000 7910 0700 0000 0000
00000010: a12e 0700 0000 0080 1459 0700 0000 0000
00000020: 6b62 0700 0000 0080 3880 0700 0000 0080
00000030: 75e5 0700 0000 0080 dc27 0800 0000 0080
00000040: 3098 0700 0000 0080 0e40 0800 0000 0080
00000050: 2149 0700 0000 0000 d04f 0700 0000 0000
00000060: ac2c 0800 0000 0000 5f25 0700 0000 0000
00000070: 2b18 0800 0000 0080 f64e 0800 0000 0080
00000080: 396f 0700 0000 0000 c746 0700 0000 0080
00000090: 36d2 0700 0000 0000 ce13 0700 0000 0000
000000a0: 3baf 0700 0000 0000 f094 0700 0000 0080
000000b0: 41ff 0700 0000 0080 96e9 0700 0000 0080
000000c0: 6825 0700 0000 0080 6637 0800 0000 0000
000000d0: 12d1 0700 0000 0000 092a 0700 0000 0080
000000e0: 1634 0800 0000 0000 1418 0800 0000 0000
000000f0: 1fe6 0700 0000 0000 f743 0800 0000 0080
00000100: c79d 0700 0000 0080 6c91 0700 0000 0000
00000110: 0a01 0700 0000 0000 d132 0700 0000 0000
00000120: 31e8 0700 0000 0000 1226 0800 0000 0000
00000130: 4d56 0700 0000 0000 e2ee 0700 0000 0000
00000140: 8260 0700 0000 0080 7970 0700 0000 0080
00000150: d228 0700 0000 0080 6d14 0800 0000 0000
00000160: 7177 0700 0000 0000 8e01 0700 0000 0080
00000170: 410a 0800 0000 0000 2c54 0700 0000 0000
00000180: 305e 0800 0000 0000 23c5 0700 0000 0000
00000190: 8f75 0700 0000 0080 d4da 0700 0000 0080
000001a0: 3210 0700 0000 0000 60da 0700 0000 0080
000001b0: bb94 0700 0000 0000 a578 0700 0000 0080
000001c0: d2e4 0700 0000 0000 1169 0700 0000 0080
000001d0: c803 0700 0000 0000 7b43 0800 0000 0000
000001e0: d4a5 0700 0000 0000 6501 0800 0000 0000
000001f0: 6c32 0800 0000 0000 e642 0700 0000 0080
00000200: 05c4 9ee0 cae0 9bbe 7f86 ea8c 05e5 8d3e
00000210: 4d19 3009 93ef a23e 289b b93f 77a5 b1be
00000220: f3c1 96dd b388 aabe 552b a1be b7b2 b5be
00000230: f3b2 84f4 0345 c73e 446a 28e7 3898 a6be
00000240: 17c8 afeb 2f05 cc3f 3bfb 7c98 c22a d53f
00000250: 58d5 1b5e 426e 80be 97d7 1872 c81a c4be
00000260: 234c ff11 8b51 d03f 808f 3038 874b 87be
00000270: fd83 f6a4 95f9 b43f f2c7 b283 f6b0 c1be
00000280: 958a f826 7a5b d53f a69d ce08 c338 783e
00000290: 1caf 185d 3b66 bd3f bf17 7d8a 9c36 c3be
000002a0: 1ecf f6f6 1f05 c53e 4bbf 6775 adbe 9dbe
000002b0: 6b75 28fd 1041 c83f aadc 5cab 0fc5 9bbe
000002c0: 42ed fcf8 aa47 7abe 8633 52b5 3106 d1bf
000002d0: da88 0b8f 78cf b6be 8535 3d8a 268c c33e
000002e0: 642f 943f deef a33e dca1 f73d 7673 a33e
000002f0: 935a bd4d 386e a8be 1ce0 c973 cf89 8c3e
00000300: 36e5 60bb d56e bf3e 4d62 6fa4 ee6d 9abe
00000310: a528 6183 fee8 d9bf a2d5 1c2e eb96 d63f
00000320: 6cde a5ed 627f 91be 0685 9986 381b bfbe
00000330: e374 3e6b e2b5 ef3e 8c1e 5b07 b840 e2bf
00000340: ec11 b22a b5b5 99be a5ba 4354 7ec7 dabf
00000350: e640 a24c 7dbd b6be b92a 37d1 71e4 bebe
00000360: 7a27 9222 32bd a7be 6ad8 1988 5b79 9ebe
00000370: 14b8 f0e3 f772 d63f 58b0 e2cd 648f c03e
00000380: 8325 2296 2e71 ccbe ef8e 006a 16d7 d23f
00000390: 2112 a4b5 5cad cabe 4e48 9c03 95e2 c23f
000003a0: 69d7 0dfd 3572 aabe fb7c 74c1 7a04 b7be
000003b0: 315e 7047 8cc9 d4bf 0f06 ec29 c77f c33f
000003c0: 727c f071 e86e 6f3e 8529 f0e2 c707 703e
000003d0: 7390 c79f f585 68be 901f 862a 7b4a 68be
000003e0: 412f 6d57 4536 3d3e 0ce5 9435 7f9e bd3e
000003f0: 414c 4a45 40b2 94be 1e91 6188 e539 813e

bias f8 [2]
2.24765e-318 0.7861292578067067
00000000: 11f1 0600 0000 0000 82ac 968b f827 e93f

weight f8 [64, 2]
0.0038215604298250548 2.649985e-318 0.0038215604294622595 2.4074e-318 0.0038215604290329826 -2.487067e-318 0.0038215604304037715 -2.566266e-318
-0.0038215604304386508 -2.6421e-318 -0.003821560429370837 2.54389e-318 0.0038215604288267496 -2.411016e-318 0.003821560429139244 2.613933e-318
0.0038215604301005727 -2.24349e-318 -0.00382156043015702 2.656882e-318 0.003821560428827674 2.49697e-318 0.003821560428835352 2.587254e-318
0.0038215604304335927 2.35748e-318 0.0038215604299481776 -2.572165e-318 0.003821560430400712 -2.391554e-318 -0.0038215604304339735 -2.46326e-318
0.0038215604303969636 2.382513e-318 0.0038215604300875805 -2.659264e-318 0.0038215604301036392 -2.387617e-318 0.0038215604300598947 2.520837e-318
-0.003821560430434047 -2.31618e-318 -0.003821560430066234 -2.450254e-318 -0.0038215604299915258 -2.360725e-318 0.0038215604290277798 2.702895e-318
0.003821560430433829 2.26165e-318 0.0038215604287523217 -2.304806e-318 0.0038215604304340073 -2.386485e-318 0.003821560430405099 -2.40921e-318
-0.0038215604304340793 2.44491e-318 0.003821560430433144 2.25616e-318 -0.0038215604304069318 -2.64345e-318 -0.003821560429965663 2.47156e-318
0.0038215604304044906 2.480363e-318 0.0038215604304035864 -2.404e-318 -0.003821560429663683 -2.43255e-318 -0.003821560428979179 -2.28792e-318
0.0038215604304294506 2.464227e-318 0.0038215604304030317 2.50867e-318 -0.003821560428837039 -2.38323e-318 0.0038215604301201555 -2.450763e-318
-0.0038215604304339917 -2.42386e-318 -0.003821560430433674 -2.507003e-318 0.003821560429126936 2.53916e-318 -0.003821560430404642 2.293384e-318
-0.023462353552826696 -2.492695e-318 -0.0038215604297727698 2.64953e-318 0.0038215604304339063 2.41594e-318 0.003821560430010107 -2.535016e-318
0.0038215604293018127 -2.51697e-318 -0.00382156043040513 -2.60105e-318 0.0038215604304383793 -2.498673e-318 0.003821560428614361 2.37284e-318
-0.003821560428920721 -2.71488e-318 0.003821560428683141 -2.39684e-318 -0.003821560428767188 -2.374677e-318 0.003821560430405487 -2.24804e-318
0.0038215604304096514 2.43624e-318 0.003821560430087976 -2.55858e-318 0.003821560429635834 2.52365e-318 0.0038215604298665845 2.545125e-318
0.003821560429516098 2.663646e-318 -0.0038215604288802975 -2.3636e-318 -0.003821560430433536 2.63308e-318 0.0038215604291031787 -2.54587e-318
00000000: e6eb 1aa2 644e 6f3f 2b2f 0800 0000 0000
00000010: 2128 0ea2 644e 6f3f 5f6f 0700 0000 0000
00000020: 8c0d ffa1 644e 6f3f 5cae 0700 0000 0080
00000030: 8448 2fa2 644e 6f3f faec 0700 0000 0080
00000040: ae82 30a2 644e 6fbf ef28 0800 0000 0080
00000050: abf0 0aa2 644e 6fbf 49db 0700 0000 0000
00000060: f7cb f7a1 644e 6f3f 3b72 0700 0000 0080
00000070: aaca 02a2 644e 6f3f aa12 0800 0000 0000
00000080: 8b9d 24a2 644e 6f3f c7ed 0600 0000 0080
00000090: fa99 26a2 644e 6fbf 9f34 0800 0000 0000
000000a0: 4bd4 f7a1 644e 6f3f 30b6 0700 0000 0000
000000b0: 7319 f8a1 644e 6f3f 92fd 0700 0000 0000
000000c0: 1f55 30a2 644e 6f3f e747 0700 0000 0000
000000d0: e440 1fa2 644e 6f3f a4f1 0700 0000 0080
000000e0: f52c 2fa2 644e 6f3f d862 0700 0000 0080
000000f0: 8d58 30a2 644e 6fbf 899b 0700 0000 0080
00000100: 320b 2fa2 644e 6f3f b25b 0700 0000 0000
00000110: 8528 24a2 644e 6f3f 8136 0800 0000 0080
00000120: 2ab9 24a2 644e 6f3f bb5f 0700 0000 0080
00000130: 262f 23a2 644e 6f3f 0fc9 0700 0000 0000
00000140: 3659 30a2 644e 6fbf 4027 0700 0000 0080
00000150: 3f68 23a2 644e 6fbf 4191 0700 0000 0080
00000160: 56c7 20a2 644e 6fbf 784a 0700 0000 0080
00000170: afde fea1 644e 6f3f 0059 0800 0000 0000
00000180: 4057 30a2 644e 6f3f 23fc 0600 0000 0000
00000190: 942d f5a1 644e 6f3f 421e 0700 0000 0080
000001a0: db58 30a2 644e 6f3f d65e 0700 0000 0080
000001b0: 7954 2fa2 644e 6f3f ce70 0700 0000 0080
000001c0: 8159 30a2 644e 6fbf 078d 0700 0000 0000
000001d0: 1451 30a2 644e 6f3f ccf7 0600 0000 0000
000001e0: fb64 2fa2 644e 6fbf 002a 0800 0000 0080
000001f0: 62de 1fa2 644e 6fbf 19a2 0700 0000 0000
00000200: fe4e 2fa2 644e 6f3f 0fa9 0700 0000 0000
00000210: d946 2fa2 644e 6f3f af6c 0700 0000 0080
00000220: 643e 15a2 644e 6fbf 4283 0700 0000 0080
00000230: ed28 fda1 644e 6fbf e810 0700 0000 0080
00000240: d02f 30a2 644e 6f3f 4d9c 0700 0000 0000
00000250: da41 2fa2 644e 6f3f 70bf 0700 0000 0000
00000260: a528 f8a1 644e 6fbf 435c 0700 0000 0080
00000270: ee4d 25a2 644e 6f3f a891 0700 0000 0080
00000280: b758 30a2 644e 6fbf 637c 0700 0000 0080
00000290: da55 30a2 644e 6fbf 1fbe 0700 0000 0080
000002a0: ce5b 02a2 644e 6f3f 8cd7 0700 0000 0000
000002b0: 5b50 2fa2 644e 6fbf 3a15 0700 0000 0000
000002c0: 494c c9e4 8306 98bf cfb2 0700 0000 0080
000002d0: f514 19a2 644e 6fbf cf2e 0800 0000 0000
000002e0: f257 30a2 644e 6f3f 2076 0700 0000 0000
000002f0: b36e 21a2 644e 6f3f 45d4 0700 0000 0080
00000300: f482 08a2 644e 6f3f 00c6 0700 0000 0080
00000310: c054 2fa2 644e 6fbf 7a08 0800 0000 0080
00000320: 3c80 30a2 644e 6f3f 89b7 0700 0000 0080
00000330: f052 f0a1 644e 6f3f 0c54 0700 0000 0000
00000340: 621a fba1 644e 6fbf 7a62 0800 0000 0080
00000350: 74be f2a1 644e 6f3f 0667 0700 0000 0080
00000360: 7bb3 f5a1 644e 6fbf 8055 0700 0000 0080
00000370: f857 2fa2 644e 6f3f 60f1 0600 0000 0080
00000380: 7a7d 2fa2 644e 6f3f 2c86 0700 0000 0000
00000390: 152c 24a2 644e 6f3f e6e6 0700 0000 0080
000003a0: 8d43 14a2 644e 6f3f 48cb 0700 0000 0000
000003b0: f761 1ca2 644e 6f3f 43dc 0700 0000 0000
000003c0: 100d 10a2 644e 6f3f f839 0800 0000 0000
000003d0: 48ae f9a1 644e 6fbf be4c 0700 0000 0080
000003e0: 9c54 30a2 644e 6fbf cd21 0800 0000 0000
000003f0: d185 01a2 644e 6f3f dadc 0700 0000 0080

bias f8 [64]
0.20252321547736565 0.20252321537609835 0.20252321525627326 0.2025232156389021 -0.20252321564863687 -0.20252321535058154 0.20252321519871008 0.20252321528593575
0.20252321555427327 -0.2025232155700256 0.20252321519896926 0.20252321520111288 0.2025232156472218 0.20252321551173236 0.20252321563804848 -0.2025232156473306
0.20252321563700063 0.20252321555064157 0.20252321555512437 0.20252321554291525 -0.20252321564735365 -0.20252321554468333 -0.20252321552383173 0.2025232152548232
0.20252321564729214 0.2025232151779371 0.20252321564734013 0.20252321563927084 -0.2025232156473592 0.2025232156470982 -0.20252321563978395 -0.2025232155166108
0.20252321563909811 0.20252321563884834 -0.20252321543232168 -0.20252321524125624 0.2025232156460685 0.20252321563869466 -0.20252321520158303 0.2025232155597335
-0.2025232156473372 -0.20252321564724599 0.2025232152825011 -0.20252321563914422 0.346128215799125 -0.2025232154627696 0.2025232156473119 0.2025232155290155
0.20252321533131254 -0.2025232156392783 0.20252321564856213 0.20252321513942503 -0.2025232152249402 0.20252321515862598 -0.20252321518208563 0.2025232156393784
0.20252321564053935 0.2025232155507562 0.20252321542455032 0.20252321548895508 0.20252321539112728 -0.20252321521365657 -0.20252321564720913 0.2025232152758722
00000000: 55f9 93dd 47ec c93f 3a4d 5cdd 47ec c93f
00000010: 586d 1add 47ec c93f 91c7 ecdd 47ec c93f
00000020: 9d21 f2dd 47ec c9bf 0e46 4edd 47ec c9bf
00000030: 0cc8 fadc 47ec c93f f8bb 2add 47ec c93f
00000040: 1e41 bedd 47ec c93f 0fea c6dd 47ec c9bf
00000050: 86ec fadc 47ec c93f 361a fcdc 47ec c93f
00000060: 765a f1dd 47ec c93f 04de a6dd 47ec c93f
00000070: 6e4f ecdd 47ec c93f c669 f1dd 47ec c9bf
00000080: f5bb ebdd 47ec c93f 0042 bcdd 47ec c93f
00000090: e6b8 bedd 47ec c93f 9e02 b8dd 47ec c93f
000000a0: 046d f1dd 47ec c9bf 74fb b8dd 47ec c9bf
000000b0: da84 addd 47ec c9bf 44a1 19dd 47ec c93f
000000c0: 5c64 f1dd 47ec c93f 825c efdc 47ec c93f
000000d0: 1d6b f1dd 47ec c93f 76fb ecdd 47ec c93f
000000e0: cc6d f1dd 47ec c9bf 1049 f1dd 47ec c93f
000000f0: ad43 eddd 47ec c9bf 988c a9dd 47ec c9bf
00000100: 27e3 ecdd 47ec c93f 00c0 ecdd 47ec c93f
00000110: f535 7bdd 47ec c9bf e32b 12dd 47ec c9bf
00000120: 26b8 f0dd 47ec c93f 5faa ecdd 47ec c93f
00000130: 615c fcdc 47ec c9bf 9341 c1dd 47ec c93f
00000140: b36a f1dd 47ec c9bf dd5d f1dd 47ec c9bf
00000150: 96d8 28dd 47ec c93f a4e9 ecdd 47ec c9bf
00000160: e81f c5f5 f626 d63f 1ff3 8bdd 47ec c9bf
00000170: 2467 f1dd 47ec c93f 675e b0dd 47ec c93f
00000180: 2fae 43dd 47ec c93f 83fc ecdd 47ec c9bf
00000190: 1817 f2dd 47ec c93f 6b30 dadc 47ec c93f
000001a0: 9c33 09dd 47ec c9bf b6be e4dc 47ec c93f
000001b0: 5da4 f1dc 47ec c9bf 990a eddd 47ec c93f
000001c0: fdad eddd 47ec c93f 2252 bcdd 47ec c93f
000001d0: 3cf0 76dd 47ec c93f 6658 9add 47ec c93f
000001e0: 5c90 64dd 47ec c93f 94ff 02dd 47ec c9bf
000001f0: ad58 f1dd 47ec c9bf a633 25dd 47ec c93f

weight f8 [64, 64]
0.014909555448329946 0.014909555436735685 0.014909555423016986 0.014909555466824289 -0.014909555467938922 -0.014909555433814383 0.014909555416426513 0.014909555426412778
0.01490955545713498 -0.01490955545893873 0.01490955541645591 0.014909555416701557 0.014909555467776912 0.014909555452264632 0.014909555466726761 -0.014909555467789366
0.014909555466606614 0.014909555456719356 0.014909555457232574 0.014909555455834795 -0.014909555467792185 -0.014909555456037315 -0.014909555453650015 0.014909555422850962
0.014909555467784934 0.014909555414047834 0.014909555467790483 0.01490955546686682 -0.014909555467792863 0.01490955546776279 -0.014909555466925413 -0.014909555452823096
0.014909555466847059 0.014909555466818323 -0.014909555443172608 -0.014909555421297547 0.014909555467645169 0.014909555466800593 -0.01490955541675521 0.01490955545776031
-0.01490955546779014 -0.014909555467779749 0.014909555426019709 -0.014909555466852294 0.2807391823921277 -0.014909555446658751 0.014909555467787277 0.014909555454243452
0.014909555431608122 -0.014909555466867591 0.014909555467930711 0.014909555409638686 -0.014909555419429475 0.0149095554118373 -0.014909555414522975 0.014909555466879222
0.01490955546701192 0.014909555456732344 0.014909555442283161 0.01490955544965668 0.014909555438456316 -0.014909555418137576 -0.014909555467775261 0.014909555425260438
-0.014909557735927156 -0.014909557724332568 -0.014909557710613797 -0.014909557754421479 0.014909557755536144 0.014909557721411478 -0.014909557704023402 -0.014909557714009902
-0.014909557744732092 0.014909557746535676 -0.01490955770405292 -0.014909557704298467 -0.01490955775537429 -0.014909557739861771 -0.014909557754323963 0.014909557755386563
-0.014909557754203636 -0.01490955774431639 -0.01490955774482948 -0.01490955774343175 0.014909557755389286 0.01490955774363431 0.014909557741247092 -0.014909557710447899
-0.0149095577553822 -0.014909557701644914 -0.014909557755387578 -0.014909557754463884 0.014909557755389888 -0.0149095577553597 0.014909557754522544 0.014909557740420314
-0.014909557754444068 -0.014909557754415286 0.014909557730769844 0.014909557708894473 -0.014909557755241836 -0.014909557754397701 0.014909557704352167 -0.014909557745357491
0.014909557755387354 0.01490955775537685 -0.014909557713616834 0.014909557754449356 -0.28073942690296394 0.014909557734255676 -0.014909557755384375 -0.014909557741840546
-0.014909557719205114 0.014909557754464672 -0.014909557755527547 -0.01490955769723566 0.014909557707026481 -0.01490955769943407 0.014909557702120102 -0.014909557754476206
-0.014909557754608995 -0.014909557744329182 -0.014909557729880092 -0.014909557737253805 -0.014909557726053435 0.014909557705734825 0.014909557755372466 -0.014909557712857444
0.01490955592265179 0.014909555911057483 0.014909555897338816 0.01490955594114616 -0.014909555942260849 -0.014909555908136276 0.014909555890748348 0.014909555900734554
0.014909555931456897 -0.014909555933260809 0.01490955589077785 0.014909555891023546 0.014909555942099037 0.014909555926586547 0.01490955594104863 -0.014909555942111451
0.014909555940928567 0.014909555931041164 0.014909555931554427 0.014909555930156743 -0.014909555942113998 -0.014909555930359152 -0.01490955592797179 0.014909555897172813
0.014909555942107062 0.014909555888369676 0.01490955594211246 0.014909555941188663 -0.014909555942114648 0.014909555942084561 -0.014909555941247545 -0.014909555927144965
0.01490955594116898 0.014909555941140155 -0.014909555917494587 -0.014909555895619306 0.014909555941966711 0.014909555941122518 -0.014909555891077054 0.014909555932082298
-0.014909555942112181 -0.014909555942101516 0.014909555900341414 -0.014909555941174251 0.280739233090254 -0.014909555920980564 0.014909555942109137 0.014909555928565344
0.01490955590593005 -0.014909555941189537 0.014909555942252264 0.014909555883960294 -0.014909555893751225 0.01490955588615892 -0.014909555888844881 0.01490955594120082
0.014909555941333552 0.014909555931054174 0.01490955591660493 0.01490955592397853 0.01490955591277807 -0.014909555892459564 -0.014909555942097426 0.014909555899582377
-0.014909557330483998 -0.014909557318889714 -0.014909557305171102 -0.014909557348978562 0.01490955735009309 0.014909557315968443 -0.014909557298580553 -0.014909557308567094
-0.014909557339289097 0.014909557341093052 -0.014909557298610163 -0.014909557298855508 -0.014909557349931475 -0.014909557334418757 -0.014909557348880928 0.014909557349943578
-0.014909557348760814 -0.014909557338873574 -0.014909557339386832 -0.014909557337988946 0.01490955734994621 0.014909557338191595 0.01490955733580419 -0.014909557305004909
-0.014909557349939238 -0.014909557296201845 -0.014909557349944626 -0.014909557349020908 0.014909557349946758 -0.014909557349916855 0.014909557349079549 0.014909557334977314
-0.014909557349001163 -0.01490955734897258 0.01490955732532694 0.014909557303451542 -0.014909557349799051 -0.01490955734895486 0.014909557298909196 -0.014909557339914519
0.014909557349944322 0.014909557349933893 -0.014909557308173666 0.01490955734900648 -0.28073938356702927 0.014909557328812903 -0.014909557349941517 -0.014909557336397554
-0.014909557313762202 0.014909557349021784 -0.014909557350084666 -0.014909557291792793 0.014909557301583574 -0.014909557293991245 0.014909557296677282 -0.014909557349033266
-0.014909557349166123 -0.0149095573388866 -0.014909557324437123 -0.014909557331810881 -0.014909557320610438 0.01490955730029176 0.014909557349929806 -0.014909557307414726
00000000: 3f47 63a8 e688 8e3f 4b4b fda7 e688 8e3f
00000010: 879f 84a7 e688 8e3f cef4 05a9 e688 8e3f
00000020: bcc2 0fa9 e688 8ebf 1b99 e3a7 e688 8ebf
00000030: 1aa7 4aa7 e688 8e3f 2c7e a2a7 e688 8e3f
00000040: 6cba b0a8 e688 8e3f 1b98 c0a8 e688 8ebf
00000050: 4ce9 4aa7 e688 8e3f 7212 4da7 e688 8e3f
00000060: ec55 0ea9 e688 8e3f 5fe3 85a8 e688 8e3f
00000070: 3119 05a9 e688 8e3f f771 0ea9 e688 8ebf
00000080: a50a 04a9 e688 8e3f 8512 ada8 e688 8e3f
00000090: 2f96 b1a8 e688 8e3f aa4a a5a8 e688 8e3f
000000a0: 5078 0ea9 e688 8ebf b312 a7a8 e688 8ebf
000000b0: fa12 92a8 e688 8ebf ad29 83a7 e688 8e3f
000000c0: fc67 0ea9 e688 8e3f cbba 35a7 e688 8e3f
000000d0: 7b74 0ea9 e688 8e3f 9354 06a9 e688 8e3f
000000e0: d779 0ea9 e688 8ebf 1f36 0ea9 e688 8e3f
000000f0: 84d8 06a9 e688 8ebf eccc 8aa8 e688 8ebf
00000100: 1428 06a9 e688 8e3f 5fe7 05a9 e688 8e3f
00000110: f4e9 35a8 e688 8ebf b27f 75a7 e688 8ebf
00000120: 432d 0da9 e688 8e3f 72bf 05a9 e688 8e3f
00000130: 438b 4da7 e688 8ebf 8a3a b6a8 e688 8e3f
00000140: b573 0ea9 e688 8ebf 4f5c 0ea9 e688 8ebf
00000150: 0f09 9fa7 e688 8e3f de33 06a9 e688 8ebf
00000160: 301e c579 a1f7 d13f 0d94 54a8 e688 8ebf
00000170: 436d 0ea9 e688 8e3f 474b 97a8 e688 8e3f
00000180: 0c31 d0a7 e688 8e3f 5056 06a9 e688 8ebf
00000190: 3fb0 0fa9 e688 8e3f 46f2 0ea7 e688 8e3f
000001a0: 2c11 65a7 e688 8ebf 1d49 22a7 e688 8e3f
000001b0: b7e8 39a7 e688 8ebf 8170 06a9 e688 8e3f
000001c0: 509b 07a9 e688 8e3f c42f ada8 e688 8e3f
000001d0: 1917 2ea8 e688 8e3f c9f2 6ea8 e688 8e3f
000001e0: cf6d 0ca8 e688 8e3f 13b4 59a7 e688 8ebf
000001f0: 3452 0ea9 e688 8ebf 555b 98a7 e688 8e3f
00000200: 3832 fdf6 e688 8ebf 8735 97f6 e688 8ebf
00000210: 9a89 1ef6 e688 8ebf bbdf 9ff7 e688 8ebf
00000220: bcad a9f7 e688 8e3f d183 7df6 e688 8e3f
00000230: 5a91 e4f5 e688 8ebf f368 3cf6 e688 8ebf
00000240: 2ca5 4af7 e688 8ebf 7b82 5af7 e688 8e3f
00000250: d2d3 e4f5 e688 8ebf befc e6f5 e688 8ebf
00000260: 4541 a8f7 e688 8ebf 2fce 1ff7 e688 8ebf
00000270: 2504 9ff7 e688 8ebf e85c a8f7 e688 8e3f
00000280: 31f5 9df7 e688 8ebf 18fd 46f7 e688 8ebf
00000290: 7880 4bf7 e688 8ebf 1035 3ff7 e688 8ebf
000002a0: 0a63 a8f7 e688 8e3f 30fd 40f7 e688 8e3f
000002b0: a6fd 2bf7 e688 8e3f 0814 1df6 e688 8ebf
000002c0: 1553 a8f7 e688 8ebf 79a5 cff5 e688 8ebf
000002d0: 315f a8f7 e688 8ebf 383f a0f7 e688 8ebf
000002e0: 6564 a8f7 e688 8e3f 6b20 a8f7 e688 8ebf
000002f0: 4fc3 a0f7 e688 8e3f e9b7 24f7 e688 8e3f
00000300: 9912 a0f7 e688 8ebf c9d1 9ff7 e688 8ebf
00000310: fcd4 cff6 e688 8e3f 076a 0ff6 e688 8e3f
00000320: 0317 a7f7 e688 8ebf 30aa 9ff7 e688 8ebf
00000330: aa75 e7f5 e688 8e3f 7225 50f7 e688 8ebf
00000340: b05e a8f7 e688 8e3f 0947 a8f7 e688 8e3f
00000350: d7f3 38f6 e688 8ebf 811e a0f7 e688 8e3f
00000360: acbe 4f80 a2f7 d1bf 617e eef6 e688 8e3f
00000370: fb57 a8f7 e688 8ebf fd35 31f7 e688 8ebf
00000380: 871b 6af6 e688 8ebf fe40 a0f7 e688 8e3f
00000390: 609a a9f7 e688 8ebf b7dc a8f5 e688 8ebf
000003a0: affb fef5 e688 8e3f 1833 bcf5 e688 8ebf
000003b0: 80d3 d3f5 e688 8e3f f75a a0f7 e688 8ebf
000003c0: fb85 a1f7 e688 8ebf e619 47f7 e688 8ebf
000003d0: 7101 c8f6 e688 8ebf 91dd 08f7 e688 8ebf
000003e0: 9358 a6f6 e688 8ebf 229f f3f5 e688 8e3f
000003f0: 2a3d a8f7 e688 8e3f d845 32f6 e688 8ebf
00000400: 1675 afb8 e688 8e3f 0779 49b8 e688 8e3f
00000410: 56cd d0b7 e688 8e3f b522 52b9 e688 8e3f
00000420: c3f0 5bb9 e688 8ebf 0ec7 2fb8 e688 8ebf
00000430: ecd4 96b7 e688 8e3f dcab eeb7 e688 8e3f
00000440: 6de8 fcb8 e688 8e3f 79c6 0cb9 e688 8ebf
00000450: 5b17 97b7 e688 8e3f 9d40 99b7 e688 8e3f
00000460: 6584 5ab9 e688 8e3f 5f11 d2b8 e688 8e3f
00000470: 1647 51b9 e688 8e3f 59a0 5ab9 e688 8ebf
00000480: bb38 50b9 e688 8e3f 4740 f9b8 e688 8e3f
00000490: 0bc4 fdb8 e688 8e3f bd78 f1b8 e688 8e3f
000004a0: 15a6 5ab9 e688 8ebf 8640 f3b8 e688 8ebf
000004b0: a940 deb8 e688 8ebf 8857 cfb7 e688 8e3f
000004c0: 7796 5ab9 e688 8e3f a1e8 81b7 e688 8e3f
000004d0: 9fa2 5ab9 e688 8e3f 6a82 52b9 e688 8e3f
000004e0: 8ca7 5ab9 e688 8ebf cc63 5ab9 e688 8e3f
000004f0: 0107 53b9 e688 8ebf d1fa d6b8 e688 8ebf
00000500: 1756 52b9 e688 8e3f 2f15 52b9 e688 8e3f
00000510: 1918 82b8 e688 8ebf 58ad c1b7 e688 8ebf
00000520: 6c5a 59b9 e688 8e3f 78ed 51b9 e688 8e3f
00000530: 1ab9 99b7 e688 8ebf b468 02b9 e688 8e3f
00000540: fea1 5ab9 e688 8ebf fa89 5ab9 e688 8ebf
00000550: 9636 ebb7 e688 8e3f f661 52b9 e688 8ebf
00000560: abe9 34b0 a1f7 d13f d2c1 a0b8 e688 8ebf
00000570: 239b 5ab9 e688 8e3f 3a79 e3b8 e688 8e3f
00000580: 135f 1cb8 e688 8e3f 6284 52b9 e688 8ebf
00000590: 6edd 5bb9 e688 8e3f 951f 5bb7 e688 8e3f
000005a0: cd3e b1b7 e688 8ebf 7376 6eb7 e688 8e3f
000005b0: b216 86b7 e688 8ebf ca9d 52b9 e688 8e3f
000005c0: adc8 53b9 e688 8e3f 935d f9b8 e688 8e3f
000005d0: c544 7ab8 e688 8e3f a420 bbb8 e688 8e3f
000005e0: 729b 58b8 e688 8e3f 3de2 a5b7 e688 8ebf
000005f0: c480 5ab9 e688 8ebf 6389 e4b7 e688 8e3f
00000600: 64e1 0ee9 e688 8ebf 62e5 a8e8 e688 8ebf
00000610: d139 30e8 e688 8ebf 728f b1e9 e688 8ebf
00000620: 245d bbe9 e688 8e3f 4433 8fe8 e688 8e3f
00000630: 3841 f6e7 e688 8ebf e918 4ee8 e688 8ebf
00000640: b654 5ce9 e688 8ebf db32 6ce9 e688 8e3f
00000650: e583 f6e7 e688 8ebf 5dac f8e7 e688 8ebf
00000660: 37f1 b9e9 e688 8ebf ae7d 31e9 e688 8ebf
00000670: 98b3 b0e9 e688 8ebf 780c bae9 e688 8e3f
00000680: 1fa5 afe9 e688 8ebf 09ad 58e9 e688 8ebf
00000690: ca30 5de9 e688 8ebf 08e5 50e9 e688 8ebf
000006a0: 6512 bae9 e688 8e3f 5bad 52e9 e688 8e3f
000006b0: 66ad 3de9 e688 8e3f 95c3 2ee8 e688 8ebf
000006c0: b202 bae9 e688 8ebf d854 e1e7 e688 8ebf
000006d0: d40e bae9 e688 8ebf cdee b1e9 e688 8ebf
000006e0: a113 bae9 e688 8e3f 4bd0 b9e9 e688 8ebf
000006f0: d972 b2e9 e688 8e3f 7067 36e9 e688 8e3f
00000700: 57c2 b1e9 e688 8ebf fa81 b1e9 e688 8ebf
00000710: ba84 e1e8 e688 8e3f b619 21e8 e688 8e3f
00000720: 06c7 b8e9 e688 8ebf 135a b1e9 e688 8ebf
00000730: 4225 f9e7 e688 8e3f 09d5 61e9 e688 8ebf
00000740: 250e bae9 e688 8e3f a9f6 b9e9 e688 8e3f
00000750: fda2 4ae8 e688 8ebf 50ce b1e9 e688 8e3f
00000760: 5fa7 c751 a2f7 d1bf 6b2e 00e9 e688 8e3f
00000770: d407 bae9 e688 8ebf 89e5 42e9 e688 8ebf
00000780: 41cb 7be8 e688 8ebf c6f0 b1e9 e688 8e3f
00000790: 2c4a bbe9 e688 8ebf 8b8c bae7 e688 8ebf
000007a0: 6cab 10e8 e688 8e3f 04e3 cde7 e688 8ebf
000007b0: 6f83 e5e7 e688 8e3f a10a b2e9 e688 8ebf
000007c0: cc35 b3e9 e688 8ebf 5eca 58e9 e688 8ebf
000007d0: 0ab1 d9e8 e688 8ebf 448d 1ae9 e688 8ebf
000007e0: 1c08 b8e8 e688 8ebf 844e 05e8 e688 8e3f
000007f0: 75ed b9e9 e688 8e3f 02f6 43e8 e688 8ebf
