KalmanNetPHAv2/KalmanNet_TSP-main/KNet/best-model.pt (torch, 101730 bytes, 43 tensors)

weight_ih_l0 f4 [12, 10]
0	0xbddd5110	-0.10806477
1	0x3ed4be78	0.41551566
2	0xbed66990	-0.41877413
3	0x3ea81baa	0.32833606
4	0xbeb410e2	-0.3516913
5	0xbcc19540	-0.023630738
6	0x3ee6fd24	0.45115006
7	0xbd1d1860	-0.038353324
8	0x3e99e7e0	0.3005972
9	0x3dc950a8	0.09829837
10	0x3e6c198c	0.2305662
11	0x3e09c4a8	0.13453925
12	0x3eb9c468	0.3628266
13	0x3eb81416	0.35952824
14	0xbed24522	-0.4106837
15	0x3e443c88	0.19163716
16	0xb7f18000	-2.8789043e-05
17	0x3efb7f1e	0.4912042
18	0x3e2a117c	0.16608232
19	0xbea44238	-0.3208177
20	0xbe078788	-0.13235295
21	0x3eaabb6e	0.33346123
22	0xbe801c16	-0.25021428
23	0x3d15cdc0	0.03657317
24	0xbee57b4e	-0.44820637
25	0x3ee04c7a	0.43808347
26	0x3ee41df6	0.44554108
27	0xbe1b2f20	-0.15154696
28	0x3dd9d0d8	0.10635537
29	0x3e888902	0.2666703
30	0x3eacbb16	0.33736485
31	0x3e127580	0.14302635
32	0xbef6ddea	-0.48216182
33	0xbdca5490	-0.0987941
34	0x3ed5312a	0.41639072
35	0x3b5fc700	0.0034145713
36	0xbebaa0c2	-0.36450773
37	0x3e6a17c8	0.22860634
38	0xbce9bee0	-0.0285334
39	0x3ed9920a	0.4249423
40	0x3ea09b90	0.31368685
41	0x3e8b7a92	0.2724195
42	0xbe65d3cc	-0.22444075
43	0xbec13ed6	-0.37743253
44	0xbeb3f21c	-0.35145652
45	0x3efe8166	0.49708098
46	0xbe18cdb0	-0.14922214
47	0xbe43a024	-0.19104058
48	0xbd5857d0	-0.05281812
49	0x3eb80ee6	0.35948867
50	0x3eeacfb0	0.45861578
51	0x3e4c31d0	0.19940877
52	0x3e825220	0.2545328
53	0xbc8c70e0	-0.017143667
54	0x3af6c800	0.0018827915
55	0xbee3d7d8	-0.44500613
56	0x3e30e7a0	0.17275858
57	0xbe5becfc	-0.21477121
58	0xbde99bc8	-0.11406666
59	0x3ca3a7e0	0.01997751
60	0xbe892e06	-0.26792926
61	0xbcbc16c0	-0.022960067
62	0xba344800	-0.0006877184
63	0xbd412b00	-0.04716015
64	0x3e2afabc	0.1669721
65	0xbee08234	-0.43849337
66	0xbed46650	-0.41484308
67	0xbef1ba5e	-0.472125
68	0x3e8ff354	0.28115332
69	0xbeea93e6	-0.45815963
70	0xbe96d61a	-0.29460222
71	0x3e5c5eb4	0.21520501
72	0x3e47a92c	0.19498128
73	0xbd484640	-0.04889512
74	0xbe22fd44	-0.15916926
75	0x3ead9b76	0.3390767
76	0xbe9574be	-0.2919063
77	0x3ead002e	0.337892
78	0xbef29ef6	-0.47386903
79	0x3ea8e8aa	0.3299001
80	0xbe786044	-0.24255472
81	0x3eddad94	0.43296492
82	0x3bab8a80	0.0052350163
83	0x3e5ffb6c	0.21873254
84	0x3ed513ca	0.4161666
85	0xbe7cad54	-0.24675494
86	0xbee52a38	-0.44758773
87	0x3e32fd60	0.17479467
88	0xbef07996	-0.46967763
89	0xbe6f5c38	-0.23375022
90	0x3ef5daf4	0.4801861
91	0x3d97cee0	0.07412505
92	0x3d3cabf0	0.04606241
93	0x3e906312	0.28200585
94	0xbeebc3d0	-0.4604783
95	0x3eb54528	0.35404325
96	0x3e0155f8	0.1263045
97	0xbeaea538	-0.34110427
98	0x3ed77b3a	0.42086202
99	0x3e323e10	0.17406487
100	0x3e1e5eb4	0.15465814
101	0x3e0d608c	0.13806361
102	0x3ebaa96e	0.3645739
103	0xbe9d658e	-0.30741543
104	0xbe8eb602	-0.27873236
105	0x3efe8fa6	0.4971897
106	0xbcf7ed60	-0.030264556
107	0x3e479c94	0.19493324
108	0x3d110830	0.0354082
109	0xbe5dc160	-0.21655798
110	0xbde81dc8	-0.11333805
111	0x3ee480aa	0.44629413
112	0x3e8447e6	0.25836104
113	0xbddb00e8	-0.10693532
114	0x3e0257c0	0.12728786
115	0xbecf9e98	-0.40550685
116	0x3d9af038	0.07565349
117	0xbe119e54	-0.14220554
118	0x3dad5800	0.0846405
119	0xbe51bde0	-0.20482588

weight_hh_l0 f4 [12, 4]
0	0xbd020a80	-0.031748295
1	0x3e4cdd60	0.20006323
2	0x3e64070c	0.22268313
3	0xbededff4	-0.43530238
4	0x3e961dc4	0.29319584
5	0x3ec5bbc4	0.38619816
6	0x3dca43a8	0.09876186
7	0x3eecfeea	0.46288234
8	0x3e492d6c	0.19646233
9	0xbe99677c	-0.29961765
10	0x3ea30288	0.3183787
11	0xbeb748e0	-0.35797787
12	0x3e2b3460	0.16719198
13	0x3e97b494	0.29629958
14	0x3ecc2462	0.39871508
15	0x3eddbe66	0.43309325
16	0xbec48634	-0.3838364
17	0x3d8b6d68	0.06807977
18	0x3cd1c120	0.025604784
19	0xbca07440	-0.019586682
20	0xbedc778a	-0.4305995
21	0x3eb8edcc	0.36118925
22	0x3e996b58	0.2996471
23	0xbede1014	-0.43371642
24	0xbed9fe20	-0.42576694
25	0x3ecc7b42	0.39937788
26	0xbcbe2500	-0.023211002
27	0x3eade5f0	0.3396449
28	0x3e8689e2	0.2627707
29	0x3e589970	0.21152282
30	0xbed0fed0	-0.40819407
31	0x3eedb0ca	0.46423942
32	0x3e31fa5c	0.17380661
33	0x3eb1b2d2	0.34706742
34	0x3e5ec4f4	0.21754819
35	0xbdbb9670	-0.09159553
36	0xbeab76e8	-0.33489156
37	0xbe52847c	-0.20558351
38	0xbeda1cba	-0.42600042
39	0xbee8a868	-0.45440984
40	0x3bfc1b00	0.0076936483
41	0x3d582470	0.052769125
42	0x3d854d30	0.06508863
43	0xbe903efc	-0.28173053
44	0xbe0cd128	-0.13751662
45	0x3eeb76a8	0.45988965
46	0x3ef54146	0.47901362
47	0x3efea5d8	0.49735904

bias_ih_l0 f4 [12]
0	0xbd390890	-0.04517418
1	0xbeaa12c2	-0.33217436
2	0x3d8ccb78	0.06874746
3	0x3cbc2800	0.022968292
4	0xbe3d73c8	-0.18501198
5	0xbeb7f55a	-0.35929376
6	0x3e33e0f0	0.17566276
7	0xbeff2cf2	-0.49838978
8	0xbea5bda4	-0.32371247
9	0xbe1d1cc8	-0.1534301
10	0xbe9fc33a	-0.31203634
11	0x3eb4136a	0.35171062

bias_hh_l0 f4 [12]
0	0x3e01d080	0.12677193
1	0xbece6fc2	-0.4031964
2	0xbed79960	-0.42109203
3	0x3e148a80	0.14505959
4	0x3ebf495c	0.37360656
5	0xbe4897fc	-0.19589227
6	0x3ee4e8b0	0.44708776
7	0x3e2ddb54	0.16978198
8	0x3eda61bc	0.4265269
9	0x3ebaa1fa	0.36451703
10	0xbe3661c4	-0.17810732
11	0xbe3738d0	-0.17892766

weight_ih_l0 f4 [12, 14]
0	0xbeedb68e	-0.4642834
1	0xbee30898	-0.44342494
2	0x3df87e90	0.12133515
3	0x3d96b4e8	0.07358724
4	0x3eb21b80	0.34786606
5	0x3eeebc3a	0.4662798
6	0x3db64758	0.089003265
7	0xbef6a56c	-0.48173082
8	0xbe3cda18	-0.18442571
9	0x3e429fc0	0.19006252
10	0x3d951668	0.07279664
11	0x3d6e2e10	0.058149397
12	0xbec8a090	-0.39185
13	0x3ebb4394	0.36574996
14	0x3eb9ea1e	0.3631143
15	0xbe553834	-0.20822221
16	0x3e7fb4e4	0.24971348
17	0x3dc53140	0.09628534
18	0x3d8eaed8	0.069669425
19	0x3e824aa6	0.25447577
20	0xbe91b688	-0.28459573
21	0x3e609a0c	0.21933764
22	0xbdb34d80	-0.08755016
23	0xbef57146	-0.47937983
24	0xbeaa23bc	-0.33230388
25	0x3eca25b6	0.39481896
26	0xbed4a71a	-0.41533738
27	0x3c9b42e0	0.018952787
28	0xbdb28bf0	-0.08718097
29	0x3ed065a0	0.40702534
30	0x3e7450d4	0.23858958
31	0x3dea6350	0.114447236
32	0xbef10680	-0.47075272
33	0x3ebf519a	0.37366945
34	0xbec9547e	-0.39322275
35	0x3e408f20	0.18804598
36	0xbdfc6020	-0.12323022
37	0xbe21bb70	-0.15794158
38	0x3ee659a0	0.44990253
39	0xbe6344e8	-0.22194254
40	0x3efceabe	0.49397844
41	0x3e9b38c6	0.30316752
42	0xbe4596cc	-0.19295806
43	0xbe2860cc	-0.16443175
44	0x3ec4af8e	0.38415188
45	0xbe634d2c	-0.22197407
46	0xbe824128	-0.25440335
47	0xbd5e60c0	-0.054291487
48	0xbe80f09e	-0.25183576
49	0xbdbaaa08	-0.09114462
50	0xbe068260	-0.13135672
51	0xbe9efdba	-0.31052953
52	0x3ec1d908	0.37860894
53	0xbed22276	-0.41041917
54	0xbc12bb40	-0.008955777
55	0xbeeeedbe	-0.46665758
56	0x3e5ad094	0.21368629
57	0xbe66873c	-0.22512525
58	0xbedc8a30	-0.4307418
59	0xbe977ce6	-0.29587477
60	0x3ee5961e	0.44841093
61	0xbe018048	-0.12646592
62	0x3d242250	0.040071785
63	0x3c727dc0	0.014800489
64	0xbdcf09f8	-0.10109323
65	0xbd2086d0	-0.039191067
66	0xbea69a62	-0.3253966
67	0x3ebb02d0	0.36525583
68	0x3e7c22d8	0.24622667
69	0x3e5dba34	0.21653062
70	0xbecc25de	-0.3987264
71	0xbea6cbce	-0.32577366
72	0x3e9716ae	0.2950949
73	0x3eb53940	0.3539524
74	0xbd9163e0	-0.07099128
75	0xbea0f196	-0.31434315
76	0xbeb39ce6	-0.35080642
77	0xbc0c57c0	-0.008565843
78	0x3eeae3c8	0.45876908
79	0x3e0209f8	0.12699115
80	0xbe897a56	-0.26851147
81	0x3e78878c	0.24270457
82	0xbca605c0	-0.020266414
83	0xbea4e11a	-0.3220299
84	0x3dadb580	0.08481884
85	0x3e3a1094	0.18170387
86	0xbd8227e0	-0.06355262
87	0xbec517be	-0.38494676
88	0xbca2fe60	-0.019896686
89	0x3e4adf78	0.19811809
90	0xbe8d0e90	-0.27550173
91	0xbe2431d8	-0.16034639
92	0xbed066ea	-0.40703517
93	0x3b239d00	0.0024965405
94	0x3e83ccc6	0.25742167
95	0x3eea3cb4	0.45749438
96	0xbcdea220	-0.027176917
97	0x3ee1633c	0.44021022
98	0x3d885648	0.06657082
99	0x3d34c240	0.044130564
100	0xbeb351b4	-0.35023272
101	0xbe7977b8	-0.24362075
102	0xbd067730	-0.03282851
103	0xbe57d8c8	-0.21078789
104	0x3e2332e4	0.15937382
105	0x3ed5e49e	0.41775984
106	0x3e3409cc	0.17581862
107	0xbeea961a	-0.45817643
108	0x3e9713e6	0.2950737
109	0xbebd8ade	-0.3702001
110	0xbd574c30	-0.052562892
111	0x3d1786a0	0.036993623
112	0x3edbdc8a	0.42941695
113	0x3ca18480	0.019716501
114	0xbeeec156	-0.4663188
115	0x3da0ae90	0.07845795
116	0xbeb42154	-0.35181677
117	0xbe9c9d3c	-0.3058871
118	0xbefa4fd4	-0.4888903
119	0x3e17b114	0.14813644
120	0x3ecfa138	0.40552688
121	0x3eacf412	0.3377996
122	0x3d75faa0	0.060053468
123	0xbe833c96	-0.2563216
124	0xbe303c04	-0.17210394
125	0xbe8633a0	-0.26211262
126	0xbe3e908c	-0.18609828
127	0x3ebda142	0.37037092
128	0xbd89f520	-0.06736207
129	0x3dad9638	0.084759176
130	0xbe302f3c	-0.17205518
131	0xbef51058	-0.47864032
132	0xbee3cfd2	-0.44494492
133	0x3c815c60	0.015791118
134	0x3dd322f0	0.10309398
135	0x3d8de598	0.06928557
136	0xbe4145d4	-0.18874294
137	0x3efd9976	0.49531144
138	0xbeb1a19a	-0.34693605
139	0xbca0d620	-0.019633353
140	0x3eb6ffe4	0.35742104
141	0x3ea3788c	0.31927907
142	0x3eb3943a	0.35074025
143	0x3ece26e6	0.40264052
144	0x3e6fff84	0.23437315
145	0x3ea8a550	0.32938623
146	0xbe7bd860	-0.2459426
147	0x3ed40fd2	0.4141832
148	0xbdba8600	-0.0910759
149	0x3d18ed30	0.037335575
150	0x3ef96916	0.48712987
151	0x3ed2b596	0.41154164
152	0x3ef3280c	0.4749149
153	0x3daf7e08	0.085689604
154	0xbe2747d4	-0.16335994
155	0x3d1ccc50	0.038280785
156	0x3d9eb968	0.07750207
157	0xbee6059a	-0.4492615
158	0x3e92d420	0.28677464
159	0xbe43f7b4	-0.1913746
160	0xbecd5242	-0.4010182
161	0x3eb8343e	0.35977358
162	0x3c3d6d80	0.011561751
163	0x3e878576	0.2646901
164	0xbe1b4698	-0.15163648
165	0xbcc83620	-0.024439871
166	0x3e192a2c	0.14957494
167	0xbe9193e2	-0.28433138

weight_hh_l0 f4 [12, 4]
0	0xbe0d2ad0	-0.13785863
1	0xbe12d490	-0.14338899
2	0x3ec51550	0.38492823
3	0xbecf1002	-0.404419
4	0x3ee6069e	0.44926924
5	0x3e9c9902	0.30585486
6	0x3e804d58	0.2505901
7	0xbe6be844	-0.23037821
8	0x3e329100	0.17438126
9	0x3e10bfb4	0.14135629
10	0x3e03fe1c	0.12889904
11	0x3eb7f816	0.35931462
12	0x3eee2202	0.4651032
13	0x3eef7122	0.46766
14	0xbe96fc90	-0.29489565
15	0xbe9e338e	-0.30898708
16	0x3db3a7e8	0.0877226
17	0xbea92df0	-0.3304286
18	0xbef660ca	-0.4812072
19	0x3cdac0e0	0.026703298
20	0x3e2cc97c	0.16873735
21	0x3eccf12c	0.4002775
22	0x3ed4a4de	0.41532034
23	0xbe55e81c	-0.20889324
24	0x3e9992c6	0.29994792
25	0x3ee825e2	0.45341402
26	0xbe8893ee	-0.2667536
27	0xbe70cc70	-0.23515487
28	0x3baa3f80	0.005195558
29	0xbe1ba8e0	-0.1520114
30	0xbeb48ffa	-0.35266095
31	0x3ee5be46	0.4487173
32	0xbeb6ef62	-0.3572951
33	0x3eff5b26	0.49874228
34	0xbe2224b0	-0.15834308
35	0x3ef873b2	0.4852577
36	0x3e81f7fc	0.2538451
37	0xbe9b9cd2	-0.30393082
38	0xbc6b9e40	-0.014380991
39	0xbe1e0f34	-0.15435487
40	0x3e28a904	0.16470724
41	0xbd475490	-0.04866463
42	0x3c33bc40	0.010970175
43	0x3e3795f8	0.17928302
44	0xbea73a9c	-0.32661903
45	0xbd697b80	-0.057002544
46	0x3ef9b494	0.48770583
47	0x3d161940	0.036645174

bias_ih_l0 f4 [12]
0	0x3e790ac8	0.24320519
1	0xbd7aa4e0	-0.061192393
2	0x3e623b6c	0.2209298
3	0x3e2b71b4	0.16742593
4	0x3e9a6c16	0.30160588
5	0xbefd2ae0	-0.49446774
6	0xbe953b90	-0.29147005
7	0xbce311a0	-0.027718365
8	0xbeefba84	-0.46821988
9	0x3e646004	0.22302252
10	0xbed765f6	-0.42069978
11	0x3ed7a422	0.4211741

bias_hh_l0 f4 [12]
0	0x3dac22d0	0.084050775
1	0xbedf19d8	-0.43574405
2	0x3e2c3664	0.16817623
3	0xbeaffe00	-0.34373474
4	0xbe5e3084	-0.21698195
5	0xbe7fcd64	-0.24980694
6	0xbea9ba84	-0.33150113
7	0xbe104160	-0.14087439
8	0x3d9cade0	0.076503515
9	0x3e9611d8	0.2931049
10	0xbe34acd0	-0.17644048
11	0x3e801b0e	0.2502064

weight_ih_l0 f4 [3, 11]
0	0xbe111148	-0.14166749
1	0x3d4bc280	0.049746037
2	0x3d56b2c0	0.052416563
3	0xbf1f977e	-0.62340534
4	0x3f3a9496	0.72882974
5	0xbe6952f0	-0.22785544
6	0xbdb34690	-0.08753693
7	0x3f12c1b8	0.5732684
8	0xbf3b0bda	-0.7306496
9	0xbd6558e0	-0.05599296
10	0x3eefd144	0.46839345
11	0x3f3127ec	0.6920154
12	0xbf341e06	-0.7035831
13	0x3dc930d0	0.09823763
14	0x3f68ad78	0.9088969
15	0xbed606f8	-0.41802192
16	0xbf2e583c	-0.68103385
17	0xbf68a60e	-0.9087838
18	0xbddc8a90	-0.10768616
19	0x3ef3c910	0.47614336
20	0x3edbeaf8	0.42952704
21	0x3f4ade88	0.79245806
22	0xbe8c4264	-0.27394402
23	0x3f60624c	0.8764999
24	0xbf6e5244	-0.9309428
25	0x3f2e3eb2	0.68064415
26	0x3f745160	0.9543667
27	0x3ef09de0	0.4699545
28	0x3ec7b914	0.3900839
29	0x3f62c3f4	0.8858025
30	0x3edc0758	0.42974353
31	0x3d2986a0	0.041388154
32	0xbf746f0e	-0.95481956

weight_hh_l0 f4 [3, 1]
0	0xbf441de6	-0.7660812
1	0x3ebfc5c8	0.37455583
2	0x3f58b030	0.8464384

bias_ih_l0 f4 [3]
0	0xbf5b5622	-0.85678303
1	0x3ee42104	0.4455644
2	0xbf3fba98	-0.74894094

bias_hh_l0 f4 [3]
0	0x3f521b9a	0.82073367
1	0x3ca16dc0	0.019705653
2	0xbdb27e50	-0.087154984

weight f4 [1, 4]
0	0xbe20d064	-0.15704495
1	0xbee40aa2	-0.44539362
2	0xbd612fb0	-0.05497712
3	0x3cd57c60	0.026060283

weight f4 [200, 5]
0	0x3ec18c2a	0.3780225
1	0xbec6b55c	-0.3881024
2	0x3e7ce698	0.2469734
3	0xbedd4d38	-0.43222976
4	0x3ea5c3fe	0.32376093
5	0x3da848b0	0.08216989
6	0xbe80ca6a	-0.2515443
7	0x3de99b58	0.114065826
8	0x3e835c7a	0.25656492
9	0x3e874be6	0.26425093
10	0x3d02b7f0	0.031913698
11	0xbe37c6ba	-0.17946902
12	0xbdd61d4c	-0.10454807
13	0xbd0c25a8	-0.0342156
14	0xbeb02974	-0.34406626
15	0xbeb3aa5e	-0.35090917
16	0x3dd66340	0.10468149
17	0xbe5e6ca5	-0.21721132
18	0x3e0632d8	0.13105333
19	0xbeca9a8c	-0.39571035
20	0x3da73d08	0.08165938
21	0xbdf64e7c	-0.120266885
22	0xbed7e743	-0.42168626
23	0x3ebe1b0c	0.3713001
24	0x3b692400	0.0035574436
25	0xbedc4e88	-0.43028665
26	0xbeb9cae2	-0.362876
27	0x3e8f0982	0.2793694
28	0x3d1f68c0	0.038918257
29	0x3edb80c4	0.42871678
30	0xbe8c7026	-0.27429312
31	0xbedfe63f	-0.4373035
32	0xbe3009ba	-0.1719121
33	0x3c9b5390	0.018960744
34	0xbe6d10bb	-0.23150913
35	0x3ec61db6	0.38694543
36	0x3e4141bc	0.18872732
37	0xbea14d56	-0.31504315
38	0xbe392778	-0.18081462
39	0xbe523bd6	-0.20530638
40	0x3dfec0d8	0.12439126
41	0x3e4b5c04	0.1985932
42	0x3dc61a58	0.096729934
43	0x3e6ee790	0.23330522
44	0x3e87315c	0.26404846
45	0x3ed5e42e	0.4177565
46	0xbe52aba0	-0.20573282
47	0xbde408cc	-0.1113449
48	0x3ea1bd66	0.31589812
49	0x3ed03976	0.4066884
50	0xbecbe134	-0.39820254
51	0xbeb0caf2	-0.34529835
52	0xbee34629	-0.44389465
53	0x3e6ea3ac	0.23304623
54	0xbe23e420	-0.16004992
55	0xbebc3366	-0.36757964
56	0x3edb5486	0.42837924
57	0xbe976c60	-0.2957487
58	0x3a13b800	0.0005635023
59	0x3e8e6e12	0.27818352
60	0xbe9f8d0d	-0.311623
61	0x3bf746c0	0.007546276
62	0x3eb16192	0.34644753
63	0x3eb8a24c	0.36061323
64	0x3ec572fc	0.3856429
65	0x3ed3b710	0.41350603
66	0x3cd2dc90	0.025739938
67	0xbecfc705	-0.40581527
68	0x3eac8050	0.33691645
69	0x3e5d7f44	0.21630579
70	0xbeb4aa92	-0.35286385
71	0x3dc5c980	0.09657574
72	0xbe408594	-0.18800956
73	0x3eb7c0fc	0.35889423
74	0xbe93318a	-0.28748733
75	0xbebd32f0	-0.36952925
76	0x3e9b28ec	0.30304658
77	0x3d9eee78	0.07760328
78	0xbe822eb3	-0.25426254
79	0x3ee0e7c0	0.4392681
80	0xbea0ddb6	-0.31419152
81	0xbe31f68a	-0.17379203
82	0x3e8b55ac	0.272138
83	0xbec2a92a	-0.38019687
84	0x3ebfe3be	0.3747844
85	0xbdaf9af0	-0.08574474
86	0x3dde8cd0	0.108667016
87	0xbe090f8e	-0.1338484
88	0x3e7d193c	0.24716657
89	0x3e6ec088	0.23315632
90	0xbe9b49a6	-0.30329627
91	0xbe451ee2	-0.19250062
92	0xbd9ceebc	-0.076627225
93	0xbd5f1ac8	-0.0544689
94	0x3cb5ed60	0.022207916
95	0xbe866638	-0.26249862
96	0xbded098c	-0.115740865
97	0x3eada458	0.33914447
98	0x3e463388	0.19355595
99	0x3e257d10	0.16160989
100	0x3e3988c4	0.18118578
101	0x3ea918ce	0.33026737
102	0xbede612a	-0.43433505
103	0xbe83b41c	-0.2572335
104	0xbd74f050	-0.059799492
105	0xbedfc133	-0.43702087
106	0x3eab992e	0.33515304
107	0x3ed38b62	0.41317278
108	0x3ee1b650	0.44084406
109	0x3debbf60	0.11511111
110	0xbd4da028	-0.050201565
111	0xbea67c71	-0.32516816
112	0x3eaa1384	0.33218014
113	0x3e9e14e8	0.30875325
114	0x3ecce950	0.40021753
115	0x3df18b20	0.11794114
116	0xbda69c0c	-0.08135232
117	0x3e85a072	0.26098973
118	0xba7f5400	-0.0009739995
119	0x3eba39ca	0.36372215
120	0x3e14dc60	0.14537191
121	0xbe7ece24	-0.24883324
122	0xbe7b3908	-0.24533474
123	0x3ea9a8e6	0.33136672
124	0xbe278c86	-0.16362199
125	0x3e282134	0.16418916
126	0x3c05d3c0	0.008168161
127	0x3e5a9474	0.21345693
128	0xbe724a92	-0.23661259
129	0xbe904e2c	-0.2818464
130	0x3894b000	7.0899725e-05
131	0x3c1da420	0.00962165
132	0x3e9fcb96	0.3121001
133	0x3ed7ccb8	0.42148376
134	0x3ca94ff0	0.020668
135	0x3e98d10e	0.29846996
136	0xbea98e07	-0.3311617
137	0x3e52ac78	0.20573604
138	0xbedd05b7	-0.43168423
139	0xbebf07fe	-0.37310785
140	0x3ec2a3b0	0.3801551
141	0xbe48da78	-0.19614589
142	0xbdc0c7b4	-0.0941309
143	0x3ebfc6b0	0.37456274
144	0xbe737e61	-0.23778678
145	0x3e385f54	0.18005115
146	0xbd946520	-0.072458506
147	0x3e23345c	0.15937942
148	0xbc7f5700	-0.015584707
149	0x3ea27c1e	0.3173532
150	0x3dbb0dd8	0.091335
151	0x3ea1e3e8	0.3161919
152	0xbea758b7	-0.32684872
153	0x3ee1dc36	0.4411332
154	0xbe8fdd7c	-0.28098667
155	0xbee4b781	-0.44671252
156	0x3e2d02ec	0.16895646
157	0xbedc4c99	-0.4302719
158	0xbd8d0544	-0.0688577
159	0x3d02dc00	0.03194809
160	0x3dcf8d30	0.10134351
161	0x3eb2a98a	0.34894973
162	0x3e9bbbb6	0.3041665
163	0xbea723a4	-0.3264438
164	0xbecd0054	-0.40039313
165	0xbee23d31	-0.4418731
166	0x3ee4652a	0.44608432
167	0xbd6978e0	-0.05700004
168	0xbe21070c	-0.15725344
169	0xbd5f4860	-0.05451238
170	0x3c42c680	0.011888146
171	0x3e802a5c	0.25032318
172	0x3d878a28	0.06618148
173	0xbe87d062	-0.2652617
174	0xbea23d29	-0.31687286
175	0x3e25990c	0.16171664
176	0x3eb2ed7e	0.34946817
177	0xbe823620	-0.2543192
178	0xbcbfed90	-0.023428708
179	0x3ee2ac54	0.442721
180	0xbedde053	-0.43335208
181	0xbdcba8c8	-0.09944302
182	0xbde20508	-0.11036116
183	0x3d1f6bd0	0.038921177
184	0x3e17a810	0.14810205
185	0x3d902f50	0.07040274
186	0x3e9bd2ba	0.3043421
187	0x3d5d1bb0	0.053981483
188	0x3e675c10	0.22593713
189	0xbec0fe57	-0.37694046
190	0x3eb58676	0.35454148
191	0x3ea3af8e	0.31969875
192	0xbe24a4c6	-0.16078481
193	0x3ebd454a	0.36966926
194	0x3dbd9aa8	0.09258014
195	0xbea1a4fa	-0.3157118
196	0xbe408090	-0.18799043
197	0x3ed18b32	0.4092651
198	0xbea625ce	-0.32450718
199	0x3e70f484	0.23530775
200	0xbe78403d	-0.24243255
201	0xbe8f7f79	-0.2802694
202	0xbe770d9a	-0.24126282
203	0xbe33d0f4	-0.17560178
204	0xbda46cac	-0.0802854
205	0xbde91658	-0.11381215
206	0x3e95fd1a	0.29294664
207	0xbedc7ef7	-0.43065616
208	0xbde87980	-0.11351299
209	0x3ebdc064	0.37060845
210	0xbe85dba0	-0.26144123
211	0x3c168a20	0.009188205
212	0x3e23e2c4	0.16004473
213	0x3e923912	0.28559166
214	0xbe524e49	-0.20537676
215	0xbeda6e02	-0.42662054
216	0xbed9c634	-0.4253403
217	0x3dbdc8a8	0.09266788
218	0x3ecc9c42	0.39962965
219	0x3e710930	0.23538661
220	0x3dcf1520	0.10111451
221	0xbbe559c0	-0.0069992244
222	0xbe07dc0a	-0.13267532
223	0x3e92f448	0.28701997
224	0xbec20a9f	-0.37898728
225	0x3e81b040	0.2532978
226	0x3d43ea48	0.04783085
227	0x3ed83fdc	0.4223622
228	0xbec6da83	-0.38838586
229	0xbe93e3d6	-0.28884763
230	0x3ec53466	0.3851654
231	0x3e7c4bac	0.24638242
232	0x3def9da8	0.116999924
233	0xbe40406e	-0.18774578
234	0x3ea5f424	0.32412827
235	0x3e574310	0.21021676
236	0x3def6b58	0.11690396
237	0x3c37c020	0.01121524
238	0xbe99a52c	-0.3000883
239	0x3eaa0f24	0.33214676
240	0x3e69b840	0.22824192
241	0x3ebb4594	0.3657652
242	0x3e4b1e98	0.1983589
243	0xbe940035	-0.28906408
244	0x3e0b2cbc	0.13591284
245	0xbec4f4b3	-0.3846794
246	0x3eda4aba	0.42635137
247	0x3e0becb4	0.13664514
248	0xbe2b7d00	-0.16746902
249	0xbe253c66	-0.16136321
250	0xbeaf193f	-0.3419895
251	0xbdffdc28	-0.12493163
252	0xbde37124	-0.11105564
253	0xbe0667a0	-0.13125467
254	0xbed98548	-0.42484498
255	0xbd687430	-0.05675143

bias f4 [200]
0	0xbe74e3d0	-0.23915029
1	0xbe79dd77	-0.24400888
2	0xbdc0d5f4	-0.09415808
3	0x3e42235c	0.18958801
4	0xbe1a4a5e	-0.15067431
5	0x3ec2ed1e	0.3807153
6	0x3c817310	0.015801936
7	0x3ed1c72c	0.4097227
8	0xbc9ce0b0	-0.019150108
9	0x3e5b5bc8	0.2142173
10	0xbda0b750	-0.07847464
11	0x3e3d9338	0.18513191
12	0xbe30d35e	-0.1726813
13	0x3ced26f0	0.02894923
14	0xbe4af37c	-0.19819444
15	0xbe6e8a5c	-0.23294967
16	0xbbed17c0	-0.0072354972
17	0x3ea8a2a6	0.3293659
18	0xbeb2b236	-0.3490159
19	0x3e4cb074	0.19989187
20	0x3ebfa31a	0.37429124
21	0xbb3f8400	-0.0029222965
22	0x3e0f1208	0.13971722
23	0x3d1db610	0.038503706
24	0x3db4f648	0.08836037
25	0xbdcf3f30	-0.10119474
26	0xbe5771aa	-0.21039453
27	0x3ed638ba	0.41840154
28	0x3e7dda88	0.24790394
29	0xbd841098	-0.064484775
30	0xbe26cf08	-0.16289914
31	0x3cdcafd0	0.026939303
32	0xbde6be18	-0.11266726
33	0xbdf74468	-0.12073594
34	0x3edbb0c4	0.429083
35	0x3ec06728	0.37578702
36	0x3e6130f0	0.21991324
37	0xbed5a57b	-0.41727814
38	0x3e386364	0.18006665
39	0x3ec2dfbc	0.3806132
40	0x3eacbe9c	0.33739173
41	0x3ccbc150	0.024872452
42	0xbeadf12f	-0.3397307
43	0xbd8ed76c	-0.06974682
44	0xbde99498	-0.11405295
45	0xbd7b32c0	-0.061327696
46	0x3ebdff38	0.3710878
47	0x3e25dc50	0.16197324
48	0x3d673bd0	0.056453526
49	0xbe1c9030	-0.15289378
50	0xbec33399	-0.38125303
51	0xbd1bb368	-0.038012892
52	0xbe5234ef	-0.20528005
53	0xbedb94db	-0.42887005
54	0x3e822902	0.2542191
55	0xbd44f8b0	-0.04808873
56	0xbdbec394	-0.09314647
57	0xbe932352	-0.28737885
58	0x3e915e34	0.28392184
59	0xbd853a8c	-0.065053076
60	0xbe8ed80a	-0.278992
61	0x3e81d53c	0.25357997
62	0xbec7f7bc	-0.39056194
63	0xbd3a6c38	-0.04551336
64	0xbeb7b84b	-0.35882792
65	0xbe9804b6	-0.29691094
66	0x3ec1d6cc	0.3785919
67	0x3db6c920	0.0892508
68	0x3e443564	0.19160992
69	0x3e656e4c	0.22405356
70	0x3e15fcf0	0.14647269
71	0x3b87c900	0.004143834
72	0xbd80bf00	-0.0628643
73	0xbea08f43	-0.313593
74	0xbd5f0e68	-0.0544571
75	0x3e660878	0.22464168
76	0x3d981a38	0.07426876
77	0xbe049a7a	-0.12949553
78	0x3e2bd098	0.16778791
79	0xbe543fcf	-0.20727466
80	0xbe8ccc90	-0.2749982
81	0x3d866e48	0.06564003
82	0x3e651a88	0.22373402
83	0xbee02aec	-0.43782747
84	0x3e2673dc	0.16255134
85	0xbe7b4c35	-0.2454079
86	0xbeae1e5a	-0.3400753
87	0xbe3423ea	-0.17591825
88	0x3dd133b8	0.10214943
89	0xbe08f76e	-0.13375637
90	0x3e9a13b6	0.30093163
91	0xbeb6bb0c	-0.3568958
92	0xbe04cae6	-0.12968025
93	0xbcd5be10	-0.026091605
94	0xbd427850	-0.04747802
95	0x3e97362a	0.2953351
96	0xbe32135c	-0.17390198
97	0xbed48605	-0.415085
98	0xbe2edb06	-0.17075738
99	0xbd5280e8	-0.051392466
100	0x3ec9b04a	0.3939231
101	0x3e9f65b8	0.31132293
102	0x3e8f7242	0.2801686
103	0xbe82ff8c	-0.25585592
104	0xbd8ecf44	-0.069731265
105	0xbe4a3a77	-0.19748865
106	0xbd499430	-0.04921359
107	0x3e772a00	0.24137115
108	0x3e9f560a	0.3112033
109	0x3e43b1d4	0.19110805
110	0xbe47bfe2	-0.19506791
111	0x3e80eacc	0.25179136
112	0x3e9a2940	0.30109596
113	0xbdc91ca8	-0.09819919
114	0x3ea35892	0.3190351
115	0xbec2489a	-0.37946016
116	0xbec440be	-0.38330644
117	0x3d7e5b80	0.06209898
118	0x3dafea88	0.08589655
119	0x3d9a4b38	0.07533878
120	0xbecf9365	-0.4054214
121	0xbe26edc2	-0.16301635
122	0xbe8fe6b4	-0.281057
123	0x3da5b718	0.08091563
124	0xbea0d1e6	-0.3141014
125	0xbe364930	-0.17801356
126	0x3ea2f65a	0.31828576
127	0x3e41af98	0.1891464
128	0x3ed98c24	0.4248973
129	0xbe6508c7	-0.2236663
130	0x3e4bfcc0	0.19920635
131	0x3d5f1800	0.054466248
132	0xbeb739cf	-0.35786292
133	0xbe60dba4	-0.21958786
134	0x3ecf1bf6	0.4045102
135	0xbdea10b8	-0.1142897
136	0xbc79cca0	-0.01524654
137	0xbd8654dc	-0.065591544
138	0x3ed76a7a	0.42073423
139	0xbe63f4b8	-0.22261322
140	0x3ea5e76c	0.32403123
141	0xbea75ac8	-0.32686448
142	0xbe9f4a96	-0.31111592
143	0x3e331460	0.17488241
144	0xbec51636	-0.38493508
145	0xbedb5007	-0.42834494
146	0x3e0eb21c	0.13935131
147	0x3d624c20	0.05524838
148	0xbdc9f750	-0.09861624
149	0x3eb32bb6	0.34994286
150	0x3e936d18	0.2879417
151	0xbcc49330	-0.023995966
152	0x3cadbd50	0.021208435
153	0xbeaf35ce	-0.34220737
154	0xbddab308	-0.10678679
155	0x3e6c8eac	0.231013
156	0xbea536c7	-0.32268354
157	0xbd0a7e18	-0.03381166
158	0x3d81df90	0.06341469
159	0x3eb9b4e4	0.3627082
160	0x3e7e9534	0.24861604
161	0x3e8f3868	0.27972722
162	0xbdae52a8	-0.08511859
163	0xbed76179	-0.42066553
164	0x3d436c28	0.047710568
165	0x3ec8a90c	0.39191473
166	0x3e943034	0.28943026
167	0xbe861e66	-0.26195067
168	0xbe889b22	-0.26680857
169	0xbd18f478	-0.03734252
170	0xbec6f0aa	-0.38855487
171	0x3e1143ac	0.14185971
172	0x3ead4890	0.33844423
173	0x3c5f9dc0	0.01364845
174	0xbdce5ed4	-0.10076681
175	0x3e4d5dd8	0.2005533
176	0xbd940f5c	-0.07229492
177	0xbda35078	-0.079743326
178	0x3ed714b8	0.42007995
179	0x3e60e1c4	0.21961123
180	0xbecaad18	-0.39585185
181	0xbd2ca778	-0.0421519
182	0x3ea478ae	0.3212332
183	0xbead5131	-0.33851007
184	0x3ddc99a0	0.10771489
185	0x3df53248	0.11972481
186	0xbe924822	-0.28570658
187	0xbe7ce98f	-0.2469847
188	0x3e47291c	0.19449276
189	0x3eb80d6c	0.3594774
190	0x3d447dd8	0.047971576
191	0xbe4924ee	-0.19642994
192	0x3e108694	0.14113837
193	0xbd0c8180	-0.03430319
194	0xbe6953d8	-0.2278589
195	0x3ee13014	0.43981993
196	0xbed06eb0	-0.40709448
197	0xbe7bdccc	-0.24595946
198	0x3ec4ed8c	0.38462484
199	0x3eb322be	0.34987444

weight f4 [2, 200]
0	0x3d8112dd	0.06302426
1	0x3d8f7321	0.07004381
2	0x3cb7ee64	0.02245254
3	0x3cd5be04	0.026091583
4	0xbce913b4	-0.028451778
5	0x3c37f8d8	0.011228763
6	0xbd50cacc	-0.050974652
7	0xbc7faf48	-0.015605755
8	0xbcf0405c	-0.029327564
9	0xbb823e40	-0.003974706
10	0xbd4cf424	-0.05003752
11	0x3cda110c	0.026619457
12	0xbc3d053c	-0.0115368925
13	0x3d2ce004	0.042205825
14	0xbc4f378c	-0.012647521
15	0xbcf23336	-0.029565435
16	0x3c1a2ea8	0.009410538
17	0x3c1cfeb0	0.009582207
18	0xbcfccf98	-0.030860707
19	0x3ac0e5c0	0.0014716908
20	0xbc3f2d28	-0.011668481
21	0xbcad02c8	-0.02111949
22	0xba39c580	-0.000708662
23	0x3d465af6	0.04842659
24	0x3cd159f4	0.025555588
25	0xbd0fb2c3	-0.03508259
26	0x3cb89010	0.022529632
27	0xbd44f5d1	-0.04808599
28	0x39d04200	0.00039722025
29	0x3d83ef01	0.06442071
30	0xbb8fafc0	-0.0043849647
31	0xbaea1dc0	-0.0017861649
32	0x3cd3c400	0.025850296
33	0xbd792116	-0.06082257
34	0x3d380ec0	0.04493594
35	0xbcca6712	-0.02470735
36	0xbd0e0d7d	-0.034680832
37	0x3cc9c3fc	0.024629585
38	0xbb175ae0	-0.0023094937
39	0x3d3d1062	0.046158202
40	0x3d228f8e	0.039687686
41	0x3d382ee0	0.04496658
42	0x3d7ad5ae	0.061238937
43	0x3d7d855e	0.061894767
44	0x39938300	0.00028135628
45	0xbc27b938	-0.010237031
46	0xbc112554	-0.008858997
47	0xbd8c1632	-0.06840171
48	0x3d49482e	0.0491411
49	0xbd21cf31	-0.039504234
50	0xbd3cf7e4	-0.046134844
51	0x3b3fd540	0.0029271394
52	0x3c06f218	0.008236431
53	0xbc670dd8	-0.014102422
54	0x3d536032	0.05160541
55	0x3ba2bec0	0.004966587
56	0x3d28eed2	0.04124338
57	0xbd5ea31e	-0.05435478
58	0xbd2e271a	-0.04251776
59	0x3d6f0bd6	0.058360897
60	0x3ce80898	0.02832441
61	0x3a25a400	0.00063186884
62	0xbc061ca0	-0.008185536
63	0x3d1af984	0.037835613
64	0x3c222310	0.009896055
65	0xbc539ec8	-0.012916274
66	0x3d64e8c2	0.055886038
67	0xbcecedb6	-0.028921943
68	0x3cf9b538	0.03048192
69	0xbd66d7fa	-0.056358315
70	0x3d1e256e	0.038609914
71	0xbc184c40	-0.009295523
72	0x3c062780	0.0081881285
73	0xbabbb900	-0.0014322102
74	0xbcb09ae4	-0.021558233
75	0x3cb96718	0.022632167
76	0x3c89d1a0	0.01682359
77	0x3d064e76	0.03278967
78	0x3cfc7b7c	0.0308206
79	0x3d461dde	0.048368327
80	0xbcd51b6a	-0.026014049
81	0xbbf35930	-0.0074264035
82	0x3b193c20	0.0023381785
83	0xbd8e54bc	-0.069497555
84	0x3c991da0	0.018690884
85	0x3cc1cda8	0.023657635
86	0xbd615c08	-0.05501941
87	0xbcdd6582	-0.027025942
88	0x3baba390	0.005238004
89	0xbcb407f8	-0.021976456
90	0xbd90320e	-0.07040797
91	0x3bb94260	0.0056536645
92	0xbd64af8e	-0.055831484
93	0x3d699b22	0.05703271
94	0x3d256a7a	0.040384747
95	0x3d3f911c	0.046769246
96	0x3d8864eb	0.066598736
97	0x3cbbca3c	0.022923581
98	0x3c2ecc80	0.010668874
99	0xbc569180	-0.013096213
100	0x3d7d2aae	0.06180828
101	0xbd0f641e	-0.03500759
102	0x3c87dfcc	0.016586207
103	0x3c98e5ac	0.018664204
104	0xbc838e0c	-0.016058944
105	0xbd4e6591	-0.05038983
106	0x3c715718	0.014730237
107	0x3d4c86da	0.049933292
108	0x3d80c3e5	0.06287364
109	0xbd87441f	-0.0660479
110	0x3d29fcd8	0.041500896
111	0x3c0ddc20	0.008658439
112	0xbd3e74f4	-0.046498254
113	0x3d8649bf	0.06557035
114	0x3ba262f0	0.004955642
115	0x3d51027c	0.05102776
116	0xbb9c4d30	-0.0047699437
117	0x3d4a40f6	0.049378358
118	0x3d00e20a	0.031465568
119	0xbce94f1a	-0.028480101
120	0xbd41cf16	-0.047316633
121	0xbb7e2300	-0.0038778186
122	0xbd81ec0f	-0.06343853
123	0x3ce9c49c	0.028536133
124	0x3c0c9740	0.008580983
125	0xbca96000	-0.02067566
126	0xbd1d4a67	-0.038401034
127	0x3d2c1f6a	0.042022146
128	0xbd0c5387	-0.034259345
129	0xbb818590	-0.0039526895
130	0xbc9777e2	-0.018489782
131	0xbd8139c1	-0.06309844
132	0xbd31324c	-0.043260857
133	0xbd76ea96	-0.060282312
134	0xbb073e60	-0.0020636544
135	0x3d039886	0.03212788
136	0xbd1f2116	-0.038849913
137	0xbca702f2	-0.020387147
138	0xbd4c5293	-0.049883436
139	0xbc08e9e8	-0.008356549
140	0xbd2b8ade	-0.04188048
141	0xbd8b699c	-0.06807253
142	0x3d6390ba	0.055557944
143	0x3d15bb80	0.036555767
144	0xbcbe8caa	-0.023260433
145	0xbd56f5b8	-0.05248043
146	0x3ad685c0	0.0016366765
147	0x3c3c7060	0.011501402
148	0x3cb6fc14	0.022336997
149	0xbd4fdf27	-0.050749924
150	0x3d618206	0.05505564
151	0xbd7e0643	-0.06201769
152	0xbd646851	-0.055763546
153	0xbd5bc250	-0.053652108
154	0x3c36ad90	0.011149779
155	0xbc3c3740	-0.011487782
156	0x3d750b6a	0.05982534
157	0x3d5f6192	0.05453641
158	0xbd815c74	-0.06316462
159	0xbcac1e56	-0.021010559
160	0x3cf73fd0	0.030181795
161	0xbca68c98	-0.020330712
162	0x3c631d40	0.013861954
163	0xbb220b40	-0.0024725944
164	0x3d036346	0.032077096
165	0xbd866164	-0.065615445
166	0xbd5992c7	-0.053118493
167	0xbc4f220c	-0.012642395
168	0xbafca200	-0.0019274354
169	0x3c9d40a8	0.01919587
170	0x3b72ab20	0.0037028268
171	0xbc6363b0	-0.013878748
172	0x3c41ab88	0.011820681
173	0xbc9aeef2	-0.018912766
174	0xbd0b1873	-0.033958863
175	0xbd635c01	-0.055507664
176	0xbd821f21	-0.063535936
177	0x3bb7ac00	0.005605221
178	0xbd730668	-0.05933228
179	0x3cad938c	0.02118852
180	0x3d5d7c30	0.054073513
181	0xbc9b1a58	-0.01893346
182	0xbd5cbde6	-0.05389204
183	0xbc14cec8	-0.009082504
184	0x396fa400	0.00022853911
185	0x3d6ad492	0.05733163
186	0xbd6c03a9	-0.057620678
187	0x3d37b822	0.044853337
188	0x3c9ec1f8	0.0193796
189	0x3d82793d	0.063707806
190	0xbcb508f8	-0.022099003
191	0x3d813f29	0.06310875
192	0xbd85c2cb	-0.065312944
193	0x3b1030e0	0.0022001788
194	0xbc52066c	-0.012818914
195	0x3bc0fe40	0.005889684
196	0x3c387380	0.011258006
197	0xbbd790a0	-0.00657852
198	0x3a04cb00	0.000506565
199	0xbcacdac8	-0.021100417
200	0x3b56c560	0.0032771453
201	0x3d64b8d2	0.05584032
202	0x3c576458	0.013146482
203	0xbaa17600	-0.0012318492
204	0x3cfda7d4	0.030963816
205	0x3c96a380	0.01838851
206	0x3c45ecb8	0.012080364
207	0x3b0fba20	0.0021931008
208	0xbd107bd0	-0.035274327
209	0x3c88bfb4	0.016692974
210	0x3d7a5abe	0.061121695
211	0xbd8dd7f2	-0.06925954
212	0x3d8aa273	0.06769266
213	0xbd267f68	-0.040648848
214	0xbb580da0	-0.0032967106
215	0xbd4943dc	-0.04913698
216	0xbc0d0b10	-0.008608595
217	0xbd10d7e3	-0.035362136
218	0xbd4367b4	-0.04770632
219	0x3baaf220	0.005216852
220	0xbd8de885	-0.06929115
221	0xbbb1c2f0	-0.0054248497
222	0xbae47380	-0.0017429441
223	0xbc96aab2	-0.01839194
224	0x3d39c354	0.045352295
225	0x3d82c67b	0.063855134
226	0x3c139a20	0.009008914
227	0x3c178d60	0.009250015
228	0xbd7f1114	-0.062272146
229	0x3d4c0844	0.04981257
230	0xbd4370b8	-0.04771492
231	0xbd6d700d	-0.057968188
232	0x3d843997	0.06456297
233	0xbc5bdf1c	-0.013419893
234	0x3d887381	0.066626556
235	0x3d881965	0.066454686
236	0xbd8cd1e3	-0.0687597
237	0x3c927d8c	0.017882131
238	0x3c302bc8	0.010752626
239	0x3ba88910	0.0051432922
240	0xbd0b257f	-0.033971306
241	0x3d8dcf4f	0.069243066
242	0x3cb55090	0.022133142
243	0x3d75d88e	0.060020976
244	0x3d5eb37e	0.054370396
245	0x3c7e18b0	0.015508816
246	0x3c98ec28	0.018667296
247	0xbd82f4f2	-0.06394376
248	0xbd2f6628	-0.042822033
249	0xbcf6a652	-0.030108605
250	0x3d4a2e0a	0.049360313
251	0x3d8dcbb5	0.0692362
252	0x3d29e978	0.04148242
253	0xbd8e32a0	-0.0694325
254	0xbcdb96c8	-0.026805297
255	0xbd7d0cf2	-0.061779924

bias f4 [2]
0	0x38b6ec00	8.722395e-05
1	0x3d4a998e	0.049462847

weight f4 [4, 3]
0	0x3e8ebf7c	0.27880466
1	0x3f10d9d8	0.56582403
2	0x3efc2a28	0.49250913
3	0xbeb7af30	-0.35875845
4	0xbe9c29ed	-0.30500737
5	0xbdb14864	-0.086563855
6	0xbe5085f8	-0.20363605
7	0x3d058030	0.032592952
8	0xbe1f59da	-0.1556162
9	0xbebbe5e0	-0.36698818
10	0xbeec9fdc	-0.46215713
11	0xbdcc64b8	-0.09980148

bias f4 [4]
0	0x3f110ec8	0.5666318
1	0xbe2c4fac	-0.16827267
2	0xbd86ce50	-0.0658232
3	0x3e948f32	0.290155

weight f4 [4, 8]
0	0xbde40706	-0.11134152
1	0xbdee7b22	-0.116445795
2	0x3e720d16	0.23637804
3	0xbdb3364c	-0.08750591
4	0xbb8c7e00	-0.0042874813
5	0x3e312bca	0.1730186
6	0x3db011f8	0.08597177
7	0x3e715372	0.23566988
8	0x3de79124	0.1130698
9	0xbd384660	-0.04498899
10	0xbe8e8464	-0.2783538
11	0x3e8ef1cf	0.2791886
12	0xbeaac7ed	-0.33355656
13	0xbc431a00	-0.011908054
14	0x3de1e5f4	0.11030188
15	0x3ea4b2fb	0.321678
16	0x3ca80120	0.020508349
17	0xbdc779e8	-0.09740049
18	0xbda2f4c8	-0.079568446
19	0xbdc7276c	-0.09724316
20	0x3df6808c	0.12036237
21	0x3e0a958a	0.13533607
22	0xbe8cd1fa	-0.2750395
23	0xbe17b73b	-0.1481599
24	0x3e78719e	0.24262092
25	0xbe7c0d08	-0.24614346
26	0x3e888c27	0.26669428
27	0xbe4bf822	-0.19918874
28	0x3ca3c420	0.01999098
29	0xbdddfc2e	-0.10839115
30	0xbcbb2d30	-0.022848696
31	0xbdcd385c	-0.10020515

bias f4 [4]
0	0x3e914ea5	0.28380314
1	0xbdf182e0	-0.117925406
2	0xbc6de720	-0.0145204365
3	0x3e270022	0.16308644

weight f4 [10, 2]
0	0xbf1fe3bd	-0.62456876
1	0xbd979270	-0.074009776
2	0x3e2bbb3c	0.16770643
3	0x3f195207	0.5989079
4	0xbee4f486	-0.44717807
5	0xbef25bb1	-0.4733558
6	0xbe93d337	-0.28872082
7	0xbf34736b	-0.70488614
8	0x3eedb992	0.4643064
9	0x3ed635ae	0.4183783
10	0xbe0a3f90	-0.1350081
11	0xbed037cc	-0.4066757
12	0xbea50a51	-0.32234433
13	0x3eab7f52	0.33495575
14	0xbc78fdc0	-0.015197217
15	0xbe55b074	-0.20868093
16	0xbd4b0b40	-0.049571276
17	0x3f1ee69d	0.6207064
18	0x3ec76466	0.38943785
19	0xbe387178	-0.18012035

bias f4 [10]
0	0xbf2b47ff	-0.6690673
1	0xbf0d2f9a	-0.5515076
2	0x3dd6b708	0.10484129
3	0x3e51324c	0.20429343
4	0x3f00a1a1	0.50246626
5	0x3f034aa7	0.51285785
6	0xbe58ca78	-0.21170986
7	0x3f2cff25	0.6757682
8	0xbebae8cf	-0.36505744
9	0xbf02ada0	-0.5104618

weight f4 [10, 2]
0	0x3f233061	0.63745695
1	0xbde3cf20	-0.1112349
2	0x3e02d778	0.12777507
3	0xbd3d6080	-0.046234608
4	0x3e04684c	0.12930411
5	0x3f143fc9	0.5790983
6	0xbec99759	-0.39373282
7	0x3f12678b	0.57189244
8	0xbd654c70	-0.0559811
9	0x3e9fb212	0.31190544
10	0xbf063546	-0.5242504
11	0x3efeeee6	0.4979164
12	0x3e62f8a4	0.22165161
13	0x3b38da00	0.002820611
14	0x3ec0c89a	0.37653047
15	0xbeef086f	-0.46686122
16	0xbea8f5e6	-0.33000106
17	0xbe984943	-0.29743394
18	0x3e6dd56c	0.23225945
19	0xbe8919f4	-0.26777613

bias f4 [10]
0	0x3f024937	0.50892967
1	0xbd65c970	-0.05610031
2	0x3e886cf4	0.26645625
3	0x3f2e7a1b	0.6815507
4	0x3e3aff04	0.18261343
5	0x3f330fd7	0.69946045
6	0x3ee33fde	0.44384664
7	0x3e816c60	0.25277996
8	0xbec8fea0	-0.39256763
9	0xbe550b14	-0.20805007

weight f4 [10, 2]
0	0xbf2b4dca	-0.6691557
1	0x3f2736ef	0.65318197
2	0xbdc630c8	-0.09677273
3	0xbec86329	-0.39138153
4	0xbea7db7a	-0.32784635
5	0x3f215439	0.6301914
6	0x3f1689df	0.58804125
7	0xbdd063f8	-0.101753175
8	0xbe84ae9a	-0.2591446
9	0x3f08a3a9	0.53374726
10	0x3f11777d	0.5682295
11	0x3f2a2b47	0.66472286
12	0x3a9a1200	0.0011754632
13	0x3eb63e5a	0.35594445
14	0x3dabaa20	0.08382058
15	0x3e34defc	0.17663187
16	0xbe075e98	-0.13219678
17	0x3f28cd91	0.6593867
18	0xbf0533b2	-0.52032006
19	0x3e88e6ac	0.2673849

bias f4 [10]
0	0x3f04429f	0.51664156
1	0xbc1ddec0	-0.009635627
2	0xbe7adb4e	-0.2449772
3	0xbf10aeea	-0.565169
4	0xbeeec112	-0.46631676
5	0xbf20b796	-0.6278013
6	0xbeab8081	-0.33496478
7	0x3caa0400	0.02075386
8	0x3ea877fe	0.32904047
9	0x3f33f79d	0.702997

F f4 [2, 2]
0	0x3f800000	1.0
1	0x3c23d70a	0.01
2	0x00000000	0.0
3	0x3f800000	1.0

Q f4 [2, 2]
0	0x34b2f4fc	3.3333333e-07
1	0x3851b717	5e-05
2	0x3851b717	5e-05
3	0x3c23d70a	0.01

H f4 [1, 2]
0	0x3f800000	1.0
1	0x00000000	0.0

prior_Q f4 [2, 2]
0	0x3f800000	1.0
1	0x00000000	0.0
2	0x00000000	0.0
3	0x3f800000	1.0

prior_Sigma f4 [2, 2]
0	0x00000000	0.0
1	0x00000000	0.0
2	0x00000000	0.0
3	0x00000000	0.0

m1x_0 f4 [2]
0	0x420c928b	35.14311
1	0xbf8775ac	-1.0582786

m2x_0 f4 [2, 2]
0	0x00000000	0.0
1	0x00000000	0.0
2	0x00000000	0.0
3	0x00000000	0.0

h_S f4 [1, 500, 1]
0	0x3f322a92	0.6959621
1	0x3f2cf89a	0.67566836
2	0x3f2cf89a	0.67566836
3	0x3f2cf89a	0.67566836
4	0x3f2cf89a	0.67566836
5	0x3f2cf89a	0.67566836
6	0x3f2cf89a	0.67566836
7	0x3f2cf89a	0.67566836
8	0x3f2cf89a	0.67566836
9	0x3f2cf89a	0.67566836
10	0x3f2cf89a	0.67566836
11	0x3f2cf89a	0.67566836
12	0x3f2cf89a	0.67566836
13	0x3f2cf89a	0.67566836
14	0x3f2cf89a	0.67566836
15	0x3f2cf89a	0.67566836
16	0x3f2cf89a	0.67566836
17	0x3f2cf89a	0.67566836
18	0x3f2cf89a	0.67566836
19	0x3f2cf89a	0.67566836
20	0x3f2cf89a	0.67566836
21	0x3f2cf89a	0.67566836
22	0x3f2cf89a	0.67566836
23	0x3f2cf89a	0.67566836
24	0x3f367bf7	0.71282905
25	0x3f367bf7	0.71282905
26	0x3f367bf7	0.71282905
27	0x3f367bf7	0.71282905
28	0x3f367bf7	0.71282905
29	0x3f367bf7	0.71282905
30	0x3f367bf7	0.71282905
31	0x3f367bf7	0.71282905
32	0x3f367bf7	0.71282905
33	0x3f367bf7	0.71282905
34	0x3f367bf7	0.71282905
35	0x3f367bf7	0.71282905
36	0x3f367bf7	0.71282905
37	0x3f367bf7	0.71282905
38	0x3f367bf7	0.71282905
39	0x3f367bf7	0.71282905
40	0x3f367bf7	0.71282905
41	0x3f367bf7	0.71282905
42	0x3f367bf7	0.71282905
43	0x3f367bf7	0.71282905
44	0x3f367bf7	0.71282905
45	0x3f367bf7	0.71282905
46	0x3f367bf7	0.71282905
47	0x3f367bf7	0.71282905
48	0x3f367bf7	0.71282905
49	0x3f367bf7	0.71282905
50	0x3f367bf7	0.71282905
51	0x3f367bf7	0.71282905
52	0x3f367bf7	0.71282905
53	0x3f367bf7	0.71282905
54	0x3f367bf7	0.71282905
55	0x3f367bf7	0.71282905
56	0x3f367bf7	0.71282905
57	0x3f367bf7	0.71282905
58	0x3f367bf7	0.71282905
59	0x3f367bf7	0.71282905
60	0x3f367bf7	0.71282905
61	0x3f367bf7	0.71282905
62	0x3f367bf7	0.71282905
63	0x3f367bf7	0.71282905
64	0x3f367bf7	0.71282905
65	0x3f367bf7	0.71282905
66	0x3f367bf7	0.71282905
67	0x3f367bf7	0.71282905
68	0x3f367bf7	0.71282905
69	0x3f367bf7	0.71282905
70	0x3f367bf7	0.71282905
71	0x3f367bf7	0.71282905
72	0x3f367bf7	0.71282905
73	0x3f367bf7	0.71282905
74	0x3f367bf7	0.71282905
75	0x3f367bf7	0.71282905
76	0x3f367bf7	0.71282905
77	0x3f367bf7	0.71282905
78	0x3f367bf7	0.71282905
79	0x3f367bf7	0.71282905
80	0x3f367bf7	0.71282905
81	0x3f367bf7	0.71282905
82	0x3f367bf7	0.71282905
83	0x3f367bf7	0.71282905
84	0x3f367bf7	0.71282905
85	0x3f367bf7	0.71282905
86	0x3f367bf7	0.71282905
87	0x3f367bf7	0.71282905
88	0x3f367bf7	0.71282905
89	0x3f367bf7	0.71282905
90	0x3f367bf7	0.71282905
91	0x3f367bf7	0.71282905
92	0x3f367bf7	0.71282905
93	0x3f367bf7	0.71282905
94	0x3f367bf7	0.71282905
95	0x3f367bf7	0.71282905
96	0x3f367bf7	0.71282905
97	0x3f367bf7	0.71282905
98	0x3f367bf7	0.71282905
99	0x3f367bf7	0.71282905
100	0x3f367bf7	0.71282905
101	0x3f367bf7	0.71282905
102	0x3f367bf7	0.71282905
103	0x3f367bf7	0.71282905
104	0x3f367bf7	0.71282905
105	0x3f367bf7	0.71282905
106	0x3f367bf7	0.71282905
107	0x3f367bf7	0.71282905
108	0x3f367bf7	0.71282905
109	0x3f367bf7	0.71282905
110	0x3f367bf7	0.71282905
111	0x3f367bf7	0.71282905
112	0x3f367bf7	0.71282905
113	0x3f367bf7	0.71282905
114	0x3f367bf7	0.71282905
115	0x3f367bf7	0.71282905
116	0x3f367bf7	0.71282905
117	0x3f367bf7	0.71282905
118	0x3f367bf7	0.71282905
119	0x3f367bf7	0.71282905
120	0x3f367bf7	0.71282905
121	0x3f367bf7	0.71282905
122	0x3f367bf7	0.71282905
123	0x3f367bf7	0.71282905
124	0x3f367bf7	0.71282905
125	0x3f367bf7	0.71282905
126	0x3f367bf7	0.71282905
127	0x3f367bf7	0.71282905
128	0x3f367bf7	0.71282905
129	0x3f367bf7	0.71282905
130	0x3f367bf7	0.71282905
131	0x3f367bf7	0.71282905
132	0x3f367bf7	0.71282905
133	0x3f367bf7	0.71282905
134	0x3f367bf7	0.71282905
135	0x3f367bf7	0.71282905
136	0x3f367bf7	0.71282905
137	0x3f367bf7	0.71282905
138	0x3f367bf7	0.71282905
139	0x3f367bf7	0.71282905
140	0x3f367bf7	0.71282905
141	0x3f367bf7	0.71282905
142	0x3f367bf7	0.71282905
143	0x3f367bf7	0.71282905
144	0x3f367bf7	0.71282905
145	0x3f367bf7	0.71282905
146	0x3f367bf7	0.71282905
147	0x3f367bf7	0.71282905
148	0x3f367bf7	0.71282905
149	0x3f367bf7	0.71282905
150	0x3f367bf7	0.71282905
151	0x3f367bf7	0.71282905
152	0x3f367bf7	0.71282905
153	0x3f367bf7	0.71282905
154	0x3f367bf7	0.71282905
155	0x3f367bf7	0.71282905
156	0x3f367bf7	0.71282905
157	0x3f367bf7	0.71282905
158	0x3f367bf7	0.71282905
159	0x3f367bf7	0.71282905
160	0x3f367bf7	0.71282905
161	0x3f367bf7	0.71282905
162	0x3f367bf7	0.71282905
163	0x3f367bf7	0.71282905
164	0x3f367bf7	0.71282905
165	0x3f367bf7	0.71282905
166	0x3f367bf7	0.71282905
167	0x3f367bf7	0.71282905
168	0x3f367bf7	0.71282905
169	0x3f367bf7	0.71282905
170	0x3f367bf7	0.71282905
171	0x3f367bf7	0.71282905
172	0x3f367bf7	0.71282905
173	0x3f367bf7	0.71282905
174	0x3f367bf7	0.71282905
175	0x3f367bf7	0.71282905
176	0x3f367bf7	0.71282905
177	0x3f367bf7	0.71282905
178	0x3f367bf7	0.71282905
179	0x3f367bf7	0.71282905
180	0x3f367bf7	0.71282905
181	0x3f367bf7	0.71282905
182	0x3f367bf7	0.71282905
183	0x3f367bf7	0.71282905
184	0x3f367bf7	0.71282905
185	0x3f367bf7	0.71282905
186	0x3f367bf7	0.71282905
187	0x3f367bf7	0.71282905
188	0x3f367bf7	0.71282905
189	0x3f367bf7	0.71282905
190	0x3f367bf7	0.71282905
191	0x3f367bf7	0.71282905
192	0x3f367bf7	0.71282905
193	0x3f367bf7	0.71282905
194	0x3f367bf7	0.71282905
195	0x3f367bf7	0.71282905
196	0x3f367bf7	0.71282905
197	0x3f367bf7	0.71282905
198	0x3f367bf7	0.71282905
199	0x3f367bf7	0.71282905
200	0x3f367bf7	0.71282905
201	0x3f367bf7	0.71282905
202	0x3f367bf7	0.71282905
203	0x3f367bf7	0.71282905
204	0x3f367bf7	0.71282905
205	0x3f367bf7	0.71282905
206	0x3f367bf7	0.71282905
207	0x3f367bf7	0.71282905
208	0x3f367bf7	0.71282905
209	0x3f367bf7	0.71282905
210	0x3f367bf7	0.71282905
211	0x3f367bf7	0.71282905
212	0x3f367bf7	0.71282905
213	0x3f367bf7	0.71282905
214	0x3f367bf7	0.71282905
215	0x3f367bf7	0.71282905
216	0x3f367bf7	0.71282905
217	0x3f367bf7	0.71282905
218	0x3f367bf7	0.71282905
219	0x3f367bf7	0.71282905
220	0x3f367bf7	0.71282905
221	0x3f367bf7	0.71282905
222	0x3f367bf7	0.71282905
223	0x3f367bf7	0.71282905
224	0x3f367bf7	0.71282905
225	0x3f367bf7	0.71282905
226	0x3f367bf7	0.71282905
227	0x3f367bf7	0.71282905
228	0x3f367bf7	0.71282905
229	0x3f367bf7	0.71282905
230	0x3f367bf7	0.71282905
231	0x3f367bf7	0.71282905
232	0x3f367bf7	0.71282905
233	0x3f367bf7	0.71282905
234	0x3f367bf7	0.71282905
235	0x3f367bf7	0.71282905
236	0x3f367bf7	0.71282905
237	0x3f367bf7	0.71282905
238	0x3f367bf7	0.71282905
239	0x3f367bf7	0.71282905
240	0x3f367bf7	0.71282905
241	0x3f367bf7	0.71282905
242	0x3f367bf7	0.71282905
243	0x3f367bf7	0.71282905
244	0x3f367bf7	0.71282905
245	0x3f367bf7	0.71282905
246	0x3f367bf7	0.71282905
247	0x3f367bf7	0.71282905
248	0x3f367bf7	0.71282905
249	0x3f367bf7	0.71282905
250	0x3f367bf7	0.71282905
251	0x3f367bf7	0.71282905
252	0x3f367bf7	0.71282905
253	0x3f367bf7	0.71282905
254	0x3f367bf7	0.71282905
255	0x3f367bf7	0.71282905

h_Sigma f4 [1, 500, 4]
0	0x3eb0ed17	0.34555885
1	0x00000000	0.0
2	0x3c268790	0.010164157
3	0x3e40ff48	0.18847382
4	0x3eb1e752	0.34746796
5	0x00000000	0.0
6	0x3c0679e0	0.008207768
7	0x3e400be2	0.18754533
8	0x3eb1e752	0.34746796
9	0x00000000	0.0
10	0x3c0679e0	0.008207768
11	0x3e400be2	0.18754533
12	0x3eb1e752	0.34746796
13	0x00000000	0.0
14	0x3c0679e0	0.008207768
15	0x3e400be2	0.18754533
16	0x3eb1e752	0.34746796
17	0x00000000	0.0
18	0x3c0679e0	0.008207768
19	0x3e400be2	0.18754533
20	0x3eb1e752	0.34746796
21	0x00000000	0.0
22	0x3c0679e0	0.008207768
23	0x3e400be2	0.18754533
24	0x3eb1e752	0.34746796
25	0x00000000	0.0
26	0x3c0679e0	0.008207768
27	0x3e400be2	0.18754533
28	0x3eb1e752	0.34746796
29	0x00000000	0.0
30	0x3c0679e0	0.008207768
31	0x3e400be2	0.18754533
32	0x3eb1e752	0.34746796
33	0x00000000	0.0
34	0x3c0679e0	0.008207768
35	0x3e400be2	0.18754533
36	0x3eb1e752	0.34746796
37	0x00000000	0.0
38	0x3c0679e0	0.008207768
39	0x3e400be2	0.18754533
40	0x3eb1e752	0.34746796
41	0x00000000	0.0
42	0x3c0679e0	0.008207768
43	0x3e400be2	0.18754533
44	0x3eb1e752	0.34746796
45	0x00000000	0.0
46	0x3c0679e0	0.008207768
47	0x3e400be2	0.18754533
48	0x3eb1e752	0.34746796
49	0x00000000	0.0
50	0x3c0679e0	0.008207768
51	0x3e400be2	0.18754533
52	0x3eb1e752	0.34746796
53	0x00000000	0.0
54	0x3c0679e0	0.008207768
55	0x3e400be2	0.18754533
56	0x3eb1e752	0.34746796
57	0x00000000	0.0
58	0x3c0679e0	0.008207768
59	0x3e400be2	0.18754533
60	0x3eb1e752	0.34746796
61	0x00000000	0.0
62	0x3c0679e0	0.008207768
63	0x3e400be2	0.18754533
64	0x3eb1e752	0.34746796
65	0x00000000	0.0
66	0x3c0679e0	0.008207768
67	0x3e400be2	0.18754533
68	0x3eb1e752	0.34746796
69	0x00000000	0.0
70	0x3c0679e0	0.008207768
71	0x3e400be2	0.18754533
72	0x3eb1e752	0.34746796
73	0x00000000	0.0
74	0x3c0679e0	0.008207768
75	0x3e400be2	0.18754533
76	0x3eb1e752	0.34746796
77	0x00000000	0.0
78	0x3c0679e0	0.008207768
79	0x3e400be2	0.18754533
80	0x3eb1e752	0.34746796
81	0x00000000	0.0
82	0x3c0679e0	0.008207768
83	0x3e400be2	0.18754533
84	0x3eb1e752	0.34746796
85	0x00000000	0.0
86	0x3c0679e0	0.008207768
87	0x3e400be2	0.18754533
88	0x3eb1e752	0.34746796
89	0x00000000	0.0
90	0x3c0679e0	0.008207768
91	0x3e400be2	0.18754533
92	0x3eb1e752	0.34746796
93	0x00000000	0.0
94	0x3c0679e0	0.008207768
95	0x3e400be2	0.18754533
96	0x3eb01cf0	0.34397078
97	0x00000000	0.0
98	0x3c413d68	0.011794426
99	0x3e41c9de	0.18924662
100	0x3eb01cf0	0.34397078
101	0x00000000	0.0
102	0x3c413d68	0.011794426
103	0x3e41c9de	0.18924662
104	0x3eb01cf0	0.34397078
105	0x00000000	0.0
106	0x3c413d68	0.011794426
107	0x3e41c9de	0.18924662
108	0x3eb01cf0	0.34397078
109	0x00000000	0.0
110	0x3c413d68	0.011794426
111	0x3e41c9de	0.18924662
112	0x3eb01cf0	0.34397078
113	0x00000000	0.0
114	0x3c413d68	0.011794426
115	0x3e41c9de	0.18924662
116	0x3eb01cf0	0.34397078
117	0x00000000	0.0
118	0x3c413d68	0.011794426
119	0x3e41c9de	0.18924662
120	0x3eb01cf0	0.34397078
121	0x00000000	0.0
122	0x3c413d68	0.011794426
123	0x3e41c9de	0.18924662
124	0x3eb01cf0	0.34397078
125	0x00000000	0.0
126	0x3c413d68	0.011794426
127	0x3e41c9de	0.18924662
128	0x3eb01cf0	0.34397078
129	0x00000000	0.0
130	0x3c413d68	0.011794426
131	0x3e41c9de	0.18924662
132	0x3eb01cf0	0.34397078
133	0x00000000	0.0
134	0x3c413d68	0.011794426
135	0x3e41c9de	0.18924662
136	0x3eb01cf0	0.34397078
137	0x00000000	0.0
138	0x3c413d68	0.011794426
139	0x3e41c9de	0.18924662
140	0x3eb01cf0	0.34397078
141	0x00000000	0.0
142	0x3c413d68	0.011794426
143	0x3e41c9de	0.18924662
144	0x3eb01cf0	0.34397078
145	0x00000000	0.0
146	0x3c413d68	0.011794426
147	0x3e41c9de	0.18924662
148	0x3eb01cf0	0.34397078
149	0x00000000	0.0
150	0x3c413d68	0.011794426
151	0x3e41c9de	0.18924662
152	0x3eb01cf0	0.34397078
153	0x00000000	0.0
154	0x3c413d68	0.011794426
155	0x3e41c9de	0.18924662
156	0x3eb01cf0	0.34397078
157	0x00000000	0.0
158	0x3c413d68	0.011794426
159	0x3e41c9de	0.18924662
160	0x3eb01cf0	0.34397078
161	0x00000000	0.0
162	0x3c413d68	0.011794426
163	0x3e41c9de	0.18924662
164	0x3eb01cf0	0.34397078
165	0x00000000	0.0
166	0x3c413d68	0.011794426
167	0x3e41c9de	0.18924662
168	0x3eb01cf0	0.34397078
169	0x00000000	0.0
170	0x3c413d68	0.011794426
171	0x3e41c9de	0.18924662
172	0x3eb01cf0	0.34397078
173	0x00000000	0.0
174	0x3c413d68	0.011794426
175	0x3e41c9de	0.18924662
176	0x3eb01cf0	0.34397078
177	0x00000000	0.0
178	0x3c413d68	0.011794426
179	0x3e41c9de	0.18924662
180	0x3eb01cf0	0.34397078
181	0x00000000	0.0
182	0x3c413d68	0.011794426
183	0x3e41c9de	0.18924662
184	0x3eb01cf0	0.34397078
185	0x00000000	0.0
186	0x3c413d68	0.011794426
187	0x3e41c9de	0.18924662
188	0x3eb01cf0	0.34397078
189	0x00000000	0.0
190	0x3c413d68	0.011794426
191	0x3e41c9de	0.18924662
192	0x3eb01cf0	0.34397078
193	0x00000000	0.0
194	0x3c413d68	0.011794426
195	0x3e41c9de	0.18924662
196	0x3eb01cf0	0.34397078
197	0x00000000	0.0
198	0x3c413d68	0.011794426
199	0x3e41c9de	0.18924662
200	0x3eb01cf0	0.34397078
201	0x00000000	0.0
202	0x3c413d68	0.011794426
203	0x3e41c9de	0.18924662
204	0x3eb01cf0	0.34397078
205	0x00000000	0.0
206	0x3c413d68	0.011794426
207	0x3e41c9de	0.18924662
208	0x3eb01cf0	0.34397078
209	0x00000000	0.0
210	0x3c413d68	0.011794426
211	0x3e41c9de	0.18924662
212	0x3eb01cf0	0.34397078
213	0x00000000	0.0
214	0x3c413d68	0.011794426
215	0x3e41c9de	0.18924662
216	0x3eb01cf0	0.34397078
217	0x00000000	0.0
218	0x3c413d68	0.011794426
219	0x3e41c9de	0.18924662
220	0x3eb01cf0	0.34397078
221	0x00000000	0.0
222	0x3c413d68	0.011794426
223	0x3e41c9de	0.18924662
224	0x3eb01cf0	0.34397078
225	0x00000000	0.0
226	0x3c413d68	0.011794426
227	0x3e41c9de	0.18924662
228	0x3eb01cf0	0.34397078
229	0x00000000	0.0
230	0x3c413d68	0.011794426
231	0x3e41c9de	0.18924662
232	0x3eb01cf0	0.34397078
233	0x00000000	0.0
234	0x3c413d68	0.011794426
235	0x3e41c9de	0.18924662
236	0x3eb01cf0	0.34397078
237	0x00000000	0.0
238	0x3c413d68	0.011794426
239	0x3e41c9de	0.18924662
240	0x3eb01cf0	0.34397078
241	0x00000000	0.0
242	0x3c413d68	0.011794426
243	0x3e41c9de	0.18924662
244	0x3eb01cf0	0.34397078
245	0x00000000	0.0
246	0x3c413d68	0.011794426
247	0x3e41c9de	0.18924662
248	0x3eb01cf0	0.34397078
249	0x00000000	0.0
250	0x3c413d68	0.011794426
251	0x3e41c9de	0.18924662
252	0x3eb01cf0	0.34397078
253	0x00000000	0.0
254	0x3c413d68	0.011794426
255	0x3e41c9de	0.18924662
