KalmanNetPHAv2/KalmanNet_TSP-main/KNet/2904/2904model_x.pt (torch, 67220 bytes, 43 tensors)

weight_ih_l0 f4 [12, 10]
000000 a8 67 e2 be b8 cb 0d be 70 98 8a 3d f4 5d 23 be
       -0.44219708 -0.13847244 0.067673564 -0.15953809
000010 68 23 0c be 88 dc df 3e 50 e7 60 bd 58 36 e0 bd
       -0.13685381 0.4372294 -0.054908097 -0.10947865
000020 f0 cc 3d be ba 06 8c be b6 d0 e5 3e 08 da b2 be
       -0.18535209 -0.27348882 0.44885796 -0.3493197
000030 de 2b 9b be 56 7a 9b be 3c 6f 53 3e 00 6d e0 3e
       -0.30306906 -0.30366772 0.20647901 0.4383316
000040 44 af df 3e 14 58 42 be 84 60 84 3e c0 e9 5b bc
       0.43688405 -0.18978912 0.25854886 -0.01342243
000050 20 1c a7 bd ee 78 e5 be ae 09 86 3e f8 53 c3 be
       -0.08159661 -0.44818825 0.2617926 -0.3815
000060 a0 f5 95 3d 30 8f 8d bd 50 fa e1 3d e8 2d 81 be
       0.0732224 -0.069120765 0.110340714 -0.25230336
000070 6c e1 e5 3e a8 c9 f0 bd b8 d4 49 3e 40 24 05 3d
       0.44898546 -0.11757213 0.19710052 0.032505274
000080 14 23 18 3e ac 0c ab 3e 14 5a 9d be 88 91 c2 3d
       0.14857131 0.33408105 -0.30732787 0.09500414
000090 e8 f5 8a be 40 07 35 be d8 b2 d1 be 30 42 45 bd
       -0.27140737 -0.17678547 -0.4095676 -0.048158824
0000a0 30 c1 f4 bd 30 68 d3 3e 6e a4 da 3e 80 f8 19 be
       -0.1195091 0.41290426 0.42703575 -0.15036201
0000b0 90 8e cf 3e 52 2a 92 be 04 47 da 3e 9e 3d 88 be
       0.40538454 -0.28547913 0.42632306 -0.2660951
0000c0 20 fe 8d be 94 c7 d1 3e aa 32 86 3e f6 09 9e 3e
       -0.27732944 0.4097258 0.2621053 0.30866975
0000d0 c0 16 9a be da 85 c2 be 06 39 99 be 0e d1 fe 3e
       -0.30095482 -0.37992746 -0.29926318 0.4976887
0000e0 c0 20 c2 be f8 40 98 3e 80 6c cf 3c 14 8f 28 3e
       -0.3791561 0.29737067 0.025320292 0.1646083
0000f0 b4 ce af 3e f8 60 c2 be 9e 0c f6 be e0 1e dc 3e
       0.3433739 -0.37964606 -0.480565 0.42992306
000100 50 69 52 bd b8 eb 09 3e 40 58 49 3e 94 a0 f3 3e
       -0.051369965 0.13468826 0.19662571 0.4758345
000110 16 5f aa 3e 24 7a 58 be 50 4c fc be 28 e7 29 be
       0.3327567 -0.21140343 -0.49276972 -0.16592085
000120 bc f7 c9 be 80 34 a0 3d 60 a1 ab 3d 78 87 eb be
       -0.3944682 0.078225136 0.08380389 -0.46001792
000130 9a 81 91 3e de ca dd 3e 1a 2e b6 be 48 be 64 3e
       0.2841919 0.43318838 -0.35582048 0.22338212
000140 30 4b fd be fc b8 07 3e 2c 70 39 3e 30 6a 46 3d
       -0.49471426 0.1325416 0.18109196 0.048441112
000150 fe c5 b0 3e ea 84 9a be b0 79 ec be e6 8a a6 be
       0.34526056 -0.3017953 -0.4618659 -0.32527846
000160 3c 5c b6 3e 60 df dc 3c 60 91 f7 bc 68 fd 58 3e
       0.35617244 0.026961982 -0.030220687 0.21190417
000170 5c 84 4f 3e 80 59 93 be 6a 63 81 be 8a 1c c5 be
       0.20265335 -0.2877922 -0.2527116 -0.38498336
000180 e0 6f 07 be ac 10 69 3e da 2f e2 3e c8 02 a4 bd
       -0.1322627 0.22760266 0.44177133 -0.08008343
000190 ca 79 db be 28 9e 15 3e 72 c0 a2 3e ac 9f a0 be
       -0.42866355 0.14611113 0.3178745 -0.3137182
0001a0 10 6e 95 3d 8a 17 8f 3e 18 b5 d5 3e 18 cd ec 3e
       0.072963834 0.27947646 0.41739726 0.46250224
0001b0 9c a1 6f be 06 37 d1 3e 00 17 e1 bb d0 0f 4b bd
       -0.23401493 0.40862292 -0.006869197 -0.049575627
0001c0 8c 3c ba 3e 28 f4 7c be 9c 84 d0 3e 84 f3 bb 3e
       0.3637432 -0.24702513 0.40726173 0.36709225
0001d0 58 fe 11 3e 20 93 98 bc c0 a2 1a be c2 18 bb 3e
       0.1425718 -0.018624842 -0.15101147 0.36542326

weight_hh_l0 f4 [12, 4]
000000 f8 80 0d be 88 ea ea bd 60 58 6f be 60 01 fb bc
       -0.13818729 -0.114705145 -0.23373556 -0.030640304
000010 40 ca 7d 3c 40 bd a7 be 70 8c da bd 5e 6a e2 be
       0.015490115 -0.32761574 -0.106713176 -0.44221777
000020 80 28 65 be 8a cc 88 3e ac 25 50 3e c0 6a 32 3d
       -0.22378731 0.2671855 0.2032687 0.043558836
000030 b0 e4 70 be 40 fb f4 3c 90 16 ab 3e 84 3c 5b 3e
       -0.23524737 0.029904962 0.3341565 0.21409804
000040 2c 86 ba be 90 ce 97 bd 32 21 f9 be 16 6d f3 3e
       -0.3643049 -0.074124455 -0.4865814 0.47544163
000050 f4 d8 e2 be 20 bb c3 3e d8 41 be 3e 90 9f 9a 3d
       -0.44306147 0.38228703 0.3715961 0.075499654
000060 fa 7e 8c be 8c 9c 04 3e bc a6 2b 3e d6 97 ba 3e
       -0.27440625 0.12950343 0.16762823 0.36443967
000070 24 30 17 be 84 2e f3 3e d8 f0 ca be f6 8c dd 3e
       -0.14764458 0.47496426 -0.39636874 0.43271607
000080 2e 66 81 3e 3e a1 dd be d4 19 60 be 60 f2 93 3e
       0.2527327 -0.4328708 -0.21884853 0.28895855
000090 a8 98 8a 3e 80 ae d0 3b d0 ee b3 3e 2c bf 2f be
       0.27069592 0.0063684583 0.35143137 -0.1716277
0000a0 88 40 f5 3d d8 43 e5 3d dc e2 b6 3e 20 da d1 3d
       0.11975199 0.11194581 0.35719955 0.10246682
0000b0 c0 60 3c 3e 24 35 dd be 48 0a ef 3d 48 fd 78 be
       0.18396282 -0.43204606 0.11671883 -0.24315369

bias_ih_l0 f4 [12]
000000 9e 55 9a 3e 4c 13 51 3e 1c c6 a6 be 4a a1 ff 3e
       0.30143446 0.20417517 -0.3257302 0.4992774
000010 d0 3b 86 3e d8 ed a1 bd d0 5a bc bd 60 b0 6a 3d
       0.26217508 -0.07906693 -0.091970086 0.05729711
000020 6a 1c d7 3e 0c 16 46 be c8 32 10 be 58 18 ce 3d
       0.42013866 -0.19344348 -0.14081872 0.10063237

bias_hh_l0 f4 [12]
000000 48 2e 9a be 6a b4 89 be ae 77 ce be be 54 c4 be
       -0.30113435 -0.26895458 -0.40325683 -0.38345903
000010 60 28 43 be a0 2e 57 be 8a 75 a2 be 02 28 ca 3e
       -0.1905837 -0.2101388 -0.317303 0.3948365
000020 f6 91 db be 6c 86 57 3e 38 3e ad be 60 d1 60 bd
       -0.42884797 0.21047372 -0.33836532 -0.054887176

weight_ih_l0 f4 [12, 14]
000000 5c aa 1f be fc 1f b2 be 28 11 6d 3e fc cc 98 be
       -0.1559233 -0.34790027 0.23151076 -0.2984389
000010 8c ae 8f 3e e8 04 76 be f6 5b 83 be 14 72 6d be
       0.28062856 -0.24025309 -0.25656098 -0.23188049
000020 90 84 5d 3d 90 77 78 3e 18 68 fa bd 74 d4 52 3e
       0.0540815 0.2426436 -0.122268856 0.20588857
000030 96 88 e8 3e a8 94 d8 bd 00 2c c5 bc f0 b3 4a 3e
       0.45416707 -0.10575229 -0.024068832 0.19795203
000040 ae e3 ca be 1c 04 fc 3e 28 2b 95 bd c0 75 06 3c
       -0.3962683 0.49221885 -0.07283622 0.008206785
000050 48 af 95 3d 5c 40 e5 be 70 5a e9 be 20 a2 66 be
       0.07308823 -0.44775665 -0.4557681 -0.22522783
000060 94 13 91 be 28 de 14 be 30 70 a4 3d 02 9a be 3e
       -0.2833525 -0.14537871 0.080292106 0.37226874
000070 6c 4f 38 be 8a 43 ff be 3c c3 2b be 1e d4 97 3e
       -0.17999047 -0.49856216 -0.16773695 0.2965402
000080 12 f2 c6 3e 00 ff 6c 3c 5c 03 61 be e0 82 dc bd
       0.3885656 0.014465094 -0.21973938 -0.1076715
000090 f0 33 b3 3d cc f0 1f be 32 ff ce be f4 91 59 3e
       0.08750141 -0.156192 -0.40429074 0.21247083
0000a0 26 0b bf be 52 37 ac 3e b2 90 f8 be 48 9e 16 3e
       -0.37313193 0.33635956 -0.48547894 0.14708817
0000b0 dc fa ec be 64 87 93 be e0 84 f1 3d 34 ef 25 3e
       -0.4628514 -0.28814232 0.11792922 0.1620453
0000c0 70 00 5d bd 00 60 c9 39 d8 b8 f8 3e b8 da 0f 3e
       -0.053955495 0.00038409233 0.48578525 0.14048278
0000d0 ce 25 fb be a4 a3 ca be 76 ad f8 3e 26 98 ba be
       -0.4905228 -0.39577973 0.4856984 -0.36444205
0000e0 40 df 98 bc ac 3e 1a be 9a 49 db be 26 f8 d8 3e
       -0.018661141 -0.1506297 -0.4282959 0.42376822
0000f0 68 cf ab 3d e0 c4 0c 3e 8e 90 bf 3e a0 e6 80 be
       0.08389169 0.13746977 0.37414974 -0.25175953
000100 90 e7 4d be c0 4d 9f bd f4 57 47 3e a0 60 c4 3c
       -0.20107865 -0.077785015 0.19467145 0.023971856
000110 80 ef bf 3b a4 8b f8 3e 60 59 94 3e 04 bb e6 3e
       0.005857408 0.48544037 0.28974438 0.45064557
000120 b0 20 65 be 74 c2 36 3e ea 29 d5 3e 90 5a 56 be
       -0.2237575 0.17847615 0.4163354 -0.20932984
000130 88 9d 5c be 24 3f c6 3e b8 f7 ea 3e 2a 8a 99 3e
       -0.21544468 0.38720047 0.4589212 0.29988223
000140 00 b5 36 bc 24 70 51 3e b8 36 aa bd 28 8f 7d 3e
       -0.011151552 0.20452935 -0.08311218 0.24761641
000150 64 1a 17 3e fc 6c 02 3e 0a 0f a1 be f4 7e 44 3e
       0.14756161 0.12736887 -0.31456786 0.19189054
000160 d4 c8 93 be 5e 18 8b be b4 cf de be a4 1e 6a 3e
       -0.28864157 -0.27167028 -0.4351784 0.22863251
000170 38 f2 10 be 2c 77 17 be 0c ab b0 be c0 10 81 bc
       -0.14154899 -0.14791554 -0.34505498 -0.015755057
000180 a2 d3 d6 be a8 d6 e8 bd b8 2a be be 78 99 c8 be
       -0.41958338 -0.113690674 -0.37141967 -0.39179587
000190 30 28 df 3d 98 e1 92 bd 0c 89 eb be f6 8f ee be
       0.10896337 -0.07171935 -0.46002996 -0.46594208
0001a0 74 27 00 be 88 78 21 3e 14 ce 60 be 88 5f 40 be
       -0.1251505 0.15768635 -0.21953613 -0.18786442
0001b0 f0 85 6c be de d2 bd 3e 32 63 97 3e 8c c9 b5 3e
       -0.23097968 0.3707494 0.29567868 0.3550533
0001c0 ec 53 c4 3e 16 ff 84 3e 9c e3 4a be 00 a5 7a 3e
       0.38345277 0.25975865 -0.19813389 0.24477005
0001d0 e2 e3 bd 3e 80 b4 8a 3c 72 4b bd be 70 2f 36 3d
       0.37087923 0.016931772 -0.36971623 0.044478834
0001e0 34 f4 66 3e c0 ab d6 bd 3e fc b9 be 80 09 f5 3b
       0.22554094 -0.104819775 -0.36325258 0.007477939
0001f0 08 b9 48 3e ae 1b 99 3e 0e f7 ec 3e 9a 5c b1 3e
       0.19601834 0.2990393 0.46282238 0.34640962
000200 58 f0 8a 3d a8 04 a3 3d 84 cd b3 3e 80 d8 1f bc
       0.06784123 0.079598725 0.35117733 -0.0097562075
000210 7c 84 59 3e c0 f6 e6 3c cc 6d 06 be f4 a7 2c 3e
       0.21241945 0.028193831 -0.13127822 0.16860944
000220 dc 4e 13 3e c0 f5 c2 bc 08 9d a7 bd 90 59 df 3d
       0.14385551 -0.023798823 -0.08184248 0.109057546
000230 18 95 63 3e a0 62 20 bd 92 74 a2 be da 1f 83 3e
       0.22224844 -0.039156556 -0.3172956 0.25610238
000240 88 09 b7 3d e4 fd 71 be 90 41 60 3e f8 b7 fa bd
       0.08937365 -0.23632008 0.2190001 -0.122421205
000250 c0 25 33 3d 18 82 d2 3e 58 64 84 3e ec f2 30 3e
       0.043737173 0.4111488 0.25857806 0.17280167
000260 08 57 c7 be f0 93 a7 bd a0 89 42 3e 96 1b e3 be
       -0.38933587 -0.08182514 0.18997812 -0.44356984
000270 9c 17 5c 3e 60 9d 98 bc ac 78 c2 be fc 5b bc be
       0.21493381 -0.01862973 -0.3798269 -0.36788929
000280 00 89 83 3c c0 d5 08 bd 40 f0 60 3e 60 b2 fb bc
       0.016056538 -0.033406973 0.21966648 -0.030724704
000290 f8 5f 29 3e 74 59 a2 be 44 ad 9d be 76 57 eb 3e
       0.16540515 -0.31708872 -0.30796254 0.45965165

weight_hh_l0 f4 [12, 4]
000000 d0 5e 6c 3d 0c 19 35 be 34 4f 66 be a8 4d ec 3d
       0.057707608 -0.17685336 -0.22491151 0.11538249
000010 ca cf 81 3e d4 fc e2 3e 1c 71 bf 3e 40 4e 33 3e
       0.25353843 0.44333518 0.37390983 0.17510319
000020 e2 a5 c4 3e da da f4 3e 7a c1 ed be ec ca d8 3e
       0.3840781 0.4782322 -0.46436673 0.42342317
000030 6a 65 96 3e 46 81 95 3e 70 db e1 3d d8 8b af 3d
       0.29374248 0.2920019 0.110281825 0.08571595
000040 e0 ae 14 be 68 b6 cf bd f0 87 4c be 68 d4 c2 3d
       -0.14519835 -0.10142213 -0.19973731 0.095131695
000050 f4 6f e5 be e6 b8 a4 be 20 81 28 3d 8c 2a 60 be
       -0.44811976 -0.32172316 0.04113877 -0.2189123
000060 80 0e f7 bd 10 28 98 be b8 b5 36 3e 70 40 c4 bd
       -0.120633125 -0.29718065 0.17842758 -0.09582603
000070 40 46 ef 3d 2e 05 d6 3e ee c9 ed be 60 78 73 bd
       0.11683321 0.41800827 -0.46443123 -0.05944097
000080 98 7b 3b be 20 85 25 3e 64 24 b0 be 00 57 8e bb
       -0.18308866 0.16164064 -0.34402764 -0.0043438673
000090 ec 17 82 3e aa ef f3 be 74 8f 3b 3e 98 ec c1 bd
       0.25408876 -0.47643787 0.18316442 -0.09468955
0000a0 8e 06 ff 3e 84 f5 47 3e ac 4a d6 3e 20 bd f9 3e
       0.49809688 0.1952725 0.41853845 0.48777103
0000b0 ce a2 b6 3e 00 18 0f ba 40 25 65 bc da 71 c6 be
       0.35671085 -0.00054585934 -0.013985932 -0.38758737

bias_ih_l0 f4 [12]
000000 98 fe 5e be 74 cd ab 3e f0 0a ad be 4e f5 c1 3e
       -0.21776807 0.33555186 -0.33797407 0.37882465
000010 f2 7f 84 be c4 c0 12 be a0 f9 a1 3c ec df f0 3e
       -0.25878865 -0.14331347 0.01977235 0.4704584
000020 00 63 1b bc c6 06 ec 3e 5e f5 87 3e 0c 0f f8 be
       -0.009484053 0.46098918 0.26554388 -0.4844898

bias_hh_l0 f4 [12]
000000 f2 a0 cf 3e ba 72 fb 3e 8c 2b eb be e8 e0 3c 3e
       0.4055248 0.49110967 -0.4593166 0.1844517
000010 88 9a 06 3e da 75 a8 be 3c c3 f8 3e 5e 86 f3 3e
       0.13144886 -0.32902414 0.48586452 0.47563452
000020 b0 a0 24 bd c0 5b 09 3e c0 49 b6 bc d6 86 9b 3e
       -0.040192306 0.13413906 -0.022251964 0.3037631

weight_ih_l0 f4 [3, 11]
000000 fa 1d 69 bf 8c 6f b6 3e 60 73 d1 bd ba 04 38 3f
       -0.91061366 0.3563198 -0.10227084 0.7188221
000010 0a 16 17 bf 68 ad 57 3e 86 88 78 3f cc 4e 42 bf
       -0.59018004 0.21062243 0.9708332 -0.75901484
000020 78 1d bf be 54 a8 34 3f 48 f0 03 3e 80 e5 02 be
       -0.3732717 0.7056935 0.12884629 -0.1278286
000030 e8 ec b5 3e 98 ea 35 3e 40 86 7a bf 0a d8 4d 3f
       0.35532308 0.17765272 -0.978611 0.80407774
000040 fc d7 3e bf d0 6a 5a 3e d6 91 16 bf 04 70 ff 3e
       -0.74548316 0.21329808 -0.5881628 0.4989015
000050 ac ff 95 be 58 de 2f bf aa f8 18 bf 40 a2 a1 be
       -0.29296625 -0.68698645 -0.5975443 -0.315691
000060 54 51 ad be cc 70 56 3f 0a 06 6b 3f d8 61 28 be
       -0.3385111 0.83765864 0.9180609 -0.16443574
000070 80 a3 7c 3e 3a d2 3e 3f ae ac 52 bf cc 04 98 be
       0.24671745 0.7453953 -0.8229474 -0.2969116
000080 24 13 51 bf
       -0.8166983

weight_hh_l0 f4 [3, 1]
000000 38 9f 9b 3e f4 17 b9 3e 78 72 6e 3e
       0.30394912 0.36151087 0.23285854

bias_ih_l0 f4 [3]
000000 08 c1 58 3e da 62 20 3f 00 a5 c5 bb
       0.21167386 0.62650836 -0.0060316324

bias_hh_l0 f4 [3]
000000 58 2b 7c be 8c e4 64 3f b0 7d 1c 3e
       -0.2462591 0.89411235 0.15282321

weight f4 [1, 4]
000000 30 ea 51 be 70 2c 03 3e 94 fa 4b 3e 90 74 71 3e
       -0.20499492 0.1280992 0.19919807 0.23579621

weight f4 [200, 5]
000000 c0 13 52 3e 38 b4 e4 be a0 db 05 bd 0c 55 1d 3e
       0.20515347 -0.44668746 -0.032680154 0.15364474
000010 68 38 22 bd 30 42 82 3e 02 d3 a7 be b8 9c 2e bd
       -0.039604574 0.25441122 -0.32778174 -0.042629927
000020 a0 3a ae bd a3 bc dc be 50 b6 85 3e 11 80 d4 be
       -0.085072756 -0.43112668 0.26115656 -0.41503957
000030 a0 07 af 3e de 19 87 3e 24 ff cd be 98 db 0c 3e
       0.34185505 0.26386923 -0.4023372 0.13755643
000040 00 54 96 be 60 b8 0c 3e c0 73 74 bc c0 d9 b9 3e
       -0.29360962 0.13742208 -0.014920175 0.36298943
000050 3c e0 cb 3e 60 29 13 3d 98 ab 08 3d 3a 99 ce be
       0.39819515 0.03592813 0.03336677 -0.40351278
000060 0e 33 80 be b2 a4 85 3e e8 c6 9d be 10 54 83 be
       -0.25038952 0.26102215 -0.30815816 -0.25650072
000070 a9 62 d3 be 3e c1 b3 3e 10 53 7b 3d 26 6c b5 3e
       -0.4128621 0.3510837 0.06135851 0.35434073
000080 8e 2a e4 3e e0 0c 60 bd b0 51 4b 3e 6f 77 7c be
       0.44563717 -0.05469978 0.1985538 -0.24654935
000090 48 85 b6 3e 5e 3a a3 be 61 89 7c be 29 10 ca be
       0.3564856 -0.31880468 -0.24661781 -0.39465454
0000a0 b0 76 94 3c d0 3c df bd 44 f6 05 3e 0e 8f 58 be
       0.018123 -0.10900271 0.13082224 -0.21148321
0000b0 60 82 db bc bc 53 c8 3e de ad 45 be 52 82 c9 be
       -0.026795566 0.39126384 -0.19304606 -0.3935724
0000c0 56 0c 01 be 28 f9 bd be c4 b1 e4 be 46 ec 4a be
       -0.12602362 -0.37104154 -0.44666874 -0.19816694
0000d0 b8 cd d5 3d 6a 67 e0 3e d8 31 47 3e ce 3b 40 be
       0.10439628 0.438289 0.19452608 -0.18772814
0000e0 ae 98 92 3e a0 a8 5b 3c 32 26 d4 3e 5f 61 e0 be
       0.2863211 0.013406903 0.4143539 -0.43824288
0000f0 1c 7a c2 be 54 a7 d5 be 95 7a c1 be 3c 8c 15 3e
       -0.37983787 -0.41729224 -0.37788835 0.14604276
000100 00 fd 87 3d 8e 64 b0 3e d4 05 dc 3e c8 59 0d be
       0.06640053 0.34451717 0.42973197 -0.1380378
000110 26 40 a2 be c0 49 6e 3e 94 f0 4a be 80 0d dc 3c
       -0.31689566 0.23270321 -0.19818336 0.026861906
000120 c0 01 c4 bb 34 a4 a0 bd 10 1d 6a be 34 04 14 3e
       -0.005981654 -0.07843819 -0.22862649 0.14454728
000130 b7 52 92 be a4 76 28 be 02 94 9c be 5e e1 ba be
       -0.2857873 -0.16451508 -0.3058167 -0.36500067
000140 1e a1 88 3e e8 16 3b 3e 88 58 9f 3d b6 f7 e0 be
       0.26685423 0.18270457 0.07780558 -0.43938988
000150 6c a3 22 3e a5 9b c6 be ac af 75 be e8 5c a1 3e
       0.15882653 -0.38790622 -0.23992795 0.31516194
000160 ae 5c d4 be e8 26 a7 3e 21 64 da be 8e 80 2e be
       -0.4147696 0.3264687 -0.42654517 -0.17041227
000170 da 32 b4 3e 4c d6 6b be 50 24 06 bd e4 35 47 be
       0.35195047 -0.23030967 -0.032749474 -0.19454151
000180 0c 77 38 be 19 75 c1 be d6 3d 8a 3e 9e 88 dc 3e
       -0.18014163 -0.3778465 0.27000302 0.4307298
000190 38 43 35 3d 88 82 af be 8a b1 87 3e 08 35 8b 3d
       0.044253558 -0.34279275 0.2650264 0.06797224
0001a0 fc 26 1f 3e d2 ab 85 3e 7a 6b a8 3e 60 fd 3d 3e
       0.15542215 0.2610765 0.32894498 0.18553686
0001b0 de 65 b0 3e ac d4 98 3e c8 88 54 3d e0 2e 2c bd
       0.34452718 0.29849756 0.051888257 -0.04203689
0001c0 50 8b b8 bc 28 cb 9a 3e 14 19 99 3e 94 b7 3e 3e
       -0.022527367 0.3023312 0.29901946 0.18624717
0001d0 f4 a5 89 3e ca 6d 2f be f4 c1 48 3e 40 14 dd 3e
       0.26884425 -0.17131725 0.19605237 0.43179512
0001e0 98 ed b9 3e 48 7b 3b be f8 2a 4b 3e 70 e3 0a be
       0.36314082 -0.18308747 0.1984061 -0.13563323
0001f0 5e 8f 82 be 9c 2d 22 3e 7c 51 90 be 1f 56 e1 be
       -0.25500005 0.15837711 -0.28187168 -0.44011018
000200 81 84 9e be b4 c4 52 3e f4 8a 0e 3e 6e 28 c5 be
       -0.30960467 0.20582849 0.13920194 -0.38507408
000210 c0 5a 3a bc 4e d8 bd 3e c8 15 a8 3e 48 89 43 3e
       -0.011374176 0.3707909 0.32829118 0.19095337
000220 67 ed a5 be 86 e0 a3 3e f4 d3 16 3e ca 2b 9c 3e
       -0.32407686 0.32007235 0.14729291 0.30502158
000230 c0 63 cf bb 5e 88 d6 be 03 bf e3 be 58 13 2b be
       -0.00632903 -0.41900915 -0.44481668 -0.16706598
000240 a0 e1 d1 be 50 fa 82 3c 58 60 80 3d 2b 2f 95 be
       -0.4099245 0.015988499 0.06268376 -0.2913755
000250 68 f8 23 be bf 97 82 be 40 af 73 3d 7c 15 15 be
       -0.16012728 -0.25506398 0.059493303 -0.14558977
000260 fe 90 c6 3e c8 eb da 3e 28 4c cb 3e d7 c3 7e be
       0.38782495 0.42758012 0.3970654 -0.24879394
000270 c8 d2 cb 3e 3c 91 c3 3e b8 f6 30 3e ea b1 ba be
       0.3980925 0.38196743 0.17281616 -0.36463863
000280 6a e1 c4 3e 42 a7 b7 3e 20 a2 b9 be a0 e0 1a 3c
       0.38453227 0.35869795 -0.36256504 0.009452969
000290 d8 2d d1 be f9 a0 6e be b8 4d 39 bd 60 44 32 bc
       -0.40855289 -0.23303594 -0.045240134 -0.01088056
0002a0 10 a5 22 3e 5a 48 12 be dc 0c 86 3e b4 47 cd 3e
       0.15883279 -0.14285412 0.26181686 0.40093768
0002b0 53 80 a6 be 52 c9 89 3e 20 d2 e0 bd e0 e0 b3 3e
       -0.3251978 0.26911408 -0.10977578 0.35132504
0002c0 50 79 d5 3d cd 9a a2 be 7e 01 98 be 5c 06 a1 bd
       0.10423529 -0.3175873 -0.29688638 -0.07862541
0002d0 10 96 92 bd 54 f0 e4 be b0 08 40 bd 30 17 81 3e
       -0.071575284 -0.44714606 -0.046883285 0.25213003
0002e0 38 7c a9 3e 48 de 2b 3d 1c df 1c 3e d2 23 19 be
       0.33102584 0.04196003 0.15319484 -0.1495507
0002f0 32 60 b6 be 8f 2c d8 be a6 7c 18 be a0 07 d0 3d
       -0.35620266 -0.42221496 -0.148913 0.10157704
000300 ac 7c 8c 3e d0 14 b4 bd 4c a2 99 3e 48 5f a2 3d
       0.27438867 -0.08793032 0.30006635 0.0792833
000310 b8 da 35 3e ac a3 2f 3e b9 7d c6 be 38 b6 72 3e
       0.17759216 0.1715228 -0.38767794 0.23702323
000320 c8 88 1a 3e 64 a7 04 3e 1e ae a4 3e 84 b3 c0 3e
       0.1509124 0.1295448 0.3216409 0.3763696
000330 50 dc 8b bd 30 08 8c 3d 2d cb 57 be 10 26 2a be
       -0.06829131 0.06837499 -0.21073599 -0.16616082
000340 e4 ed 99 3e 44 27 b5 3e e4 69 7f 3e bc 9e 40 3e
       0.3006431 0.3538152 0.24942738 0.18810552
000350 e4 8b e3 be 08 dc 43 3e 60 ff d7 be 08 0f 8e 3e
       -0.44442666 0.19126904 -0.42187023 0.27745843
000360 fa c2 e0 be c0 a1 19 3e 19 1d db be e8 83 d8 3d
       -0.43898755 0.15003109 -0.42795637 0.10572034
000370 48 a3 b3 bd 50 60 8c 3e a0 ab ab 3d ca 24 d9 3e
       -0.08771378 0.2741723 0.08382344 0.4241088
000380 b8 4c f4 3d c8 92 7a be c0 be d4 3d 52 0d 87 3e
       0.119286954 -0.24470055 0.10387945 0.2637735
000390 54 b2 c7 bd 58 1f 27 3e ee 60 11 be 01 b3 cf be
       -0.0975081 0.1632055 -0.14197132 -0.40566257
0003a0 f8 ea 98 3d 6c ee e3 be 40 f3 e3 3c c4 5b c8 bd
       0.07466692 -0.4451784 0.027825952 -0.09783128
0003b0 98 6f 89 be 4e 03 ad 3e 1e b3 c8 be fa c9 a7 3e
       -0.26842952 0.33791584 -0.39199156 0.32771283
0003c0 c8 07 4f 3e 78 b9 93 3e 2c f2 8b bd 30 c2 c0 3c
       0.20217812 0.2885244 -0.068333 0.023530096
0003d0 b0 46 bc 3e a6 2d c0 3e 98 2d c5 3d 1a 2b b7 3e
       0.3677268 0.37534827 0.09627837 0.3577507
0003e0 78 ef f5 3d d0 45 52 be 98 c5 89 3d 30 4d 2f be
       0.12008566 -0.20534444 0.06727141 -0.17119288
0003f0 00 10 4c bb fc 2c ae bd 18 a0 67 be 0e 2c a2 3e
       -0.0031137466 -0.08504674 -0.22619665 0.31674236

bias f4 [200]
000000 56 8c ac be 1c 43 c5 bd 69 10 b9 be dc c8 9d 3e
       -0.33700818 -0.09631941 -0.36145332 0.30817306
000010 ed 91 d7 be 6e e8 d1 3e f1 fd 96 be 0e 8f 9f 3e
       -0.4210352 0.40997642 -0.29490617 0.3116383
000020 7e 70 cd be d0 15 83 3c 30 ec e7 bd b8 30 31 bd
       -0.40124887 0.016001612 -0.11324346 -0.043259352
000030 c6 fa 9a 3e 9c b9 9b be c8 f8 58 bd 0f d0 a8 be
       0.3026945 -0.30415046 -0.05297163 -0.32971236
000040 82 84 62 be e8 34 10 be 54 bd 35 3e 04 90 9b 3e
       -0.2212086 -0.14082682 0.17748004 0.30383313
000050 fc c4 a0 3e 5b d3 59 be 09 b5 5d be b6 a9 92 3e
       0.31400287 -0.21272032 -0.2165109 0.28645104
000060 d0 1a 8a bd e0 a0 b2 bd 1e 5d db 3e d7 e0 c9 be
       -0.06743395 -0.08722091 0.4284448 -0.39429352
000070 6d 70 62 be 1a 18 de 3e 08 82 5c bd c0 91 a4 bb
       -0.221132 0.43377763 -0.053834945 -0.0050222576
000080 20 71 01 3c 7c af 9e bd 64 71 19 3e 60 af 9f bd
       0.007900506 -0.07748315 0.14984661 -0.07797122
000090 28 af 12 3e f8 a5 d6 3e a0 93 bc 3e a6 ac e3 be
       0.1432463 0.419235 0.3683138 -0.44467658
0000a0 70 91 10 be 60 4a 73 bd f6 9d 81 3e 84 94 2f 3e
       -0.1411798 -0.0593971 0.25315827 0.17146498
0000b0 06 84 c7 3e 6b da 79 be 0c 00 85 be 42 68 0a be
       0.38967913 -0.24399726 -0.25976598 -0.13516334
0000c0 9c 98 bb 3e e0 33 5d 3d 38 6e 47 3e fe 23 9e be
       0.3663987 0.05400455 0.19475639 -0.30886835
0000d0 98 c1 09 3d 5e e5 d0 3e e8 ad cf 3e aa 88 d6 3e
       0.03363189 0.40799993 0.40562367 0.4190114
0000e0 4c ef e3 3e 36 8a 93 be a0 d8 04 3c 26 98 a9 3e
       0.44518507 -0.28816384 0.008108288 0.33123893
0000f0 fd a7 a6 be 28 5b ae bd e7 12 a5 be fc e7 28 3e
       -0.3255004 -0.085134804 -0.32240984 0.16494745
000100 80 6f a3 3e f8 7f d8 3d 4e a4 c8 be ae 31 e4 3e
       0.31921005 0.10571283 -0.39187855 0.44569153
000110 1d 87 81 be 9c 70 3c 3e ca 31 c1 be 97 8a d8 be
       -0.25298396 0.18402332 -0.377333 -0.42293236
000120 fe 7c e0 3e 70 15 4a 3d 80 67 f4 bc f8 02 bd 3e
       0.4384536 0.04933685 -0.029834509 0.36916327
000130 58 44 8c 3d 20 e8 70 bc 30 4c b6 bc 06 c2 a0 3e
       0.06848973 -0.01470378 -0.022253126 0.31398028
000140 20 3c 92 3c b4 d7 73 3e b4 7d d1 3e 48 bd 74 3e
       0.017850935 0.23812753 0.40916216 0.2390033
000150 90 2a d5 be 80 d7 eb bc e4 a5 19 3e f0 6b e3 3c
       -0.41634035 -0.028789282 0.15004689 0.02776143
000160 60 85 e9 bc 78 4c 65 bd 52 bf a3 be b8 f6 4d bd
       -0.028505981 -0.05598113 -0.31981903 -0.050284117
000170 38 da 9e bd a4 83 0d be f8 5f 5e 3e a2 b0 06 be
       -0.07756466 -0.13819748 0.21716297 -0.13153318
000180 9a 21 a2 3e 7e fa 97 be 80 77 ac 3b c8 49 4d 3e
       0.3166626 -0.29683298 0.005263269 0.20047677
000190 30 f2 2a 3d bd ad a5 be a0 5b 7a 3d ec 7b 6d 3e
       0.041734874 -0.32359114 0.061122537 0.23191804
0001a0 68 6a 0f be 20 7e 6a 3d 00 73 91 bd 48 f3 77 3e
       -0.14005435 0.05724919 -0.07102013 0.24213898
0001b0 7c 44 14 3e 8c 0a c2 3e 18 ca ed 3d 41 10 de be
       0.1447925 0.37898672 0.11610812 -0.43371776
0001c0 40 5a 78 3e 20 04 d8 3e 68 ac a6 3d 82 c9 8e be
       0.24253178 0.42190647 0.08138353 -0.27888113
0001d0 30 0f ca 3e 68 94 1c 3e f0 3c 8c be fc 3d 00 3e
       0.39464712 0.15290987 -0.27390242 0.12523645
0001e0 c0 1e 97 bc c0 f3 a6 3b c6 07 80 3e 1a b8 e4 3e
       -0.01844728 0.0050949752 0.2500593 0.44671708
0001f0 2c c3 bd be 66 87 c5 be 40 2c cc 3d d8 5c e2 3d
       -0.37062967 -0.38579863 0.099693775 0.11052865
000200 48 ef cd 3d 78 ba 6a bd d0 24 69 3e da 35 b6 3e
       0.10055405 -0.057306737 0.22767949 0.3558796
000210 93 bd af be 78 dc d5 3d 64 31 ac bd ca 63 cf 3e
       -0.3432432 0.10442442 -0.08407858 0.4050582
000220 82 91 d2 3e 74 2a bd be 6c dd 56 3e 90 05 b8 bc
       0.4112664 -0.36946452 0.20982903 -0.02246359
000230 02 bd 21 be f8 a5 8e be a4 a4 55 3e e0 bb c1 3c
       -0.15794757 -0.27861 0.20863587 0.023649156
000240 fc e5 d3 3e c0 43 13 3e 32 77 d9 3e c0 d1 9e 3d
       0.41386402 0.14381313 0.4247375 0.077548504
000250 86 1c 81 be be 88 8f 3e 0a b5 ac 3e 90 f8 a0 3d
       -0.25217074 0.28034014 0.33731872 0.078599095
000260 5a 51 48 be 64 36 d5 be 28 cb be bd 2a 93 89 3e
       -0.19562283 -0.4164306 -0.09316093 0.2687009
000270 44 32 16 3e 98 da 51 be 32 89 09 be 76 e0 30 be
       0.14667612 -0.20493543 -0.13431242 -0.17273125
000280 f4 5a 37 3e c0 22 ad 3d cb 29 d5 be f9 72 a6 be
       0.1790579 0.08453894 -0.41633448 -0.32509592
000290 40 88 26 bc 7e 65 97 3e 20 86 33 bc bc 26 2d 3e
       -0.0101643205 0.2956962 -0.010957271 0.16909307
0002a0 89 78 90 be 0c f8 da 3e 25 8c ce be 11 cf 52 be
       -0.2821696 0.4276737 -0.40341297 -0.20586802
0002b0 cc 7a 82 bd 96 6d a0 3e 60 06 13 3c 54 96 c0 3e
       -0.06371078 0.31333607 0.008973688 0.3761469
0002c0 e8 ee f3 3d 20 fb 07 3c 68 54 f4 3d 56 63 5c be
       0.11910802 0.008299619 0.11930162 -0.21522269
0002d0 40 07 e3 be e0 72 1a bc 7d 38 6d be 8c 38 e4 bd
       -0.4434147 -0.009426802 -0.2316608 -0.11143598
0002e0 6e 00 17 be 24 ac 9f be f4 ab 18 3e 97 97 d2 be
       -0.14746258 -0.3118602 0.14909345 -0.4113128
0002f0 88 f1 af be 90 38 e1 3e 20 7a 66 3d 80 7d bc 3e
       -0.3436396 0.43988466 0.05626881 0.368145
000300 ec 9f 82 3e 3c 03 d8 3e 8a fc 8b 3e 73 68 d1 be
       0.25512636 0.42189968 0.2734111 -0.409
000310 00 22 b3 be ba be c8 3e c0 c9 e1 be d5 af 70 be
       -0.34986877 0.39208013 -0.44099236 -0.23504575

weight f4 [2, 200]
000000 cc b3 59 bd 70 00 ca 3b 80 d9 6a bd bf b4 83 3d
       -0.053149983 0.006164603 -0.05733633 0.06430959
000010 1c 68 7e bd 8e 9d a4 bc 4a 40 61 3d 7e 3f 18 3d
       -0.062111005 -0.02009466 0.05499295 0.037169926
000020 ac a6 1b bc fb 82 46 bd 10 d2 fb 3c 28 c5 c8 bc
       -0.009500187 -0.048464756 0.030739814 -0.024508074
000030 40 16 07 bb 1e 91 2d 3d d0 5b 2f 3c a0 17 20 3d
       -0.0020612627 0.042374723 0.010703042 0.03908503
000040 fc c7 11 3d 9f 9f 8a 3d 31 bc 8e 3d 98 69 08 3c
       0.03559111 0.067687266 0.069694884 0.008325957
000050 dd d0 8a 3d 8c 11 19 3d 10 95 27 3d c3 b3 90 bd
       0.06778119 0.03737025 0.04091364 -0.07065537
000060 7c 86 5f bd 24 5f b9 bc 6c 86 ec 3c b8 95 8a 3c
       -0.054571614 -0.022628374 0.028872691 0.016917095
000070 f8 b8 6f bd 60 7c 1e bd f4 f5 2a 3d 9a 17 8f bc
       -0.05852601 -0.038692832 0.041738465 -0.017467309
000080 92 d0 64 bd 14 a3 5b 3d cc dc b3 bc 40 79 ea 3b
       -0.05586297 0.05362232 -0.02195587 0.0071555674
000090 04 e9 b3 bc 09 40 88 3d 80 61 26 bc d8 a8 8d bd
       -0.021961696 0.06652839 -0.010155082 -0.0691697
0000a0 51 dc 86 3d 50 0f dd 3b ee 59 11 bd b6 f8 77 3d
       0.06584991 0.00674621 -0.035486154 0.060539924
0000b0 01 a1 33 bd c0 65 ab 3b 80 08 1d 3a b8 0d e5 3c
       -0.043854717 0.0052306354 0.00059903413 0.027960643
0000c0 a0 ad bf 3c 40 c0 a8 bc 38 48 40 3c 88 6d 14 3d
       0.02339822 -0.020599484 0.011735968 0.03623727
0000d0 c0 16 84 3b 36 f6 22 3d 80 ef 4c bb 36 59 8b bd
       0.0040310323 0.039785586 -0.0031270683 -0.06804125
0000e0 08 72 6a bd be 13 12 3d a4 c7 0e 3d 8a ed 13 bd
       -0.057237655 0.03566336 0.03485836 -0.036115207
0000f0 34 fc bd bc 3e 6f 30 3d f8 89 e8 3c 26 e0 9e bc
       -0.023191549 0.04307484 0.028386101 -0.019393992
000100 00 1f 95 ba 48 2c 45 bd f8 95 36 bd 70 3f 1f 3d
       -0.0011377037 -0.048137933 -0.044576615 0.038878858
000110 80 ea 11 3d 6e 66 85 bc ac 76 c4 3c 9a 10 86 bd
       0.035624027 -0.016284194 0.023982368 -0.06546135
000120 68 38 4d bc 98 26 53 bd 19 7a 5b bd f0 9d a3 bb
       -0.012525655 -0.051550478 -0.05358324 -0.004993193
000130 44 83 4e bd 4f 6e 90 3d 84 5e 18 3d 79 db 85 3d
       -0.050418153 0.0705229 0.037199512 0.06536002
000140 d4 62 02 bd d8 23 07 bc 08 a5 ca 3c 80 ec 56 3c
       -0.03183253 -0.008248292 0.024736896 0.013117909
000150 b7 0e 8e bd b8 37 0b 3d a8 06 d9 3c 80 20 f0 bb
       -0.069364004 0.033988684 0.026492432 -0.007328093
000160 22 7d 7e 3d 20 ca 22 bd 4a 7b 70 3d 0a 92 52 3d
       0.062131055 -0.039743543 0.058711328 0.051408805
000170 b8 e6 33 3d f0 63 da bb 3f c3 69 bd f1 15 73 bd
       0.043921202 -0.0066647455 -0.057070967 -0.059347097
000180 ba d6 86 bc b3 ea 20 bd b0 6e 7f bc d2 66 44 3d
       -0.016459811 -0.039286327 -0.015590355 0.04794962
000190 a4 0a 25 bd d2 3d 6c 3d ac 3b 24 bd 7e eb 1a 3d
       -0.04029335 0.057676144 -0.04009597 0.03782224
0001a0 d8 56 4c bc 30 9e 1b 3c 4a 46 2a bd 00 d2 ca 3b
       -0.012471877 0.009498164 -0.04157094 0.0061895847
0001b0 98 2b 73 3c a0 2b ae 3c cc 69 2b 3d a6 76 dc bc
       0.0148419365 0.021261036 0.041848943 -0.026912045
0001c0 70 7a 36 3d 88 49 e9 3c 80 f2 83 bb b1 8e 12 bd
       0.04455036 0.028477445 -0.004026711 -0.035780612
0001d0 c0 64 30 3c 18 7c 13 3d e2 4e 45 3d d8 6e 85 bc
       0.010766208 0.036007017 0.04817093 -0.016288206
0001e0 62 61 25 bd 74 03 1b 3d d0 fb cd bb 18 86 e8 3c
       -0.040376075 0.03784509 -0.006286122 0.028384253
0001f0 de 3c 36 bd 5a 50 1c bd 90 af 7e bd 54 b3 0e bd
       -0.04449164 -0.038162567 -0.06217915 -0.03483899
000200 16 aa 2d 3d ba b9 64 3d 2d 99 89 3d 80 35 4f 3c
       0.042398535 0.055841185 0.06718669 0.012647033
000210 32 65 8f bd 44 8d 0a 3d db 15 86 bd ff 3e 00 bd
       -0.07001723 0.033826128 -0.06547137 -0.031310078
000220 58 bb 5b bd 14 fa a0 3c d0 ef 34 bc 64 ef 9f bc
       -0.05364546 0.019650497 -0.011043504 -0.01952333
000230 76 25 94 bc 4c 8b b9 bc 80 94 01 3b 8c 5f 81 3c
       -0.018084269 -0.02264943 0.001977235 0.01579263
000240 80 e3 55 3c 73 68 88 bd 62 1d 43 bd 00 ff 34 3d
       0.0130547285 -0.06660547 -0.047635444 0.0441885
000250 90 32 4c bc 90 63 c4 bb 7f 73 83 bd d2 74 18 3d
       -0.012463227 -0.005993314 -0.064185135 0.037220784
000260 39 73 83 bd e4 8d 16 3d 70 1a f6 3b 5a 69 62 bd
       -0.06418461 0.03675641 0.007510476 -0.055276252
000270 18 30 a7 bc c8 6a 48 3d 4a 38 42 3d 82 b8 10 3d
       -0.020408675 0.04892996 0.047416963 0.03533221
000280 54 f4 e1 3c 40 8e 16 bb 44 7f 60 bc 6e 74 db bc
       0.027582325 -0.0022972971 -0.0137022175 -0.026788916
000290 a8 df 7a 3c 70 d9 ec 3c 50 af 53 bd 50 66 8c bd
       0.015312113 0.028912276 -0.051680863 -0.06855452
0002a0 1b 9c 69 bd 79 c2 0a bd 3a 54 a2 bc a4 4f 3b 3d
       -0.05703364 -0.03387687 -0.019815553 0.045730248
0002b0 24 91 1c bd 04 88 52 bd 7a cf 33 bd 46 01 73 3d
       -0.038224354 -0.051399246 -0.043899037 0.059327386
0002c0 dc 83 43 3d 48 4b 55 3c 80 c3 7c 3a 33 38 83 3d
       0.047733173 0.013018437 0.0009642169 0.064072035
0002d0 9c d8 31 bd 68 2a 15 3c ae d0 6d 3d 3d 6d 2f bd
       -0.043419465 0.009104349 0.05806034 -0.042828787
0002e0 6f 3d 76 bd 48 10 f0 3c eb 8c 82 3d 4e ba 6d bd
       -0.06011718 0.029304639 0.06374534 -0.058039002
0002f0 5d 0e 4d bd 0c 11 6a bd 5a 14 76 3d 54 f4 d6 3c
       -0.050062526 -0.057145163 0.060078003 0.026239552
000300 60 d7 b3 3b f7 9b 54 bd 86 46 63 3d fc 66 f6 3c
       0.005488321 -0.051906552 0.05548718 0.030078404
000310 3f 42 88 3d 46 b8 0b bd 6c 82 ca bc 50 76 dd bb
       0.066532604 -0.034111284 -0.024720393 -0.0067584887
000320 80 96 53 bc 84 0e 74 bc 9c 3d 28 bd 26 d1 55 bd
       -0.0129143 -0.014896039 -0.04107438 -0.052201413
000330 a0 12 2b bb 8a 73 49 3d 8e 10 e2 bc 60 b5 99 3b
       -0.002610363 0.049182452 -0.027595785 0.004690811
000340 c4 97 40 bd 22 ae 31 bd f4 21 54 3d 34 9c a4 3c
       -0.047019735 -0.043378957 0.051790193 0.020094015
000350 9a b5 e1 bc 44 f5 3b bd 98 89 a0 3c c0 2e 5e 3c
       -0.027552415 -0.0458882 0.01959686 0.013560951
000360 fa ef 20 bd e0 da 52 3b ba 0d 5a 3d 32 bc 64 bd
       -0.03929136 0.0032173917 0.053235747 -0.05584354
000370 b0 5c 80 bd 80 44 df ba c0 0e fc bb 88 3d a5 3c
       -0.06267679 -0.0017033964 -0.007692188 0.020170942
000380 58 ad 6a bc 0c d3 fd bc 9b ab 8a 3d 28 12 3f bd
       -0.014323555 -0.030984424 0.067710124 -0.046648175
000390 30 93 4e 3c 90 d3 7d bd ba ff 12 3d 80 cf 4f 3d
       0.012608334 -0.06196934 0.03588841 0.050734997
0003a0 82 7c 0a bd b0 8f 5d bd 87 c0 0f bd 3a 17 7f 3d
       -0.033810146 -0.05409211 -0.035095718 0.06227801
0003b0 18 f3 2e bd 40 7e 57 bc 80 12 ed 3b 34 39 4c 3d
       -0.0427123 -0.013152659 0.0072348714 0.04985924
0003c0 0c 81 0d bc c7 97 82 3d 92 4c 8e bd ca 29 dc bc
       -0.008636724 0.063766055 -0.069481984 -0.026875395
0003d0 0e b5 04 3d d8 d3 1e bc 72 95 2c 3d 01 26 84 bd
       0.03239923 -0.009694062 0.04213471 -0.06452561
0003e0 c0 f8 3c bb c5 8e 14 bd 74 4b e4 bc ac f4 49 3d
       -0.002883479 -0.036268968 -0.02786801 0.049305603
0003f0 60 d0 14 3b 40 f4 7d bd 1a 6c 59 3d ec 32 db bc
       0.002270721 -0.062000513 0.05308161 -0.02675768

bias f4 [2]
000000 50 62 63 bd 71 b4 48 bd
       -0.05551368 -0.049000207

weight f4 [4, 3]
000000 d8 b4 55 3e 50 64 8a 3e 06 dd bc 3e 8e dc 03 3f
       0.20869768 0.27029657 0.36887378 0.51508415
000010 64 45 b3 be fd ed 01 bf f4 1f 17 be c0 06 83 be
       -0.35013878 -0.50753766 -0.14758283 -0.25591087
000020 c4 44 28 3e 20 8e d2 3e a8 2d e9 bd b4 a4 a0 3e
       0.16432482 0.41124058 -0.11385661 0.3137566

bias f4 [4]
000000 ed c3 93 be 37 36 a1 be 8c f9 38 3e c4 77 08 3f
       -0.28860417 -0.31486675 0.18063945 0.5330775

weight f4 [4, 8]
000000 6a a9 7f be 1d ba 99 3e 2d 24 02 be c7 23 a3 3e
       -0.2496697 0.30024806 -0.12709112 0.31863233
000010 52 a5 31 3e 76 b3 59 3e d7 07 af 3e 87 f3 a3 be
       0.17348221 0.21259865 0.3418567 -0.32021734
000020 a0 b6 f1 3c 52 22 6f 3e b8 8a d5 3d 0b 4d 63 be
       0.029506028 0.23352936 0.10426849 -0.22197358
000030 c2 ec 6d 3e 74 47 ad bd 72 43 74 3e c6 f8 9b be
       0.23234847 -0.08460894 0.23853853 -0.30463237
000040 a4 b8 8a bd 09 e8 94 3e 3c 3b c8 3d 22 2f 59 3e
       -0.06773499 0.2908328 0.09776923 0.21209386
000050 b1 fc 46 be bd 6a b2 3e 10 3b 31 3d 82 03 16 3e
       -0.19432332 0.3484706 0.043269217 0.14649776
000060 fe 74 24 be fd 85 a7 be cb 04 18 be 18 13 30 be
       -0.16060254 -0.32719412 -0.14845578 -0.17194784
000070 59 c7 0b be 86 59 79 3e df 1c a6 be 11 ca 9d 3e
       -0.13650264 0.24350557 -0.32443902 0.30818227

bias f4 [4]
000000 b1 06 9a 3e 80 08 c7 bc 20 c2 1a 3d c8 ec 8e 3d
       0.3008323 -0.024296045 0.03778279 0.06978756

weight f4 [10, 2]
000000 ea f8 a8 3e c0 94 b4 3d b0 02 18 bf 08 d6 02 be
       0.33002406 0.08817434 -0.593791 -0.12776959
000010 0b be 31 3f 8b a7 d0 be 54 81 90 be 9e 80 f3 3e
       0.6943061 -0.40752825 -0.2822367 0.47559065
000020 e4 70 57 be a0 33 7f 3e 20 43 8a bc 24 ad b7 be
       -0.21039158 0.24922037 -0.01687771 -0.35874283
000030 ac 65 2d be 60 5a 1c bd f6 57 61 be de 09 29 bf
       -0.16933316 -0.038172126 -0.2200621 -0.6603068
000040 9f 1b 15 3f 68 19 75 be 75 2f 0c bf b8 8d 12 be
       0.5824527 -0.23935473 -0.54759914 -0.14311874

bias f4 [10]
000000 98 66 d1 bd 6a 1b 8d 3e 80 25 13 3d cc c0 ec be
       -0.10224646 0.27559978 0.035924435 -0.46240842
000010 88 7f ac bd 25 22 02 3f 40 9b 26 bf 90 e1 93 bd
       -0.08422762 0.5083335 -0.6508064 -0.07220757
000020 85 5d 31 3f 39 74 c1 be
       0.69283324 -0.37783983

weight f4 [10, 2]
000000 5d ee 05 bf 90 22 13 be 80 75 be bd 47 00 12 3f
       -0.5231684 -0.14368653 -0.09299755 0.57031673
000010 4e 26 ae 3e 58 96 d1 bd 48 63 56 3e 34 6f 94 3e
       0.340136 -0.10233754 0.2093631 0.2899109
000020 d8 56 9b bd b6 dd fc be cc a9 4e be ea 3a f0 3e
       -0.075849235 -0.49387902 -0.2018196 0.46919948
000030 b0 23 4d bd c8 87 8e bd 7a fe b3 3e 92 fb e0 be
       -0.050082862 -0.06959492 0.35155088 -0.43941933
000040 80 0c d1 3c 23 64 00 3f 40 03 7f 3d 80 0f a8 3d
       0.025518656 0.50152797 0.06225896 0.082060814

bias f4 [10]
000000 2c a1 15 be 18 87 85 bd 81 c0 30 3f 98 49 7f 3e
       -0.14612263 -0.06519908 0.6904374 0.24930418
000010 6c 4a 9e be 00 3c fe bd 90 d6 b3 bd 78 32 45 3e
       -0.30916154 -0.12413788 -0.08781159 0.19257534
000020 16 39 c2 be 0c 29 07 bf
       -0.37934178 -0.5279701

weight f4 [10, 2]
000000 37 90 10 3f 0d 82 2f bf 2e 66 00 bf 80 67 35 bd
       0.56470054 -0.68557817 -0.50155914 -0.04428816
000010 eb 5c a0 be b9 da 1b 3f 20 e5 24 bd 07 75 e7 be
       -0.3132089 0.6088062 -0.040257573 -0.45206472
000020 4c d7 62 be cd ad 0c 3f fe eb e2 be 6d 45 c6 be
       -0.22152442 0.549527 -0.44320673 -0.38724843
000030 05 dd 02 3f d0 c3 10 bf 6c 3f bf be 82 5a b2 3e
       0.511185 -0.56548786 -0.37353075 0.34834677
000040 0d 77 19 bf 92 fa 15 bf 4c ae c9 be 20 64 0e bd
       -0.5994728 -0.58585465 -0.3939079 -0.034763455

bias f4 [10]
000000 66 16 d7 3e db 25 d0 be 5b df 12 3f 20 de f2 3d
       0.42009276 -0.4065388 0.57372063 0.11858773
000010 9a b2 e3 be a0 20 ba 3d e9 b9 b8 be 91 1b 1c 3f
       -0.444722 0.09088254 -0.36079338 0.60979563
000020 74 71 04 bf 09 07 02 bf
       -0.51735616 -0.50791985

F f4 [2, 2]
000000 00 00 80 3f 0a d7 23 3c 00 00 00 00 00 00 80 3f
       1.0 0.01 0.0 1.0

Q f4 [2, 2]
000000 fc f4 b2 34 17 b7 51 38 17 b7 51 38 0a d7 23 3c
       3.3333333e-07 5e-05 5e-05 0.01

H f4 [1, 2]
000000 00 00 80 3f 00 00 00 00
       1.0 0.0

prior_Q f4 [2, 2]
000000 00 00 80 3f 00 00 00 00 00 00 00 00 00 00 80 3f
       1.0 0.0 0.0 1.0

prior_Sigma f4 [2, 2]
000000 00 00 00 00 00 00 00 00 00 00 00 00 00 00 00 00
       0.0 0.0 0.0 0.0

m1x_0 f4 [2]
000000 ee 28 03 c2 7a b6 83 bf
       -32.78997 -1.0290062

m2x_0 f4 [2, 2]
000000 00 00 00 00 00 00 00 00 00 00 00 00 00 00 00 00
       0.0 0.0 0.0 0.0

h_S f4 [1, 260, 1]
000000 00 00 c0 7f f6 41 61 3f f6 41 61 3f f6 41 61 3f
       nan 0.87991273 0.87991273 0.87991273
000010 f6 41 61 3f f6 41 61 3f f6 41 61 3f f6 41 61 3f
       0.87991273 0.87991273 0.87991273 0.87991273
000020 f6 41 61 3f f6 41 61 3f f6 41 61 3f f6 41 61 3f
       0.87991273 0.87991273 0.87991273 0.87991273
000030 0d c9 50 3f 10 ff 74 3f 10 ff 74 3f 10 ff 74 3f
       0.8155678 0.95701694 0.95701694 0.95701694
000040 10 ff 74 3f 10 ff 74 3f 10 ff 74 3f ce f9 77 3f
       0.95701694 0.95701694 0.95701694 0.96865547
000050 f6 41 61 3f f6 41 61 3f 10 ff 74 3f f6 41 61 3f
       0.87991273 0.87991273 0.95701694 0.87991273
000060 f6 41 61 3f f6 41 61 3f f6 41 61 3f f6 41 61 3f
       0.87991273 0.87991273 0.87991273 0.87991273
000070 f6 41 61 3f f6 41 61 3f f6 41 61 3f f6 41 61 3f
       0.87991273 0.87991273 0.87991273 0.87991273
000080 f6 41 61 3f f6 41 61 3f f6 41 61 3f f6 41 61 3f
       0.87991273 0.87991273 0.87991273 0.87991273
000090 f6 41 61 3f f6 41 61 3f f6 41 61 3f f6 41 61 3f
       0.87991273 0.87991273 0.87991273 0.87991273
0000a0 f6 41 61 3f f6 41 61 3f f6 41 61 3f f6 41 61 3f
       0.87991273 0.87991273 0.87991273 0.87991273
0000b0 f6 41 61 3f f6 41 61 3f f6 41 61 3f f6 41 61 3f
       0.87991273 0.87991273 0.87991273 0.87991273
0000c0 f6 41 61 3f f6 41 61 3f f6 41 61 3f f6 41 61 3f
       0.87991273 0.87991273 0.87991273 0.87991273
0000d0 f6 41 61 3f f6 41 61 3f f6 41 61 3f f6 41 61 3f
       0.87991273 0.87991273 0.87991273 0.87991273
0000e0 f6 41 61 3f f6 41 61 3f f6 41 61 3f f6 41 61 3f
       0.87991273 0.87991273 0.87991273 0.87991273
0000f0 f6 41 61 3f f6 41 61 3f f6 41 61 3f f6 41 61 3f
       0.87991273 0.87991273 0.87991273 0.87991273
000100 f6 41 61 3f f6 41 61 3f f6 41 61 3f f6 41 61 3f
       0.87991273 0.87991273 0.87991273 0.87991273
000110 f6 41 61 3f f6 41 61 3f f6 41 61 3f f6 41 61 3f
       0.87991273 0.87991273 0.87991273 0.87991273
000120 f6 41 61 3f f6 41 61 3f f6 41 61 3f f6 41 61 3f
       0.87991273 0.87991273 0.87991273 0.87991273
000130 f6 41 61 3f f6 41 61 3f f6 41 61 3f f6 41 61 3f
       0.87991273 0.87991273 0.87991273 0.87991273
000140 f6 41 61 3f f6 41 61 3f f6 41 61 3f f6 41 61 3f
       0.87991273 0.87991273 0.87991273 0.87991273
000150 f6 41 61 3f f6 41 61 3f f6 41 61 3f f6 41 61 3f
       0.87991273 0.87991273 0.87991273 0.87991273
000160 f6 41 61 3f f6 41 61 3f f6 41 61 3f f6 41 61 3f
       0.87991273 0.87991273 0.87991273 0.87991273
000170 f6 41 61 3f f6 41 61 3f f6 41 61 3f f6 41 61 3f
       0.87991273 0.87991273 0.87991273 0.87991273
000180 f6 41 61 3f f6 41 61 3f f6 41 61 3f f6 41 61 3f
       0.87991273 0.87991273 0.87991273 0.87991273
000190 f6 41 61 3f f6 41 61 3f f6 41 61 3f f6 41 61 3f
       0.87991273 0.87991273 0.87991273 0.87991273
0001a0 f6 41 61 3f f6 41 61 3f f6 41 61 3f f6 41 61 3f
       0.87991273 0.87991273 0.87991273 0.87991273
0001b0 f6 41 61 3f f6 41 61 3f f6 41 61 3f f6 41 61 3f
       0.87991273 0.87991273 0.87991273 0.87991273
0001c0 f6 41 61 3f f6 41 61 3f f6 41 61 3f f6 41 61 3f
       0.87991273 0.87991273 0.87991273 0.87991273
0001d0 f6 41 61 3f f6 41 61 3f f6 41 61 3f f6 41 61 3f
       0.87991273 0.87991273 0.87991273 0.87991273
0001e0 f6 41 61 3f f6 41 61 3f f6 41 61 3f f6 41 61 3f
       0.87991273 0.87991273 0.87991273 0.87991273
0001f0 f6 41 61 3f f6 41 61 3f f6 41 61 3f f6 41 61 3f
       0.87991273 0.87991273 0.87991273 0.87991273
000200 f6 41 61 3f f6 41 61 3f f6 41 61 3f f6 41 61 3f
       0.87991273 0.87991273 0.87991273 0.87991273
000210 f6 41 61 3f f6 41 61 3f f6 41 61 3f f6 41 61 3f
       0.87991273 0.87991273 0.87991273 0.87991273
000220 f6 41 61 3f f6 41 61 3f f6 41 61 3f f6 41 61 3f
       0.87991273 0.87991273 0.87991273 0.87991273
000230 f6 41 61 3f f6 41 61 3f f6 41 61 3f f6 41 61 3f
       0.87991273 0.87991273 0.87991273 0.87991273
000240 f6 41 61 3f f6 41 61 3f f6 41 61 3f f6 41 61 3f
       0.87991273 0.87991273 0.87991273 0.87991273
000250 f6 41 61 3f f6 41 61 3f f6 41 61 3f f6 41 61 3f
       0.87991273 0.87991273 0.87991273 0.87991273
000260 f6 41 61 3f f6 41 61 3f f6 41 61 3f f6 41 61 3f
       0.87991273 0.87991273 0.87991273 0.87991273
000270 f6 41 61 3f f6 41 61 3f f6 41 61 3f f6 41 61 3f
       0.87991273 0.87991273 0.87991273 0.87991273
000280 f6 41 61 3f f6 41 61 3f f6 41 61 3f f6 41 61 3f
       0.87991273 0.87991273 0.87991273 0.87991273
000290 f6 41 61 3f f6 41 61 3f f6 41 61 3f f6 41 61 3f
       0.87991273 0.87991273 0.87991273 0.87991273
0002a0 f6 41 61 3f f6 41 61 3f f6 41 61 3f f6 41 61 3f
       0.87991273 0.87991273 0.87991273 0.87991273
0002b0 f6 41 61 3f f6 41 61 3f f6 41 61 3f f6 41 61 3f
       0.87991273 0.87991273 0.87991273 0.87991273
0002c0 f6 41 61 3f f6 41 61 3f f6 41 61 3f f6 41 61 3f
       0.87991273 0.87991273 0.87991273 0.87991273
0002d0 f6 41 61 3f f6 41 61 3f f6 41 61 3f f6 41 61 3f
       0.87991273 0.87991273 0.87991273 0.87991273
0002e0 f6 41 61 3f f6 41 61 3f f6 41 61 3f f6 41 61 3f
       0.87991273 0.87991273 0.87991273 0.87991273
0002f0 f6 41 61 3f f6 41 61 3f f6 41 61 3f f6 41 61 3f
       0.87991273 0.87991273 0.87991273 0.87991273
000300 f6 41 61 3f f6 41 61 3f f6 41 61 3f f6 41 61 3f
       0.87991273 0.87991273 0.87991273 0.87991273
000310 f6 41 61 3f f6 41 61 3f f6 41 61 3f f6 41 61 3f
       0.87991273 0.87991273 0.87991273 0.87991273
000320 f6 41 61 3f f6 41 61 3f f6 41 61 3f f6 41 61 3f
       0.87991273 0.87991273 0.87991273 0.87991273
000330 f6 41 61 3f f6 41 61 3f f6 41 61 3f f6 41 61 3f
       0.87991273 0.87991273 0.87991273 0.87991273
000340 f6 41 61 3f f6 41 61 3f f6 41 61 3f f6 41 61 3f
       0.87991273 0.87991273 0.87991273 0.87991273
000350 f6 41 61 3f f6 41 61 3f f6 41 61 3f f6 41 61 3f
       0.87991273 0.87991273 0.87991273 0.87991273
000360 f6 41 61 3f f6 41 61 3f f6 41 61 3f f6 41 61 3f
       0.87991273 0.87991273 0.87991273 0.87991273
000370 f6 41 61 3f f6 41 61 3f f6 41 61 3f f6 41 61 3f
       0.87991273 0.87991273 0.87991273 0.87991273
000380 f6 41 61 3f f6 41 61 3f f6 41 61 3f f6 41 61 3f
       0.87991273 0.87991273 0.87991273 0.87991273
000390 f6 41 61 3f f6 41 61 3f f6 41 61 3f f6 41 61 3f
       0.87991273 0.87991273 0.87991273 0.87991273
0003a0 f6 41 61 3f f6 41 61 3f f6 41 61 3f f6 41 61 3f
       0.87991273 0.87991273 0.87991273 0.87991273
0003b0 f6 41 61 3f f6 41 61 3f f6 41 61 3f f6 41 61 3f
       0.87991273 0.87991273 0.87991273 0.87991273
0003c0 f6 41 61 3f f6 41 61 3f f6 41 61 3f f6 41 61 3f
       0.87991273 0.87991273 0.87991273 0.87991273
0003d0 f6 41 61 3f f6 41 61 3f f6 41 61 3f f6 41 61 3f
       0.87991273 0.87991273 0.87991273 0.87991273
0003e0 f6 41 61 3f f6 41 61 3f f6 41 61 3f f6 41 61 3f
       0.87991273 0.87991273 0.87991273 0.87991273
0003f0 f6 41 61 3f f6 41 61 3f f6 41 61 3f f6 41 61 3f
       0.87991273 0.87991273 0.87991273 0.87991273

h_Sigma f4 [1, 260, 4]
000000 00 00 c0 7f 00 00 c0 7f 00 00 c0 7f 00 00 c0 7f
       nan nan nan nan
000010 3c 13 1d 3e 00 00 00 00 db 5c c3 3e d3 88 5d 3e
       0.15339369 0.0 0.3815678 0.21634226
000020 3c 13 1d 3e 00 00 00 00 db 5c c3 3e d3 88 5d 3e
       0.15339369 0.0 0.3815678 0.21634226
000030 3c 13 1d 3e 00 00 00 00 db 5c c3 3e d3 88 5d 3e
       0.15339369 0.0 0.3815678 0.21634226
000040 3c 13 1d 3e 00 00 00 00 db 5c c3 3e d3 88 5d 3e
       0.15339369 0.0 0.3815678 0.21634226
000050 3c 13 1d 3e 00 00 00 00 db 5c c3 3e d3 88 5d 3e
       0.15339369 0.0 0.3815678 0.21634226
000060 3c 13 1d 3e 00 00 00 00 db 5c c3 3e d3 88 5d 3e
       0.15339369 0.0 0.3815678 0.21634226
000070 3c 13 1d 3e 00 00 00 00 db 5c c3 3e d3 88 5d 3e
       0.15339369 0.0 0.3815678 0.21634226
000080 3c 13 1d 3e 00 00 00 00 db 5c c3 3e d3 88 5d 3e
       0.15339369 0.0 0.3815678 0.21634226
000090 3c 13 1d 3e 00 00 00 00 db 5c c3 3e d3 88 5d 3e
       0.15339369 0.0 0.3815678 0.21634226
0000a0 3c 13 1d 3e 00 00 00 00 db 5c c3 3e d3 88 5d 3e
       0.15339369 0.0 0.3815678 0.21634226
0000b0 3c 13 1d 3e 00 00 00 00 db 5c c3 3e d3 88 5d 3e
       0.15339369 0.0 0.3815678 0.21634226
0000c0 4c 93 21 3e 00 00 00 00 6d 83 bb 3e 57 ab 49 3e
       0.15778846 0.0 0.36623707 0.19694267
0000d0 1f be 17 3e 00 00 00 00 1d c2 cc 3e 90 69 75 3e
       0.14818619 0.0 0.39991847 0.2396605
0000e0 1f be 17 3e 00 00 00 00 1d c2 cc 3e 90 69 75 3e
       0.14818619 0.0 0.39991847 0.2396605
0000f0 1f be 17 3e 00 00 00 00 1d c2 cc 3e 90 69 75 3e
       0.14818619 0.0 0.39991847 0.2396605
000100 1f be 17 3e 00 00 00 00 1d c2 cc 3e 90 69 75 3e
       0.14818619 0.0 0.39991847 0.2396605
000110 1f be 17 3e 00 00 00 00 1d c2 cc 3e 90 69 75 3e
       0.14818619 0.0 0.39991847 0.2396605
000120 1f be 17 3e 00 00 00 00 1d c2 cc 3e 90 69 75 3e
       0.14818619 0.0 0.39991847 0.2396605
000130 5d f6 16 3e 00 00 00 00 99 2f ce 3e bd 07 79 3e
       0.14742418 0.0 0.4027069 0.24319358
000140 3c 13 1d 3e 00 00 00 00 db 5c c3 3e d3 88 5d 3e
       0.15339369 0.0 0.3815678 0.21634226
000150 3c 13 1d 3e 00 00 00 00 db 5c c3 3e d3 88 5d 3e
       0.15339369 0.0 0.3815678 0.21634226
000160 1f be 17 3e 00 00 00 00 1d c2 cc 3e 90 69 75 3e
       0.14818619 0.0 0.39991847 0.2396605
000170 3c 13 1d 3e 00 00 00 00 db 5c c3 3e d3 88 5d 3e
       0.15339369 0.0 0.3815678 0.21634226
000180 3c 13 1d 3e 00 00 00 00 db 5c c3 3e d3 88 5d 3e
       0.15339369 0.0 0.3815678 0.21634226
000190 3c 13 1d 3e 00 00 00 00 db 5c c3 3e d3 88 5d 3e
       0.15339369 0.0 0.3815678 0.21634226
0001a0 3c 13 1d 3e 00 00 00 00 db 5c c3 3e d3 88 5d 3e
       0.15339369 0.0 0.3815678 0.21634226
0001b0 3c 13 1d 3e 00 00 00 00 db 5c c3 3e d3 88 5d 3e
       0.15339369 0.0 0.3815678 0.21634226
0001c0 3c 13 1d 3e 00 00 00 00 db 5c c3 3e d3 88 5d 3e
       0.15339369 0.0 0.3815678 0.21634226
0001d0 3c 13 1d 3e 00 00 00 00 db 5c c3 3e d3 88 5d 3e
       0.15339369 0.0 0.3815678 0.21634226
0001e0 3c 13 1d 3e 00 00 00 00 db 5c c3 3e d3 88 5d 3e
       0.15339369 0.0 0.3815678 0.21634226
0001f0 3c 13 1d 3e 00 00 00 00 db 5c c3 3e d3 88 5d 3e
       0.15339369 0.0 0.3815678 0.21634226
000200 3c 13 1d 3e 00 00 00 00 db 5c c3 3e d3 88 5d 3e
       0.15339369 0.0 0.3815678 0.21634226
000210 3c 13 1d 3e 00 00 00 00 db 5c c3 3e d3 88 5d 3e
       0.15339369 0.0 0.3815678 0.21634226
000220 3c 13 1d 3e 00 00 00 00 db 5c c3 3e d3 88 5d 3e
       0.15339369 0.0 0.3815678 0.21634226
000230 3c 13 1d 3e 00 00 00 00 db 5c c3 3e d3 88 5d 3e
       0.15339369 0.0 0.3815678 0.21634226
000240 3c 13 1d 3e 00 00 00 00 db 5c c3 3e d3 88 5d 3e
       0.15339369 0.0 0.3815678 0.21634226
000250 3c 13 1d 3e 00 00 00 00 db 5c c3 3e d3 88 5d 3e
       0.15339369 0.0 0.3815678 0.21634226
000260 3c 13 1d 3e 00 00 00 00 db 5c c3 3e d3 88 5d 3e
       0.15339369 0.0 0.3815678 0.21634226
000270 3c 13 1d 3e 00 00 00 00 db 5c c3 3e d3 88 5d 3e
       0.15339369 0.0 0.3815678 0.21634226
000280 3c 13 1d 3e 00 00 00 00 db 5c c3 3e d3 88 5d 3e
       0.15339369 0.0 0.3815678 0.21634226
000290 3c 13 1d 3e 00 00 00 00 db 5c c3 3e d3 88 5d 3e
       0.15339369 0.0 0.3815678 0.21634226
0002a0 3c 13 1d 3e 00 00 00 00 db 5c c3 3e d3 88 5d 3e
       0.15339369 0.0 0.3815678 0.21634226
0002b0 3c 13 1d 3e 00 00 00 00 db 5c c3 3e d3 88 5d 3e
       0.15339369 0.0 0.3815678 0.21634226
0002c0 3c 13 1d 3e 00 00 00 00 db 5c c3 3e d3 88 5d 3e
       0.15339369 0.0 0.3815678 0.21634226
0002d0 3c 13 1d 3e 00 00 00 00 db 5c c3 3e d3 88 5d 3e
       0.15339369 0.0 0.3815678 0.21634226
0002e0 3c 13 1d 3e 00 00 00 00 db 5c c3 3e d3 88 5d 3e
       0.15339369 0.0 0.3815678 0.21634226
0002f0 3c 13 1d 3e 00 00 00 00 db 5c c3 3e d3 88 5d 3e
       0.15339369 0.0 0.3815678 0.21634226
000300 3c 13 1d 3e 00 00 00 00 db 5c c3 3e d3 88 5d 3e
       0.15339369 0.0 0.3815678 0.21634226
000310 3c 13 1d 3e 00 00 00 00 db 5c c3 3e d3 88 5d 3e
       0.15339369 0.0 0.3815678 0.21634226
000320 3c 13 1d 3e 00 00 00 00 db 5c c3 3e d3 88 5d 3e
       0.15339369 0.0 0.3815678 0.21634226
000330 3c 13 1d 3e 00 00 00 00 db 5c c3 3e d3 88 5d 3e
       0.15339369 0.0 0.3815678 0.21634226
000340 3c 13 1d 3e 00 00 00 00 db 5c c3 3e d3 88 5d 3e
       0.15339369 0.0 0.3815678 0.21634226
000350 3c 13 1d 3e 00 00 00 00 db 5c c3 3e d3 88 5d 3e
       0.15339369 0.0 0.3815678 0.21634226
000360 3c 13 1d 3e 00 00 00 00 db 5c c3 3e d3 88 5d 3e
       0.15339369 0.0 0.3815678 0.21634226
000370 3c 13 1d 3e 00 00 00 00 db 5c c3 3e d3 88 5d 3e
       0.15339369 0.0 0.3815678 0.21634226
000380 3c 13 1d 3e 00 00 00 00 db 5c c3 3e d3 88 5d 3e
       0.15339369 0.0 0.3815678 0.21634226
000390 3c 13 1d 3e 00 00 00 00 db 5c c3 3e d3 88 5d 3e
       0.15339369 0.0 0.3815678 0.21634226
0003a0 3c 13 1d 3e 00 00 00 00 db 5c c3 3e d3 88 5d 3e
       0.15339369 0.0 0.3815678 0.21634226
0003b0 3c 13 1d 3e 00 00 00 00 db 5c c3 3e d3 88 5d 3e
       0.15339369 0.0 0.3815678 0.21634226
0003c0 3c 13 1d 3e 00 00 00 00 db 5c c3 3e d3 88 5d 3e
       0.15339369 0.0 0.3815678 0.21634226
0003d0 3c 13 1d 3e 00 00 00 00 db 5c c3 3e d3 88 5d 3e
       0.15339369 0.0 0.3815678 0.21634226
0003e0 3c 13 1d 3e 00 00 00 00 db 5c c3 3e d3 88 5d 3e
       0.15339369 0.0 0.3815678 0.21634226
0003f0 3c 13 1d 3e 00 00 00 00 db 5c c3 3e d3 88 5d 3e
       0.15339369 0.0 0.3815678 0.21634226
