KalmanNetPHAv2/KalmanNet_TSP-main/KNet/2904/2904model_y.pt (torch, 67220 bytes, 43 tensors)

weight_ih_l0 f4 [12, 10]
-0.23812729 -0.21681446 -0.44838697 0.35734522 0.14500505 -0.45770282 0.06835258 0.27978987
-0.06867868 0.08079916 -0.33614862 -0.4406752 0.3458919 0.396582 -0.07427484 0.25616682
0.30373883 -0.2761104 0.025633454 -0.31146783 0.21432865 0.09974837 -0.12497181 -0.37761486
-0.110149145 0.17801148 0.44396734 -0.4950481 0.10808772 0.027728617 0.16499168 -0.16252065
-0.28154862 0.4010771 -0.069468975 0.3054297 0.09970772 -0.22645986 -0.3307768 0.3714773
-0.4695016 0.40065324 0.062042773 0.47432792 -0.2214399 -0.4780988 0.05422145 -0.109876394
0.39149344 0.43884444 -0.2672724 -0.017662942 0.30724716 -0.25474888 -0.06953025 0.40368867
0.33709544 0.33157742 0.23337263 0.35172725 -0.27860808 -0.14080358 0.433932 -0.45103437
-0.0658797 0.08841103 0.3828717 -0.10285729 0.0690223 -0.005863309 0.24292076 -0.015559435
0.24045563 0.1496836 -0.46191 0.04223931 -0.205661 -0.3422128 0.14995742 0.19604784
-0.38531226 -0.4989274 0.13054138 -0.29044366 0.18932289 -0.45054972 0.16632032 -0.13805646
-0.20676386 -0.40395314 -0.14158213 0.20634288 -0.2959268 -0.36879814 -0.33668888 -0.3928082
0.44678497 -0.11465585 0.11405903 0.48743784 -0.0838815 -0.4460687 -0.30855507 -0.23037583
0.29166263 0.2001602 -0.22217488 0.2942245 -0.14456266 0.35611558 -0.27215105 -0.44478065
-0.29278487 -0.19844794 -0.39162064 0.152637 0.18661624 -0.41656625 0.13463867 0.2056979
00000000: a4d7 73be 9c04 5ebe fa92 e5be f4f5 b63e
00000010: 347c 143e 0658 eabe 70fc 8b3d 9e40 8f3e
00000020: 68a7 8cbd 087a a53d ac1b acbe 2ea0 e1be
00000030: be18 b13e cc0c cb3e 681d 98bd 4c28 833e
00000040: a883 9b3e 585e 8dbe 40fd d13c b678 9fbe
00000050: f878 5b3e e048 cc3d 38f1 ffbd bc56 c1be
00000060: e095 e1bd a448 363e b04f e33e f276 fdbe
00000070: 185d dd3d 2027 e33c 94f3 283e d06b 26be
00000080: 2427 90be fa59 cd3e c045 8ebd 4861 9c3e
00000090: 9033 cc3d 18e5 67be 945b a9be 4632 be3e
000000a0: 8462 f0be 6c22 cd3e 9020 7e3d 1cdb f23e
000000b0: 24c1 62be 5ec9 f4be 5017 5e3d e006 e1bd
000000c0: d471 c83e 38b0 e03e eed7 88be e0b1 90bc
000000d0: 804f 9d3e 726e 82be e065 8ebd 48b0 ce3e
000000e0: c697 ac3e 84c4 a93e 3cf9 6e3e 9815 b43e
000000f0: b8a5 8ebe d02e 10be 562c de3e faed e6be
00000100: f0eb 86bd d810 b53d c207 c43e d8a6 d2bd
00000110: 905b 8d3d 0021 c0bb 38c0 783e 00ed 7ebc
00000120: 003a 763e a846 193e 787f ecbe 2003 2d3d
00000130: cc98 52be 8436 afbe 708e 193e c4c0 483e
00000140: a647 c5be 6a73 ffbe a4ac 053e 08b5 94be
00000150: dcdd 413e 74ae e6be e04f 2a3e ac5e 0dbe
00000160: e8b9 53be f2d2 cebe e8fa 10be 8c4b 533e
00000170: b883 97be 1cd3 bcbe 7c62 acbe 281e c9be
00000180: 00c1 e43e b0d0 eabd c897 e93d 7491 f93e
00000190: 10ca abbd 1e63 e4be eefa 9dbe a4e7 6bbe
000001a0: ce54 953e ccf6 4c3e d081 63be 98a4 963e
000001b0: 3c08 14be c854 b63e 6257 8bbe 4aba e3be
000001c0: e6e7 95be f035 4bbe 8082 c8be e04c 1c3e
000001d0: 5418 3f3e 2c48 d5be b8de 093e 78a2 523e

weight_hh_l0 f4 [12, 4]
-0.10451752 0.22440499 0.28612387 -0.15518272 0.42286438 -0.13527566 -0.38864237 -0.015921474
0.41061705 -0.15009803 -0.3263113 0.40911114 -0.32660067 0.26021796 0.29114544 0.4688146
0.4463395 -0.011684954 0.11237055 -0.23103845 -0.45429468 0.36085272 -0.12718761 0.4345237
0.21256614 0.34982538 0.010917425 -0.11144984 0.48278928 0.065084875 -0.15645331 -0.31194597
0.19467354 0.45545924 -0.048400342 -0.44695228 0.18392372 -0.1539489 -0.26611274 -0.38998073
0.050689757 0.28066045 -0.42760015 0.44956106 0.42157608 0.2692471 0.37419093 0.44461703
00000000: 480d d6bd 6cca 653e d47e 923e 38e8 1ebe
00000010: ae81 d83e b485 0abe 22fc c6be c06d 82bc
00000020: 663c d23e 4cb3 19be 4612 a7be 0477 d13e
00000030: 3438 a7be 4a3b 853e 0411 953e 7808 f03e
00000040: 9c86 e43e 4072 3fbc 8822 e63d 5895 6cbe
00000050: 5099 e8be b0c1 b83e 783d 02be e479 de3e
00000060: f0aa 593e 501c b33e 00df 323c d03f e4bd
00000070: 2830 f73e 384b 853d 4c35 20be 62b7 9fbe
00000080: 8058 473e f431 e93e 703f 46bd eed6 e4be
00000090: 8056 3c3e c8a4 1dbe ee3f 88be 8eab c7be
000000a0: 10a0 4f3d bab2 8f3e 68ee dabe de2c e63e
000000b0: d2d8 d73e c2da 893e f495 bf3e d8a4 e33e

bias_ih_l0 f4 [12]
-0.45487118 0.35552 0.12756962 0.09584689 0.29893667 -0.3755685 0.26310474 -0.013797283
0.1330787 0.3496099 -0.34737116 0.27351445
00000000: e0e4 e8be b806 b63e 9ca1 023e 604b c43d
00000010: 3a0e 993e 844a c0be aab5 863e 000e 62bc
00000020: c845 083e 1200 b33e a2da b1be 160a 8c3e

bias_hh_l0 f4 [12]
-0.054947376 -0.016809106 0.073020756 0.49958622 0.042497814 -0.1625359 0.2876557 0.44456077
0.33957255 0.078808665 0.27761382 -0.17155242
00000000: 8010 61bd 40b3 89bc e88b 953d c4c9 ff3e
00000010: 3012 2e3d d06f 26be 9c47 933e 789d e33e
00000020: 74dc ad3e 7066 a13d 6623 8e3e 70ab 2fbe

weight_ih_l0 f4 [12, 14]
-0.43027604 0.0856989 -0.23081559 -0.42188448 0.24815023 -0.1422103 -0.3861943 -0.42886794
0.04939443 -0.2833749 0.058283687 -0.47427756 -0.05883175 0.27463275 -0.45873076 0.16143906
-0.2217297 -0.44421625 -0.4098826 0.23716062 -0.3010552 0.005384803 -0.49562037 -0.12888044
-0.1004526 0.15660834 -0.081605315 -0.05389607 0.14681292 -0.4051503 -0.2446019 -0.2705534
-0.08747548 -0.25045598 0.2914195 0.30971217 0.14499319 -0.24185348 0.43994218 -0.02524656
0.32295704 0.07311469 -0.49081218 -0.0767048 0.18782479 -0.38975382 0.41452587 -0.4001239
0.22335547 -0.07805854 -0.016793668 0.26570737 0.28821963 0.1736098 0.06628406 -0.068617046
-0.3051747 0.24998331 0.46177334 0.40074444 0.08611119 0.28982675 0.12464374 -0.3905248
0.31750596 -0.13344407 -0.24608314 -0.32056856 0.42791516 0.18608761 0.32006305 0.37127817
0.34967387 0.2822675 -0.36476892 -0.42423266 0.33779937 -0.26149678 -0.30781388 0.42481387
-0.0256477 0.36187607 0.48747075 -0.4518692 0.26689267 0.0689289 0.33131516 -0.101361215
-0.10231322 0.45936066 0.042817473 -0.04976505 0.12754852 -0.19695663 -0.39484012 -0.13060308
-0.21475077 -0.04177028 -0.26582426 0.103524566 0.17437267 0.28593707 -0.44865668 0.26863515
-0.46610665 -0.3469296 0.36691713 -0.1100111 0.19308352 -0.41536856 -0.45870614 -0.29504275
0.014360607 0.37484306 -0.0884583 -0.38083392 -0.2944321 -0.23419887 0.31517923 -0.22693545
-0.48950678 0.3635496 -0.21722794 0.22183496 0.030716062 0.14859295 -0.42309552 0.21352512
-0.045163155 0.47476786 0.055527687 0.015252888 -0.0963127 -0.3785746 0.34089333 -0.37838393
-0.18205118 -0.49301088 -0.12510943 0.079443514 0.3736543 0.44145763 -0.47244078 -0.17965704
0.39808625 -0.35057926 -0.38906544 -0.35738498 0.13716274 -0.32424635 -0.40559644 0.18818277
-0.07425618 -0.3991784 -0.48423195 -0.20673329 -0.1670379 0.4858542 -0.27457643 0.13501835
0.1878047 -0.45933574 0.47516125 -0.13740581 -0.3435911 0.1927808 -0.03992474 -0.059879303
00000000: 244d dcbe e882 af3d ec5a 6cbe 3e01 d8be
00000010: 181b 7e3e 949f 11be 42bb c5be 9494 dbbe
00000020: d051 4a3d 8416 91be e0ba 6e3d 82d4 f2be
00000030: 90f9 70bd aa9c 8c3e c2de eabe 4850 253e
00000040: 1c0d 63be 5070 e3be 22dc d1be 3cda 723e
00000050: e823 9abe 0073 b03b f4c1 fdbe 3cf9 03be
00000060: 18ba cdbd f05d 203e b020 a7bd 20c2 5cbd
00000070: 2056 163e dc6f cfbe ec78 7abe fa85 8abe
00000080: 5826 b3bd c43b 80be f034 953e 9892 9e3e
00000090: 1879 143e 70a8 77be 1a40 e13e e0d1 cebc
000000a0: a05a a53e 28bd 953d bc4b fbbe 6817 9dbd
000000b0: 2455 403e d08d c7be bc3c d43e 0add ccbe
000000c0: 4cb7 643e 28dd 9fbd e092 89bc cc0a 883e
000000d0: 8691 933e c4c6 313e f0bf 873d 1887 8cbd
000000e0: dc3f 9cbe a0fb 7f3e 8e6d ec3e 602e cd3e
000000f0: 105b b03d 2c64 943e 3845 ff3d def2 c7be
00000100: 2490 a23e 90a5 08be 38fd 7bbe 9021 a4be
00000110: b217 db3e c08d 3e3e 4edf a33e 2c18 be3e
00000120: 7408 b33e 5e85 903e fec2 babe 0635 d9be
00000130: 0af4 ac3e e8e2 85be c899 9dbe 3481 d93e
00000140: 201b d2bc d247 b93e c495 f93e 665b e7be
00000150: 28a6 883e 982a 8d3d 24a2 a93e 7896 cfbd
00000160: 9889 d1bd 5231 eb3e 6061 2f3d 70d6 4bbd
00000170: 149c 023e 00af 49be 7c28 cabe d0bc 05be
00000180: a0e7 5bbe 5017 2bbd 1e1a 88be b004 d43d
00000190: c08e 323e 5866 923e 54b6 e5be 8c8a 893e
000001a0: 88a5 eebe c2a0 b1be 90dc bb3e 804d e1bd
000001b0: b0b7 453e 30ab d4be 88db eabe d80f 97be
000001c0: c048 6b3c 6eeb bf3e a029 b5bd aafc c2be
000001d0: cebf 96be d4d1 6fbe 2c5f a13e c461 68be
000001e0: a2a0 fabe 2c23 ba3e 0071 5ebe b428 633e
000001f0: 40a0 fb3c c028 183e fa9f d8be 54a6 5a3e
00000200: 00fd 38bd c614 f33e 0071 633d 40e7 793c
00000210: 983f c5bd 88d4 c1be 9289 ae3e 8abb c1be
00000220: a06b 3abe ec6b fcbe b01c 00be 48b3 a23d
00000230: 9e4f bf3e bc06 e23e c2e3 f1be 04f8 37be
00000240: f6d1 cb3e 207f b3be 9633 c7be 2afb b6be
00000250: 6474 0c3e 9e03 a6be 56aa cfbe fcb2 403e
00000260: a013 98bd 1c61 ccbe 40ed f7be e4b1 53be
00000270: fc0b 2bbe e2c1 f83e 4895 8cbe 4042 0a3e
00000280: e04f 403e 0e2e ebbe 5648 f33e 1cb4 0cbe
00000290: 2ceb afbe 5468 453e 2088 23bd 0044 75bd

weight_hh_l0 f4 [12, 4]
-0.38517165 0.34241128 -0.4926169 0.05027455 -0.0537405 -0.30301905 0.089936316 -0.21502262
0.41017866 -0.4818912 0.19977343 0.38034016 -0.009344816 -0.3151552 0.13166708 0.44618887
0.4950319 0.24914235 0.14225507 -0.32423705 0.21657044 0.4413314 -0.31860453 -0.25324255
0.3860814 -0.17256653 0.034427047 0.46658504 0.35956383 0.45787203 -0.46761906 0.0019975305
-0.008564889 0.2516997 -0.09346038 0.4089856 -0.38806158 -0.3562981 -0.09841597 0.00545305
0.18716657 -0.08866167 -0.43264002 -0.14282364 -0.26530826 0.27493608 0.4557631 0.47980666
00000000: 3835 c5be 8850 af3e 4838 fcbe b0ec 4d3d
00000010: 001f 5cbd 5025 9bbe 8830 b83d e42e 5cbe
00000020: f002 d23e 72ba f6be 6891 4c3e f2bb c23e
00000030: 001b 19bc 065c a1be bcd3 063e de72 e43e
00000040: d274 fd3e 2c1f 7f3e 50ab 113e 6602 a6be
00000050: a4c4 5d3e 30f6 e13e 2220 a3be 02a9 81be
00000060: 76ac c53e 48b5 30be 6003 0d3d 3ce4 ee3e
00000070: c018 b83e 346e ea3e c46b efbe 00e9 023b
00000080: c053 0cbc c8de 803e 2868 bfbd 9066 d13e
00000090: 02b0 c6be b46c b6be 508e c9bd 80af b23b
000000a0: 98a8 3f3e 4094 b5bd fe82 ddbe 5c40 12be
000000b0: 7cd6 87be 6cc4 8c3e c859 e93e 38a9 f53e

bias_ih_l0 f4 [12]
-0.012280107 0.29933 0.46014237 0.3188656 -0.29549515 0.017180264 0.40742624 -0.4322073
-0.23670077 0.22087854 -0.43456846 0.38748932
00000000: 8032 49bc c841 993e c897 eb3e 5a42 a33e
00000010: 244b 97be a0bd 8c3c 2c9a d03e 464a ddbe
00000020: b061 72be fc2d 623e c27f debe 0065 c63e

bias_hh_l0 f4 [12]
0.08120918 0.2119956 0.44263548 -0.24972987 -0.12911373 -0.42651582 0.124815285 0.0060375333
0.07165861 -0.07535952 -0.49887544 -0.40719283
00000000: 0051 a63d 6015 593e 1ea1 e23e 30b9 7fbe
00000010: 6436 04be 4860 dabe 289f ff3d 80d6 c53b
00000020: c0c1 923d 1856 9abd 9a6c ffbe 947b d0be

weight_ih_l0 f4 [3, 11]
0.50399566 -0.98384047 0.18332636 0.96966064 0.4713937 0.67129636 0.05424428 -0.28204823
-0.7245507 0.40386462 0.5344193 0.5934442 -0.5178441 0.6514162 0.2841779 -0.83796763
-0.7871784 -0.7297733 -0.4207406 -0.71856344 -0.85195005 -0.39944565 -0.1534903 0.8870839
0.4048915 -0.9475528 -0.6534389 0.9724958 -0.023879766 -0.72447467 0.91341984 -0.6981673
-0.8797339
00000000: dc05 013f f8dc 7bbf e8b9 3b3e ae3b 783f
00000010: 845a f13e 14da 2b3f 402f 5e3d a068 90be
00000020: 287c 39bf 58c7 ce3e b4cf 083f f6eb 173f
00000030: 6e91 04bf 36c3 263f c47f 913e 0c85 56bf
00000040: 8684 49bf 6cd2 3abf 506b d7be c6f3 37bf
00000050: 6619 5abf 2484 ccbe 902c 1dbe ee17 633f
00000060: f04d cf3e d292 72bf c647 27bf 7cf5 783f
00000070: 809f c3bc 2c77 39bf e2d5 693f 18bb 32bf
00000080: 3e36 61bf

weight_hh_l0 f4 [3, 1]
-0.4473549 -0.8568909 0.8797244
00000000: b40b e5be 345d 5bbf 9e35 613f

bias_ih_l0 f4 [3]
-0.8396994 0.87156904 -0.2988317
00000000: 8af6 56bf 261f 5f3f 7800 99be

bias_hh_l0 f4 [3]
0.48869014 -0.5654068 -0.91959
00000000: 9835 fa3e 80be 10bf 406a 6bbf

weight f4 [1, 4]
0.02631092 0.108884335 -0.26053238 0.13183987
00000000: 008a d73c c0fe de3d 8064 85be 0801 073e

weight f4 [200, 5]
0.28856748 0.38429338 0.19321096 0.07120931 -0.27915806 0.079129696 0.30511892 -0.32892707
0.06992048 0.41661078 -0.034687936 0.33023626 0.0022247732 -0.32600477 -0.11720967 -0.33402926
0.42585957 -0.00065255165 -0.03877464 -0.24665913 0.33262587 0.2535087 0.13208377 0.042054176
0.13555431 0.30033743 0.048813343 0.19783819 -0.0723595 -0.15031594 0.27636707 0.43822587
0.37476182 -0.2852896 -0.34546798 0.40673828 -0.07307792 -0.21802759 -0.13744807 -0.39691547
-0.12939256 -0.24758653 0.39181352 0.1488576 -0.0044384897 -0.1791586 -0.41843742 -0.048589587
-0.32617506 -0.14603457 0.38685846 0.2715934 -0.39553714 0.3676656 -0.40204814 -0.10421944
0.15774477 0.02865398 -0.19214398 0.025067478 -0.355577 0.3191141 -0.09305841 0.31515735
-0.14692077 0.054678738 0.41436434 0.089289546 -0.16815346 0.010708898 0.07157689 -0.17295963
0.100485206 0.35950828 -0.050214916 -0.069585085 -0.17876932 -0.43468714 0.048415303 -0.15760013
0.33698285 -0.12894273 -0.31632304 -0.13088894 -0.388313 -0.047845304 0.06876433 -0.14759922
-0.43686476 -0.16566843 0.15163994 -0.4274774 -0.24162337 -0.39674726 0.00064080954 -0.26327354
-0.12231547 -0.03812167 -0.029263228 0.054125905 0.3239265 0.12472999 -0.316199 -0.012196243
-0.3044482 -0.37535647 -0.015862197 -0.36489248 0.44468915 0.4235561 0.056245744 -0.047166467
0.18183118 -0.29427496 -0.44158122 0.1224581 -0.4458069 -0.21430439 -0.1681431 0.011380047
0.15168017 0.4452551 0.05614543 -0.438183 0.39023376 0.3939675 0.17375356 -0.24346009
0.18996519 0.3535828 -0.1769374 -0.025828063 -0.38886598 -0.03346491 -0.10324004 -0.08415878
-0.13824356 -0.039490283 -0.27443707 -0.07779327 0.0004682839 0.3826875 0.026731282 -0.061996967
-0.18240556 -0.046613157 0.4121195 -0.10413116 0.27418816 -0.4361112 -0.34852248 -0.06419304
0.19149745 0.19903988 -0.17595765 0.093327165 0.064736605 0.423586 -0.14530376 0.42482454
-0.348096 0.28330922 0.24069315 -0.40859953 -0.20848174 0.08418918 -0.4091705 0.2240957
0.21552455 -0.2704075 0.08640337 -0.36905503 -0.35471064 0.3607908 -0.23012349 -0.28454745
-0.09934348 -0.3954451 0.41439122 -0.25132567 -0.30255473 0.2626245 0.08325559 0.0051492453
0.41639185 0.3928002 -0.36769927 -0.4077565 0.245637 0.13657403 -0.104726076 -0.10208407
-0.37794834 -0.31885538 0.38106453 0.3637151 -0.28048432 -0.32761177 0.027747452 0.33829856
-0.3467752 -0.022648603 0.041160673 0.24911541 0.25021613 0.3611263 0.25270432 -0.1957945
0.3530829 -0.42960292 -0.38604188 -0.34639946 0.1926592 0.2647159 -0.1427018 0.093480885
0.108268976 0.31146276 -0.27326533 -0.007620752 0.38177675 0.012013108 0.36610687 0.3268209
0.37611842 -0.033790708 0.0053740144 -0.005742818 0.32276833 0.19606853 -0.40895545 -0.1537503
-0.3775522 -0.15663642 0.029070228 -0.22655815 0.4442677 0.1301511 -0.11973053 -0.19384521
-0.07303473 -0.2394844 -0.40398213 -0.28347945 0.27410263 0.14639276 -0.34508237 -0.29589564
-0.40134954 -0.4305671 0.07479876 0.03418073 0.12477428 0.09848547 -0.24290083 -0.15928271
00000000: 1ebf 933e 1ac2 c43e 18d9 453e 30d6 913d
00000010: ceed 8ebe c00e a23d 8c38 9c3e 2169 a8be
00000020: 7832 8f3d 024e d53e f014 0ebd ba14 a93e
00000030: 80cd 113b 19ea a6be a00b f0bd e205 abbe
00000040: 440a da3e 0010 2bba 28d2 1ebd 3694 7cbe
00000050: f04d aa3e e4cb 813e f840 073e 0041 2c3d
00000060: c0ce 0a3e d4c5 993e 80f0 473d 1896 4a3e
00000070: 3831 94bd 6cec 19be fc7f 8d3e 245f e03e
00000080: c8e0 bf3e 7a11 92be 2ee1 b0be 0040 d03e
00000090: e0a9 95bd a042 5fbe 30bf 0cbe 8138 cbbe
000000a0: 7c7f 04be 5387 7dbe c89b c83e 206e 183e
000000b0: c070 91bb 5a75 37be 6e3d d6be e005 47bd
000000c0: 6b00 a7be 168a 15be 5012 c63e 4a0e 8b3e
000000d0: d883 cabe aa3e bc3e 41d9 cdbe 0071 d5bd
000000e0: d887 213e c0bb ea3c 64c1 44be 505a cd3c
000000f0: 300e b6be ec62 a33e 6895 bebd 4e5c a13e
00000100: 6672 16be d0f6 5f3d 9027 d43e 70dd b63d
00000110: 6c30 2cbe 6074 2f3c e896 923d 541c 31be
00000120: 30cb cd3d 7811 b83e 28ae 4dbd a082 8ebd
00000130: 4e0f 37be 508f debe 204f 463d ee61 21be
00000140: 0489 ac3e 9009 04be 18f5 a1be c007 06be
00000150: f6d0 c6be 70f9 43bd 50d4 8c3d 4024 17be
00000160: bdac dfbe fca4 29be 8047 1b3e 51de dabe
00000170: 1e6c 77be 7522 cbbe 00fc 273a cacb 86be
00000180: 8880 fabd 7825 1cbd 70b9 efbc 20b3 5d3d
00000190: b2d9 a53e 7072 ff3d d6e4 a1be c0d2 47bc
000001a0: a2e0 9bbe b92e c0be 70f1 81bc 30d3 babe
000001b0: 4cae e33e 58dc d83e f061 663d a031 41bd
000001c0: f431 3a3e 35ab 96be ef16 e2be 50cb fa3d
000001d0: cd40 e4be 9c72 5bbe b42d 2cbe 6073 3a3c
000001e0: 0c52 1b3e 7af8 e33e c0f8 653d 8659 e0be
000001f0: b8cc c73e 1cb6 c93e 74ec 313e 9a4d 79be
00000200: 3c86 423e ce08 b53e 142f 35be 6095 d3bc
00000210: 7119 c7be 8012 09bd 846f d3bd 705b acbd
00000220: b88f 0dbe 90c0 21bd 0483 8cbe 1452 9fbd
00000230: 0084 f539 9eef c33e 90fb da3c 88f0 7dbd
00000240: 86c8 3abe 70ed 3ebd 5401 d33e b842 d5bd
00000250: 6462 8c3e f849 dfbe 8a71 b2be a477 83bd
00000260: e817 443e 1cd1 4b3e 3e2e 34be 5022 bf3d
00000270: a094 843d 44e0 d83e 82ca 14be 9a82 d93e
00000280: a439 b2be e80d 913e 4478 763e f533 d1be
00000290: 3d7c 55be 606b ac3d cc7e d1be 5879 653e
000002a0: 78b2 5c3e da72 8abe 40f4 b03d c8f4 bcbe
000002b0: a29c b5be 92b9 b83e 7ea5 6bbe 34b0 91be
000002c0: 9874 cbbd c877 cabe 162b d43e c2ad 80be
000002d0: 74e8 9abe b876 863e e881 aa3d 00bb a83b
000002e0: 5031 d53e 1c1d c93e 1443 bcbe 76c5 d0be
000002f0: 4488 7b3e 10da 0b3e a07a d6bd 7411 d1bd
00000300: 7282 c1be 0341 a3be e41a c33e de38 ba3e
00000310: a49b 8fbe bbbc a7be a04e e33c 7835 ad3e
00000320: 858c b1be 9089 b9bc 1898 283d 1c18 7f3e
00000330: 541c 803e 8ce5 b83e 7662 813e 5a7e 48be
00000340: 48c7 b43e eaf4 dbbe 48a7 c5be 455b b1be
00000350: 7448 453e d888 873e 6c20 12be e872 bf3d
00000360: 20bc dd3d 0c78 9f3e 6fe9 8bbe 80b7 f9bb
00000370: 3e78 c33e a0d2 443c 5c72 bb3e 1255 a73e
00000380: 9892 c03e 2068 0abd 8018 b03b 402e bcbb
00000390: e441 a53e 30c6 483e 9c62 d1be b870 1dbe
000003a0: 864e c1be 4c65 20be b024 ee3c dcfe 67be
000003b0: 0e77 e33e 5446 053e 4835 f5bd 5c7f 46be
000003c0: 3c93 95bd 663b 75be bfd6 cebe 3824 91be
000003d0: 2e57 8c3e fce7 153e a3ae b0be a27f 97be
000003e0: b07d cdbe 4a73 dcbe 1830 993d 1801 0c3d
000003f0: a889 ff3d c0b2 c93d ffba 78be 021b 23be

bias f4 [200]
-0.15281442 -0.29060054 -0.12849817 0.43722248 0.324656 0.22281677 -0.25176337 -0.1739105
0.43548882 0.36393815 0.43397027 -0.3872609 0.35914242 0.41078168 0.30890888 0.16283405
0.016858846 -0.31890088 0.10204381 0.3378309 -0.35334468 0.12940949 0.18320727 0.019113839
0.2647463 -0.03005886 0.21234334 -0.0059652925 -0.41239104 -0.36892778 -0.3899147 -0.20731778
0.08002609 0.16527086 0.3435135 0.42478096 0.078198075 0.2368275 0.29352546 0.34174347
-0.37654072 0.19199061 -0.26807433 -0.11640778 0.29405177 0.17491472 0.13579154 0.14235967
0.18291509 -0.4233327 0.35444903 0.14013469 -0.23793146 -0.03980127 0.09945041 -0.3427748
0.4342162 -0.16135558 0.07095075 -0.28427738 0.031138629 0.152906 0.13154387 0.1437636
0.03559664 -0.3010714 -0.0972611 -0.14297828 0.25294465 -0.07639697 -0.04813543 0.18066192
0.2969327 0.2039904 0.16789794 0.005101919 -0.2558981 -0.29076794 0.239524 -0.31691423
-0.06651196 -0.005398333 -0.26326758 0.2598819 -0.2692922 -0.3508808 -0.35965395 0.05733341
-0.19854705 0.13789034 -0.44451573 -0.4326769 0.13596916 -0.10984072 -0.37148464 -0.2602166
0.41605937 -0.039242446 0.025455147 -0.3730846 -0.3893522 -0.4030877 -0.39549485 -0.15344247
-0.34562802 -0.09414911 0.0645234 0.22195274 0.2215724 -0.06842816 -0.34519726 -0.1663023
-0.18863773 -0.24061099 0.013813257 -0.19374919 0.29237986 0.19048923 0.25645578 -0.26781493
0.05585742 -0.40112147 -0.06936228 0.41412538 0.25512618 -0.27888674 -0.08131787 -0.0067356527
-0.054075867 -0.09267151 -0.40891868 0.25042868 0.14670563 0.3905908 0.34057403 -0.09365392
0.123363316 -0.25528985 0.43954408 -0.3192621 -0.41615248 -0.1552738 0.41191292 -0.080252826
-0.02777043 0.0043490827 0.36519462 -0.25375646 0.29647815 0.104097486 0.3267724 -0.34157988
-0.37824965 -0.22674207 0.045339108 0.0580917 -0.009150147 0.22657782 -0.3074116 -0.26677042
-0.13785207 -0.0070492923 0.34427142 0.29314935 -0.35733902 -0.12918738 0.33368725 -0.40415496
-0.09639025 -0.28061163 0.33017272 -0.06336427 -0.31550944 -0.30939293 -0.2239571 -0.25434542
0.27826667 0.07250112 0.09964341 0.19969165 0.10219318 -0.20238665 -0.44065595 -0.12954158
0.06941217 0.21227813 -0.20272145 -0.21917507 -0.26602167 0.38784117 0.28539413 -0.10549119
-0.43235266 0.07596618 -0.34063247 -0.3720683 -0.15070906 -0.3411196 0.37751412 -0.24510145
00000000: 627b 1cbe 98c9 94be 0695 03be a0db df3e
00000010: 5039 a63e 142a 643e 21e7 80be 9815 32be
00000020: 64f8 de3e 1a56 ba3e 5a31 de3e 1047 c6be
00000030: 84e1 b73e fa51 d23e 4e29 9e3e f8bd 263e
00000040: 901b 8a3c fa46 a3be 58fc d03d 2cf8 ac3e
00000050: 98e9 b4be ec83 043e b09a 3b3e a094 9c3c
00000060: d48c 873e 003e f6bc 8870 593e 8078 c3bb
00000070: eb24 d3be 1ae4 bcbe e6a2 c7be 1d4b 54be
00000080: b8e4 a33d c43c 293e 00e1 af3e e47c d93e
00000090: 5026 a03d e882 723e f848 963e 00f9 ae3e
000000a0: f2c9 c0be 3099 443e 0a41 89be 3467 eebd
000000b0: f48d 963e d81c 333e f00c 0b3e bcc6 113e
000000c0: 184e 3b3e 10bf d8be 587a b53e 787f 0f3e
000000d0: 4ea4 73be a806 23bd a8ac cb3d 2e80 afbe
000000e0: 9651 de3e 663a 25be a04e 913d ce8c 91be
000000f0: 7016 ff3c 6493 1c3e 70b3 063e c436 133e
00000100: c8cd 113d 0826 9abe d430 c7bd e668 12be
00000110: f681 813e 0476 9cbd a829 45bd 70ff 383e
00000120: 9007 983e dce2 503e 70ed 2b3e 002e a73b
00000130: 1305 83be 89df 94be c845 753e 9542 a2be
00000140: 6c37 88bd 80e4 b0bb 02cb 86be 3e0f 853e
00000150: abe0 89be a6a6 b3be 9024 b8be 70d6 6a3d
00000160: eb4f 4bbe 2033 0d3e 9197 e3be d487 ddbe
00000170: 803b 0b3e 2cf4 e0bd 3c33 bebe 1c3b 85be
00000180: bc05 d53e b0bc 20bd 5087 d03c f204 bfbe
00000190: 2c59 c7be 8361 cebe 4d7e cabe 0620 1dbe
000001a0: 28f6 b0be 40d1 c0bd d824 843d 9447 633e
000001b0: e0e3 623e 1024 8cbd b2bd b0be 264b 2abe
000001c0: 402a 41be ba62 76be 0051 623c 3066 46be
000001d0: d0b2 953e 9c0f 433e 2c4e 833e 0a1f 89be
000001e0: c0ca 643d cb5f cdbe d00d 8ebd 3e08 d43e
000001f0: e69f 823e 3eca 8ebe fc89 a6bd c0b6 dcbb
00000200: a87e 5dbd 90ca bdbd ca5d d1be 3038 803e
00000210: 003a 163e 84fb c73e b85f ae3e a0cd bfbd
00000220: e8a5 fc3d 5ab5 82be ec0b e13e 5276 a3be
00000230: f011 d5be 1800 1fbe 40e6 d23e 985b a4bd
00000240: d07e e3bc c082 8e3b cafa ba3e 5eec 81be
00000250: fccb 973e 1031 d53d b64e a73e 8fe3 aebe
00000260: f0a9 c1be 132f 68be 80b5 393d 90f1 6d3d
00000270: 80ea 15bc 0404 683e 0e65 9dbe 2296 88be
00000280: 1829 0dbe c0fd e6bb 5844 b03e ac17 963e
00000290: 24f5 b6be b249 04be 0ed9 aa3e 66ed cebe
000002a0: 4068 c5bd 54ac 8fbe 660c a93e 20c5 81bd
000002b0: 748a a1be c068 9ebe 0355 65be 9039 82be
000002c0: f878 8e3e 787b 943d d811 cc3d f87b 4c3e
000002d0: a84a d13d 723e 4fbe a89d e1be 8ca6 04be
000002e0: f827 8e3d 705f 593e 3696 4fbe 6e6f 60be
000002f0: fe33 88be 1e93 c63e 2e1f 923e c40b d8bd
00000300: 545d ddbe 2894 9b3d 6167 aebe bc7f bebe
00000310: 7a53 1abe 3aa7 aebe 8849 c13e e0fb 7abe

weight f4 [2, 200]
-0.06523217 -0.032709233 -0.06208598 0.02876354 -0.062409446 -0.018374342 -0.061743364 -0.053454403
-0.05170062 0.05000729 -0.05898295 -0.06565064 0.048602283 0.011085838 0.021864682 0.01555647
-0.039662436 -0.026307534 0.0005245283 -0.06079221 0.009917691 -0.057490334 -0.010982078 -0.05957095
-0.048943233 -0.008163974 -0.0031563193 0.061074056 -0.012252796 0.069307454 0.06421281 0.027857803
-0.055608604 -0.057983346 0.028930657 0.06360144 -0.0023442805 -0.063319564 -0.0674731 -0.06689692
-0.022480246 -0.0101497695 0.050910898 -0.0032385811 0.053554088 0.009840272 0.036834233 -0.04314465
-0.003493175 -0.0048363656 -0.029134803 0.061949097 0.01851058 -0.067399524 -0.055348173 -0.06797776
-0.054416336 -0.004113525 0.018693395 0.025879107 -0.051281348 0.044833593 -0.009376451 -0.022041295
-0.010611709 -0.03701021 0.039677083 -0.04661312 0.013446301 0.011168905 -0.056539655 0.048410274
-0.059217546 -0.006845705 -0.05448674 0.05396369 -0.019143134 0.039732426 0.054477356 0.06881275
-0.011228636 0.061600633 0.040407777 -0.047503952 -0.02030138 -0.04162669 -0.0036690906 -0.045172952
0.06372406 -0.020416278 0.017311007 -0.034667835 -0.051948175 -0.01660892 -0.0062778518 -0.041120566
0.06152972 -0.008295983 0.03993004 0.0045425743 -0.05801376 0.0336323 -0.038835254 -0.016385127
-0.026256856 0.024056181 0.044289805 0.064022385 0.060660608 0.022620954 0.051579878 -0.014808439
-0.05923786 0.032246068 -0.007937036 -0.013226397 0.015767112 0.0064188913 -0.06900799 0.03608132
0.06013123 0.021428883 0.032999426 0.011087887 -0.039729983 -0.07000881 0.030616127 0.029496193
-0.02383675 0.04734423 -0.027833652 0.04914307 -0.012358561 0.042104065 0.009801976 -0.0494442
0.059307434 -0.06408292 0.010225847 0.0049564093 0.017642274 -0.058957357 0.0034736246 0.0029516667
-0.06483807 0.020872772 -0.045126684 0.044900946 0.055489473 0.053046964 -0.011760395 -0.05089818
0.041385427 -0.01153288 -0.041972175 -0.008526806 -0.024478856 -0.05761772 0.02264414 -0.008173086
0.019718781 -0.06694687 -0.044437077 0.041031323 -0.065455005 -0.017268702 0.067271896 -0.036822263
0.06458915 -0.016172774 -0.033051644 -0.0023526773 -0.041708775 -0.004925862 0.013044767 0.03879583
-0.03892465 0.050795898 -0.023966074 -0.06902975 0.044672184 -0.05140426 -0.051693525 0.0027099773
0.014140822 0.023304723 -0.048111483 -0.017714195 -0.046202153 0.009569064 -0.025014654 -0.058853626
-0.050567143 0.0690823 -0.027613983 0.038917586 0.0016653761 0.058376335 0.03485308 0.051105596
0.021658719 0.060867794 0.048399307 0.040015787 -0.011995904 -0.020230874 0.04693768 0.004731737
0.023866646 0.052513495 -0.052796643 -0.014878023 -0.046764527 0.014011294 0.0668929 0.06959111
0.021967761 0.024106711 -0.038108945 -0.03412109 0.0469362 -0.01775742 -0.045201585 -0.010225188
0.054446824 0.036161438 0.0687603 0.055485792 -0.02344149 0.020993143 -0.029435564 0.023995213
-0.020574365 0.00058371574 0.0533067 -0.015645474 0.010297261 0.054908223 0.018696122 -0.009751644
0.020696834 0.054456152 -0.029411212 0.018624626 -0.026623666 0.007442549 0.0019433722 -0.05480075
-0.0518011 -0.060216174 -0.02024648 0.022432633 0.048656367 0.053003207 -0.061530523 0.015623219
00000000: 7298 85bd 1efa 05bd de4d 7ebd 84a1 eb3c
00000010: 0ca1 7fbd ca85 96bc 9ce6 7cbd 01f3 5abd
00000020: 08c4 53bd 72d4 4c3d 1b98 71bd d873 86bd
00000030: 3013 473d 60a1 353c 901d b33c 90e0 7e3c
00000040: 1475 22bd e682 d7bc 8080 093a 4101 79bd
00000050: d07d 223c fc7a 6bbd 2cee 33bc ab00 74bd
00000060: b378 48bd 30c2 05bc 40da 4ebb ca28 7a3d
00000070: f4bf 48bc 11f1 8d3d 0182 833d 0c36 e43c
00000080: d9c5 63bd f27f 6dbd fcff ec3c 7941 823d
00000090: 80a2 19bb b0ad 81bd 562f 8abd 4101 89bd
000000a0: 7e28 b8bc 384b 26bc f287 503d 603e 54bb
000000b0: 885b 5b3d 1839 213c 7edf 163d 72b8 30bd
000000c0: c0ed 64bb 607a 9ebb 1cac eebc 56be 7d3d
000000d0: 80a3 973c c308 8abd c4b4 62bd ed37 8bbd
000000e0: aae3 5ebd c0ca 86bb e422 993c 6c00 d43c
000000f0: 640c 52bd 6ea3 373d b09f 19bc f28f b4bc
00000100: bcdc 2dbc 0598 17bd 7084 223d 66ed 3ebd
00000110: e04d 5c3c c8fd 363c 2096 67bd da49 463d
00000120: 198e 72bd f051 e0bb 7d2d 5fbd 0809 5d3d
00000130: 10d2 9cbc 78be 223d a623 5f3d b3ed 8c3d
00000140: 50f8 37bc f250 7c3d a082 253d 8193 42bd
00000150: 144f a6bc c080 2abd 2075 70bb 4607 39bd
00000160: c381 823d 0a40 a7bc d0cf 8d3c dcff 0dbd
00000170: 9cc7 54bd 6e0f 88bc 70b6 cdbb 0a6e 28bd
00000180: 9606 7c3d e0eb 07bc ae8d 233d e0d9 943b
00000190: d69f 6dbd 06c2 093d b711 1fbd 1a3a 86bc
000001a0: 9e18 d7bc 7811 c53c 3a69 353d 2b1e 833d
000001b0: 4277 783d 944f b93c 6c45 533d 189f 72bc
000001c0: 66a3 72bd 7414 043d 580a 02bc 88b3 58bc
000001d0: 082a 813c 9055 d23b 1054 8dbd 02ca 133d
000001e0: 2a4c 763d a08b af3c 682a 073d f8a9 353c
000001f0: e8bb 22bd c760 8fbd acce fa3c 00a2 f13c
00000200: 4a45 c3bc 06ec 413d 6603 e4bc 3e4a 493d
00000210: 907b 4abc 5075 2c3d 7898 203c 0086 4abd
00000220: 5aec 723d e83d 83bd 508a 273c 6069 a23b
00000230: 8886 903c 457d 71bd c0a5 633b c070 413b
00000240: d2c9 84bd 60fd aa3c c2d6 38bd 0eea 373d
00000250: ee48 633d c647 593d acae 40bc 9c7a 50bd
00000260: c483 293d 68f4 3cbc 04eb 2bbd 04b4 0bbc
00000270: e287 c8bc 8f00 6cbd 3480 b93c 68e8 05bc
00000280: 4889 a13c 711b 89bd a703 36bd 7610 283d
00000290: 460d 86bd 1877 8dbc d9c5 893d f1d2 16bd
000002a0: 5147 843d c47c 84bc 2961 07bd 602f 1abb
000002b0: d2d6 2abd 2069 a1bb b8b9 553c 60e8 1e3d
000002c0: 746f 1fbd 5c0f 503d 8054 c4bc 785f 8dbd
000002d0: 2efa 363d 468d 52bd 97bc 53bd e099 313b
000002e0: e8ae 673c 8ce9 be3c 8c10 45bd 5c1d 91bc
000002f0: 783e 3dbd 90c7 1c3c 88eb ccbc 8010 71bd
00000300: 7e1f 4fbd 057b 8d3d b836 e2bc 0c68 1f3d
00000310: c048 da3a 061c 6f3d 1ac2 0e3d 1a54 513d
00000320: a06d b13c 8250 793d 5a3e 463d 98e7 233d
00000330: 788a 44bc 38bb a5bc ba41 403d b00c 9b3b
00000340: fc83 c33c 6418 573d 4b41 58bd f4c2 73bc
00000350: 298c 3fbd a08f 653c 25ff 883d c985 8e3d
00000360: bcf5 b33c 707b c53c 2018 1cbd 8ec2 0bbd
00000370: 2c40 403d 0278 91bc 4c25 39bd 8c87 27bc
00000380: a203 5f3d 041e 143d 33d2 8c3d 1245 633d
00000390: 5e08 c0bc d0f9 ab3c da22 f1bc 9c91 c43c
000003a0: 928b a8bc 8004 193a 2058 5a3d f02a 80bc
000003b0: d8b5 283c 72e7 603d 9c28 993c 5cc5 1fbc
000003c0: 688c a93c 6a0d 5f3d c8ef f0bc ac92 983c
000003d0: e019 dabc a0e0 f33b c0b8 fe3a c076 60bd
000003e0: 642d 54bd 3ca5 76bd f2db a5bc a4c4 b73c
000003f0: e64b 473d e419 593d 6e07 7cbd 88f8 7f3c

bias f4 [2]
0.013499744 0.058331065
00000000: 082e 5d3c 8eec 6e3d

weight f4 [4, 3]
-0.401263 -0.5495649 0.4650159 0.1101827 0.091909945 0.3225696 0.5303314 0.36744213
0.26507086 0.1344623 -0.39228004 -0.02407813
00000000: 5872 cdbe 49b0 0cbf 9016 ee3e 78a7 e13d
00000010: 483b bc3d d827 a53e ccc3 073f 6021 bc3e
00000020: 5eb7 873e 7cb0 093e eed8 c8be 803f c5bc

bias f4 [4]
-0.46845508 -0.047572553 -0.09534666 -0.41398442
00000000: 58d9 efbe 70db 42bd 1c45 c3bd c4f5 d3be

weight f4 [4, 8]
0.035809338 0.10971671 0.029951245 -0.22704144 0.005993247 -0.30375916 -0.26129186 0.3082843
0.17954627 0.27999344 -0.060150325 0.19395265 -0.10821022 -0.15062411 -0.047160685 0.29992226
0.2730699 0.25731406 0.04283738 -0.016608298 0.12505198 -0.28771305 0.012737483 -0.33711872
0.23428616 -0.2602205 -0.28716922 -0.19130605 -0.32333758 -0.22976653 -0.35077274 0.3135359
00000000: d0ac 123d 28b3 e03d 505c f53c 8d7d 68be
00000010: 0063 c43b 5286 9bbe 0cc8 85be 71d7 9d3e
00000020: fada 373e 4d5b 8f3e 3060 76bd 869b 463e
00000030: 529d ddbd 353d 1abe 902b 41bd 698f 993e
00000040: d1cf 8b3e abbe 833e 4076 2f3d 200e 88bc
00000050: a00d 003e 204f 93be e0b0 503c d39a acbe
00000060: b6e8 6f3e 9f3b 85be d807 93be bce5 43be
00000070: 818c a5be eb47 6bbe 7c98 b3be c787 a03e

bias f4 [4]
-0.0427244 0.100210875 -0.18155126 0.31148693
00000000: c8ff 2ebd 5c3b cd3d 93e8 39be 377b 9f3e

weight f4 [10, 2]
0.4362566 -0.54205716 0.11803663 -0.20535433 -0.52980125 -0.50414777 0.28172547 -0.11629295
-0.4624106 0.6674151 0.6172798 0.04326272 0.1115396 0.34251136 0.4380619 0.51527005
-0.01660204 -0.49687088 -0.2316229 0.6325504
00000000: 065d df3e 42c4 0abf 30bd f13d 6848 52be
00000010: 0ea1 07bf d40f 01bf 523e 903e 002b eebd
00000020: 15c1 ecbe b7db 2a3f 0d06 1e3f 4034 313d
00000030: e06e e43d a65d af3e a649 e03e bde8 033f
00000040: 0001 88bc dc65 febe 8e2e 6dbe d3ee 213f

bias f4 [10]
0.0052533746 -0.13948488 0.35050458 0.37632376 -0.6779959 0.555993 -0.041339993 0.098161936
-0.19964218 -0.69810426
00000000: 8024 ac3b 20d5 0ebe 5675 b33e 82ad c03e
00000010: 2491 2dbf 8f55 0e3f 2054 29bd 2009 c93d
00000020: 006f 4cbe f6b6 32bf

weight f4 [10, 2]
-0.05825287 -0.13372815 -0.428748 -0.052865565 -0.2626878 0.21995485 0.50867516 0.23394686
-0.6312852 -0.35099018 -0.1654427 0.4934451 -0.024131358 -0.05135256 0.21273881 0.69050735
0.047691524 -0.063488066 0.12439585 0.02280122
00000000: 909a 6ebd 08f0 08be dc84 dbbe 9089 58bd
00000010: 047f 86be d83b 613e 8938 023f c48f 6f3e
00000020: e89b 21bf fcb4 b3be d069 29be d6a4 fc3e
00000030: 20af c5bc 1057 52bd 34d8 593e 17c5 303f
00000040: 3058 433d 0806 82bd 40c3 fe3d a0c9 ba3c

bias f4 [10]
-0.5602721 0.55632395 0.04786426 -0.6940875 -0.051450074 -0.4372406 -0.15896124 0.046250343
0.5466396 -0.38133836
00000000: fe6d 0fbf 3f6b 0e3f 500d 443d b8af 31bf
00000010: 50bd 52bd 00de dfbe bcc6 22be 0071 3d3d
00000020: 93f0 0b3f c83e c3be

weight f4 [10, 2]
-0.10545021 -0.09571302 -0.20315641 -0.1543684 -0.6530934 0.36682445 -0.08883786 -0.3029202
0.36329168 -0.39904922 -0.45172292 -0.353323 0.3618484 -0.42237043 0.0848968 -0.07163024
-0.4327055 -0.4259514 0.478329 -0.12343168
00000000: 48f6 d7bd 3005 c4bd 3c08 50be c012 1ebe
00000010: 2131 27bf 6ad0 bb3e a0f0 b5bd 5b18 9bbe
00000020: 5e01 ba3e 2e50 ccbe 3a48 e7be c1e6 b4be
00000030: 3244 b93e f040 d8be 60de ad3d e0b2 92bd
00000040: 938b ddbe 4d16 dabe 8ae7 f43e c0c9 fcbd

bias f4 [10]
0.66455775 0.5735083 0.27020144 -0.5039414 -0.53302515 -0.5328523 -0.4985518 -0.65712136
0.35581177 0.30558282
00000000: 7520 2a3f 71d1 123f d857 8a3e 4e02 01bf
00000010: 5674 08bf 0269 08bf 2e42 ffbe 1b39 28bf
00000020: f62c b63e 5a75 9c3e

F f4 [2, 2]
1.0 0.01 0.0 1.0
00000000: 0000 803f 0ad7 233c 0000 0000 0000 803f

Q f4 [2, 2]
3.3333333e-07 5e-05 5e-05 0.01
00000000: fcf4 b234 17b7 5138 17b7 5138 0ad7 233c

H f4 [1, 2]
1.0 0.0
00000000: 0000 803f 0000 0000

prior_Q f4 [2, 2]
1.0 0.0 0.0 1.0
00000000: 0000 803f 0000 0000 0000 0000 0000 803f

prior_Sigma f4 [2, 2]
0.0 0.0 0.0 0.0
00000000: 0000 0000 0000 0000 0000 0000 0000 0000

m1x_0 f4 [2]
-40.573586 -0.38773462
00000000: 5a4b 22c2 2785 c6be

m2x_0 f4 [2, 2]
0.0 0.0 0.0 0.0
00000000: 0000 0000 0000 0000 0000 0000 0000 0000

h_S f4 [1, 260, 1]
nan 0.020567298 -0.2194624 0.020567298 0.020567298 0.020567298 0.020567298 0.020567298
0.020567298 0.020567298 -0.2194624 0.020567298 -0.2194624 -0.2194624 0.020567298 -0.2194624
-0.2194624 0.020567298 -0.2194624 0.020567298 0.020567298 0.020567298 -0.2194624 0.020567298
0.020567298 0.020567298 0.020567298 0.020567298 0.020567298 0.020567298 0.020567298 0.020567298
0.020567298 0.020567298 0.020567298 0.020567298 0.020567298 0.020567298 0.020567298 0.020567298
0.020567298 0.020567298 0.020567298 0.020567298 0.020567298 0.020567298 0.020567298 0.020567298
0.020567298 0.020567298 0.020567298 0.020567298 0.020567298 0.020567298 0.020567298 0.020567298
0.020567298 0.020567298 0.020567298 0.020567298 0.020567298 0.020567298 0.020567298 0.020567298
0.020567298 0.020567298 0.020567298 0.020567298 0.020567298 0.020567298 0.020567298 0.020567298
0.020567298 0.020567298 0.020567298 0.020567298 0.020567298 0.020567298 0.020567298 0.020567298
0.020567298 0.020567298 -0.2194624 -0.2194624 -0.2194624 -0.2194624 -0.2194624 -0.2194624
-0.2194624 -0.2194624 -0.2194624 -0.2194624 -0.2194624 -0.2194624 -0.2194624 -0.2194624
-0.2194624 -0.2194624 -0.2194624 -0.2194624 -0.2194624 -0.2194624 -0.2194624 -0.2194624
-0.2194624 -0.2194624 -0.2194624 -0.2194624 -0.2194624 -0.2194624 -0.2194624 -0.2194624
-0.2194624 -0.2194624 -0.2194624 -0.2194624 -0.2194624 -0.2194624 -0.2194624 -0.2194624
-0.2194624 -0.2194624 -0.2194624 -0.2194624 -0.2194624 -0.2194624 -0.2194624 -0.2194624
-0.2194624 -0.2194624 -0.2194624 -0.2194624 -0.2194624 -0.2194624 -0.2194624 -0.2194624
-0.2194624 -0.2194624 -0.2194624 -0.2194624 -0.2194624 -0.2194624 -0.2194624 -0.2194624
-0.2194624 -0.2194624 -0.2194624 -0.2194624 -0.2194624 -0.2194624 -0.2194624 -0.2194624
-0.2194624 -0.2194624 -0.2194624 -0.2194624 -0.2194624 -0.2194624 -0.2194624 -0.2194624
-0.2194624 -0.2194624 -0.2194624 -0.2194624 -0.2194624 -0.2194624 -0.2194624 -0.2194624
-0.2194624 -0.2194624 -0.2194624 -0.2194624 -0.2194624 -0.2194624 -0.2194624 -0.2194624
-0.2194624 -0.2194624 -0.2194624 -0.2194624 -0.2194624 -0.2194624 -0.2194624 -0.2194624
-0.2194624 -0.2194624 -0.2194624 -0.2194624 -0.2194624 -0.2194624 -0.2194624 -0.2194624
-0.2194624 -0.2194624 -0.2194624 -0.2194624 -0.2194624 -0.2194624 -0.2194624 -0.2194624
-0.2194624 -0.2194624 -0.2194624 -0.2194624 -0.2194624 -0.2194624 -0.2194624 -0.2194624
-0.2194624 -0.2194624 -0.2194624 -0.2194624 -0.2194624 -0.2194624 -0.2194624 -0.2194624
-0.2194624 -0.2194624 -0.2194624 -0.2194624 -0.2194624 -0.2194624 -0.2194624 -0.2194624
-0.2194624 -0.2194624 -0.2194624 -0.2194624 -0.2194624 -0.2194624 -0.2194624 -0.2194624
-0.2194624 -0.2194624 -0.2194624 -0.2194624 -0.2194624 -0.2194624 -0.2194624 -0.2194624
-0.2194624 -0.2194624 -0.2194624 -0.2194624 -0.2194624 -0.2194624 -0.2194624 -0.2194624
-0.2194624 -0.2194624 -0.2194624 -0.2194624 -0.2194624 -0.2194624 -0.2194624 -0.2194624
00000000: 0000 c07f c07c a83c c0ba 60be c07c a83c
00000010: c07c a83c c07c a83c c07c a83c c07c a83c
00000020: c07c a83c c07c a83c c0ba 60be c07c a83c
00000030: c0ba 60be c0ba 60be c07c a83c c0ba 60be
00000040: c0ba 60be c07c a83c c0ba 60be c07c a83c
00000050: c07c a83c c07c a83c c0ba 60be c07c a83c
00000060: c07c a83c c07c a83c c07c a83c c07c a83c
00000070: c07c a83c c07c a83c c07c a83c c07c a83c
00000080: c07c a83c c07c a83c c07c a83c c07c a83c
00000090: c07c a83c c07c a83c c07c a83c c07c a83c
000000a0: c07c a83c c07c a83c c07c a83c c07c a83c
000000b0: c07c a83c c07c a83c c07c a83c c07c a83c
000000c0: c07c a83c c07c a83c c07c a83c c07c a83c
000000d0: c07c a83c c07c a83c c07c a83c c07c a83c
000000e0: c07c a83c c07c a83c c07c a83c c07c a83c
000000f0: c07c a83c c07c a83c c07c a83c c07c a83c
00000100: c07c a83c c07c a83c c07c a83c c07c a83c
00000110: c07c a83c c07c a83c c07c a83c c07c a83c
00000120: c07c a83c c07c a83c c07c a83c c07c a83c
00000130: c07c a83c c07c a83c c07c a83c c07c a83c
00000140: c07c a83c c07c a83c c0ba 60be c0ba 60be
00000150: c0ba 60be c0ba 60be c0ba 60be c0ba 60be
00000160: c0ba 60be c0ba 60be c0ba 60be c0ba 60be
00000170: c0ba 60be c0ba 60be c0ba 60be c0ba 60be
00000180: c0ba 60be c0ba 60be c0ba 60be c0ba 60be
00000190: c0ba 60be c0ba 60be c0ba 60be c0ba 60be
000001a0: c0ba 60be c0ba 60be c0ba 60be c0ba 60be
000001b0: c0ba 60be c0ba 60be c0ba 60be c0ba 60be
000001c0: c0ba 60be c0ba 60be c0ba 60be c0ba 60be
000001d0: c0ba 60be c0ba 60be c0ba 60be c0ba 60be
000001e0: c0ba 60be c0ba 60be c0ba 60be c0ba 60be
000001f0: c0ba 60be c0ba 60be c0ba 60be c0ba 60be
00000200: c0ba 60be c0ba 60be c0ba 60be c0ba 60be
00000210: c0ba 60be c0ba 60be c0ba 60be c0ba 60be
00000220: c0ba 60be c0ba 60be c0ba 60be c0ba 60be
00000230: c0ba 60be c0ba 60be c0ba 60be c0ba 60be
00000240: c0ba 60be c0ba 60be c0ba 60be c0ba 60be
00000250: c0ba 60be c0ba 60be c0ba 60be c0ba 60be
00000260: c0ba 60be c0ba 60be c0ba 60be c0ba 60be
00000270: c0ba 60be c0ba 60be c0ba 60be c0ba 60be
00000280: c0ba 60be c0ba 60be c0ba 60be c0ba 60be
00000290: c0ba 60be c0ba 60be c0ba 60be c0ba 60be
000002a0: c0ba 60be c0ba 60be c0ba 60be c0ba 60be
000002b0: c0ba 60be c0ba 60be c0ba 60be c0ba 60be
000002c0: c0ba 60be c0ba 60be c0ba 60be c0ba 60be
000002d0: c0ba 60be c0ba 60be c0ba 60be c0ba 60be
000002e0: c0ba 60be c0ba 60be c0ba 60be c0ba 60be
000002f0: c0ba 60be c0ba 60be c0ba 60be c0ba 60be
00000300: c0ba 60be c0ba 60be c0ba 60be c0ba 60be
00000310: c0ba 60be c0ba 60be c0ba 60be c0ba 60be
00000320: c0ba 60be c0ba 60be c0ba 60be c0ba 60be
00000330: c0ba 60be c0ba 60be c0ba 60be c0ba 60be
00000340: c0ba 60be c0ba 60be c0ba 60be c0ba 60be
00000350: c0ba 60be c0ba 60be c0ba 60be c0ba 60be
00000360: c0ba 60be c0ba 60be c0ba 60be c0ba 60be
00000370: c0ba 60be c0ba 60be c0ba 60be c0ba 60be
00000380: c0ba 60be c0ba 60be c0ba 60be c0ba 60be
00000390: c0ba 60be c0ba 60be c0ba 60be c0ba 60be
000003a0: c0ba 60be c0ba 60be c0ba 60be c0ba 60be
000003b0: c0ba 60be c0ba 60be c0ba 60be c0ba 60be
000003c0: c0ba 60be c0ba 60be c0ba 60be c0ba 60be
000003d0: c0ba 60be c0ba 60be c0ba 60be c0ba 60be
000003e0: c0ba 60be c0ba 60be c0ba 60be c0ba 60be
000003f0: c0ba 60be c0ba 60be c0ba 60be c0ba 60be

h_Sigma f4 [1, 260, 4]
nan nan nan nan 0.0 0.15317352 0.0 0.23647429
0.0 0.15317352 0.0 0.23647429 0.0 0.15317352 0.0 0.23647429
0.0 0.15317352 0.0 0.23647429 0.0 0.15317352 0.0 0.23647429
0.0 0.15317352 0.0 0.23647429 0.0 0.15317352 0.0 0.23647429
0.0 0.15317352 0.0 0.23647429 0.0 0.15317352 0.0 0.23647429
0.0 0.15317352 0.0 0.23647429 0.0 0.15317352 0.0 0.23647429
0.0 0.15317352 0.0 0.23647429 0.0 0.15317352 0.0 0.23647429
0.0 0.15317352 0.0 0.23647429 0.0 0.15317352 0.0 0.23647429
0.0 0.15317352 0.0 0.23647429 0.0 0.15317352 0.0 0.23647429
0.0 0.15317352 0.0 0.23647429 0.0 0.15317352 0.0 0.23647429
0.0 0.15317352 0.0 0.23647429 0.0 0.15317352 0.0 0.23647429
0.0 0.15317352 0.0 0.23647429 0.0 0.15317352 0.0 0.23647429
0.0 0.15317352 0.0 0.23647429 0.0 0.15317352 0.0 0.23647429
0.0 0.15317352 0.0 0.23647429 0.0 0.15317352 0.0 0.23647429
0.0 0.15317352 0.0 0.23647429 0.0 0.15317352 0.0 0.23647429
0.0 0.15317352 0.0 0.23647429 0.0 0.15317352 0.0 0.23647429
0.0 0.15317352 0.0 0.23647429 0.0 0.15317352 0.0 0.23647429
0.0 0.15317352 0.0 0.23647429 0.0 0.15317352 0.0 0.23647429
0.0 0.15317352 0.0 0.23647429 0.0 0.15317352 0.0 0.23647429
0.0 0.15317352 0.0 0.23647429 0.0 0.15317352 0.0 0.23647429
0.0 0.15317352 0.0 0.23647429 0.0 0.15317352 0.0 0.23647429
0.0 0.15317352 0.0 0.23647429 0.0 0.15317352 0.0 0.23647429
0.0 0.15317352 0.0 0.23647429 0.0 0.15317352 0.0 0.23647429
0.0 0.15317352 0.0 0.23647429 0.0 0.15317352 0.0 0.23647429
0.0 0.15317352 0.0 0.23647429 0.0 0.15317352 0.0 0.23647429
0.0 0.15317352 0.0 0.23647429 0.0 0.15317352 0.0 0.23647429
0.0 0.15317352 0.0 0.23647429 0.0 0.15317352 0.0 0.23647429
0.0 0.15317352 0.0 0.23647429 0.0 0.15317352 0.0 0.23647429
0.0 0.15317352 0.0 0.23647429 0.0 0.15317352 0.0 0.23647429
0.0 0.15317352 0.0 0.23647429 0.0 0.15317352 0.0 0.23647429
0.0 0.15317352 0.0 0.23647429 0.0 0.15317352 0.0 0.23647429
0.0 0.15317352 0.0 0.23647429 0.0 0.15317352 0.0 0.23647429
00000000: 0000 c07f 0000 c07f 0000 c07f 0000 c07f
00000010: 0000 0000 85d9 1c3e 0000 0000 5126 723e
00000020: 0000 0000 85d9 1c3e 0000 0000 5126 723e
00000030: 0000 0000 85d9 1c3e 0000 0000 5126 723e
00000040: 0000 0000 85d9 1c3e 0000 0000 5126 723e
00000050: 0000 0000 85d9 1c3e 0000 0000 5126 723e
00000060: 0000 0000 85d9 1c3e 0000 0000 5126 723e
00000070: 0000 0000 85d9 1c3e 0000 0000 5126 723e
00000080: 0000 0000 85d9 1c3e 0000 0000 5126 723e
00000090: 0000 0000 85d9 1c3e 0000 0000 5126 723e
000000a0: 0000 0000 85d9 1c3e 0000 0000 5126 723e
000000b0: 0000 0000 85d9 1c3e 0000 0000 5126 723e
000000c0: 0000 0000 85d9 1c3e 0000 0000 5126 723e
000000d0: 0000 0000 85d9 1c3e 0000 0000 5126 723e
000000e0: 0000 0000 85d9 1c3e 0000 0000 5126 723e
000000f0: 0000 0000 85d9 1c3e 0000 0000 5126 723e
00000100: 0000 0000 85d9 1c3e 0000 0000 5126 723e
00000110: 0000 0000 85d9 1c3e 0000 0000 5126 723e
00000120: 0000 0000 85d9 1c3e 0000 0000 5126 723e
00000130: 0000 0000 85d9 1c3e 0000 0000 5126 723e
00000140: 0000 0000 85d9 1c3e 0000 0000 5126 723e
00000150: 0000 0000 85d9 1c3e 0000 0000 5126 723e
00000160: 0000 0000 85d9 1c3e 0000 0000 5126 723e
00000170: 0000 0000 85d9 1c3e 0000 0000 5126 723e
00000180: 0000 0000 85d9 1c3e 0000 0000 5126 723e
00000190: 0000 0000 85d9 1c3e 0000 0000 5126 723e
000001a0: 0000 0000 85d9 1c3e 0000 0000 5126 723e
000001b0: 0000 0000 85d9 1c3e 0000 0000 5126 723e
000001c0: 0000 0000 85d9 1c3e 0000 0000 5126 723e
000001d0: 0000 0000 85d9 1c3e 0000 0000 5126 723e
000001e0: 0000 0000 85d9 1c3e 0000 0000 5126 723e
000001f0: 0000 0000 85d9 1c3e 0000 0000 5126 723e
00000200: 0000 0000 85d9 1c3e 0000 0000 5126 723e
00000210: 0000 0000 85d9 1c3e 0000 0000 5126 723e
00000220: 0000 0000 85d9 1c3e 0000 0000 5126 723e
00000230: 0000 0000 85d9 1c3e 0000 0000 5126 723e
00000240: 0000 0000 85d9 1c3e 0000 0000 5126 723e
00000250: 0000 0000 85d9 1c3e 0000 0000 5126 723e
00000260: 0000 0000 85d9 1c3e 0000 0000 5126 723e
00000270: 0000 0000 85d9 1c3e 0000 0000 5126 723e
00000280: 0000 0000 85d9 1c3e 0000 0000 5126 723e
00000290: 0000 0000 85d9 1c3e 0000 0000 5126 723e
000002a0: 0000 0000 85d9 1c3e 0000 0000 5126 723e
000002b0: 0000 0000 85d9 1c3e 0000 0000 5126 723e
000002c0: 0000 0000 85d9 1c3e 0000 0000 5126 723e
000002d0: 0000 0000 85d9 1c3e 0000 0000 5126 723e
000002e0: 0000 0000 85d9 1c3e 0000 0000 5126 723e
000002f0: 0000 0000 85d9 1c3e 0000 0000 5126 723e
00000300: 0000 0000 85d9 1c3e 0000 0000 5126 723e
00000310: 0000 0000 85d9 1c3e 0000 0000 5126 723e
00000320: 0000 0000 85d9 1c3e 0000 0000 5126 723e
00000330: 0000 0000 85d9 1c3e 0000 0000 5126 723e
00000340: 0000 0000 85d9 1c3e 0000 0000 5126 723e
00000350: 0000 0000 85d9 1c3e 0000 0000 5126 723e
00000360: 0000 0000 85d9 1c3e 0000 0000 5126 723e
00000370: 0000 0000 85d9 1c3e 0000 0000 5126 723e
00000380: 0000 0000 85d9 1c3e 0000 0000 5126 723e
00000390: 0000 0000 85d9 1c3e 0000 0000 5126 723e
000003a0: 0000 0000 85d9 1c3e 0000 0000 5126 723e
000003b0: 0000 0000 85d9 1c3e 0000 0000 5126 723e
000003c0: 0000 0000 85d9 1c3e 0000 0000 5126 723e
000003d0: 0000 0000 85d9 1c3e 0000 0000 5126 723e
000003e0: 0000 0000 85d9 1c3e 0000 0000 5126 723e
000003f0: 0000 0000 85d9 1c3e 0000 0000 5126 723e

h_Q f4 [1, 260, 4]
nan nan nan nan 0.55153704 -0.12358313 0.049765892 0.8583973
0.55153704 -0.12358313 0.049765892 0.8583973 0.55153704 -0.12358313 0.049765892 0.8583973
0.55153704 -0.12358313 0.049765892 0.8583973 0.55153704 -0.12358313 0.049765892 0.8583973
0.55153704 -0.12358313 0.049765892 0.8583973 0.55153704 -0.12358313 0.049765892 0.8583973
0.55153704 -0.12358313 0.049765892 0.8583973 0.55153704 -0.12358313 0.049765892 0.8583973
0.55153704 -0.12358313 0.049765892 0.8583973 0.55153704 -0.12358313 0.049765892 0.8583973
0.55153704 -0.12358313 0.049765892 0.8583973 0.55153704 -0.12358313 0.049765892 0.8583973
0.55153704 -0.12358313 0.049765892 0.8583973 0.55153704 -0.12358313 0.049765892 0.8583973
0.55153704 -0.12358313 0.049765892 0.8583973 0.55153704 -0.12358313 0.049765892 0.8583973
0.55153704 -0.12358313 0.049765892 0.8583973 0.55153704 -0.12358313 0.049765892 0.8583973
0.55153704 -0.12358313 0.049765892 0.8583973 0.55153704 -0.12358313 0.049765892 0.8583973
0.55153704 -0.12358313 0.049765892 0.8583973 0.55153704 -0.12358313 0.049765892 0.8583973
0.55153704 -0.12358313 0.049765892 0.8583973 0.55153704 -0.12358313 0.049765892 0.8583973
0.55153704 -0.12358313 0.049765892 0.8583973 0.55153704 -0.12358313 0.049765892 0.8583973
0.55153704 -0.12358313 0.049765892 0.8583973 0.55153704 -0.12358313 0.049765892 0.8583973
0.55153704 -0.12358313 0.049765892 0.8583973 0.55153704 -0.12358313 0.049765892 0.8583973
0.55153704 -0.12358313 0.049765892 0.8583973 0.55153704 -0.12358313 0.049765892 0.8583973
0.55153704 -0.12358313 0.049765892 0.8583973 0.55153704 -0.12358313 0.049765892 0.8583973
0.55153704 -0.12358313 0.049765892 0.8583973 0.55153704 -0.12358313 0.049765892 0.8583973
0.55153704 -0.12358313 0.049765892 0.8583973 0.55153704 -0.12358313 0.049765892 0.8583973
0.55153704 -0.12358313 0.049765892 0.8583973 0.55153704 -0.12358313 0.049765892 0.8583973
0.55153704 -0.12358313 0.049765892 0.8583973 0.55153704 -0.12358313 0.049765892 0.8583973
0.55153704 -0.12358313 0.049765892 0.8583973 0.55153704 -0.12358313 0.049765892 0.8583973
0.55153704 -0.12358313 0.049765892 0.8583973 0.55153704 -0.12358313 0.049765892 0.8583973
0.55153704 -0.12358313 0.049765892 0.8583973 0.55153704 -0.12358313 0.049765892 0.8583973
0.55153704 -0.12358313 0.049765892 0.8583973 0.55153704 -0.12358313 0.049765892 0.8583973
0.55153704 -0.12358313 0.049765892 0.8583973 0.55153704 -0.12358313 0.049765892 0.8583973
0.55153704 -0.12358313 0.049765892 0.8583973 0.55153704 -0.12358313 0.049765892 0.8583973
0.55153704 -0.12358313 0.049765892 0.8583973 0.55153704 -0.12358313 0.049765892 0.8583973
0.55153704 -0.12358313 0.049765892 0.8583973 0.55153704 -0.12358313 0.049765892 0.8583973
0.55153704 -0.12358313 0.049765892 0.8583973 0.55153704 -0.12358313 0.049765892 0.8583973
0.55153704 -0.12358313 0.049765892 0.8583973 0.55153704 -0.12358313 0.049765892 0.8583973
00000000: 0000 c07f 0000 c07f 0000 c07f 0000 c07f
00000010: 8831 0d3f 2719 fdbd 52d7 4b3d edbf 5b3f
00000020: 8831 0d3f 2719 fdbd 52d7 4b3d edbf 5b3f
00000030: 8831 0d3f 2719 fdbd 52d7 4b3d edbf 5b3f
00000040: 8831 0d3f 2719 fdbd 52d7 4b3d edbf 5b3f
00000050: 8831 0d3f 2719 fdbd 52d7 4b3d edbf 5b3f
00000060: 8831 0d3f 2719 fdbd 52d7 4b3d edbf 5b3f
00000070: 8831 0d3f 2719 fdbd 52d7 4b3d edbf 5b3f
00000080: 8831 0d3f 2719 fdbd 52d7 4b3d edbf 5b3f
00000090: 8831 0d3f 2719 fdbd 52d7 4b3d edbf 5b3f
000000a0: 8831 0d3f 2719 fdbd 52d7 4b3d edbf 5b3f
000000b0: 8831 0d3f 2719 fdbd 52d7 4b3d edbf 5b3f
000000c0: 8831 0d3f 2719 fdbd 52d7 4b3d edbf 5b3f
000000d0: 8831 0d3f 2719 fdbd 52d7 4b3d edbf 5b3f
000000e0: 8831 0d3f 2719 fdbd 52d7 4b3d edbf 5b3f
000000f0: 8831 0d3f 2719 fdbd 52d7 4b3d edbf 5b3f
00000100: 8831 0d3f 2719 fdbd 52d7 4b3d edbf 5b3f
00000110: 8831 0d3f 2719 fdbd 52d7 4b3d edbf 5b3f
00000120: 8831 0d3f 2719 fdbd 52d7 4b3d edbf 5b3f
00000130: 8831 0d3f 2719 fdbd 52d7 4b3d edbf 5b3f
00000140: 8831 0d3f 2719 fdbd 52d7 4b3d edbf 5b3f
00000150: 8831 0d3f 2719 fdbd 52d7 4b3d edbf 5b3f
00000160: 8831 0d3f 2719 fdbd 52d7 4b3d edbf 5b3f
00000170: 8831 0d3f 2719 fdbd 52d7 4b3d edbf 5b3f
00000180: 8831 0d3f 2719 fdbd 52d7 4b3d edbf 5b3f
00000190: 8831 0d3f 2719 fdbd 52d7 4b3d edbf 5b3f
000001a0: 8831 0d3f 2719 fdbd 52d7 4b3d edbf 5b3f
000001b0: 8831 0d3f 2719 fdbd 52d7 4b3d edbf 5b3f
000001c0: 8831 0d3f 2719 fdbd 52d7 4b3d edbf 5b3f
000001d0: 8831 0d3f 2719 fdbd 52d7 4b3d edbf 5b3f
000001e0: 8831 0d3f 2719 fdbd 52d7 4b3d edbf 5b3f
000001f0: 8831 0d3f 2719 fdbd 52d7 4b3d edbf 5b3f
00000200: 8831 0d3f 2719 fdbd 52d7 4b3d edbf 5b3f
00000210: 8831 0d3f 2719 fdbd 52d7 4b3d edbf 5b3f
00000220: 8831 0d3f 2719 fdbd 52d7 4b3d edbf 5b3f
00000230: 8831 0d3f 2719 fdbd 52d7 4b3d edbf 5b3f
00000240: 8831 0d3f 2719 fdbd 52d7 4b3d edbf 5b3f
00000250: 8831 0d3f 2719 fdbd 52d7 4b3d edbf 5b3f
00000260: 8831 0d3f 2719 fdbd 52d7 4b3d edbf 5b3f
00000270: 8831 0d3f 2719 fdbd 52d7 4b3d edbf 5b3f
00000280: 8831 0d3f 2719 fdbd 52d7 4b3d edbf 5b3f
00000290: 8831 0d3f 2719 fdbd 52d7 4b3d edbf 5b3f
000002a0: 8831 0d3f 2719 fdbd 52d7 4b3d edbf 5b3f
000002b0: 8831 0d3f 2719 fdbd 52d7 4b3d edbf 5b3f
000002c0: 8831 0d3f 2719 fdbd 52d7 4b3d edbf 5b3f
000002d0: 8831 0d3f 2719 fdbd 52d7 4b3d edbf 5b3f
000002e0: 8831 0d3f 2719 fdbd 52d7 4b3d edbf 5b3f
000002f0: 8831 0d3f 2719 fdbd 52d7 4b3d edbf 5b3f
00000300: 8831 0d3f 2719 fdbd 52d7 4b3d edbf 5b3f
00000310: 8831 0d3f 2719 fdbd 52d7 4b3d edbf 5b3f
00000320: 8831 0d3f 2719 fdbd 52d7 4b3d edbf 5b3f
00000330: 8831 0d3f 2719 fdbd 52d7 4b3d edbf 5b3f
00000340: 8831 0d3f 2719 fdbd 52d7 4b3d edbf 5b3f
00000350: 8831 0d3f 2719 fdbd 52d7 4b3d edbf 5b3f
00000360: 8831 0d3f 2719 fdbd 52d7 4b3d edbf 5b3f
00000370: 8831 0d3f 2719 fdbd 52d7 4b3d edbf 5b3f
00000380: 8831 0d3f 2719 fdbd 52d7 4b3d edbf 5b3f
00000390: 8831 0d3f 2719 fdbd 52d7 4b3d edbf 5b3f
000003a0: 8831 0d3f 2719 fdbd 52d7 4b3d edbf 5b3f
000003b0: 8831 0d3f 2719 fdbd 52d7 4b3d edbf 5b3f
000003c0: 8831 0d3f 2719 fdbd 52d7 4b3d edbf 5b3f
000003d0: 8831 0d3f 2719 fdbd 52d7 4b3d edbf 5b3f
000003e0: 8831 0d3f 2719 fdbd 52d7 4b3d edbf 5b3f
000003f0: 8831 0d3f 2719 fdbd 52d7 4b3d edbf 5b3f
