KalmanNetPHAv2/KalmanNet_TSP-main/KNet/2201/2201model_x.pt (torch, 101780 bytes, 43 tensors)

weight_ih_l0 f4 [12, 10]
-0.07525337 0.06836009 -0.05540794 0.10369474 -0.09117079 0.22958148 -0.4468714 0.4936456
0.43937212 -0.056973815 -0.1645034 0.06873864 0.14621061 -0.2632621 0.01309371 0.00857985
0.38994372 0.31941444 0.1658082 -0.16283953 -0.42699265 0.3405832 0.40598118 -0.19879955
0.48972303 0.20603931 0.4689144 0.3475085 -0.23449439 0.30173242 -0.262941 -0.35412818
-0.4968124 -0.4070853 0.21435875 -0.04937154 0.17188579 -0.46392846 0.008411109 0.069223344
-0.27858466 -0.13488603 0.15452689 -0.36486197 0.34949052 0.18273538 0.016927779 -0.033521354
-0.08723718 -0.47171175 -0.2128396 0.19587028 -0.4962045 0.37416136 0.27656513 0.12879574
-0.25080502 -0.12369132 0.38488632 -0.41527307 0.09844422 -0.49389863 0.1536408 0.38280952
-0.17065239 -0.28781945 -0.081771076 0.32504296 0.2197023 0.31447256 -0.44130427 0.1456399
-0.16754174 0.322343 -0.3496272 0.29065835 -0.3692909 0.063002944 0.07168168 -0.014867365
0.1377092 -0.2814567 0.4182492 -0.37594432 -0.27279776 0.20841682 -0.10626137 0.47391796
-0.058033466 0.16440421 0.4286554 0.48555273 0.46350986 -0.031957686 0.19730449 -0.31616294
-0.40850163 0.28039837 0.36441916 0.48486042 0.33819264 -0.4973606 0.4682076 0.15389049
-0.39222813 0.19372255 -0.41938877 0.16030014 -0.43687987 -0.38484257 -0.2974791 0.1747958
0.3974741 -0.4274997 -0.29802245 0.04733956 -0.41941476 0.16684353 -0.09667367 0.45554537
00000000: 701e 9abd 6000 8c3d 70f3 62bd e85d d43d
00000010: c0b7 babd 6817 6b3e 54cc e4be 1ebf fc3e
00000020: 62f5 e03e 605d 69bd 9473 28be d8c6 8c3d
00000030: 3cb8 153e 4aca 86be 0087 563c 8092 0c3c
00000040: b4a6 c73e 4a8a a33e a0c9 293e 68bf 26be
00000050: c89e dabe ec60 ae3e c4dc cf3e 1c92 4bbe
00000060: fabc fa3e f8fb 523e 8c15 f03e a2ec b13e
00000070: 4c1f 70be ac7c 9a3e 34a0 86be 4a50 b5be
00000080: 325e febe 7c6d d0be dc80 5b3e d039 4abd
00000090: d402 303e 0888 edbe c0ce 093c f8c4 8d3d
000000a0: a6a2 8ebe 901f 0abe 4c3c 1e3e 30cf babe
000000b0: 6cf0 b23e fc1e 3b3e 20ac 8a3c b04d 09bd
000000c0: 68a9 b2bd 3484 f1be a0f2 59be 3892 483e
000000d0: 840e febe 1492 bf3e f299 8d3e 08e3 033e
000000e0: 8469 80be e051 fdbd d20f c53e ac9e d4be
000000f0: 209d c93d 48e0 fcbe 0454 1d3e 9cff c33e
00000100: 80bf 2ebe 125d 93be 9877 a7bd 086c a63e
00000110: a4f9 603e 8c02 a13e a2f2 e1be a022 153e
00000120: 1090 2bbe 240a a53e 5602 b3be 2cd1 943e
00000130: b213 bdbe b007 813d d8cd 923d 4096 73bc
00000140: a403 0d3e 181b 90be c224 d63e c67b c0be
00000150: 26ac 8bbe 386b 553e 909f d9bd 60a5 f23e
00000160: 80b4 6dbd 9459 283e b878 db3e 5e9a f83e
00000170: 2a51 ed3e 10e6 02bd 300a 4a3e 1ce0 a1be
00000180: 2027 d1be 6090 8f3e 2695 ba3e a03f f83e
00000190: 9627 ad3e 0ca6 febe e8b8 ef3e 7895 1d3e
000001a0: 20d2 c8be 345f 463e 20ba d6be b825 243e
000001b0: b8ae dfbe 160a c5be 2e4f 98be acfd 323e
000001c0: ba81 cb3e 3ee1 dabe 6696 98be 20e7 413d
000001d0: 88bd d6be 08d9 2a3e d8fc c5bd 3e3d e93e

weight_hh_l0 f4 [12, 4]
-0.11474359 0.37201208 0.4841218 0.28503054 -0.06531787 -0.2157926 -0.2204802 -0.33909076
-0.11837238 -0.47521925 -0.14466685 -0.2814569 0.49894822 0.15949577 -0.41940427 0.41522837
-0.09334439 0.2710597 0.4944361 0.19101769 0.36576903 0.42806727 -0.3611979 0.005580306
-0.13363504 -0.45741677 0.29776394 0.23960829 0.00095933676 -0.058735073 -0.42637116 0.28456342
-0.05669266 -0.29637945 0.16932368 -0.07192165 0.37071472 0.34059387 0.33166647 0.39699644
0.36442107 0.09887385 -0.39446008 0.36234772 0.13626504 -0.106934726 -0.26923937 0.32234007
00000000: b0fe eabd 5e78 be3e d0de f73e 86ef 913e
00000010: 60c5 85bd bcf8 5cbe 90c5 61be 4e9d adbe
00000020: 386d f2bd f04f f3be 8c23 14be 1e1b 90be
00000030: 2476 ff3e dc52 233e 28bc d6be d098 d43e
00000040: 582b bfbd 56c8 8a3e ba26 fd3e 249a 433e
00000050: 1446 bb3e a22b db3e eeee b8be 00db b63b
00000060: a0d7 08be 8832 eabe 8474 983e e05b 753e
00000070: 007c 7b3a 3094 70bd 524d dabe 4cb2 913e
00000080: 9036 68bd 0cbf 97be 3063 2d3e a84b 93bd
00000090: 52ce bd3e 5262 ae3e 30d0 a93e 1e43 cb3e
000000a0: 6695 ba3e 607e ca3d acf6 c9be a485 b93e
000000b0: 1089 0b3e 9800 dbbd bed9 89be c209 a53e

bias_ih_l0 f4 [12]
0.11410719 -0.3175302 0.32501525 0.32048965 -0.12620407 -0.3988651 -0.10248208 -0.0065226555
-0.31314594 -0.22959238 -0.36210668 -0.03430116
00000000: 08b1 e93d 5293 a2be 6668 a63e 3817 a43e
00000010: a43b 01be 0c38 ccbe 20e2 d1bd 00bc d5bb
00000020: aa54 a0be 441a 6bbe 0c66 b9be 607f 0cbd

bias_hh_l0 f4 [12]
-0.13700342 0.18918246 0.48122865 0.0858835 -0.39806366 0.3293386 -0.0027272701 0.2996785
0.33615386 -0.41414958 -0.39315534 0.3179384
00000000: a04a 0cbe 0cb9 413e 9a63 f63e b0e3 af3d
00000010: 00cf cbbe 129f a83e 00bc 32bb 766f 993e
00000020: 5c1c ac3e 6a0b d4be a84b c9be d2c8 a23e

weight_ih_l0 f4 [12, 14]
-0.02067101 -0.37354225 0.08620149 0.45318472 0.46657777 0.38121098 0.3766886 0.086833894
-0.07700145 -0.079324365 -0.29598922 0.37406796 0.3172952 0.36016518 0.37914383 -0.17356431
-0.00094366074 0.13079679 0.05481106 -0.28324497 0.2926991 -0.13736951 0.21929604 -0.3502277
0.02396655 -0.28261656 0.42487067 0.35340118 -0.36308128 0.057748914 0.18308908 0.25942618
0.015172482 -0.3286612 -0.2089554 -0.19939023 -0.2545135 0.34504694 0.36999333 -0.26066607
-0.26214612 0.39416856 -0.35612684 -0.15358633 0.045420766 -0.11206132 -0.10876775 0.3816982
-0.49569482 -0.2787683 0.070706666 -0.3533085 0.16352952 -0.17681211 0.38594466 0.44194347
-0.00953573 0.2939136 -0.21581048 0.22136372 -0.19666278 -0.17496854 -0.3000257 0.4642223
0.45473725 -0.4057334 -0.39172423 -0.29807556 0.019511461 -0.48302484 -0.2504552 0.384911
0.3415808 0.088274956 -0.04616183 0.26589155 0.3470273 -0.37074494 0.07842517 -0.3487388
-0.05434227 0.38917738 -0.050784588 0.4435944 -0.1731332 0.4699911 0.05645144 0.4419368
0.47479892 0.28711838 0.16031772 -0.27487785 -0.047482193 -0.2754042 0.21255529 -0.41324216
-0.1594705 0.06359804 -0.29592568 0.16988671 -0.38524503 -0.10554743 0.22131908 0.0044835806
0.32927126 0.46283656 0.44352365 0.17770231 0.3455422 0.47851866 -0.37486082 -0.19027734
-0.054523647 0.06511307 -0.111505985 -0.23255491 -0.43906015 0.26224566 -0.23767042 -0.13716775
0.009966254 -0.16784728 0.33788645 0.45045722 -0.47055852 -0.21659017 0.18278444 0.1402458
0.48533225 0.15333909 -0.373407 0.3810764 0.38561177 0.33575422 0.20126283 -0.06877625
0.1460467 -0.09864843 -0.3262195 -0.47240317 -0.22630507 -0.06737101 0.40412968 0.44362545
0.20065975 0.4600126 -0.12084097 0.387509 -0.41598982 0.36437154 0.34004378 0.4237575
-0.4137783 -0.36815983 0.31028217 0.13604146 0.3875895 -0.2517622 0.3233813 0.22539622
0.15052444 0.36117148 -0.1447168 -0.22706038 0.49412477 -0.29667765 0.23298305 -0.44775188
00000000: 4056 a9bc ee40 bfbe 688a b03d d407 e83e
00000010: 48e3 ee3e 162e c33e 54dd c03e f8d5 b13d
00000020: f0b2 9dbd d074 a2bd e68b 97be d685 bf3e
00000030: 8474 a23e 9267 b83e 241f c23e d8ba 31be
00000040: 0060 77ba 98ef 053e 9081 603d 7c05 91be
00000050: a8dc 953e 98aa 0cbe 248f 603e 0c51 b3be
00000060: 8055 c43c 1eb3 90be a688 d93e 00f1 b43e
00000070: cae5 b9be 208a 6c3d b47b 3b3e 82d3 843e
00000080: 0096 783c 4846 a8be 68f8 55be f42c 4cbe
00000090: 984f 82be fea9 b03e c46f bd3e 0676 85be
000000a0: 0438 86be 76d0 c93e 4256 b6be bc45 1dbe
000000b0: 200b 3a3d 6880 e5bd a0c1 debd f26d c33e
000000c0: b6cb fdbe b8ba 8ebe a8ce 903d dae4 b4be
000000d0: 4874 273e 3c0e 35be 8a9a c53e 6a46 e23e
000000e0: c03b 1cbc d87b 963e 6cfd 5cbe 2cad 623e
000000f0: f861 49be f42a 33be f89c 99be 8cae ed3e
00000100: 52d3 e83e 4abc cfbe 1490 c8be 5c9d 98be
00000110: 80d6 9f3c 084f f7be aa3b 80be 0e13 c53e
00000120: aee3 ae3e 80c9 b43d 3014 3dbd f022 883e
00000130: 90ad b13e 48d2 bdbe 609d a03d e48d b2be
00000140: 0096 5ebd 4242 c73e 8003 50bd ce1e e33e
00000150: d449 31be aca2 f03e a039 673d 8a45 e23e
00000160: d818 f33e 2e01 933e 542a 243e cabc 8cbe
00000170: b07c 42bd c801 8dbe 18a8 593e 7a94 d3be
00000180: 3c4c 23be b03f 823d 9283 97be c8f6 2d3e
00000190: d63e c5be 4029 d8bd 78a1 623e 00eb 923b
000001a0: 3e96 a83e eaf8 ec3e 8815 e33e 98f7 353e
000001b0: e8ea b03e 6600 f53e c2ed bfbe 10d8 42be
000001c0: 3054 5fbd 005a 853d 405d e4bd e022 6ebe
000001d0: 7ecc e0be 1045 863e e05f 73be b475 0cbe
000001e0: 8049 233c 28e0 2bbe 74ff ac3e 54a2 e63e
000001f0: 0ced f0be d0c9 5dbe d82b 3b3e 989c 0f3e
00000200: 787d f83e ec04 1d3e 342f bfbe 721c c33e
00000210: e86e c53e fae7 ab3e d817 4e3e 90da 8cbd
00000220: 448d 153e 3008 cabd 3e06 a7be d4de f1be
00000230: 84bc 67be d0f9 89bd 16ea ce3e e022 e33e
00000240: c079 4d3e c686 eb3e 787b f7bd 9467 c63e
00000250: 9efc d4be e88e ba3e 381a ae3e bef6 d83e
00000260: c0da d3be 727f bcbe 4edd 9e3e 744e 0b3e
00000270: 2272 c63e fae6 80be 3c92 a53e 44ce 663e
00000280: 1423 1a3e 78eb b83e a430 14be 8482 68be
00000290: ecfd fc3e 22e6 97be 1c93 6e3e bc3f e5be

weight_hh_l0 f4 [12, 4]
0.29102606 0.2374435 -0.4815436 -0.432644 0.41002887 -0.27134532 -0.024505854 0.012816012
0.079343915 -0.48806047 0.1558212 -0.46561188 0.1674006 -0.1254046 -0.4288481 0.37990218
-0.17038965 0.36625236 -0.42355037 0.08779687 0.15764904 0.22486013 -0.28190196 0.42124516
-0.16878718 0.34753233 -0.12323755 -0.49799198 0.3449018 0.27795428 -0.14711946 0.33385432
-0.18155241 0.43923444 -0.33355808 -0.07569921 0.40387708 -0.17094988 -0.41319364 -0.27321476
0.46041018 -0.14246291 -0.21914917 0.3559466 -0.17336202 -0.113805115 -0.21185076 -0.37066776
00000000: 5e01 953e 6424 733e e28c f6be 8483 ddbe
00000010: 4eef d13e c6ed 8abe 80c0 c8bc 40fa 513c
00000020: 107f a23d 10e3 f9be 988f 1f3e ae64 eebe
00000030: 106b 2b3e 106a 00be fa91 dbbe 8a82 c23e
00000040: a07a 2ebe 6e85 bb3e 98db d8be d8ce b33d
00000050: c06e 213e bc41 663e 7455 90be 72ad d73e
00000060: 8cd6 2cbe c2ef b13e f863 fcbd cef8 febe
00000070: f896 b03e 0650 8e3e 7ca6 16be f4ee aa3e
00000080: e0e8 39be 56e3 e03e 20c8 aabe 3008 9bbd
00000090: fac8 ce3e 7c0d 2fbe 1e8e d3be cee2 8bbe
000000a0: e2ba eb3e cce1 11be a468 60be a23e b63e
000000b0: d085 31be a812 e9bd 68ef 58be 2ac8 bdbe

bias_ih_l0 f4 [12]
0.09365702 -0.27806342 -0.036177754 0.16533786 -0.3309849 -0.36240774 -0.04301107 0.4447024
-0.39508104 -0.19688368 0.30932564 0.35161936
00000000: 40cf bf3d 545e 8ebe 202f 14bd 544e 293e
00000010: da76 a9be 828d b9be 602c 30bd 08b0 e33e
00000020: 1048 cabe e09b 49be ee5f 9e3e 7407 b43e

bias_hh_l0 f4 [12]
0.11911565 -0.19165492 -0.16580462 -0.05894631 0.46678847 0.36484075 -0.1455397 -0.12275571
-0.36737013 -0.23427051 0.4538828 0.12141597
00000000: e8f2 f33d 3041 44be b0c8 29be b071 71bd
00000010: e6fe ee3e 68cc ba3e 5c08 15be 5867 fbbd
00000020: f017 bcbe 9ce4 6fbe 5463 e83e f0a8 f83d

weight_ih_l0 f4 [3, 11]
-0.26337826 0.11764443 0.32360363 -0.4340093 -0.18181133 -0.47208095 0.8347722 0.2391144
-0.83726835 -0.09350824 0.9835143 -0.48998606 -0.37192333 0.59147406 0.46611726 -0.8463346
0.85880816 -0.22182953 -0.68579316 0.016642332 0.3465097 -0.65513456 -0.88375103 -0.081448674
0.17765355 0.12100017 -0.93056774 0.082473755 -0.4110235 -0.4097271 -0.27056694 0.56785035
-0.98447204
00000000: 84d9 86be 90ef f03d 60af a53e 7836 debe
00000010: c02c 3abe 98b4 f1be a2b3 553f 68da 743e
00000020: 3857 56bf 4081 bfbd 98c7 7b3f 74df fabe
00000030: bc6c bebe d86a 173f eca6 ee3e 62a9 58bf
00000040: dada 5b3f 4827 63be 2490 2fbf 8055 883c
00000050: b869 b13e e6b6 27bf 823d 62bf 90ce a6bd
00000060: d0ea 353e f0ce f73d b039 6ebf 00e8 a83d
00000070: ac71 d2be c0c7 d1be c087 8abe a45e 113f
00000080: 5c06 7cbf

weight_hh_l0 f4 [3, 1]
-0.32806683 -0.62144005 -0.40955448
00000000: 60f8 a7be b216 1fbf 20b1 d1be

bias_ih_l0 f4 [3]
0.7753656 -0.25566173 -0.32445765
00000000: 5c7e 463f 18e6 82be 501f a6be

bias_hh_l0 f4 [3]
0.07173097 -0.3157375 -0.49451804
00000000: b0e7 923d 58a8 a1be 7831 fdbe

weight f4 [1, 4]
-0.33705962 0.31302 0.27863348 -0.26780432
00000000: 1493 acbe 2844 a03e 0ca9 8e3e a61d 89be

weight f4 [200, 5]
0.13452858 0.4332239 -0.09899342 -0.08714318 0.20953512 -0.31786713 -0.34764153 -0.118041605
-0.31995642 0.3691544 0.012901664 0.298832 0.3538736 0.049350172 -0.26210296 -0.41262838
-0.26846623 0.052879572 -0.17806897 0.3784657 -0.20789948 0.2797591 0.22924727 -0.011095345
0.1430164 -0.12665218 0.09887588 -0.25942558 0.14176732 -0.19317028 -0.15166792 -0.09340766
0.28407997 -0.41147646 -0.32620114 -0.29763415 0.16343433 0.4117896 0.40715367 -0.06499848
-0.20647578 -0.31771737 -0.40551758 -0.34376836 0.3528068 0.07079291 0.30093074 -0.14857543
-0.012821764 0.047200054 0.41719395 -0.11783278 -0.17259222 -0.15259641 0.097269654 0.09281105
-0.1626975 -0.41366023 -0.3185026 -0.13725904 -0.38322508 0.20039713 0.30172575 0.14456105
0.17889601 0.0677371 -0.12468764 0.19637209 0.26388782 -0.4088193 -0.2895947 -0.40773705
0.03800571 -0.3074408 0.017343462 -0.37462172 -0.2811497 -0.040543675 0.30242407 -0.061161578
-0.3598352 0.22009689 0.03191325 -0.08079949 0.1421578 0.20265138 -0.3511231 0.4108153
0.2668591 0.41345847 -0.16602907 0.35009575 0.10804188 0.1933347 -0.3149902 -0.36574024
-0.044620812 0.02641961 -0.13884795 -0.3319791 0.14690906 0.2925436 0.09815395 -0.38344517
0.10596585 0.40885603 0.39883184 -0.06251937 -0.35623115 -0.44690913 0.14916974 -0.076456636
-0.0431298 -0.23146355 -0.2849741 -0.1391074 0.035333723 -0.37024617 0.33017105 0.2438227
-0.26483196 0.39589536 -0.16044596 -0.41255268 -0.36788535 0.32260102 0.050753832 -0.14700249
0.36795962 0.04997617 -0.068253726 -0.08540708 0.10389966 0.1857481 -0.12550539 -0.1219652
0.36745942 0.21036947 0.17603779 0.08971828 0.14793569 -0.23683494 0.3833521 -0.28380144
-0.17151573 -0.4239149 -0.27335918 -0.24102895 0.20422012 0.006660223 0.37622923 0.0011463761
0.058380187 -0.36122137 0.22284365 0.1999104 0.18012267 -0.27287912 -0.2999134 -0.3236081
0.064896286 -0.047620326 0.37810183 -0.34013715 0.14725977 0.28644025 0.28133374 0.21960574
0.029891878 -0.10178468 -0.37036964 0.36351418 -0.04274109 0.04623875 -0.10117543 -0.23775266
-0.025491834 -0.4365835 -0.15710679 -0.13304886 -0.002243787 0.27446336 -0.35789764 -0.031547904
-0.30362087 0.08114737 -0.04644355 -0.41827747 -0.13920882 -0.34121928 -0.307504 0.42363644
-0.19087097 -0.4228621 0.2776764 0.17095959 -0.22546893 -0.26242363 0.38044572 -0.30012482
0.104776144 0.15611857 -0.14626387 -0.35773885 0.21509689 0.018365443 -0.067551225 -0.42800805
0.23674136 -0.38764477 0.06400174 -0.44455475 -0.3305234 0.30888653 -0.25572282 0.02336526
0.44079846 -0.12070817 0.34349227 -0.17787832 -0.38484937 0.37487513 0.13932914 -0.159417
0.17904913 0.18393165 0.30614167 -0.19298756 -0.33100736 -0.017139375 0.13206142 0.18091446
-0.36845905 0.06352484 0.441041 0.23831588 -0.2482772 0.30736458 -0.3191666 -0.05185303
-0.2766713 0.2419585 0.29202622 -0.31403893 0.17257404 0.18378454 -0.3907517 0.24147975
0.19803214 0.044366002 0.40433186 0.2895168 -0.0139659345 -0.15677598 -0.26102483 -0.0953891
00000000: dcc1 093e 86cf dd3e 10bd cabd 2078 b2bd
00000010: 6090 563e 7bbf a2be 12fe b1be ccbf f1bd
00000020: 54d1 a3be ce01 bd3e 8061 533c 8200 993e
00000030: ec2e b53e 6823 4a3d 5c32 86be 0744 d3be
00000040: 6874 89be 4098 583d b657 36be 42c6 c13e
00000050: 9ae3 54be 963c 8f3e ccbf 6a3e 40c9 35bc
00000060: e472 123e 1cb1 01be 707f ca3d 6ed3 84be
00000070: 742b 113e 6ece 45be d64e 1bbe 844c bfbd
00000080: ee72 913e 0bad d2be d603 a7be 8163 98be
00000090: 545b 273e 16d6 d23e 7276 d03e ec1d 85bd
000000a0: 636e 53be daab a2be 00a0 cfbe 6802 b0be
000000b0: 18a3 b43e e0fb 903d 9813 9a3e 2824 18be
000000c0: 6012 52bc d854 413d 729a d53e 5052 f1bd
000000d0: 04bc 30be 3c42 1cbe 5035 c73d b813 be3d
000000e0: 2c9a 26be 46cb d3be c612 a3be a28d 0cbe
000000f0: 1436 c4be e834 4d3e cc7b 9a3e d007 143e
00000100: 8430 373e c0b9 8a3d 3c5c ffbd c415 493e
00000110: 4e1c 873e c350 d1be c245 94be e9c2 d0be
00000120: e0ab 1b3d e168 9dbe e013 8e3c 6bce bfbe
00000130: daf2 8fbe 2011 26bd 54d7 9a3e 9084 7abd
00000140: 523c b8be 1461 613e 78b7 023d 347a a5bd
00000150: d091 113e d883 4f3e 68c6 b3be 6256 d23e
00000160: c2a1 883e d4b0 d33e 8603 2abe c03f b33e
00000170: 1045 dd3d 88f9 453e 6546 a1be 4e42 bbbe
00000180: 50c4 36bd f06d d83c 282e 0ebe 2af9 a9be
00000190: 546f 163e 46c8 953e f004 c93d ed52 c4be
000001a0: a004 d93d 9455 d13e b033 cc3e 280a 80bd
000001b0: ee63 b6be 46d1 e4be f4bf 183e 4c95 9cbd
000001c0: e0a8 30bd c804 6dbe 20e8 91be 2c72 0ebe
000001d0: 18ba 103d e890 bdbe 2e0c a93e a8ac 793e
000001e0: 0e98 87be ccb2 ca3e f24b 24be 1b3a d3be
000001f0: 785b bcbe f62b a53e 40e3 4f3d d287 16be
00000200: 3465 bc3e d0b3 4c3d 9cc8 8bbd e8e9 aebd
00000210: 58c9 d43d c034 3e3e 7c84 00be e4c8 f9bd
00000220: a423 bc3e 186b 573e 4043 343e 38be b73d
00000230: 747c 173e dc84 72be ba46 c43e 6c4e 91be
00000240: d2a1 2fbe 600b d9be bcf5 8bbe 4bd0 76be
00000250: 141f 513e 003e da3b 1ea1 c03e 0042 963a
00000260: 1020 6f3d 02f2 b8be 2031 643e 50b5 4c3e
00000270: 1472 383e d0b6 8bbe 408e 99be f6af a5be
00000280: 58e8 843d 880d 43bd 9096 c13e 7526 aebe
00000290: 44cb 163e 4ca8 923e fa0a 903e 54e0 603e
000002a0: d0df f43c 7c74 d0bd 17a1 bdbe 881e ba3e
000002b0: 4811 2fbd d864 3d3d 1035 cfbd 6f75 73be
000002c0: 40d4 d0bc df87 dfbe 9ae0 20be f63d 08be
000002d0: 800c 13bb 7686 8c3e 5c3e b7be 6038 01bd
000002e0: 3274 9bbe 9830 a63d 983b 3ebd 7728 d6be
000002f0: c28c 0ebe 4bb4 aebe 2a71 9dbe e0e6 d83e
00000300: ae73 43be 6281 d8be 9a2b 8e3e 0810 2f3e
00000310: 54e1 66be 645c 86be c8c9 c23e f6a9 99be
00000320: e094 d63d 8cdd 1f3e 32c6 15be 8c29 b7be
00000330: 5c42 5c3e 2073 963c 4c58 8abd df23 dbbe
00000340: 546c 723e 6079 c6be 5813 833d ae9c e3be
00000350: 5d3a a9be 6026 9e3e 1aee 82be 8068 bf3c
00000360: 56b0 e13e d835 f7bd 38de af3e bc25 36be
00000370: fa0a c5be a2ef bf3e 4cac 0e3e 363e 23be
00000380: a858 373e 9458 3c3e 9abe 9c3e 889e 45be
00000390: cc79 a9be e067 8cbc 1c3b 073e a441 393e
000003a0: aaa6 bcbe 5019 823d 20d0 e13e 1409 743e
000003b0: 613c 7ebe e45e 9d3e ce69 a3be d863 54bd
000003c0: dca7 8dbe f8c3 773e 7684 953e b6c9 a0be
000003d0: 40b7 303e 0432 3c3e 9b10 c8be 7846 773e
000003e0: f0c8 4a3e 20b9 353d 9604 cf3e 8c3b 943e
000003f0: 60d1 64bc e289 20be 0ca5 85be 5c5b c3bd

bias f4 [200]
0.3688621 -0.11567733 -0.034285218 -0.21169902 -0.19320396 -0.17855349 -0.3864115 -0.11039773
-0.33124152 0.41147292 -0.19424215 0.25784773 -0.34061024 -0.35754085 -0.28280216 -0.44554576
-0.10406661 -0.4292903 -0.1324546 -0.04820168 0.36628497 0.3735528 0.045724392 -0.14887583
0.21847159 -0.3964669 -0.27681303 0.22336686 -0.34209156 0.42299253 -0.12725642 -0.38770357
-0.20933218 0.3365929 -0.23012882 -0.12142727 0.33075207 0.063770235 0.44127333 0.021246374
-0.16227356 -0.26161736 0.12137288 -0.32886517 0.19837916 0.20759696 0.2761963 -0.24945976
-0.2618041 -0.16478726 -0.15999255 -0.15757123 0.3454643 0.37686163 -0.07102281 0.229577
-0.39348856 0.025295645 0.084441006 -0.16995725 0.4033494 -0.017376572 -0.32727617 0.1231364
-0.080771 0.27943128 -0.39753005 0.36959887 -0.42120638 -0.106769085 0.09314668 0.16683656
0.15112269 -0.2968288 -0.20176065 -0.42605224 0.1083107 -0.024988025 -0.06533104 0.40869915
0.29489833 -0.30087554 -0.12063661 0.026592672 -0.4145458 -0.14229906 -0.41281694 -0.042855144
0.15618938 0.03462398 0.26065272 -0.39448646 0.102684915 0.26414162 0.09163171 0.28437382
-0.4162759 -0.2793332 -0.054668337 -0.33526167 -0.35897148 0.20944124 0.30188632 -0.14582446
-0.046805322 0.025456369 0.4433846 0.16224879 -0.3502175 -0.22643974 -0.07857606 -0.28655535
-0.13858923 0.15520614 -0.12580585 -0.28914893 0.25651556 -0.34249046 -0.1250442 0.35883838
0.008003831 0.18816894 -0.12677714 -0.40814495 -0.039388508 0.080390215 -0.44502583 0.3628478
0.21209413 -0.16460511 -0.29799253 -0.017808765 0.30495632 0.16100544 0.14707828 -0.14930525
0.44540745 0.3469103 0.037484646 0.094800115 0.10157913 0.3395167 -0.24763058 -0.4334634
0.08547342 -0.04181528 0.04255268 -0.14967886 0.36431807 0.00027951598 0.27333266 -0.39752328
0.23046696 -0.26481724 0.34884602 0.37031955 -0.1723226 0.31359375 -0.2769314 0.20855361
-0.0987933 0.37291592 -0.22736487 -0.4234046 -0.42563853 0.16678804 -0.07527998 0.28308135
-0.23914565 0.35314208 -0.412911 0.08217269 -0.25397778 0.2922749 0.40774834 -0.20830588
0.036961526 -0.27403235 0.20970368 0.060839295 -0.08174309 0.08996582 -0.21159245 0.079405844
-0.31644702 0.019754648 -0.31913206 0.34328526 -0.3839349 -0.39901388 -0.41938835 -0.2585876
-0.20978592 -0.34692746 -0.1400334 0.16970795 0.27893066 -0.26473916 0.31414694 -0.34636068
00000000: 7edb bc3e 3ce8 ecbd a86e 0cbd a1c7 58be
00000010: 42d7 45be bad6 36be bad7 c5be 3418 e2bd
00000020: 7d98 a9be 94ac d23e 6ae7 46be 9e04 843e
00000030: 7764 aebe 980f b7be 72cb 90be 931e e4be
00000040: e020 d5bd f0cb dbbe 2ea2 07be 206f 45bd
00000050: b489 bb3e 5042 bf3e 8049 3b3d e872 18be
00000060: 04b7 5f3e b6fd cabe 70ba 8dbe 48ba 643e
00000070: a026 afbe 7a92 d83e 824f 02be 1581 c6be
00000080: 2d5b 56be e855 ac3e e4a6 6bbe dcae f8bd
00000090: 5658 a93e f899 823d 94ee e13e e00c ae3c
000000a0: 0a2b 26be b6f2 85be 5892 f83d 0461 a8be
000000b0: e823 4b3e 4c94 543e 9a69 8d3e 6172 7fbe
000000c0: 300b 86be febd 28be 16d5 23be 5a5a 21be
000000d0: b2e0 b03e 02f4 c03e 6874 91bd 3c16 6b3e
000000e0: 5577 c9be d038 cf3c 68ef ac3d 4609 2ebe
000000f0: d083 ce3e 5059 8ebc be90 a7be f02e fc3d
00000100: 446b a5bd 9e11 8f3e 0f89 cbbe 103c bd3e
00000110: 5da8 d7be c0a9 dabd b0c3 be3d 34d7 2a3e
00000120: e8bf 1a3e f2f9 97be 589a 4ebe 8523 dabe
00000130: 00d2 dd3d b0b3 ccbc 48cc 85bd 0441 d13e
00000140: eafc 963e 5c0c 9abe 5410 f7bd e0d8 d93c
00000150: 593f d4be d8b6 11be be5c d3be e088 2fbd
00000160: 1cf0 1f3e e0d1 0d3d 4674 853e 21fa c9be
00000170: 784c d23d 923d 873e 68a9 bb3d 7299 913e
00000180: 1d22 d5be c304 8fbe e8eb 5fbd 6ba7 abbe
00000190: 1ccb b7be c477 563e d890 9a3e 0253 15be
000001a0: f0b6 3fbd e089 d03c 4e03 e33e 8c24 263e
000001b0: b54f b3be d2df 67be 7cec a0bd 62b7 92be
000001c0: 56ea 0dbe 5cee 1e3e 40d3 00be 540b 94be
000001d0: 0256 833e e95a afbe 960b 00be aab9 b73e
000001e0: 8022 033c 5caf 403e ded1 01be 60f8 d0be
000001f0: d855 21bd a0a3 a43d 6dda e3be 30c7 b93e
00000200: 342f 593e 3e8e 28be 7a92 98be b0e3 91bc
00000210: 3c23 9c3e 9cde 243e b09b 163e 7ae3 18be
00000220: 720c e43e 3a9e b13e 8089 193d 9026 c23d
00000230: b808 d03d 22d5 ad3e df92 7dbe eaee ddbe
00000240: b00c af3d 8046 2bbd b84b 2e3d 6a45 19be
00000250: e687 ba3e 008c 9239 42f2 8b3e 2c88 cbbe
00000260: 88ff 6b3e 2096 87be f29b b23e 869a bd3e
00000270: 5675 30be 5c8f a03e f4c9 8dbe 148f 553e
00000280: 2454 cabd d6ee be3e 56d2 68be 7dc8 d8be
00000290: 4bed d9be 7cca 2a3e 642c 9abd 0af0 903e
000002a0: 99e2 74be 0acf b43e 1269 d3be 284a a83d
000002b0: 6009 82be 0ea5 953e 64c4 d03e 234e 55be
000002c0: f864 173d f84d 8cbe 90bc 563e a032 793d
000002d0: ec68 a7bd 0040 b83d b1ab 58be 889f a23d
000002e0: 5805 a2be 80d4 a13c 4765 a3be 16c3 af3e
000002f0: 1d93 c4be 8c4b ccbe 12ba d6be 9865 84be
00000300: 1fd2 56be 7aa0 b1be ea64 0fbe ecc7 2d3e
00000310: 00d0 8e3e e48b 87be ded7 a03e 3056 b1be

weight f4 [2, 200]
0.02008368 -0.0018133372 -0.019550264 -0.049015507 -0.06967039 -0.008796155 -0.005934909 0.06355765
-0.006036073 -0.0067306757 -0.02300391 0.0011089742 -0.067716375 0.016916327 -0.05843145 0.02375964
-0.036623463 -0.06277933 0.0012219623 0.035466805 0.06637908 -0.010297563 0.020892538 0.015032113
-0.010257222 -0.03914249 -0.0037204772 0.023994267 -0.030450348 0.0053484514 0.03290286 -0.013957452
-0.033160232 0.052920938 0.0027116612 -0.013814472 -0.068490475 0.06371728 0.03575404 0.041305438
0.00033596903 -0.011030994 0.034464292 -0.034402207 0.03827676 0.02968131 0.024248734 -0.022925138
0.02414339 0.018832728 0.045551717 0.03170935 -0.06439876 0.032775097 -0.037986957 0.031272896
-0.0072559193 0.039293006 0.021109186 0.017503113 -0.004772298 -0.013127774 0.0017079264 0.067549415
-0.049475953 0.03644713 -0.04684845 -0.02198372 -0.054321468 0.07025079 0.049355894 -0.033699375
-0.03964509 0.042502016 -0.0053148046 0.019362956 -0.018830858 -0.070519194 -0.021855824 0.06959229
-0.022647426 0.06743025 0.06184385 0.03188011 -0.06551026 -0.051637452 0.05484139 -0.008127339
-0.002260469 -0.01128551 -0.01837026 0.069634594 0.017833918 -0.037322097 0.020751819 -0.02143469
-0.0374732 -0.0074636564 0.007988527 0.022360422 -0.017794728 -0.048913285 0.046608903 0.04827232
-0.02945226 -0.039103705 -0.065185 0.06324581 -0.052106015 0.019672558 -0.01866538 0.008416213
0.056283854 0.05359675 -0.021927807 -0.037780184 0.04550156 -0.066922285 -0.0057098716 0.045878932
-6.0871243e-06 -0.045592617 -0.017241862 -0.069893666 -0.056653924 0.044655122 0.02210275 -0.031168312
-0.005588576 -0.042399198 -0.05151473 -0.037747316 0.03282436 -0.053533852 0.04808964 0.024297133
0.017659806 -0.054105297 0.023587883 0.04233224 -0.030516434 -0.070048735 -0.051954247 0.067976646
0.00823579 -0.03629381 0.015177749 -0.0438816 0.06527772 0.057551928 -0.057834785 0.022229575
-0.04486227 -0.054149285 0.029721789 0.020695783 -0.04638717 -0.023686647 0.010972723 -0.028318014
-0.052678563 0.06524285 -0.004477404 -0.064128436 0.04099247 0.032586455 0.056887276 -0.032184456
-0.04754974 0.03643494 -0.01112289 0.017670877 -0.035476975 0.023526624 0.0085563585 -0.011247572
-0.007968888 0.0035565048 -0.02500131 0.04736311 0.019075193 0.028470315 -0.027177941 0.014271691
0.06791759 0.048942663 0.038833335 -0.02578934 0.007815242 0.02311071 -0.043571692 -0.042294286
0.027140386 0.06357772 -0.05555169 -0.054503925 -0.011440188 -0.051454216 0.05469308 0.022038788
0.06322757 0.0684435 0.0084396005 -0.017330877 -0.022769026 -0.030642059 -0.02123842 -0.03652432
0.015180096 0.058266513 -0.0069531873 -0.0025506318 0.040606372 -0.039734222 0.0025866702 0.007922538
0.05375211 0.03336911 -0.026904162 -0.056485005 -0.06895541 -0.021384872 0.033584297 0.0537368
0.06602617 0.009965397 -0.009837225 -0.052720383 0.054066107 -0.0014874935 0.070281826 0.035531893
-0.033880066 0.01250463 0.033757485 -0.042726025 0.007265441 0.026442073 -0.058142003 0.014054291
0.069099225 0.049360126 -0.011516005 0.06881172 0.06354912 0.005271271 0.0007721782 -0.021157838
0.070328005 -0.0036884025 0.048147634 0.06803497 0.016400352 0.03707251 0.03831459 -0.0253779
00000000: 8886 a43c 80ad edba e027 a0bc 7cc4 48bd
00000010: 59af 8ebd c01d 10bc a079 c2bb 832a 823d
00000020: 40ca c5bb 008d dcbb b272 bcbc 005b 913a
00000030: e2ae 8abd 1c94 8a3c d155 6fbd 94a3 c23c
00000040: 7c02 16bd 7392 80bd 402a a03a a445 113d
00000050: c1f1 873d 1cb7 28bc d426 ab3c 4049 763c
00000060: e80d 28bc e053 20bd 40d3 73bb a08f c43c
00000070: 0273 f9bc 1042 af3b 26c5 063d ccad 64bc
00000080: 06d3 07bd a0c3 583d 20b6 313b 1856 62bc
00000090: bc44 8cbd 357e 823d d472 123d e42f 293d
000000a0: 0025 b039 58bb 34bc 6e2a 0d3d 54e9 0cbd
000000b0: 18c8 1c3d 3826 f33c 48a5 c63c 80cd bbbc
000000c0: 5cc8 c53c 1847 9a3c 7094 3a3d aae1 013d
000000d0: 7fe3 83bd 2e3f 063d 3698 1bbd 0218 003d
000000e0: 10c3 edbb b4f1 203d 2ced ac3c b062 8f3c
000000f0: f060 9cbb e015 57bc 80dc df3a 5957 8a3d
00000100: 4ca7 4abd 9649 153d 29e4 3fbd 3417 b4bc
00000110: 3080 5ebd a5df 8f3d 6829 4a3d 5b08 0abd
00000120: e462 22bd 9816 2e3d d027 aebb 109f 9e3c
00000130: 2c43 9abc 5e6c 90bd fc0a b3bc 6786 8e3d
00000140: 1887 b9bc df18 8a3d fa4f 7d3d b894 023d
00000150: 3e2a 86bd cb81 53bd 5ea1 603d 8828 05bc
00000160: 6024 14bb dce6 38bc 3a7d 96bc 959c 8e3d
00000170: 7018 923c 0edf 18bd b8ff a93c ce97 afbc
00000180: 807d 19bd b091 f4bb 50e2 023c 342d b73c
00000190: 40c6 91bc 4c59 48bd fae8 3e3d 32b9 453d
000001a0: de45 f1bc 352b 20bd b77f 85bd 0587 813d
000001b0: 1e6d 55bd 5828 a13c 24e8 98bc 28e4 093c
000001c0: e689 663d 4488 5b3d f2a1 b3bc 65bf 1abd
000001d0: d85f 3a3d 8d0e 89bd e019 bbbb 8ceb 3b3d
000001e0: 0040 ccb6 53bf 3abd ce3e 8dbc 6924 8fbd
000001f0: f20d 68bd 4ae8 363d d410 b53c b054 ffbc
00000200: 6020 b7bb c8aa 2dbd 1c01 53bd ee9c 1abd
00000210: d672 063d 5046 5bbd a4f9 443d c80a c73c
00000220: 4cab 903c 849d 5dbd 603b c13c 9264 2d3d
00000230: 9afd f9bc b675 8fbd facd 54bd 5737 8b3d
00000240: 68ef 063c d1a8 14bd 18ac 783c 31bd 33bd
00000250: 53b0 853d 92bb 6b3d 2be4 6cbd cc1a b63c
00000260: 80c1 37bd a4cb 5dbd 1c7b f33c 348a a93c
00000270: 7900 3ebd 800a c2bc f0c6 333c 2efb e7bc
00000280: 7ac5 57bd 0b9e 853d 30b7 92bb c555 83bd
00000290: b8e7 273d 6079 053d a202 693d d9d3 03bd
000002a0: 84c3 42bd ce3c 153d c83c 36bc 84c2 903c
000002b0: 4e50 11bd e8ba c03c f82f 0c3c bc47 38bc
000002c0: f08f 02bc 4014 693b 8ccf ccbc d2ff 413d
000002d0: 9443 9c3c 943a e93c 46a4 debc d0d3 693c
000002e0: 6118 8b3d 1a78 483d b40f 1f3d 2a44 d3bc
000002f0: 800b 003c ac52 bd3c 3b78 32bd c63c 2dbd
00000300: 8455 de3c 0935 823d 2b8a 63bd 823f 5fbd
00000310: a06f 3bbc a8c1 52bd da05 603d b08a b43c
00000320: 757d 813d 1b2c 8c3d 4046 0a3c 7cf9 8dbc
00000330: 1c86 babc 0e05 fbbc 32fc adbc 869a 15bd
00000340: f0b5 783c dea8 6e3d 90d7 e3bb 8028 27bb
00000350: de52 263d 5ac0 22bd 2085 293b 88cd 013c
00000360: 2c2b 5c3d 0cae 083d 1e66 dcbc d25c 67bd
00000370: 7e38 8dbd 542f afbc b08f 093d 1e1b 5c3d
00000380: bb38 873d e845 233c 502c 21bc 54f1 57bd
00000390: 6c74 5d3d 00f8 c2ba ebef 8f3d e489 113d
000003a0: d3c5 0abd 38e0 4c3c 4a45 0a3d 7c01 2fbd
000003b0: f012 ee3b 0c9d d83c 4f26 6ebd f843 663c
000003c0: e583 8d3d d82d 4a3d a0ad 3cbc 29ed 8c3d
000003d0: 0b26 823d a0ba ac3b 006c 4a3a 3453 adbc
000003e0: 2108 903d 20b9 71bb 7436 453d eb55 8b3d
000003f0: 085a 863c 58d9 173d c2ef 1c3d 50e5 cfbc

bias f4 [2]
0.035535395 0.012661479
00000000: 908d 113d 1872 4f3c

weight f4 [4, 3]
0.5743519 0.33076876 -0.1606285 -0.51541245 -0.47509068 -0.3033338 0.39939052 -0.4341812
0.057422042 0.038820624 -0.49056315 -0.33342734
00000000: ba08 133f 865a a93e cc7b 24be 12f2 03bf
00000010: 163f f3be 914e 9bbe ea7c cc3e 004d debe
00000020: 6033 6b3d 6002 1f3d 182b fbbe fdb6 aabe

bias f4 [4]
-0.47405878 -0.53096646 -0.44503945 0.36092532
00000000: d5b7 f2be 6bed 07bf 36dc e3be 34cb b83e

weight f4 [4, 8]
0.23094305 0.14953849 -0.25663024 -0.13022217 0.07506409 0.14810339 -0.18863314 0.1482
-0.337623 -0.17756277 0.31864026 0.2710053 -0.2544042 -0.24867222 -0.15787303 0.34421906
-0.118202895 -0.022270173 -0.24723265 -0.16777813 0.28221926 -0.2176526 0.093844384 -0.25054148
0.105661005 0.2527527 -0.30432937 -0.22597598 -0.0585472 -0.19910154 0.049620748 0.060127884
00000000: 567c 6c3e 9e20 193e 0a65 83be f658 05be
00000010: 34bb 993d 6aa8 173e 0c29 41be bec1 173e
00000020: ecdc acbe 04d3 35be d124 a33e 35c1 8a3e
00000030: 4441 82be eea3 7ebe 78a9 21be 7b3d b03e
00000040: 5c14 f2bd f06f b6bc 8e2a 7dbe 08ce 2bbe
00000050: 0b7f 903e 53e0 5ebe 7c31 c03d f946 80be
00000060: cc64 d83d cd68 813e 0fd1 9bbe 3f66 67be
00000070: 30cf 6fbd 46e1 4bbe 203f 4b3d a848 763d

bias f4 [4]
0.14892551 0.2859238 0.27003017 0.07643339
00000000: ee7f 183e 9b64 923e 6541 8a3e 1c89 9c3d

weight f4 [10, 2]
0.63592297 -0.03794849 -0.3801613 -0.034558713 0.088896394 -0.018503785 -0.59991527 -0.5263599
0.59750515 -0.12699562 0.18582058 -0.13833773 -0.48548204 0.3653546 -0.4789657 0.27495998
-0.3364469 -0.56839746 0.699024 0.30661517
00000000: d9cb 223f e06f 1bbd 80a4 c2be 708d 0dbd
00000010: 500f b63d 4095 97bc 0c94 19bf 86bf 06bf
00000020: 19f6 183f 240b 02be c047 3e3e 68a8 0dbe
00000030: 1a91 f8be c20f bb3e fe3a f5be 8ec7 8c3e
00000040: c542 acbe 7f82 11bf 3df3 323f aafc 9c3e

bias f4 [10]
0.3363158 0.52302283 -0.1457268 0.4443006 0.52135414 0.1756894 0.65475065 0.30534214
0.51868707 -0.16362375
00000000: 9631 ac3e d3e4 053f 6839 15be 5e7b e33e
00000010: 7777 053f ece7 333e bd9d 273f ce55 9c3e
00000020: adc8 043f fc8c 27be

weight f4 [10, 2]
0.28353482 -0.16014123 -0.39008206 -0.06374186 0.555383 -0.50383115 0.519172 0.33253115
0.40473813 0.54960614 0.60940176 -0.05662 -0.054513574 -0.097302735 0.664149 -0.21183798
-0.4042702 0.49329418 0.43665892 0.20606107
00000000: 7a2b 913e 10fc 23be d6b8 c7be 188b 82bd
00000010: 952d 0e3f 14fb 00bf 75e8 043f 8641 aa3e
00000020: d639 cf3e fdb2 0c3f c101 1c3f 60ea 67bd
00000030: a049 5fbd a846 c7bd ab05 2a3f 0eec 58be
00000040: 81fc cebe 0e91 fc3e c291 df3e ac01 533e

bias f4 [10]
-0.28339103 -0.33676764 -0.5277555 -0.40429735 -0.09456229 -0.63642097 0.4610923 0.5557292
0.56933814 -0.45499176
00000000: a118 91be cf6c acbe fc1a 07bf 1000 cfbe
00000010: e0a9 c1bd 7cec 22bf 4a14 ec3e 4544 0e3f
00000020: 25c0 113f aef4 e8be

weight f4 [10, 2]
-0.11973959 -0.68463147 0.58273286 -0.23305681 -0.35857654 0.28739262 0.052991807 -0.01982385
-0.05784571 0.51009053 0.104025304 -0.31283364 -0.29044616 -0.052612662 0.54514414 -0.51361465
-0.4126662 0.66626173 -0.46018982 -0.5006192
00000000: 083a f5bd 0244 2fbf fb2d 153f 72a6 6ebe
00000010: 5897 b7be 2025 933e f00d 593d a065 a2bc
00000020: a0ef 6cbd 4b95 023f 380b d53d bb2b a0be
00000030: 5cb5 94be 6080 57bd 918e 0b3f 407c 03bf
00000040: fc48 d3be 2190 2a3f 009e ebbe 9428 00bf

bias f4 [10]
0.5185295 -0.22595903 -0.24576384 0.45160323 0.015951395 0.56563944 0.21591419 0.020318508
0.57557553 1.8656254e-05
00000000: 59be 043f ce61 67be 84a9 7bbe 8a38 e73e
00000010: 80ac 823c bfcd 103f 9c18 5d3e 0073 a63c
00000020: eb58 133f 0080 9c37

F f4 [2, 2]
1.0 0.01 0.0 1.0
00000000: 0000 803f 0ad7 233c 0000 0000 0000 803f

Q f4 [2, 2]
3.3333333e-07 5e-05 5e-05 0.01
00000000: fcf4 b234 17b7 5138 17b7 5138 0ad7 233c

H f4 [1, 2]
1.0 0.0
00000000: 0000 803f 0000 0000

prior_Q f4 [2, 2]
1.0 0.0 0.0 1.0
00000000: 0000 803f 0000 0000 0000 0000 0000 803f

prior_Sigma f4 [2, 2]
0.0 0.0 0.0 0.0
00000000: 0000 0000 0000 0000 0000 0000 0000 0000

m1x_0 f4 [2]
35.14311 -1.0582786
00000000: 8b92 0c42 ac75 87bf

m2x_0 f4 [2, 2]
0.0 0.0 0.0 0.0
00000000: 0000 0000 0000 0000 0000 0000 0000 0000

h_S f4 [1, 500, 1]
nan -0.93184644 -0.93184644 -0.93184644 -0.93184644 -0.93184644 -0.93184644 -0.93184644
-0.93184644 -0.93184644 -0.93184644 -0.93184644 -0.93184644 -0.93184644 -0.93184644 -0.93184644
-0.93184644 -0.93184644 -0.93184644 -0.93184644 -0.93184644 -0.93184644 -0.93184644 -0.93184644
-0.4428956 -0.4428956 -0.4428956 -0.4428956 -0.4428956 -0.4428956 -0.4428956 -0.4428956
-0.4428956 -0.4428956 -0.4428956 -0.4428956 -0.4428956 -0.4428956 -0.4428956 -0.4428956
-0.4428956 -0.4428956 -0.4428956 -0.4428956 -0.4428956 -0.4428956 -0.4428956 -0.4428956
-0.4428956 -0.4428956 -0.4428956 -0.4428956 -0.4428956 -0.4428956 -0.4428956 -0.4428956
-0.4428956 -0.4428956 -0.4428956 -0.4428956 -0.4428956 -0.4428956 -0.4428956 -0.4428956
-0.4428956 -0.4428956 -0.4428956 -0.4428956 -0.4428956 -0.4428956 -0.4428956 -0.4428956
-0.4428956 -0.4428956 -0.4428956 -0.4428956 -0.4428956 -0.4428956 -0.4428956 -0.4428956
-0.4428956 -0.4428956 -0.4428956 -0.4428956 -0.4428956 -0.4428956 -0.4428956 -0.4428956
-0.4428956 -0.4428956 -0.4428956 -0.4428956 -0.4428956 -0.4428956 -0.4428956 -0.4428956
-0.4428956 -0.4428956 -0.4428956 -0.4428956 -0.4428956 -0.4428956 -0.4428956 -0.4428956
-0.4428956 -0.4428956 -0.4428956 -0.4428956 -0.4428956 -0.4428956 -0.4428956 -0.4428956
-0.4428956 -0.4428956 -0.4428956 -0.4428956 -0.4428956 -0.4428956 -0.4428956 -0.4428956
-0.4428956 -0.4428956 -0.4428956 -0.4428956 -0.4428956 -0.4428956 -0.4428956 -0.4428956
-0.4428956 -0.4428956 -0.4428956 -0.4428956 -0.4428956 -0.4428956 -0.4428956 -0.4428956
-0.4428956 -0.4428956 -0.4428956 -0.4428956 -0.4428956 -0.4428956 -0.4428956 -0.4428956
-0.4428956 -0.4428956 -0.4428956 -0.4428956 -0.4428956 -0.4428956 -0.4428956 -0.4428956
-0.4428956 -0.4428956 -0.4428956 -0.4428956 -0.4428956 -0.4428956 -0.4428956 -0.4428956
-0.4428956 -0.4428956 -0.4428956 -0.4428956 -0.4428956 -0.4428956 -0.4428956 -0.4428956
-0.4428956 -0.4428956 -0.4428956 -0.4428956 -0.4428956 -0.4428956 -0.4428956 -0.4428956
-0.4428956 -0.4428956 -0.4428956 -0.4428956 -0.4428956 -0.4428956 -0.4428956 -0.4428956
-0.4428956 -0.4428956 -0.4428956 -0.4428956 -0.4428956 -0.4428956 -0.4428956 -0.4428956
-0.4428956 -0.4428956 -0.4428956 -0.4428956 -0.4428956 -0.4428956 -0.4428956 -0.4428956
-0.4428956 -0.4428956 -0.4428956 -0.4428956 -0.4428956 -0.4428956 -0.4428956 -0.4428956
-0.4428956 -0.4428956 -0.4428956 -0.4428956 -0.4428956 -0.4428956 -0.4428956 -0.4428956
-0.4428956 -0.4428956 -0.4428956 -0.4428956 -0.4428956 -0.4428956 -0.4428956 -0.4428956
-0.4428956 -0.4428956 -0.4428956 -0.4428956 -0.4428956 -0.4428956 -0.4428956 -0.4428956
-0.4428956 -0.4428956 -0.4428956 -0.4428956 -0.4428956 -0.4428956 -0.4428956 -0.4428956
-0.4428956 -0.4428956 -0.4428956 -0.4428956 -0.4428956 -0.4428956 -0.4428956 -0.4428956
-0.4428956 -0.4428956 -0.4428956 -0.4428956 -0.4428956 -0.4428956 -0.4428956 -0.4428956
00000000: 0000 c07f 7d8d 6ebf 7d8d 6ebf 7d8d 6ebf
00000010: 7d8d 6ebf 7d8d 6ebf 7d8d 6ebf 7d8d 6ebf
00000020: 7d8d 6ebf 7d8d 6ebf 7d8d 6ebf 7d8d 6ebf
00000030: 7d8d 6ebf 7d8d 6ebf 7d8d 6ebf 7d8d 6ebf
00000040: 7d8d 6ebf 7d8d 6ebf 7d8d 6ebf 7d8d 6ebf
00000050: 7d8d 6ebf 7d8d 6ebf 7d8d 6ebf 7d8d 6ebf
00000060: 36c3 e2be 36c3 e2be 36c3 e2be 36c3 e2be
00000070: 36c3 e2be 36c3 e2be 36c3 e2be 36c3 e2be
00000080: 36c3 e2be 36c3 e2be 36c3 e2be 36c3 e2be
00000090: 36c3 e2be 36c3 e2be 36c3 e2be 36c3 e2be
000000a0: 36c3 e2be 36c3 e2be 36c3 e2be 36c3 e2be
000000b0: 36c3 e2be 36c3 e2be 36c3 e2be 36c3 e2be
000000c0: 36c3 e2be 36c3 e2be 36c3 e2be 36c3 e2be
000000d0: 36c3 e2be 36c3 e2be 36c3 e2be 36c3 e2be
000000e0: 36c3 e2be 36c3 e2be 36c3 e2be 36c3 e2be
000000f0: 36c3 e2be 36c3 e2be 36c3 e2be 36c3 e2be
00000100: 36c3 e2be 36c3 e2be 36c3 e2be 36c3 e2be
00000110: 36c3 e2be 36c3 e2be 36c3 e2be 36c3 e2be
00000120: 36c3 e2be 36c3 e2be 36c3 e2be 36c3 e2be
00000130: 36c3 e2be 36c3 e2be 36c3 e2be 36c3 e2be
00000140: 36c3 e2be 36c3 e2be 36c3 e2be 36c3 e2be
00000150: 36c3 e2be 36c3 e2be 36c3 e2be 36c3 e2be
00000160: 36c3 e2be 36c3 e2be 36c3 e2be 36c3 e2be
00000170: 36c3 e2be 36c3 e2be 36c3 e2be 36c3 e2be
00000180: 36c3 e2be 36c3 e2be 36c3 e2be 36c3 e2be
00000190: 36c3 e2be 36c3 e2be 36c3 e2be 36c3 e2be
000001a0: 36c3 e2be 36c3 e2be 36c3 e2be 36c3 e2be
000001b0: 36c3 e2be 36c3 e2be 36c3 e2be 36c3 e2be
000001c0: 36c3 e2be 36c3 e2be 36c3 e2be 36c3 e2be
000001d0: 36c3 e2be 36c3 e2be 36c3 e2be 36c3 e2be
000001e0: 36c3 e2be 36c3 e2be 36c3 e2be 36c3 e2be
000001f0: 36c3 e2be 36c3 e2be 36c3 e2be 36c3 e2be
00000200: 36c3 e2be 36c3 e2be 36c3 e2be 36c3 e2be
00000210: 36c3 e2be 36c3 e2be 36c3 e2be 36c3 e2be
00000220: 36c3 e2be 36c3 e2be 36c3 e2be 36c3 e2be
00000230: 36c3 e2be 36c3 e2be 36c3 e2be 36c3 e2be
00000240: 36c3 e2be 36c3 e2be 36c3 e2be 36c3 e2be
00000250: 36c3 e2be 36c3 e2be 36c3 e2be 36c3 e2be
00000260: 36c3 e2be 36c3 e2be 36c3 e2be 36c3 e2be
00000270: 36c3 e2be 36c3 e2be 36c3 e2be 36c3 e2be
00000280: 36c3 e2be 36c3 e2be 36c3 e2be 36c3 e2be
00000290: 36c3 e2be 36c3 e2be 36c3 e2be 36c3 e2be
000002a0: 36c3 e2be 36c3 e2be 36c3 e2be 36c3 e2be
000002b0: 36c3 e2be 36c3 e2be 36c3 e2be 36c3 e2be
000002c0: 36c3 e2be 36c3 e2be 36c3 e2be 36c3 e2be
000002d0: 36c3 e2be 36c3 e2be 36c3 e2be 36c3 e2be
000002e0: 36c3 e2be 36c3 e2be 36c3 e2be 36c3 e2be
000002f0: 36c3 e2be 36c3 e2be 36c3 e2be 36c3 e2be
00000300: 36c3 e2be 36c3 e2be 36c3 e2be 36c3 e2be
00000310: 36c3 e2be 36c3 e2be 36c3 e2be 36c3 e2be
00000320: 36c3 e2be 36c3 e2be 36c3 e2be 36c3 e2be
00000330: 36c3 e2be 36c3 e2be 36c3 e2be 36c3 e2be
00000340: 36c3 e2be 36c3 e2be 36c3 e2be 36c3 e2be
00000350: 36c3 e2be 36c3 e2be 36c3 e2be 36c3 e2be
00000360: 36c3 e2be 36c3 e2be 36c3 e2be 36c3 e2be
00000370: 36c3 e2be 36c3 e2be 36c3 e2be 36c3 e2be
00000380: 36c3 e2be 36c3 e2be 36c3 e2be 36c3 e2be
00000390: 36c3 e2be 36c3 e2be 36c3 e2be 36c3 e2be
000003a0: 36c3 e2be 36c3 e2be 36c3 e2be 36c3 e2be
000003b0: 36c3 e2be 36c3 e2be 36c3 e2be 36c3 e2be
000003c0: 36c3 e2be 36c3 e2be 36c3 e2be 36c3 e2be
000003d0: 36c3 e2be 36c3 e2be 36c3 e2be 36c3 e2be
000003e0: 36c3 e2be 36c3 e2be 36c3 e2be 36c3 e2be
000003f0: 36c3 e2be 36c3 e2be 36c3 e2be 36c3 e2be

h_Sigma f4 [1, 500, 4]
nan nan nan nan 0.0027198046 0.6723944 0.11521889 0.0
0.0027198046 0.6723944 0.11521889 0.0 0.0027198046 0.6723944 0.11521889 0.0
0.0027198046 0.6723944 0.11521889 0.0 0.0027198046 0.6723944 0.11521889 0.0
0.0027198046 0.6723944 0.11521889 0.0 0.0027198046 0.6723944 0.11521889 0.0
0.0027198046 0.6723944 0.11521889 0.0 0.0027198046 0.6723944 0.11521889 0.0
0.0027198046 0.6723944 0.11521889 0.0 0.0027198046 0.6723944 0.11521889 0.0
0.0027198046 0.6723944 0.11521889 0.0 0.0027198046 0.6723944 0.11521889 0.0
0.0027198046 0.6723944 0.11521889 0.0 0.0027198046 0.6723944 0.11521889 0.0
0.0027198046 0.6723944 0.11521889 0.0 0.0027198046 0.6723944 0.11521889 0.0
0.0027198046 0.6723944 0.11521889 0.0 0.0027198046 0.6723944 0.11521889 0.0
0.0027198046 0.6723944 0.11521889 0.0 0.0027198046 0.6723944 0.11521889 0.0
0.0027198046 0.6723944 0.11521889 0.0 0.0027198046 0.6723944 0.11521889 0.0
0.0041724145 0.6757684 0.11276317 0.0 0.0041724145 0.6757684 0.11276317 0.0
0.0041724145 0.6757684 0.11276317 0.0 0.0041724145 0.6757684 0.11276317 0.0
0.0041724145 0.6757684 0.11276317 0.0 0.0041724145 0.6757684 0.11276317 0.0
0.0041724145 0.6757684 0.11276317 0.0 0.0041724145 0.6757684 0.11276317 0.0
0.0041724145 0.6757684 0.11276317 0.0 0.0041724145 0.6757684 0.11276317 0.0
0.0041724145 0.6757684 0.11276317 0.0 0.0041724145 0.6757684 0.11276317 0.0
0.0041724145 0.6757684 0.11276317 0.0 0.0041724145 0.6757684 0.11276317 0.0
0.0041724145 0.6757684 0.11276317 0.0 0.0041724145 0.6757684 0.11276317 0.0
0.0041724145 0.6757684 0.11276317 0.0 0.0041724145 0.6757684 0.11276317 0.0
0.0041724145 0.6757684 0.11276317 0.0 0.0041724145 0.6757684 0.11276317 0.0
0.0041724145 0.6757684 0.11276317 0.0 0.0041724145 0.6757684 0.11276317 0.0
0.0041724145 0.6757684 0.11276317 0.0 0.0041724145 0.6757684 0.11276317 0.0
0.0041724145 0.6757684 0.11276317 0.0 0.0041724145 0.6757684 0.11276317 0.0
0.0041724145 0.6757684 0.11276317 0.0 0.0041724145 0.6757684 0.11276317 0.0
0.0041724145 0.6757684 0.11276317 0.0 0.0041724145 0.6757684 0.11276317 0.0
0.0041724145 0.6757684 0.11276317 0.0 0.0041724145 0.6757684 0.11276317 0.0
0.0041724145 0.6757684 0.11276317 0.0 0.0041724145 0.6757684 0.11276317 0.0
0.0041724145 0.6757684 0.11276317 0.0 0.0041724145 0.6757684 0.11276317 0.0
0.0041724145 0.6757684 0.11276317 0.0 0.0041724145 0.6757684 0.11276317 0.0
0.0041724145 0.6757684 0.11276317 0.0 0.0041724145 0.6757684 0.11276317 0.0
00000000: 0000 c07f 0000 c07f 0000 c07f 0000 c07f
00000010: c03e 323b 0a22 2c3f e2f7 eb3d 0000 0000
00000020: c03e 323b 0a22 2c3f e2f7 eb3d 0000 0000
00000030: c03e 323b 0a22 2c3f e2f7 eb3d 0000 0000
00000040: c03e 323b 0a22 2c3f e2f7 eb3d 0000 0000
00000050: c03e 323b 0a22 2c3f e2f7 eb3d 0000 0000
00000060: c03e 323b 0a22 2c3f e2f7 eb3d 0000 0000
00000070: c03e 323b 0a22 2c3f e2f7 eb3d 0000 0000
00000080: c03e 323b 0a22 2c3f e2f7 eb3d 0000 0000
00000090: c03e 323b 0a22 2c3f e2f7 eb3d 0000 0000
000000a0: c03e 323b 0a22 2c3f e2f7 eb3d 0000 0000
000000b0: c03e 323b 0a22 2c3f e2f7 eb3d 0000 0000
000000c0: c03e 323b 0a22 2c3f e2f7 eb3d 0000 0000
000000d0: c03e 323b 0a22 2c3f e2f7 eb3d 0000 0000
000000e0: c03e 323b 0a22 2c3f e2f7 eb3d 0000 0000
000000f0: c03e 323b 0a22 2c3f e2f7 eb3d 0000 0000
00000100: c03e 323b 0a22 2c3f e2f7 eb3d 0000 0000
00000110: c03e 323b 0a22 2c3f e2f7 eb3d 0000 0000
00000120: c03e 323b 0a22 2c3f e2f7 eb3d 0000 0000
00000130: c03e 323b 0a22 2c3f e2f7 eb3d 0000 0000
00000140: c03e 323b 0a22 2c3f e2f7 eb3d 0000 0000
00000150: c03e 323b 0a22 2c3f e2f7 eb3d 0000 0000
00000160: c03e 323b 0a22 2c3f e2f7 eb3d 0000 0000
00000170: c03e 323b 0a22 2c3f e2f7 eb3d 0000 0000
00000180: c0b8 883b 28ff 2c3f 60f0 e63d 0000 0000
00000190: c0b8 883b 28ff 2c3f 60f0 e63d 0000 0000
000001a0: c0b8 883b 28ff 2c3f 60f0 e63d 0000 0000
000001b0: c0b8 883b 28ff 2c3f 60f0 e63d 0000 0000
000001c0: c0b8 883b 28ff 2c3f 60f0 e63d 0000 0000
000001d0: c0b8 883b 28ff 2c3f 60f0 e63d 0000 0000
000001e0: c0b8 883b 28ff 2c3f 60f0 e63d 0000 0000
000001f0: c0b8 883b 28ff 2c3f 60f0 e63d 0000 0000
00000200: c0b8 883b 28ff 2c3f 60f0 e63d 0000 0000
00000210: c0b8 883b 28ff 2c3f 60f0 e63d 0000 0000
00000220: c0b8 883b 28ff 2c3f 60f0 e63d 0000 0000
00000230: c0b8 883b 28ff 2c3f 60f0 e63d 0000 0000
00000240: c0b8 883b 28ff 2c3f 60f0 e63d 0000 0000
00000250: c0b8 883b 28ff 2c3f 60f0 e63d 0000 0000
00000260: c0b8 883b 28ff 2c3f 60f0 e63d 0000 0000
00000270: c0b8 883b 28ff 2c3f 60f0 e63d 0000 0000
00000280: c0b8 883b 28ff 2c3f 60f0 e63d 0000 0000
00000290: c0b8 883b 28ff 2c3f 60f0 e63d 0000 0000
000002a0: c0b8 883b 28ff 2c3f 60f0 e63d 0000 0000
000002b0: c0b8 883b 28ff 2c3f 60f0 e63d 0000 0000
000002c0: c0b8 883b 28ff 2c3f 60f0 e63d 0000 0000
000002d0: c0b8 883b 28ff 2c3f 60f0 e63d 0000 0000
000002e0: c0b8 883b 28ff 2c3f 60f0 e63d 0000 0000
000002f0: c0b8 883b 28ff 2c3f 60f0 e63d 0000 0000
00000300: c0b8 883b 28ff 2c3f 60f0 e63d 0000 0000
00000310: c0b8 883b 28ff 2c3f 60f0 e63d 0000 0000
00000320: c0b8 883b 28ff 2c3f 60f0 e63d 0000 0000
00000330: c0b8 883b 28ff 2c3f 60f0 e63d 0000 0000
00000340: c0b8 883b 28ff 2c3f 60f0 e63d 0000 0000
00000350: c0b8 883b 28ff 2c3f 60f0 e63d 0000 0000
00000360: c0b8 883b 28ff 2c3f 60f0 e63d 0000 0000
00000370: c0b8 883b 28ff 2c3f 60f0 e63d 0000 0000
00000380: c0b8 883b 28ff 2c3f 60f0 e63d 0000 0000
00000390: c0b8 883b 28ff 2c3f 60f0 e63d 0000 0000
000003a0: c0b8 883b 28ff 2c3f 60f0 e63d 0000 0000
000003b0: c0b8 883b 28ff 2c3f 60f0 e63d 0000 0000
000003c0: c0b8 883b 28ff 2c3f 60f0 e63d 0000 0000
000003d0: c0b8 883b 28ff 2c3f 60f0 e63d 0000 0000
000003e0: c0b8 883b 28ff 2c3f 60f0 e63d 0000 0000
000003f0: c0b8 883b 28ff 2c3f 60f0 e63d 0000 0000
