KalmanNetPHAv2/KalmanNet_TSP-main/KNet/2201/2201model_y.pt (torch, 101780 bytes, 43 tensors)

weight_ih_l0 f4 [12, 10]
0	0x3e88a09c	0.26685035
1	0x3e175094	0.14776832
2	0xbed28320	-0.41115665
3	0x3e02ddb4	0.12779886
4	0xbd523410	-0.051319182
5	0xbef83792	-0.48479897
6	0x3e8daadc	0.27669418
7	0xbc4c1940	-0.012457192
8	0x3e1d4f98	0.15362394
9	0xbeab5ac4	-0.33467686
10	0xbeba6ed8	-0.36412692
11	0xbe8f78ca	-0.28021842
12	0x3e9a19c4	0.30097783
13	0xbe1ee04c	-0.1551525
14	0x3db07fa8	0.086180985
15	0xbe5d765c	-0.21627182
16	0x3e448180	0.19190025
17	0x3ed30df0	0.4122157
18	0xbd510760	-0.051032424
19	0x3e2da88c	0.16958827
20	0x3e99b796	0.30022877
21	0x3ecbc656	0.39799756
22	0xbe65d7b0	-0.2244556
23	0x3eebe5b0	0.46073675
24	0x3df07db0	0.11742723
25	0x3e3792ac	0.17927045
26	0xbeb4d824	-0.35321152
27	0xbdc3dff0	-0.09564197
28	0x3de24868	0.11048967
29	0xbdf457f0	-0.11930835
30	0x3e894b90	0.26815462
31	0x3edd3e6c	0.43211687
32	0xbef18f2c	-0.47179544
33	0x3c905600	0.017619133
34	0x3ea6db68	0.3258927
35	0xbe3925ec	-0.18080872
36	0xbe6d0a9c	-0.23148578
37	0xbe19d3b0	-0.15022159
38	0x3e803eb4	0.2504784
39	0x3ef9cd7a	0.4878958
40	0xbea8ac0a	-0.32943755
41	0xbe3028e4	-0.17203099
42	0x3e0d5044	0.1380015
43	0x3d43c380	0.047793865
44	0xbd94f6d8	-0.07273644
45	0xbe7c9eac	-0.24669904
46	0x3e3b78bc	0.18307775
47	0xbee3eb08	-0.44515252
48	0x3e90341c	0.28164756
49	0x3ebfe806	0.37481707
50	0x3e7add90	0.24498582
51	0x3e4d6efc	0.20061868
52	0xbece117c	-0.40247715
53	0x3ef023ca	0.46902305
54	0x3eac813c	0.33692348
55	0xbd5e0ac0	-0.05420947
56	0xbe738e94	-0.23784858
57	0xbe9997ae	-0.29998535
58	0x3ea5fe14	0.3242041
59	0xbebd9c84	-0.37033474
60	0xbee301c8	-0.44337296
61	0x3d5e3b90	0.054256022
62	0x3ebf1ca8	0.3732655
63	0x3e72cd34	0.23711091
64	0x3efc427e	0.4926948
65	0xbed1562c	-0.40886056
66	0xbe81f9c0	-0.25385857
67	0xbe8c5410	-0.27407885
68	0x3e9b4982	0.3032952
69	0xbe6687b8	-0.2251271
70	0x3dfec6f8	0.12440294
71	0x3e9d9104	0.307747
72	0x3eae07d2	0.3399034
73	0xbd75a0c0	-0.059967756
74	0x3ed0d3ec	0.40786684
75	0xbed20edc	-0.41026962
76	0x3eac486a	0.33648998
77	0x3e17133c	0.14753431
78	0xbee9da24	-0.4567424
79	0x3ee58860	0.44830608
80	0x3d8a5188	0.06753832
81	0xbe5842e4	-0.21119267
82	0xbe75b90c	-0.23996371
83	0xbdf55578	-0.119791925
84	0x3e12b95c	0.14328521
85	0xbec4d0e6	-0.38440627
86	0x3de46cf8	0.11153597
87	0x3e3fadf4	0.18718702
88	0xbc37cd40	-0.011218369
89	0x3efcbc28	0.49362302
90	0xbe794e24	-0.24346215
91	0x3e2964c0	0.1654234
92	0x3edc9f26	0.4309017
93	0x3e87d97c	0.26533115
94	0x3ea91d10	0.33029985
95	0x3e2a0f98	0.16607511
96	0x3ec8d696	0.39226216
97	0x3ea75550	0.32682276
98	0x3eb95f3a	0.36205465
99	0xbeeac7d0	-0.4585557
100	0x3e542438	0.20716941
101	0xbc940b60	-0.01807183
102	0xbdcc53c0	-0.099769115
103	0xbd306660	-0.043066382
104	0x3cb53740	0.022121072
105	0xbe7faf88	-0.24969304
106	0x3eb6e320	0.35720158
107	0x3eced776	0.4039876
108	0xbead90ae	-0.33899444
109	0x3e2c1298	0.16803968
110	0xbdba0238	-0.090824544
111	0x3e6a96d0	0.22909093
112	0x3efebfe6	0.49755782
113	0xbe4cb1c4	-0.19989687
114	0xbe9ca0fa	-0.30591565
115	0xbe9ccb26	-0.3062374
116	0x3efed474	0.49771464
117	0xbddd01b8	-0.107913435
118	0xbeac0578	-0.33597922
119	0xbe9b428a	-0.30324203

weight_hh_l0 f4 [12, 4]
0	0x3e7f04b0	0.24904132
1	0xbe5f788c	-0.21823329
2	0x3ed62f82	0.4183312
3	0xbe08d724	-0.1336332
4	0xbe6aa9cc	-0.22916335
5	0x3d72bc80	0.0592618
6	0xbddb3108	-0.10702711
7	0x3eed1bf2	0.46310383
8	0x3ef978ae	0.48724884
9	0x3ed843b2	0.42239147
10	0xbe80adb4	-0.25132525
11	0xbd1e7570	-0.038686216
12	0x3ef10a22	0.47078043
13	0xbe9a30c2	-0.30115324
14	0xbebdbaec	-0.37056673
15	0xbd0a9260	-0.033831
16	0xbed5b760	-0.41741467
17	0xbed38c08	-0.41317773
18	0x3e8a1c78	0.26974845
19	0x3e148cc4	0.14506823
20	0xbde2c658	-0.11072987
21	0x3e9c55a2	0.30534083
22	0xbee2fc56	-0.44333142
23	0x3cf84640	0.030306935
24	0x3eccec2c	0.40023935
25	0x3e9eee92	0.3104139
26	0xbdba3f10	-0.090940595
27	0xbec4f186	-0.38465518
28	0x3de0a288	0.109685004
29	0x3efe2dbc	0.49644268
30	0x3ea817fa	0.32830793
31	0x3efd1572	0.49430424
32	0xbda61920	-0.08110261
33	0x3e3182a4	0.17334992
34	0xbd730b10	-0.059336722
35	0x3e2958e4	0.16537815
36	0x3ead0c80	0.337986
37	0x3e9b9b20	0.30391788
38	0x3eeab62c	0.4584211
39	0x3e85c95e	0.26130193
40	0xbe9e68d2	-0.30939347
41	0x3ea088cc	0.31354368
42	0xbddd7080	-0.10812473
43	0x3eb3825c	0.35060394
44	0xbdfc1e40	-0.12310457
45	0xbdf251c0	-0.11831999
46	0x3d92e520	0.071726084
47	0xbef3196a	-0.47480327

bias_ih_l0 f4 [12]
0	0xbed61c5e	-0.41818517
1	0xbe9b7f1c	-0.30370414
2	0xbeb689a4	-0.35651886
3	0xbef12f86	-0.4710657
4	0x3ecbd6ae	0.39812225
5	0xbeeeea28	-0.46663022
6	0x3ea7beb6	0.32762688
7	0x3eadbb8a	0.33932143
8	0xbea09bf4	-0.31368983
9	0xbe07a5a8	-0.13246787
10	0x3e49bc4c	0.19700736
11	0xbeb6ab10	-0.35677385

bias_hh_l0 f4 [12]
0	0xbeadf640	-0.33976936
1	0x3e87b78e	0.2650723
2	0x3e10aa68	0.14127505
3	0x3d578220	0.05261433
4	0x3dd75f70	0.1051625
5	0xbd225360	-0.039630294
6	0xbe635154	-0.22198993
7	0x3e47b5e8	0.19502985
8	0x3e800040	0.2500019
9	0xbef727c8	-0.48272538
10	0xbd5174e0	-0.05113685
11	0xbde56d28	-0.112024605

weight_ih_l0 f4 [12, 14]
0	0xbed3020e	-0.41212505
1	0x3cec2b20	0.028829157
2	0xbebe19c4	-0.37129033
3	0x3c84b980	0.016201735
4	0xbec72022	-0.38891703
5	0xbcec7a00	-0.028866768
6	0x3e1f6700	0.15566635
7	0xba648000	-0.0008716583
8	0xbeeeb1bc	-0.46619976
9	0xbeacf96e	-0.3378405
10	0x3e5c0458	0.21486032
11	0x3ede8ec6	0.43468302
12	0xbe046208	-0.12928021
13	0xbef3aede	-0.4759435
14	0x3e9e02da	0.3086155
15	0xbe9b0d34	-0.3028351
16	0xbefc33d6	-0.49258298
17	0xbe5803d0	-0.21095204
18	0xbcf96800	-0.030445099
19	0x3ec699f4	0.38789332
20	0x3da67398	0.081275165
21	0x3eee2c3a	0.46518117
22	0x3efd8228	0.49513364
23	0xbeeaa440	-0.45828438
24	0xbece7c0a	-0.4032901
25	0x3e343414	0.17597991
26	0xbe8cfc92	-0.27536446
27	0x3c7eb740	0.01554662
28	0xbe45e188	-0.19324315
29	0x3e40cd88	0.18828404
30	0xbe2001a4	-0.15625626
31	0xbc893720	-0.016749918
32	0xbe87bbd2	-0.26510483
33	0x3e540e2c	0.20708531
34	0x3e06f344	0.13178736
35	0xbe93fbe2	-0.2890311
36	0x3ebaeb58	0.36507678
37	0x3d75a7c0	0.059974432
38	0x3e5e2dc4	0.21697146
39	0x3e9e4ac4	0.30916417
40	0x3e55d6fc	0.20882791
41	0x3e02d114	0.1277507
42	0x3e4bfb10	0.19919991
43	0xbecbe52e	-0.39823288
44	0xbee1bfd2	-0.4409166
45	0xbefe50da	-0.4967106
46	0x3e9b53fc	0.30337512
47	0x3e8d81f0	0.27638197
48	0x3eaed7c4	0.3414899
49	0x3e0fd0d8	0.14044511
50	0xbeaeea90	-0.34163332
51	0xbd1fd030	-0.039016902
52	0xbdd6fd68	-0.10497552
53	0xbeab0b20	-0.33406925
54	0x3e278ba8	0.16361868
55	0x3e52c928	0.20584548
56	0x3eba54c8	0.36392808
57	0x3e6d6304	0.23182303
58	0x3eb50048	0.35351777
59	0x3eab30fe	0.33435816
60	0x3ec14fe0	0.37756252
61	0xbd9ae528	-0.07563239
62	0x3ea382b4	0.31935656
63	0xbe4d6ee0	-0.20061827
64	0xbe7e568c	-0.24837703
65	0xbe738ae0	-0.23783445
66	0xbe209c10	-0.15684533
67	0xbe9d83be	-0.30764574
68	0xbdd79578	-0.10526556
69	0x3eb73216	0.357804
70	0xbdcec930	-0.10096967
71	0x3daeec10	0.08541119
72	0x3e972222	0.2951823
73	0xbee778f2	-0.4520946
74	0xbeadc97a	-0.33942777
75	0xbc9a00c0	-0.018799186
76	0x3ee26c14	0.44223082
77	0xbe0ba354	-0.13636523
78	0x3ddfa688	0.10920435
79	0x3ed0833e	0.4072513
80	0x3e8683a4	0.2627231
81	0x3e7a8c84	0.24467665
82	0x3eb5457e	0.3540458
83	0xbee8e318	-0.4548576
84	0x3efb2150	0.49048853
85	0xbb56dd00	-0.0032785535
86	0x3e3600c4	0.1777373
87	0xbe2eee70	-0.17083144
88	0xbed2fc4a	-0.41208106
89	0xbdb39890	-0.08769333
90	0xbea53e28	-0.32273984
91	0x3e80610a	0.25074035
92	0x3e3ba2f0	0.18323874
93	0xbe14d810	-0.14535546
94	0xbe906ef0	-0.2820964
95	0x3e73ad04	0.23796469
96	0x3d1428f0	0.036171854
97	0x3e87b1f0	0.26502943
98	0xbe1edc88	-0.15513813
99	0x3ef18714	0.4717337
100	0x3e8203e2	0.25393587
101	0xbe829a4c	-0.25508344
102	0x3e9385cc	0.28813016
103	0x3ec7eeca	0.3904937
104	0xbecc87ce	-0.3994736
105	0x3e043bcc	0.12913436
106	0x3ea590c4	0.3233701
107	0x3e0c182c	0.13681096
108	0x3e1aafc0	0.15106106
109	0x39f43800	0.0004658103
110	0xbd9cd568	-0.076578915
111	0x3d60a700	0.054846764
112	0x3e93da6e	0.28877586
113	0xbe63784c	-0.22213858
114	0x3ef4b3fe	0.47793573
115	0x3ec7c404	0.39016736
116	0x3ef6f814	0.48236144
117	0xbdc018f0	-0.093797565
118	0x3ed45012	0.4146734
119	0xbe29df98	-0.165892
120	0x3cd28820	0.025699675
121	0x3e466274	0.19373494
122	0xbe69d168	-0.22833788
123	0xbe0268dc	-0.12735313
124	0x3ee10a56	0.43953198
125	0xbe7a7498	-0.2445854
126	0x3db27df0	0.08715427
127	0xbd5fea90	-0.054667056
128	0xbe16d25c	-0.14728683
129	0x3e2f4700	0.17116928
130	0xbe8a18b8	-0.26971984
131	0xbe24338c	-0.16035289
132	0xbeb2fbbc	-0.34957683
133	0xbe246444	-0.16053873
134	0xbd710b50	-0.05884868
135	0x3e6adbec	0.22935456
136	0x3e409054	0.18805057
137	0x3edce0ce	0.43140262
138	0x3ca938a0	0.020656884
139	0x3e65f9e0	0.22458601
140	0xbce3a6c0	-0.027789474
141	0x3d1ec240	0.03875947
142	0xbe9f3644	-0.3109609
143	0x3ed61752	0.41814667
144	0xbe26dd00	-0.16295242
145	0x3e01e668	0.1268555
146	0x3edb11f8	0.42787147
147	0xbea69a78	-0.32539725
148	0x3d65fdd0	0.056150258
149	0x3ec45276	0.38344163
150	0xbe5fca90	-0.21854615
151	0xbdc4d798	-0.09611434
152	0x3d6a6b40	0.057231188
153	0x3d6123a0	0.054965615
154	0x3e0e9e70	0.13927627
155	0xbe36a478	-0.17836177
156	0xbd3c7470	-0.04600948
157	0xbeecc04a	-0.46240455
158	0xbe3204d4	-0.17384654
159	0x3d943860	0.07237315
160	0x3df033e8	0.1172865
161	0xbe85c122	-0.2612391
162	0xbd0e52c0	-0.034746885
163	0x3e19f574	0.15035039
164	0xbe557194	-0.20844108
165	0xbea28a4c	-0.31746137
166	0xbed542ce	-0.4165253
167	0xbec0094c	-0.37507093

weight_hh_l0 f4 [12, 4]
0	0xbe21d898	-0.1580528
1	0xbefc98bc	-0.49335277
2	0x3eefc334	0.46828616
3	0xbc8a6960	-0.01689595
4	0xbe7c01bc	-0.24610037
5	0xbdbbea78	-0.09175581
6	0xbecb30d4	-0.3968569
7	0x3e51e10c	0.20496005
8	0x3e5d2864	0.21597439
9	0x3db3b8d0	0.087754846
10	0xbe6fb24c	-0.23407859
11	0xbd09a850	-0.03360778
12	0xbe6f3a28	-0.23362029
13	0xbe3aab8c	-0.18229502
14	0xbef38de4	-0.4756919
15	0x3eded66a	0.4352296
16	0x3da25cf0	0.07927883
17	0x3e5b3934	0.2140854
18	0x3ec1046e	0.37698692
19	0xbe544c98	-0.20732343
20	0xbea32c76	-0.31869859
21	0xbdb43350	-0.087988496
22	0x3e28e1e4	0.1649242
23	0xbda1e490	-0.07904923
24	0xbe9cd472	-0.30630833
25	0xbe83f52c	-0.2577299
26	0x3e3187bc	0.17336935
27	0xbe9c8d7a	-0.30576688
28	0xbea15976	-0.31513566
29	0x3ea5dd7e	0.32395548
30	0x3d8c1348	0.06839615
31	0xbd104d90	-0.03523022
32	0x3e9463b2	0.2898231
33	0x3eff0ae2	0.4981299
34	0x3e80b1f6	0.25135773
35	0x3ee325f4	0.44364893
36	0xbee77610	-0.45207262
37	0xbe0c4cc8	-0.13701165
38	0x3eb8f35e	0.36123174
39	0xbc105000	-0.008808136
40	0xbee125f4	-0.43974268
41	0xbe9e01ce	-0.30860752
42	0x3ead574a	0.3385566
43	0x3cc3a5a0	0.023882687
44	0x3ec1e040	0.37866402
45	0xbe9ce910	-0.30646563
46	0xbef30860	-0.47467327
47	0xbbdaff80	-0.00668329

bias_ih_l0 f4 [12]
0	0x3d112c40	0.03544259
1	0xbe09bc34	-0.134507
2	0xbe8d7938	-0.27631545
3	0xbe509ef4	-0.20373136
4	0x3ea05e68	0.31322026
5	0xbed88aa4	-0.42293274
6	0xbec12448	-0.37722993
7	0x3cb2b1a0	0.021813214
8	0xbec21e52	-0.37913758
9	0x3eecf4be	0.46280473
10	0xbe4302b8	-0.19044006
11	0xbee7458a	-0.45170242

bias_hh_l0 f4 [12]
0	0x3edb7d1c	0.42868888
1	0x3e81e0d6	0.2536685
2	0x3ed5173a	0.41619283
3	0x3de85440	0.113441944
4	0xbedc1d9a	-0.42991334
5	0x3e9abf2e	0.30223984
6	0xbef4f490	-0.47842836
7	0xbd2db990	-0.042413294
8	0xbeb89b92	-0.3605619
9	0x3e8cf008	0.2752688
10	0x3ee3679a	0.4441498
11	0xbe2c3fa8	-0.16821158

weight_ih_l0 f4 [3, 11]
0	0xbf121a86	-0.5707172
1	0x3f1618bc	0.5863149
2	0xbbcdd100	-0.0062810183
3	0x3f78b78a	0.9715506
4	0x3e7783b8	0.2417134
5	0x3f350a14	0.70718503
6	0xbea05144	-0.31312
7	0x3d993360	0.07480502
8	0xbe806fbc	-0.25085247
9	0x3f5fb1d2	0.8738071
10	0x3f1fc31a	0.62407076
11	0xbf145724	-0.57945466
12	0xbd8b6f60	-0.068083525
13	0xbf6a747a	-0.9158398
14	0x3ed8c698	0.42339015
15	0xbea7486c	-0.3267244
16	0x3f7871b0	0.97048473
17	0x3e0819d0	0.13291097
18	0xbf1971ec	-0.59939456
19	0xbf1de75e	-0.61681163
20	0x3f3b5020	0.73169136
21	0x3f5a44d6	0.85261285
22	0xbe63bce0	-0.22240019
23	0xbf4a3172	-0.789817
24	0xbf1ee198	-0.6206298
25	0x3f431062	0.76196873
26	0xbe939580	-0.28824997
27	0x3e94fa20	0.2909708
28	0x3eafb460	0.34317303
29	0xbde01680	-0.109417915
30	0xbe79d298	-0.24396741
31	0xbe2a77b8	-0.16647232
32	0x3e814860	0.2525053

weight_hh_l0 f4 [3, 1]
0	0xbe453138	-0.19257057
1	0x3f046bc2	0.51726925
2	0x3b253400	0.0025207996

bias_ih_l0 f4 [3]
0	0x3f0ab21e	0.54178035
1	0x3f29fade	0.6639842
2	0xbe93d224	-0.28871262

bias_hh_l0 f4 [3]
0	0xbf7f6354	-0.9976094
1	0x3c8ca300	0.017167568
2	0x3eb39bbc	0.35079753

weight f4 [1, 4]
0	0xbe9dc8da	-0.308173
1	0x3cd78380	0.026307821
2	0xbede2378	-0.43386436
3	0xbef29454	-0.4737879

weight f4 [200, 5]
0	0x3ece76da	0.40325052
1	0xbdbf89ac	-0.09352431
2	0x3e43f1ac	0.19135159
3	0x3e429024	0.19000298
4	0xbe79a7f7	-0.2438048
5	0x3e49fcc8	0.19725335
6	0x3e0931c4	0.1339789
7	0x3edce3c4	0.4314252
8	0x3ed2564a	0.41081458
9	0x3e49e910	0.19717813
10	0xbb670000	-0.0035247803
11	0x3ed26fde	0.41100973
12	0x3cf53c30	0.029935926
13	0xbe0b6fe8	-0.13616908
14	0x3eb19364	0.34682763
15	0xbd36dbd8	-0.044643253
16	0x3eadd818	0.3395393
17	0x3e9018b2	0.2814384
18	0xbcde4740	-0.027133584
19	0xbe8ebe8e	-0.27879757
20	0x3eb18480	0.34671402
21	0xbdcdcf9c	-0.10049364
22	0xbd54a980	-0.05191946
23	0xbebfb06a	-0.3743928
24	0x3e91d51c	0.28482902
25	0x3ee2fdc2	0.44334227
26	0xbed66128	-0.41871
27	0x3d7f7f90	0.062377512
28	0xbc24cca0	-0.010058552
29	0xbe6baf67	-0.2301613
30	0x3de24d60	0.11049914
31	0x3eb3f7a2	0.35149866
32	0xbb845700	-0.0040386915
33	0xbebdbe0a	-0.3705905
34	0xbe02d4ae	-0.12776443
35	0xbec6c885	-0.3882486
36	0xbcebe020	-0.028793395
37	0xbeb47809	-0.3524783
38	0xbe0d9886	-0.13827714
39	0x3d0980c8	0.03357008
40	0xbdd457c4	-0.103683025
41	0x3e90246e	0.28152794
42	0x3ea2ac9a	0.3177231
43	0xbd50f040	-0.05101037
44	0x3e8ac3d0	0.27102518
45	0xbec33f42	-0.381342
46	0xbe90e194	-0.28297102
47	0x3d837ae0	0.06419921
48	0x3df21360	0.11820102
49	0x3e8cbc9e	0.27487653
50	0x3e24a924	0.16080147
51	0x3eaba6ce	0.335257
52	0x3cbe6b10	0.02324441
53	0x3cbf7190	0.02336958
54	0xbe521e1c	-0.20519298
55	0xbdf2de2c	-0.11858782
56	0x3e8db09e	0.2767381
57	0xbecaa8b0	-0.39581823
58	0xbe453522	-0.1925855
59	0xbed51350	-0.41616297
60	0xbe6388a9	-0.222201
61	0x3dc64e80	0.096829414
62	0x3ec2374c	0.37932813
63	0x3e738778	0.23782146
64	0xbe2fd150	-0.1716969
65	0xbe4b6e71	-0.19866349
66	0x3e54ce18	0.20781744
67	0x3e400b54	0.18754321
68	0x3e434c30	0.19072032
69	0x3e98cb52	0.2984262
70	0x3d4fe440	0.050754786
71	0xbe94bc78	-0.2905004
72	0xbe581989	-0.21103491
73	0x3e53bf2c	0.20678395
74	0xbea930f9	-0.33045176
75	0x3eb2beec	0.34911287
76	0x3d86b208	0.065769255
77	0xbe0ffae2	-0.14060548
78	0x3dd36da8	0.1032365
79	0x3e4d3248	0.20038712
80	0x3d9039b0	0.07042253
81	0x3ec939d4	0.39301932
82	0xbdc1c294	-0.09460941
83	0xba8ad700	-0.001059264
84	0x3e8443c4	0.2583295
85	0xbdc33230	-0.09531057
86	0x3e805662	0.25065905
87	0x3e90c3a8	0.28274274
88	0xbe370c08	-0.17875683
89	0xbeb44fea	-0.3521722
90	0xbe885b40	-0.26632118
91	0x3c296ba0	0.010340601
92	0x3e2e0944	0.16995722
93	0xbeb2abf2	-0.3489681
94	0xbe42db9a	-0.19029084
95	0xbedad72c	-0.42742288
96	0x3d7d2a00	0.061807632
97	0x3ebe755a	0.37198907
98	0x3e03f2dc	0.12885612
99	0x3e724198	0.23657835
100	0x3dd0fef8	0.102048814
101	0xbec10aae	-0.3770346
102	0x3e08d020	0.13360643
103	0x3df82730	0.121168494
104	0xbedc7f1b	-0.43065724
105	0xbeaab558	-0.3334148
106	0xbe987778	-0.29778647
107	0xbde11df4	-0.10992041
108	0xbdfcf39c	-0.12351152
109	0xbcace4d0	-0.0211052
110	0x3e361bf4	0.17784101
111	0x3d3b02f0	0.0456571
112	0xbc894120	-0.016754687
113	0xbee3c26c	-0.4448427
114	0x3eb5898e	0.35456508
115	0x3e258a04	0.1616593
116	0x3ecc7112	0.39930016
117	0x3e596a28	0.21231902
118	0x3def14f0	0.116739154
119	0x3ea02e0e	0.31285137
120	0x3e1f51a4	0.15558487
121	0x3df320f0	0.11871517
122	0xbe3800da	-0.17969075
123	0x3e66898c	0.22513407
124	0xbece4aee	-0.40291542
125	0xbeceba8f	-0.40376708
126	0xbea026a4	-0.3127948
127	0xbe83143d	-0.25601378
128	0x3da42180	0.08014202
129	0x3de03f20	0.1094954
130	0x3c4d2e20	0.012523204
131	0xbec2001c	-0.37890708
132	0xbe3ab0f0	-0.18231559
133	0x3e5192ec	0.20466202
134	0xbe9fa9c6	-0.31184214
135	0xbe268f08	-0.162655
136	0x3e6f33fc	0.23359674
137	0x3e960c4e	0.29306263
138	0xbe0c1226	-0.13678798
139	0xbec08b6e	-0.37606376
140	0xbec11be1	-0.37716582
141	0x3e6549e0	0.22391462
142	0x3e358e74	0.17730123
143	0xbe892cd7	-0.26792023
144	0xbeb788b2	-0.35846478
145	0xbe98f0af	-0.29871127
146	0x3eac8890	0.3369794
147	0xbedf2929	-0.4358609
148	0x3ed973d4	0.42471182
149	0x3ed9e034	0.42553866
150	0x3ed590d6	0.41712064
151	0x3c2c4600	0.010514736
152	0x3eabaf44	0.33532155
153	0xbe7bf480	-0.24604988
154	0xbea78fe6	-0.32726973
155	0xbd57df08	-0.052702934
156	0x3eddb188	0.43299508
157	0x3de6ec08	0.11275488
158	0x3ee17478	0.4403417
159	0xbecb124d	-0.396624
160	0x3be0d8c0	0.006861776
161	0x3df75940	0.1207757
162	0xbe36d7ea	-0.17855802
163	0xbdaac634	-0.083385855
164	0xbe02adfe	-0.12761685
165	0x3e6825b4	0.22670633
166	0x3ea69f26	0.32543296
167	0x3e9d5768	0.30730748
168	0x3d8b1798	0.067916095
169	0x3d07fc00	0.03319931
170	0x3ddb38a8	0.10704166
171	0xbda723d4	-0.081611305
172	0xbeaadacf	-0.33370063
173	0x3e429510	0.19002175
174	0xbdd94074	-0.106079966
175	0xbe897d63	-0.26853475
176	0x3eb9ea70	0.36311674
177	0xbeafcb32	-0.34334713
178	0x3d0f8d80	0.035047054
179	0x3e990766	0.29888457
180	0x3e60f7a8	0.21969473
181	0xbecc4660	-0.39897442
182	0xbd713200	-0.058885574
183	0xbd646288	-0.05575803
184	0xbe9c2131	-0.30494073
185	0xbedfde01	-0.43724063
186	0x3d9d4e10	0.07680905
187	0xbea525e4	-0.3225547
188	0xbeb73762	-0.3578444
189	0xbe444936	-0.19168553
190	0x3e15117c	0.14557451
191	0x3ec40a22	0.3828898
192	0xbe750a02	-0.23929599
193	0x3eba4ce0	0.36386776
194	0x3d87f8b0	0.0663923
195	0x3edd4ad4	0.43221152
196	0x3edc18da	0.4298771
197	0xbe7de4b9	-0.24794282
198	0x3d672a60	0.056436896
199	0x3dab4818	0.0836336
200	0xbe8c131a	-0.27358323
201	0x3e6546ec	0.22390336
202	0xbe4a0aaf	-0.19730638
203	0xbe21a506	-0.15785608
204	0x3ec97a1e	0.3935098
205	0x3ed0a918	0.40754008
206	0x3eb1eb84	0.34749997
207	0x3dc36e68	0.09542543
208	0xbe12ff96	-0.14355311
209	0x3c3cbda0	0.0115198195
210	0xbe957dcb	-0.29197535
211	0x3ddbe210	0.107364774
212	0x3dea2410	0.114326596
213	0x3d7d0e40	0.061781168
214	0xbeae97d9	-0.34100226
215	0xbe5968d2	-0.21231392
216	0x3cb61fd0	0.022231966
217	0xbda309a4	-0.07960823
218	0xbecbde3f	-0.39817998
219	0x3e9a6170	0.30152464
220	0xbdcdfa64	-0.10057524
221	0x3de8f9e8	0.11375791
222	0x3de61c18	0.11235827
223	0x3eb158c0	0.34638023
224	0x3e6df3ac	0.23237485
225	0x3cd56730	0.02605018
226	0xbea34d3c	-0.31894863
227	0xbe578090	-0.21045136
228	0xbd117bb8	-0.035518378
229	0x3e8fd1c2	0.2808972
230	0x3ea4de4c	0.3220085
231	0x3d403ee8	0.046934992
232	0xbe924994	-0.2857176
233	0x3d34e608	0.044164687
234	0x3df8f3f0	0.121559024
235	0xbddb1d24	-0.106989175
236	0x3e821646	0.25407618
237	0xbe580af2	-0.21097925
238	0xbec77413	-0.38955745
239	0xbddc306c	-0.10751423
240	0xbd1cb118	-0.038254827
241	0x3e23d374	0.15998632
242	0x3e770be4	0.2412563
243	0xbebe6c5f	-0.37192056
244	0x3e79e54c	0.24403876
245	0x3dcb1fb8	0.09918159
246	0x3d85fa88	0.06541926
247	0x3e2c4c1c	0.16825908
248	0xbd64cd68	-0.055859953
249	0xbe9d3e6c	-0.30711687
250	0xbe998427	-0.29983637
251	0x3e84a23c	0.25905025
252	0xbed2851f	-0.41117188
253	0xbdb39210	-0.087680936
254	0x3e813394	0.25234663
255	0x3e73c90c	0.23807162

bias f4 [200]
0	0xbe8363fc	-0.2566222
1	0x3e1ac114	0.15112716
2	0xbe5fede4	-0.21868092
3	0x3e9bc878	0.30426383
4	0xbdb54c04	-0.088523895
5	0x3b992ac0	0.0046742857
6	0x3e4c1fe0	0.19934034
7	0x3ed06166	0.4069931
8	0xbd735648	-0.059408456
9	0x3e3be874	0.18350393
10	0x3cbaac60	0.022787273
11	0x3ec3d0d6	0.38245267
12	0xbd7d05a0	-0.061772943
13	0x3d31a6c8	0.043371946
14	0x3e8d668a	0.27617294
15	0xbe5d4d89	-0.21611609
16	0xbe8c89bf	-0.27448842
17	0x3c3a2400	0.011361122
18	0x3eca6392	0.3952909
19	0x3ec31ef8	0.38109565
20	0x3c84bd50	0.016203552
21	0x3e1f349c	0.15547413
22	0xbe18cf90	-0.14922929
23	0xbed95171	-0.42444947
24	0xbe4bf779	-0.19918622
25	0xbec7f708	-0.39055657
26	0x3ecced8e	0.4002499
27	0xbeb903b1	-0.3613563
28	0xbecbd5da	-0.39811593
29	0x3cb40440	0.021974683
30	0xbeb5ac60	-0.35483074
31	0x3ebbd6b0	0.3668723
32	0xbeaa6315	-0.3327872
33	0x3eb5a558	0.3547771
34	0x3edb9e0c	0.42894018
35	0x3e642bd0	0.22282338
36	0xbe037f60	-0.12841558
37	0xbe003904	-0.1252175
38	0xbe97e88a	-0.296696
39	0x3ee20c4c	0.44150007
40	0x3dced820	0.10099816
41	0x3e8a4bf6	0.2701108
42	0x3ea5ccca	0.32382804
43	0xbea1e5fb	-0.31620774
44	0xbe127484	-0.1430226
45	0xbdb96dd8	-0.09054154
46	0xbeda8489	-0.4267924
47	0x3eae89e6	0.34089583
48	0x3e01155c	0.12605804
49	0xbeb83bd4	-0.35983145
50	0x3ecab5c8	0.39591813
51	0xbed2c5bd	-0.41166487
52	0xbeb64b01	-0.35604098
53	0x3eb45cc0	0.35227013
54	0x3c22a4e0	0.009927005
55	0x3eb296c2	0.34880644
56	0x3eb8cd4e	0.36094135
57	0xbeb860c6	-0.36011332
58	0x3bb80000	0.0056152344
59	0x3e2ff4b0	0.17183185
60	0x3e1aaf9c	0.15106052
61	0x3c5eb100	0.013592005
62	0x3e96c852	0.29449707
63	0x3ead900a	0.33898956
64	0xbbec5540	-0.007212311
65	0x3d8c3c48	0.06847435
66	0xbd360980	-0.044442654
67	0xbe97c1b8	-0.29639983
68	0xbd9b3600	-0.07578659
69	0x3e0d0e24	0.13774925
70	0xbed1ad64	-0.409526
71	0x3ec3cc20	0.38241673
72	0x3e3c1d74	0.1837061
73	0x3e8b4fb6	0.27209252
74	0xbe8cdf60	-0.27514172
75	0xbe8965cc	-0.26835477
76	0x3dcc88d8	0.099870384
77	0xbecba3cf	-0.39773414
78	0x3c515160	0.012775749
79	0x3e7212b8	0.23639953
80	0x3eafc12a	0.3432706
81	0xbd35d580	-0.044393063
82	0xbea8711e	-0.32898802
83	0x3ea9b9b6	0.331495
84	0x3d1e9498	0.03871593
85	0x3db84700	0.08997917
86	0xb9f06000	-0.00045847893
87	0xbdc74bec	-0.09731278
88	0xbedfa247	-0.43678495
89	0x3e8b0bb8	0.27157378
90	0x3e5ee0fc	0.21765512
91	0xbe86b0f8	-0.2630689
92	0x3ec19afe	0.37813562
93	0x3e98c360	0.2983656
94	0xbed8ad23	-0.42319593
95	0x3c9d8fe0	0.019233644
96	0x3e39b3fc	0.18135065
97	0xbe968650	-0.29399347
98	0x3e02b900	0.12765884
99	0x3eb28d78	0.34873557
100	0x3ea0f51c	0.31437004
101	0xbe797367	-0.24360429
102	0x3e956c60	0.29184246
103	0x3e35bea8	0.17748511
104	0xbe64168e	-0.22274229
105	0x3c2a2060	0.010383695
106	0x3e3c9ad4	0.18418437
107	0x3d6e1e90	0.058134615
108	0x3e8fa458	0.28055072
109	0x3ea11a2e	0.31465286
110	0xbecda84a	-0.40167457
111	0xbe297ec2	-0.1655226
112	0x3e9ec796	0.31011647
113	0x3ed539cc	0.41645658
114	0x3ee37ba8	0.4443028
115	0xbe5362b8	-0.20643127
116	0xbe35a46e	-0.17738506
117	0x3e4c3e34	0.19945604
118	0xbc2130e0	-0.009838313
119	0x3e9d110c	0.30677068
120	0x3e9b67fa	0.30352765
121	0xbe887720	-0.26653385
122	0x3dca4388	0.09876162
123	0x3e438178	0.19092357
124	0x3e47e684	0.19521528
125	0x3e949d3e	0.29026216
126	0xbe97f234	-0.29676974
127	0x3db457a8	0.088057816
128	0x3e9b4390	0.30324984
129	0xbe2d5cdc	-0.16929954
130	0xbe794fe4	-0.24346882
131	0x3eada3e2	0.33914095
132	0xbe284c9a	-0.16435471
133	0x3e2708c8	0.16311944
134	0xbcc419c0	-0.02393806
135	0xbe4bc20f	-0.19898246
136	0xbede7d9e	-0.43455213
137	0xbdd9a4cc	-0.10627136
138	0xbe34ca72	-0.17655352
139	0xbec3178e	-0.38103908
140	0xbbd2ed00	-0.006436944
141	0x3ea09da2	0.31370264
142	0x3e164b34	0.14677125
143	0x3e1454fc	0.14485544
144	0x3db62bb8	0.088950574
145	0xbe8ee2c6	-0.2790739
146	0xbc45a380	-0.012062907
147	0xbe9ea964	-0.3098861
148	0xbecc74e1	-0.39932922
149	0xbd7cf430	-0.061756313
150	0x3e43894c	0.19095343
151	0x3ea22d58	0.3167522
152	0x3ea4fc68	0.3222382
153	0x3bff6b00	0.007794738
154	0x3ea456c4	0.32097447
155	0x3e86e74e	0.26348346
156	0xbdbe3dc0	-0.09289122
157	0xbd7921d0	-0.06082326
158	0xbee0c176	-0.438976
159	0x3ee4a60c	0.44657934
160	0xbcceecd0	-0.025259405
161	0x3e9b930a	0.3038562
162	0xbd475f60	-0.04867494
163	0x3dcb4048	0.0992437
164	0xbe1f095c	-0.15530914
165	0xbedac50a	-0.42728454
166	0xbe47b57c	-0.19502825
167	0x3e9bdbcc	0.3044113
168	0x3db935b8	0.09043449
169	0xbea3934c	-0.31948316
170	0xbdde2f24	-0.10848835
171	0x3e892f32	0.2679382
172	0xbb4c1600	-0.0031141043
173	0xbe7f2136	-0.24915013
174	0x3e953bda	0.29147226
175	0x3e64d294	0.22345954
176	0xbeb8cede	-0.36095327
177	0xbe3d0f6a	-0.18462911
178	0xb9ad4c00	-0.00033053756
179	0x3e94f4f2	0.29093128
180	0xbe91a58a	-0.2844661
181	0x3e253b94	0.16136009
182	0x3e735720	0.23763704
183	0xbe27b59c	-0.16377872
184	0x3d84ad30	0.064783454
185	0x3eb0e780	0.3455162
186	0xbe9a765e	-0.30168432
187	0xbee4d26b	-0.44691786
188	0x3dc44790	0.09583962
189	0x3d917af0	0.071035266
190	0x3d4906f0	0.04907888
191	0xbe83f6df	-0.25774285
192	0x3ea5f3b0	0.3241248
193	0x3d2cacd0	0.042156994
194	0xbe8336d2	-0.25627762
195	0xbe6b4b7a	-0.22978011
196	0x3d48f318	0.049059957
197	0x3e454178	0.19263256
198	0xbdd386b0	-0.10328424
199	0xbe6bc595	-0.2302459

weight f4 [2, 200]
0	0xbce3a834	-0.027790166
1	0x3d53222a	0.051546253
2	0xbd767f6a	-0.060180105
3	0x3d536d94	0.051618174
4	0xbbb623f0	-0.0055584833
5	0xbc21a7ec	-0.009866696
6	0x3d8d960d	0.069133855
7	0xbd4db4f5	-0.050221402
8	0x3d46e19a	0.048554994
9	0xbd4fbd98	-0.05071792
10	0x3d1c267c	0.03812264
11	0x3d208e5a	0.039198257
12	0xbd763eb0	-0.060118377
13	0x3d1a5948	0.0376828
14	0x3d77aa8a	0.060465373
15	0xbd338c94	-0.043835238
16	0x3ce33a20	0.027737677
17	0x3d6b950a	0.05751518
18	0x3d249200	0.0401783
19	0x3ccf26bc	0.025287025
20	0x3ca35f64	0.019942947
21	0x3d54ad90	0.051923335
22	0xbc9cf390	-0.019159108
23	0xbd0a09d2	-0.03370077
24	0x3d2ad70a	0.041708983
25	0x3d36e3f6	0.044650994
26	0xbb5e3f60	-0.0033912286
27	0x3d1a7dd2	0.037717648
28	0xbd72ec9f	-0.05930769
29	0xbbcc9f50	-0.0062445775
30	0x3d404488	0.046940356
31	0x3d0b87b0	0.03406495
32	0x3d6b1c12	0.057399817
33	0x3d1696d6	0.036764942
34	0xbd8e35c1	-0.069438465
35	0xbc07e5e8	-0.00829456
36	0x3d86019d	0.065432765
37	0x3cfe98bc	0.031078689
38	0x3d8de333	0.069281004
39	0xbc9afcfc	-0.01891946
40	0x3d7737d6	0.060355984
41	0x3c8294a4	0.015940018
42	0xbd09d6d2	-0.033652134
43	0xbcd67120	-0.02617699
44	0x3d598ac4	0.053110853
45	0x3cb96070	0.022628993
46	0x3d8ee425	0.06977109
47	0x3d2ddce0	0.04244697
48	0x3d8f4ec5	0.06997446
49	0xbd613f26	-0.054991864
50	0x3d07f4c0	0.033192396
51	0x3cae8a84	0.021306284
52	0xbcaec64e	-0.021334793
53	0xbd639390	-0.05556065
54	0x3d1a9b5e	0.037745826
55	0xbcbe926a	-0.023263175
56	0xbbb483d0	-0.0055088773
57	0x3bb950a0	0.005655363
58	0xbd4d79d6	-0.05016502
59	0xbc7fdf94	-0.01561727
60	0xbd0e1955	-0.034692127
61	0xbd0ed7d6	-0.034873806
62	0x3d032320	0.03201592
63	0x3d19604e	0.03744536
64	0x3ca8fddc	0.020628862
65	0x3d02a576	0.031896077
66	0xbd5c3e96	-0.053770624
67	0xbb9f8920	-0.0048686415
68	0xbd541686	-0.051779293
69	0xbd5eec48	-0.054424554
70	0xbcde722c	-0.02715405
71	0x3d8c4b8d	0.06850348
72	0x3d8417e7	0.064498715
73	0x3d056366	0.032565497
74	0xbb94f780	-0.004546106
75	0xbd8d734d	-0.069067575
76	0x3ce3cfac	0.027808987
77	0x3d889e43	0.06670811
78	0x3d8b855f	0.06812548
79	0x3ca9afa0	0.020713627
80	0xbd810027	-0.06298857
81	0x3d8de9bb	0.06929346
82	0x3c09ca30	0.008410022
83	0x3d8c3eb5	0.06847898
84	0xbd352958	-0.04422888
85	0xbd23850d	-0.03992181
86	0x3d4451cc	0.04792957
87	0xbd872df4	-0.06600562
88	0x3c5c9ca8	0.013465084
89	0x3d474bc2	0.048656233
90	0xbc078550	-0.00827153
91	0x3c5d8b90	0.013522044
92	0x3d5dec9e	0.054180734
93	0xbc43d31c	-0.011952188
94	0x3a5bc780	0.0008383915
95	0x3d35f704	0.044425026
96	0xbd595f90	-0.05306965
97	0x3d4c5a82	0.049891002
98	0x3d02f052	0.03196747
99	0x3ca36ee0	0.01995033
100	0x3c639a88	0.013891824
101	0x3d7612d6	0.060076557
102	0xbd5bd1f7	-0.053667035
103	0x3ac3e140	0.0014944449
104	0x3b9f6c00	0.0048651695
105	0xba94fe00	-0.0011367202
106	0x3c24b960	0.0100539625
107	0xbd20e597	-0.039281454
108	0x3c9a1f0c	0.018813632
109	0xbb4046e0	-0.002933912
110	0xbd2e5038	-0.04255697
111	0x3d8dbec1	0.06921149
112	0xbcfe604c	-0.031051777
113	0xbd702154	-0.058625534
114	0x3d1f2c22	0.038860448
115	0x3cb90a44	0.022587903
116	0xbd428646	-0.047491334
117	0xbd735d00	-0.059414864
118	0xbd57a17a	-0.05264423
119	0x3ca625d0	0.020281702
120	0xbd829fc5	-0.0637813
121	0xbd0ddc58	-0.034633964
122	0xbca898e6	-0.02058072
123	0xbb8bc790	-0.004265733
124	0x3c8b2820	0.016986907
125	0x3d0d1352	0.034442253
126	0x3c9c0ff0	0.019050568
127	0xbcd8a0c8	-0.026443854
128	0xbd87c158	-0.06628674
129	0x3d80ba63	0.062855504
130	0x3d1181dc	0.035524234
131	0x3c4816c8	0.012212463
132	0xbce9ebc4	-0.028554805
133	0x3d782b0e	0.060587935
134	0xbd4dda00	-0.05025673
135	0xbb23b3a0	-0.002497889
136	0x3d32334a	0.043505944
137	0x3d442e3a	0.047895648
138	0xbd318a0d	-0.043344546
139	0x3d8d8d41	0.06911708
140	0x3cf815e0	0.030283868
141	0x3c0a53f8	0.008442871
142	0x3d3f978e	0.046775393
143	0xbcf0bf3c	-0.029388063
144	0x3d1a28ae	0.03763645
145	0xbd80f73d	-0.06297157
146	0x3cf34ef0	0.029700726
147	0xbd1eb064	-0.038742438
148	0x3d42398a	0.047418155
149	0xbd2c3a1e	-0.042047612
150	0xbd756df5	-0.059919316
151	0xbd40b72e	-0.047049694
152	0xbd294526	-0.04132571
153	0xbd412d62	-0.04716242
154	0xbb5caaa0	-0.0033671036
155	0x3cab7568	0.020930007
156	0x3d0f57a4	0.03499569
157	0xbd0a713f	-0.033799406
158	0x3ce2b428	0.027673796
159	0x3d3f30cc	0.046677396
160	0xbc8978d0	-0.01678124
161	0x3c422cb0	0.011851475
162	0xbd2dd023	-0.042434823
163	0xbcb03c3e	-0.0215131
164	0xbd86d829	-0.06584198
165	0xbd0c6ab6	-0.034281455
166	0x3ccb09b0	0.024784893
167	0x3cdad14c	0.026711129
168	0x3c4897e0	0.012243241
169	0xbd83a017	-0.06427019
170	0x3cf9f150	0.030510575
171	0x3c9fd450	0.019510418
172	0x3d8f3287	0.06992059
173	0xbd123c27	-0.035701897
174	0x3d7c1886	0.061546825
175	0xbce246d0	-0.027621657
176	0xbd690307	-0.056887653
177	0xbcd9ffea	-0.026611287
178	0x3d3619b0	0.04445809
179	0x3d0b6998	0.03403625
180	0xbc7a5f98	-0.01528158
181	0x3d251014	0.040298536
182	0x3d871d8b	0.06597432
183	0x3d1908ea	0.037362017
184	0xbd1790b1	-0.037003223
185	0xbd268618	-0.040655226
186	0xbd589c2a	-0.052883305
187	0xbcabe01c	-0.020980887
188	0xbd372da2	-0.044721253
189	0xbcd0c232	-0.025483225
190	0xbbf749d0	-0.007546641
191	0x3c71c980	0.014757514
192	0x3c8a5a28	0.016888693
193	0x3bfcf6a0	0.0077198297
194	0xbd195c10	-0.037441313
195	0x3d0bad3c	0.034100756
196	0x3d8e92db	0.06961604
197	0x3d13b5b8	0.036061972
198	0xbd706b07	-0.05869582
199	0xbd5ada3d	-0.053430784
200	0xbd7355d2	-0.059408017
201	0xbd1b69f3	-0.037942838
202	0xbc974194	-0.018463887
203	0xbd784483	-0.060612213
204	0x3cd9453c	0.026522271
205	0xbbbd3200	-0.0057737827
206	0xbd6731f6	-0.05644413
207	0x3ae85280	0.0017724782
208	0xbce5deee	-0.028060403
209	0xbd177d10	-0.036984503
210	0x3cde6ba8	0.027150944
211	0xbc3b9374	-0.01144873
212	0x3d6d756e	0.057973318
213	0xbd4671d3	-0.048448395
214	0x3d110546	0.03540542
215	0xba5e8c80	-0.0008489564
216	0xbd8e0c6b	-0.06935962
217	0x39d96100	0.00041461736
218	0x3c5cf318	0.013485692
219	0xbd80586b	-0.062668644
220	0x3d78fa0e	0.060785346
221	0xbd76a2f2	-0.06021399
222	0x3d6de30a	0.05807785
223	0x3d0a715e	0.03379952
224	0x3c9b93e0	0.01899141
225	0xbd46dc94	-0.048550203
226	0x3cb27248	0.02178301
227	0x3c9a2f84	0.018821485
228	0xbc8c9856	-0.017162483
229	0xbd12a9c8	-0.035806447
230	0x3ba99040	0.0051746666
231	0x3d48f8e4	0.049065486
232	0x3c9f682c	0.019458853
233	0x3d69979a	0.057029344
234	0x3d1b25fa	0.037878014
235	0xbd271e96	-0.040800653
236	0xbd431a7e	-0.047632687
237	0x3d4712bc	0.04860185
238	0xbc9cab34	-0.019124605
239	0xbd17ec02	-0.03709031
240	0x3c8d2eec	0.017234288
241	0xbd45b09e	-0.04826414
242	0x3c3d1b48	0.011542149
243	0x3d4ea0f8	0.05044648
244	0x3b80b7b0	0.0039281473
245	0x3d35f390	0.044421732
246	0xbbea8530	-0.0071569905
247	0xbc151174	-0.009098399
248	0xbd71fefd	-0.059081066
249	0xbd06fdeb	-0.032957
250	0xbb96b860	-0.004599616
251	0xbd44cc18	-0.0480462
252	0xba7fef80	-0.00097631663
253	0xbcff26da	-0.031146456
254	0x3d5efbd6	0.05443939
255	0x3cb53f1c	0.02212482

bias f4 [2]
0	0x3d76e552	0.06027729
1	0xbd85a560	-0.065256834

weight f4 [4, 3]
0	0xbe44dd6e	-0.19225094
1	0x3de11300	0.10989952
2	0x3ed2a928	0.4114468
3	0x3d7ac730	0.061225116
4	0x3e6f7dfc	0.23387903
5	0xbe8cb81f	-0.27484223
6	0x3ebb9336	0.3663575
7	0xbde2f994	-0.110827595
8	0xbe0ebe40	-0.13939762
9	0xbf0c0ed2	-0.54710114
10	0x3de8b928	0.11363441
11	0xbed2afae	-0.41149658

bias f4 [4]
0	0xbe53db26	-0.20689067
1	0x3e64cd7c	0.22344011
2	0x3e4afea0	0.19823694
3	0xbda6b930	-0.081407905

weight f4 [4, 8]
0	0xbe41e822	-0.18936208
1	0x3e41abca	0.18913189
2	0x3d501048	0.050796777
3	0xbdec5eb4	-0.11541501
4	0x3e8bc347	0.27297422
5	0x3e240c0a	0.16020218
6	0x3e082b24	0.13297707
7	0xbe87ca4c	-0.26521528
8	0x3e999355	0.29995218
9	0x3d179860	0.03701055
10	0x3e26e53e	0.16298386
11	0xbe746937	-0.23868261
12	0xbe07cea1	-0.13262416
13	0xbe7242ec	-0.23658341
14	0xbd2cb368	-0.042163283
15	0x3ea576a7	0.32317087
16	0x3e9128a1	0.2835131
17	0x3e434f8e	0.19073316
18	0xbe9dc5bd	-0.30814925
19	0x3e279976	0.16367134
20	0x3d4fe780	0.050757885
21	0x3e85902b	0.26086554
22	0xbe78ac50	-0.24284482
23	0xbeae1e9e	-0.34007734
24	0xbe2dc422	-0.1696935
25	0xbe960ef6	-0.2930829
26	0xbe0fefa2	-0.14056256
27	0xbe84d810	-0.25946093
28	0x3e9d5835	0.3073136
29	0x3e579512	0.2105296
30	0x3dcd14b8	0.100137174
31	0xbe1397a2	-0.14413312

bias f4 [4]
0	0xbe03b30a	-0.12861267
1	0xbdb4f104	-0.088350326
2	0xbea43da4	-0.32078278
3	0x3d93b5d8	0.07212418

weight f4 [10, 2]
0	0xbeaa090d	-0.3321003
1	0xbe18e5d4	-0.14931422
2	0x3eb06d12	0.34458214
3	0x3e6b2924	0.22964913
4	0x3ecc5696	0.3990981
5	0x3ee9f496	0.45694417
6	0xbf213001	-0.62963873
7	0x3e885ab4	0.266317
8	0x3e94c1c2	0.29054075
9	0xbf148e1a	-0.5802933
10	0xbed3508d	-0.41272393
11	0xbe954999	-0.29157713
12	0x3f30566b	0.68881863
13	0xbe7f1e1a	-0.24913827
14	0x3ecbdc56	0.3981654
15	0x3f15c5b3	0.5850479
16	0x3da21d30	0.07915723
17	0x3d669a80	0.056299686
18	0xbb54b200	-0.003245473
19	0xbe9a3df8	-0.30125403

bias f4 [10]
0	0xbf1ef697	-0.62095016
1	0x3ea6a4ee	0.32547706
2	0x3ec027de	0.37530416
3	0xbd09acc0	-0.033612013
4	0xbba11d00	-0.004916787
5	0x3e4eabe0	0.20182753
6	0x3f0788bf	0.5294303
7	0xbef38434	-0.475618
8	0x3ef39726	0.47576255
9	0x3d5c25f0	0.053747118

weight f4 [10, 2]
0	0x3e4ee8c4	0.2020598
1	0xbee5b6ec	-0.4486612
2	0x3ea30d42	0.31846052
3	0xbe38f438	-0.18061912
4	0x3e2cdd88	0.16881382
5	0x3f2ca81f	0.6744403
6	0x3f058459	0.5215507
7	0xbc8e5b00	-0.017377377
8	0x3e7a89b8	0.24466598
9	0x3f17ff5f	0.5937404
10	0xbe510aa4	-0.20414215
11	0x3eea616a	0.45777446
12	0xbe07b844	-0.13253886
13	0x3eca9f3a	0.39574605
14	0xbb336c00	-0.0027377605
15	0x3f1f7efb	0.6230313
16	0xbed62f78	-0.4183309
17	0x3ebcd7ca	0.36883384
18	0xbeaa5048	-0.33264375
19	0xbd423690	-0.047415316

bias f4 [10]
0	0xbf287232	-0.6579925
1	0xbef7c3ad	-0.48391476
2	0x3e3d7d28	0.18504775
3	0xbf31dab1	-0.6947432
4	0x3e3571c8	0.17719185
5	0x3daa60e0	0.08319259
6	0xbf109506	-0.5647739
7	0xbe6e6d2c	-0.23283833
8	0x3e24ebcc	0.16105574
9	0xbef3fe7a	-0.47655088

weight f4 [10, 2]
0	0x3e1899cc	0.14902419
1	0x3e51e5ec	0.20497864
2	0x3d85d0c0	0.065339565
3	0x3ee52f36	0.44762582
4	0xbed94a28	-0.4243939
5	0xbf3412a1	-0.70340925
6	0x3eb6f96a	0.35737163
7	0x3e0f9424	0.14021355
8	0x3f1b7937	0.60731834
9	0xbedf9f52	-0.4367624
10	0xbe11dedc	-0.1424517
11	0x3f1784c7	0.5918698
12	0xbdff8430	-0.12476385
13	0xbf122e1e	-0.5710162
14	0xbe0ac4ac	-0.13551587
15	0x3f16649d	0.58747274
16	0xbe7cb9f8	-0.24680316
17	0x3f2668b1	0.65003496
18	0x3d4071c0	0.04698348
19	0x3f1e2fb3	0.61791533

bias f4 [10]
0	0xbeaaa202	-0.33326727
1	0xbccb3940	-0.024807572
2	0xbe76d6f4	-0.24105436
3	0xbe48eb68	-0.1962105
4	0x3f009f79	0.50243336
5	0x3eceb1d6	0.40370053
6	0x3e389960	0.18027258
7	0x3ed69872	0.41913182
8	0x3e541f00	0.2071495
9	0xbf23bb5f	-0.6395778

F f4 [2, 2]
0	0x3f800000	1.0
1	0x3c23d70a	0.01
2	0x00000000	0.0
3	0x3f800000	1.0

Q f4 [2, 2]
0	0x34b2f4fc	3.3333333e-07
1	0x3851b717	5e-05
2	0x3851b717	5e-05
3	0x3c23d70a	0.01

H f4 [1, 2]
0	0x3f800000	1.0
1	0x00000000	0.0

prior_Q f4 [2, 2]
0	0x3f800000	1.0
1	0x00000000	0.0
2	0x00000000	0.0
3	0x3f800000	1.0

prior_Sigma f4 [2, 2]
0	0x00000000	0.0
1	0x00000000	0.0
2	0x00000000	0.0
3	0x00000000	0.0

m1x_0 f4 [2]
0	0xc3fe4996	-508.5749
1	0xbf6d1ab5	-0.92618877

m2x_0 f4 [2, 2]
0	0x00000000	0.0
1	0x00000000	0.0
2	0x00000000	0.0
3	0x00000000	0.0

h_S f4 [1, 500, 1]
0	0x7fc00000	nan
1	0x3f39fc50	0.72650623
2	0x3f68527c	0.9075086
3	0x3f68527c	0.9075086
4	0x3f39fc50	0.72650623
5	0x3f39fc50	0.72650623
6	0x3f39fc50	0.72650623
7	0x3f39fc50	0.72650623
8	0x3f39fc50	0.72650623
9	0x3f39fc50	0.72650623
10	0x3f39fc50	0.72650623
11	0x3f39fc50	0.72650623
12	0x3f39fc50	0.72650623
13	0x3f39fc50	0.72650623
14	0x3f39fc50	0.72650623
15	0x3f39fc50	0.72650623
16	0x3f39fc50	0.72650623
17	0x3f39fc50	0.72650623
18	0x3f39fc50	0.72650623
19	0x3f39fc50	0.72650623
20	0x3f39fc50	0.72650623
21	0x3f39fc50	0.72650623
22	0x3f68527c	0.9075086
23	0x3f39fc50	0.72650623
24	0x3f39fc50	0.72650623
25	0x3f39fc50	0.72650623
26	0x3f39fc50	0.72650623
27	0x3f39fc50	0.72650623
28	0x3f39fc50	0.72650623
29	0x3f39fc50	0.72650623
30	0x3f39fc50	0.72650623
31	0x3f39fc50	0.72650623
32	0x3f39fc50	0.72650623
33	0x3f39fc50	0.72650623
34	0x3f39fc50	0.72650623
35	0x3f39fc50	0.72650623
36	0x3f39fc50	0.72650623
37	0x3f39fc50	0.72650623
38	0x3f39fc50	0.72650623
39	0x3f39fc50	0.72650623
40	0x3f39fc50	0.72650623
41	0x3f39fc50	0.72650623
42	0x3f39fc50	0.72650623
43	0x3f39fc50	0.72650623
44	0x3f39fc50	0.72650623
45	0x3f39fc50	0.72650623
46	0x3f39fc50	0.72650623
47	0x3f39fc50	0.72650623
48	0x3f39fc50	0.72650623
49	0x3f39fc50	0.72650623
50	0x3f39fc50	0.72650623
51	0x3f39fc50	0.72650623
52	0x3f39fc50	0.72650623
53	0x3f39fc50	0.72650623
54	0x3f39fc50	0.72650623
55	0x3f39fc50	0.72650623
56	0x3f39fc50	0.72650623
57	0x3f39fc50	0.72650623
58	0x3f39fc50	0.72650623
59	0x3f39fc50	0.72650623
60	0x3f39fc50	0.72650623
61	0x3f39fc50	0.72650623
62	0x3f39fc50	0.72650623
63	0x3f39fc50	0.72650623
64	0x3f39fc50	0.72650623
65	0x3f39fc50	0.72650623
66	0x3f39fc50	0.72650623
67	0x3f39fc50	0.72650623
68	0x3f39fc50	0.72650623
69	0x3f39fc50	0.72650623
70	0x3f39fc50	0.72650623
71	0x3f39fc50	0.72650623
72	0x3f39fc50	0.72650623
73	0x3f39fc50	0.72650623
74	0x3f39fc50	0.72650623
75	0x3f39fc50	0.72650623
76	0x3f39fc50	0.72650623
77	0x3f39fc50	0.72650623
78	0x3f39fc50	0.72650623
79	0x3f39fc50	0.72650623
80	0x3f39fc50	0.72650623
81	0x3f39fc50	0.72650623
82	0x3f39fc50	0.72650623
83	0x3f68527c	0.9075086
84	0x3f68527c	0.9075086
85	0x3f68527c	0.9075086
86	0x3f68527c	0.9075086
87	0x3f68527c	0.9075086
88	0x3f68527c	0.9075086
89	0x3f68527c	0.9075086
90	0x3f68527c	0.9075086
91	0x3f68527c	0.9075086
92	0x3f68527c	0.9075086
93	0x3f68527c	0.9075086
94	0x3f68527c	0.9075086
95	0x3f68527c	0.9075086
96	0x3f68527c	0.9075086
97	0x3f68527c	0.9075086
98	0x3f68527c	0.9075086
99	0x3f68527c	0.9075086
100	0x3f68527c	0.9075086
101	0x3f68527c	0.9075086
102	0x3f68527c	0.9075086
103	0x3f68527c	0.9075086
104	0x3f68527c	0.9075086
105	0x3f68527c	0.9075086
106	0x3f68527c	0.9075086
107	0x3f68527c	0.9075086
108	0x3f68527c	0.9075086
109	0x3f68527c	0.9075086
110	0x3f68527c	0.9075086
111	0x3f68527c	0.9075086
112	0x3f68527c	0.9075086
113	0x3f68527c	0.9075086
114	0x3f68527c	0.9075086
115	0x3f68527c	0.9075086
116	0x3f68527c	0.9075086
117	0x3f68527c	0.9075086
118	0x3f68527c	0.9075086
119	0x3f68527c	0.9075086
120	0x3f68527c	0.9075086
121	0x3f68527c	0.9075086
122	0x3f68527c	0.9075086
123	0x3f68527c	0.9075086
124	0x3f68527c	0.9075086
125	0x3f68527c	0.9075086
126	0x3f68527c	0.9075086
127	0x3f68527c	0.9075086
128	0x3f68527c	0.9075086
129	0x3f68527c	0.9075086
130	0x3f68527c	0.9075086
131	0x3f68527c	0.9075086
132	0x3f68527c	0.9075086
133	0x3f68527c	0.9075086
134	0x3f68527c	0.9075086
135	0x3f68527c	0.9075086
136	0x3f68527c	0.9075086
137	0x3f68527c	0.9075086
138	0x3f68527c	0.9075086
139	0x3f68527c	0.9075086
140	0x3f68527c	0.9075086
141	0x3f68527c	0.9075086
142	0x3f68527c	0.9075086
143	0x3f68527c	0.9075086
144	0x3f68527c	0.9075086
145	0x3f68527c	0.9075086
146	0x3f68527c	0.9075086
147	0x3f68527c	0.9075086
148	0x3f68527c	0.9075086
149	0x3f68527c	0.9075086
150	0x3f68527c	0.9075086
151	0x3f68527c	0.9075086
152	0x3f68527c	0.9075086
153	0x3f68527c	0.9075086
154	0x3f68527c	0.9075086
155	0x3f68527c	0.9075086
156	0x3f68527c	0.9075086
157	0x3f68527c	0.9075086
158	0x3f68527c	0.9075086
159	0x3f68527c	0.9075086
160	0x3f68527c	0.9075086
161	0x3f68527c	0.9075086
162	0x3f68527c	0.9075086
163	0x3f68527c	0.9075086
164	0x3f68527c	0.9075086
165	0x3f68527c	0.9075086
166	0x3f68527c	0.9075086
167	0x3f68527c	0.9075086
168	0x3f68527c	0.9075086
169	0x3f68527c	0.9075086
170	0x3f68527c	0.9075086
171	0x3f68527c	0.9075086
172	0x3f68527c	0.9075086
173	0x3f68527c	0.9075086
174	0x3f68527c	0.9075086
175	0x3f68527c	0.9075086
176	0x3f68527c	0.9075086
177	0x3f68527c	0.9075086
178	0x3f68527c	0.9075086
179	0x3f68527c	0.9075086
180	0x3f68527c	0.9075086
181	0x3f68527c	0.9075086
182	0x3f68527c	0.9075086
183	0x3f68527c	0.9075086
184	0x3f68527c	0.9075086
185	0x3f68527c	0.9075086
186	0x3f68527c	0.9075086
187	0x3f68527c	0.9075086
188	0x3f68527c	0.9075086
189	0x3f68527c	0.9075086
190	0x3f68527c	0.9075086
191	0x3f68527c	0.9075086
192	0x3f68527c	0.9075086
193	0x3f68527c	0.9075086
194	0x3f68527c	0.9075086
195	0x3f68527c	0.9075086
196	0x3f68527c	0.9075086
197	0x3f68527c	0.9075086
198	0x3f68527c	0.9075086
199	0x3f68527c	0.9075086
200	0x3f68527c	0.9075086
201	0x3f68527c	0.9075086
202	0x3f68527c	0.9075086
203	0x3f68527c	0.9075086
204	0x3f68527c	0.9075086
205	0x3f68527c	0.9075086
206	0x3f68527c	0.9075086
207	0x3f68527c	0.9075086
208	0x3f68527c	0.9075086
209	0x3f68527c	0.9075086
210	0x3f68527c	0.9075086
211	0x3f68527c	0.9075086
212	0x3f68527c	0.9075086
213	0x3f68527c	0.9075086
214	0x3f68527c	0.9075086
215	0x3f68527c	0.9075086
216	0x3f68527c	0.9075086
217	0x3f68527c	0.9075086
218	0x3f68527c	0.9075086
219	0x3f68527c	0.9075086
220	0x3f68527c	0.9075086
221	0x3f68527c	0.9075086
222	0x3f68527c	0.9075086
223	0x3f68527c	0.9075086
224	0x3f68527c	0.9075086
225	0x3f68527c	0.9075086
226	0x3f68527c	0.9075086
227	0x3f68527c	0.9075086
228	0x3f68527c	0.9075086
229	0x3f68527c	0.9075086
230	0x3f68527c	0.9075086
231	0x3f68527c	0.9075086
232	0x3f68527c	0.9075086
233	0x3f68527c	0.9075086
234	0x3f68527c	0.9075086
235	0x3f68527c	0.9075086
236	0x3f68527c	0.9075086
237	0x3f68527c	0.9075086
238	0x3f68527c	0.9075086
239	0x3f68527c	0.9075086
240	0x3f68527c	0.9075086
241	0x3f68527c	0.9075086
242	0x3f68527c	0.9075086
243	0x3f68527c	0.9075086
244	0x3f68527c	0.9075086
245	0x3f68527c	0.9075086
246	0x3f68527c	0.9075086
247	0x3f68527c	0.9075086
248	0x3f68527c	0.9075086
249	0x3f68527c	0.9075086
250	0x3f68527c	0.9075086
251	0x3f68527c	0.9075086
252	0x3f68527c	0.9075086
253	0x3f68527c	0.9075086
254	0x3f68527c	0.9075086
255	0x3f68527c	0.9075086

h_Sigma f4 [1, 500, 4]
0	0x7fc00000	nan
1	0x7fc00000	nan
2	0x7fc00000	nan
3	0x7fc00000	nan
4	0x3df63eaa	0.12023671
5	0x00000000	0.0
6	0x00000000	0.0
7	0x3e25ec24	0.16203362
8	0x3e068d62	0.13139871
9	0x00000000	0.0
10	0x00000000	0.0
11	0x3e2f85b8	0.17140853
12	0x3e068d62	0.13139871
13	0x00000000	0.0
14	0x00000000	0.0
15	0x3e2f85b8	0.17140853
16	0x3df63eaa	0.12023671
17	0x00000000	0.0
18	0x00000000	0.0
19	0x3e25ec24	0.16203362
20	0x3df63eaa	0.12023671
21	0x00000000	0.0
22	0x00000000	0.0
23	0x3e25ec24	0.16203362
24	0x3df63eaa	0.12023671
25	0x00000000	0.0
26	0x00000000	0.0
27	0x3e25ec24	0.16203362
28	0x3df63eaa	0.12023671
29	0x00000000	0.0
30	0x00000000	0.0
31	0x3e25ec24	0.16203362
32	0x3df63eaa	0.12023671
33	0x00000000	0.0
34	0x00000000	0.0
35	0x3e25ec24	0.16203362
36	0x3df63eaa	0.12023671
37	0x00000000	0.0
38	0x00000000	0.0
39	0x3e25ec24	0.16203362
40	0x3df63eaa	0.12023671
41	0x00000000	0.0
42	0x00000000	0.0
43	0x3e25ec24	0.16203362
44	0x3df63eaa	0.12023671
45	0x00000000	0.0
46	0x00000000	0.0
47	0x3e25ec24	0.16203362
48	0x3df63eaa	0.12023671
49	0x00000000	0.0
50	0x00000000	0.0
51	0x3e25ec24	0.16203362
52	0x3df63eaa	0.12023671
53	0x00000000	0.0
54	0x00000000	0.0
55	0x3e25ec24	0.16203362
56	0x3df63eaa	0.12023671
57	0x00000000	0.0
58	0x00000000	0.0
59	0x3e25ec24	0.16203362
60	0x3df63eaa	0.12023671
61	0x00000000	0.0
62	0x00000000	0.0
63	0x3e25ec24	0.16203362
64	0x3df63eaa	0.12023671
65	0x00000000	0.0
66	0x00000000	0.0
67	0x3e25ec24	0.16203362
68	0x3df63eaa	0.12023671
69	0x00000000	0.0
70	0x00000000	0.0
71	0x3e25ec24	0.16203362
72	0x3df63eaa	0.12023671
73	0x00000000	0.0
74	0x00000000	0.0
75	0x3e25ec24	0.16203362
76	0x3df63eaa	0.12023671
77	0x00000000	0.0
78	0x00000000	0.0
79	0x3e25ec24	0.16203362
80	0x3df63eaa	0.12023671
81	0x00000000	0.0
82	0x00000000	0.0
83	0x3e25ec24	0.16203362
84	0x3df63eaa	0.12023671
85	0x00000000	0.0
86	0x00000000	0.0
87	0x3e25ec24	0.16203362
88	0x3e068d62	0.13139871
89	0x00000000	0.0
90	0x00000000	0.0
91	0x3e2f85b8	0.17140853
92	0x3df63eaa	0.12023671
93	0x00000000	0.0
94	0x00000000	0.0
95	0x3e25ec24	0.16203362
96	0x3df63eaa	0.12023671
97	0x00000000	0.0
98	0x00000000	0.0
99	0x3e25ec24	0.16203362
100	0x3df63eaa	0.12023671
101	0x00000000	0.0
102	0x00000000	0.0
103	0x3e25ec24	0.16203362
104	0x3df63eaa	0.12023671
105	0x00000000	0.0
106	0x00000000	0.0
107	0x3e25ec24	0.16203362
108	0x3df63eaa	0.12023671
109	0x00000000	0.0
110	0x00000000	0.0
111	0x3e25ec24	0.16203362
112	0x3df63eaa	0.12023671
113	0x00000000	0.0
114	0x00000000	0.0
115	0x3e25ec24	0.16203362
116	0x3df63eaa	0.12023671
117	0x00000000	0.0
118	0x00000000	0.0
119	0x3e25ec24	0.16203362
120	0x3df63eaa	0.12023671
121	0x00000000	0.0
122	0x00000000	0.0
123	0x3e25ec24	0.16203362
124	0x3df63eaa	0.12023671
125	0x00000000	0.0
126	0x00000000	0.0
127	0x3e25ec24	0.16203362
128	0x3df63eaa	0.12023671
129	0x00000000	0.0
130	0x00000000	0.0
131	0x3e25ec24	0.16203362
132	0x3df63eaa	0.12023671
133	0x00000000	0.0
134	0x00000000	0.0
135	0x3e25ec24	0.16203362
136	0x3df63eaa	0.12023671
137	0x00000000	0.0
138	0x00000000	0.0
139	0x3e25ec24	0.16203362
140	0x3df63eaa	0.12023671
141	0x00000000	0.0
142	0x00000000	0.0
143	0x3e25ec24	0.16203362
144	0x3df63eaa	0.12023671
145	0x00000000	0.0
146	0x00000000	0.0
147	0x3e25ec24	0.16203362
148	0x3df63eaa	0.12023671
149	0x00000000	0.0
150	0x00000000	0.0
151	0x3e25ec24	0.16203362
152	0x3df63eaa	0.12023671
153	0x00000000	0.0
154	0x00000000	0.0
155	0x3e25ec24	0.16203362
156	0x3df63eaa	0.12023671
157	0x00000000	0.0
158	0x00000000	0.0
159	0x3e25ec24	0.16203362
160	0x3df63eaa	0.12023671
161	0x00000000	0.0
162	0x00000000	0.0
163	0x3e25ec24	0.16203362
164	0x3df63eaa	0.12023671
165	0x00000000	0.0
166	0x00000000	0.0
167	0x3e25ec24	0.16203362
168	0x3df63eaa	0.12023671
169	0x00000000	0.0
170	0x00000000	0.0
171	0x3e25ec24	0.16203362
172	0x3df63eaa	0.12023671
173	0x00000000	0.0
174	0x00000000	0.0
175	0x3e25ec24	0.16203362
176	0x3df63eaa	0.12023671
177	0x00000000	0.0
178	0x00000000	0.0
179	0x3e25ec24	0.16203362
180	0x3df63eaa	0.12023671
181	0x00000000	0.0
182	0x00000000	0.0
183	0x3e25ec24	0.16203362
184	0x3df63eaa	0.12023671
185	0x00000000	0.0
186	0x00000000	0.0
187	0x3e25ec24	0.16203362
188	0x3df63eaa	0.12023671
189	0x00000000	0.0
190	0x00000000	0.0
191	0x3e25ec24	0.16203362
192	0x3df63eaa	0.12023671
193	0x00000000	0.0
194	0x00000000	0.0
195	0x3e25ec24	0.16203362
196	0x3df63eaa	0.12023671
197	0x00000000	0.0
198	0x00000000	0.0
199	0x3e25ec24	0.16203362
200	0x3df63eaa	0.12023671
201	0x00000000	0.0
202	0x00000000	0.0
203	0x3e25ec24	0.16203362
204	0x3df63eaa	0.12023671
205	0x00000000	0.0
206	0x00000000	0.0
207	0x3e25ec24	0.16203362
208	0x3df63eaa	0.12023671
209	0x00000000	0.0
210	0x00000000	0.0
211	0x3e25ec24	0.16203362
212	0x3df63eaa	0.12023671
213	0x00000000	0.0
214	0x00000000	0.0
215	0x3e25ec24	0.16203362
216	0x3df63eaa	0.12023671
217	0x00000000	0.0
218	0x00000000	0.0
219	0x3e25ec24	0.16203362
220	0x3df63eaa	0.12023671
221	0x00000000	0.0
222	0x00000000	0.0
223	0x3e25ec24	0.16203362
224	0x3df63eaa	0.12023671
225	0x00000000	0.0
226	0x00000000	0.0
227	0x3e25ec24	0.16203362
228	0x3df63eaa	0.12023671
229	0x00000000	0.0
230	0x00000000	0.0
231	0x3e25ec24	0.16203362
232	0x3df63eaa	0.12023671
233	0x00000000	0.0
234	0x00000000	0.0
235	0x3e25ec24	0.16203362
236	0x3df63eaa	0.12023671
237	0x00000000	0.0
238	0x00000000	0.0
239	0x3e25ec24	0.16203362
240	0x3df63eaa	0.12023671
241	0x00000000	0.0
242	0x00000000	0.0
243	0x3e25ec24	0.16203362
244	0x3df63eaa	0.12023671
245	0x00000000	0.0
246	0x00000000	0.0
247	0x3e25ec24	0.16203362
248	0x3df63eaa	0.12023671
249	0x00000000	0.0
250	0x00000000	0.0
251	0x3e25ec24	0.16203362
252	0x3df63eaa	0.12023671
253	0x00000000	0.0
254	0x00000000	0.0
255	0x3e25ec24	0.16203362
